saved_models/UPSCALE_X7/epoch_91.pth (torch, 139743 bytes, 6 tensors)

sequences.0.weight f4 [64, 1, 5, 5]
0.027529292 0.19644764 0.009139539 -0.09684345 0.04705302 0.17358568 0.064472266 0.09014435
0.20362979 0.1609614 -0.032810334 0.088373795 -0.092704006 0.10483467 -0.14209168 -0.17862883
-0.07879602 -0.06299885 0.07532229 0.05520429 -0.045162585 -0.13681737 -0.19183612 0.011873994
-0.027770123 -0.030965878 0.22210546 0.09410149 0.13263436 -0.19445029 0.122601315 0.046914376
-0.068585984 0.07136633 0.06884585 0.18995833 0.1556383 -0.014654874 0.22208264 -0.15897378
-0.041356344 -0.03562046 0.1651413 -0.1697278 -0.10497086 -0.12936722 -0.087178476 -0.15782388
0.16210453 0.043442942 0.06695023 0.15341681 -0.16003291 0.07175741 -0.18693781 0.010768706
-0.015455221 -0.1536615 -0.14356071 -0.012164943 0.13727885 0.17518695 -0.2035474 0.095868014
-0.07594532 -0.05151005 0.08487076 -0.14409342 0.18069683 0.18287413 0.031102445 -0.15223844
-0.050388422 -0.1495487 -0.018445563 0.1601464 -0.008620123 -0.096069776 0.04800918 0.17721312
-0.20228837 0.15358648 0.16844341 0.15277822 -0.042712837 0.086049974 -0.18125309 -0.32960388
0.07347954 -0.12723722 0.08892276 -0.039215308 0.066437215 0.019822227 -0.11695438 0.11557578
-0.152052 -0.20429493 0.11986588 0.12943795 -0.06354413 0.06701134 -0.033526808 0.03953384
-0.09140458 -0.20269828 0.19632669 -0.19521154 -0.13148397 0.039856303 -0.025239768 0.1437566
-0.060329407 -0.16817024 0.18436173 0.1500276 -0.06060751 -0.21916889 0.22533815 0.055545285
-0.064263724 -0.07599847 -0.1041463 0.14804603 -0.07508595 -0.080201685 0.12555817 -0.18180417
-0.07331167 0.14427145 -0.041132648 0.23512423 -0.247483 -0.021770392 -0.15279818 0.03868492
0.06920249 0.26745296 0.17482549 0.053237002 -0.21806525 0.090847485 0.10999658 -0.22860132
0.13927516 -0.15458193 0.13246629 -0.16424692 0.16924557 0.030764788 0.07259401 0.16349134
0.0029660899 0.010080216 -0.06411014 0.0778608 0.19912545 0.13456957 -0.23790665 -0.13997479
-0.19634199 -0.02908893 -0.2163366 0.06461508 -0.022684509 0.17458655 -0.06877177 0.14381213
-0.048609667 -0.03549956 0.13571046 0.15047505 0.061504908 0.18159817 -0.04535688 0.093053274
-0.10912117 0.08214582 -0.08909074 -0.12204751 -0.009023181 0.2750694 0.1760757 0.2099393
-0.088984124 -0.022583723 0.3074923 0.17805621 -0.045149088 0.14022572 0.09653664 0.07814078
-0.1651085 0.067423455 0.2408495 -0.17752115 -0.07635054 0.21562156 -0.008284306 0.09789443
0.15591179 0.19039242 -0.1342342 -0.17381673 0.17428437 -0.1288937 -0.22580397 0.085313275
0.14248906 -0.047163688 -0.034465723 -0.112979285 0.19748996 -0.093661346 -0.046121344 0.11721065
-0.1823718 -0.13494892 -0.13118193 0.054696772 -0.17948744 0.064155094 0.16166802 -0.1338593
-0.13711686 -0.14726599 -0.053328514 0.06630778 -0.09837567 0.15574573 0.11657616 -0.08275961
-0.16618267 -0.22317395 -0.20143025 0.119295254 0.09149449 0.2556127 0.09022623 0.0035849332
0.056748655 0.08911828 -0.030626498 0.16282624 0.1509774 0.066501476 -0.17012927 -0.013196583
0.15831642 -0.038436428 -0.11000822 0.18087398 -0.13817938 0.042843107 -0.15397829 0.12324929
00000000: 1c85 e13c 9229 493e 01be 153c dc55 c6bd
00000010: abba 403d 72c0 313e 090a 843d 9a9d b83d
00000020: 5484 503e 11d3 243e 2164 06bd 52fd b43d
00000030: 99db bdbd 8fb3 d63d 7b80 11be 7aea 36be
00000040: cf5f a1bd 8b05 81bd 9342 9a3d e51d 623d
00000050: 67fc 38bd da19 0cbe b070 44be 248b 423c
00000060: 2b7e e3bc 27ac fdbc 9d6f 633e 48b8 c03d
00000070: 4dd1 073e fa1d 47be 6616 fb3d 4a29 403d
00000080: cf76 8cbd 8328 923d 0eff 8c3d 7084 423e
00000090: a65f 1f3e ff1a 70bc a269 633e 06ca 22be
000000a0: 4565 29bd c2e6 11bd cd1a 293e 20cd 2dbe
000000b0: f6fa d6bd d778 04be a18a b2bd 959c 21be
000000c0: bbfe 253e 3af1 313d 341d 893d 4c19 1d3e
000000d0: abdf 23be 8df5 923d a06c 3fbe 3a6f 303c
000000e0: e537 7dbc 7159 1dbe 9401 13be 784f 47bc
000000f0: d492 0c3e 3564 333e bb6e 50be 7356 c43d
00000100: 3889 9bbd 34fc 52bd b9d0 ad3d 3a8d 13be
00000110: 9708 393e 5b43 3b3e 8eca fe3c 65e4 1bbe
00000120: 1764 4ebd 4b23 19be 261b 97bc 6bfd 233e
00000130: 6b3b 0dbc 3bc0 c4bd 46a5 443d 5b77 353e
00000140: af24 4fbe c645 1d3e 6e7c 2c3e e571 1c3e
00000150: a8f3 2ebd f83a b03d 699a 39be d7c1 a8be
00000160: 717c 963d 794a 02be 231d b63d 3ba0 20bd
00000170: 3c10 883d 3962 a23c c785 efbd ffb2 ec3d
00000180: 85b3 1bbe b132 51be 3e7c f53d 628b 043e
00000190: 6d23 82bd 3e3d 893d 6853 09bd 3cee 213d
000001a0: 5332 bbbd 2390 4fbe dd09 493e 89e5 47be
000001b0: bca3 06be 5d40 233d a1c3 cebc ee34 133e
000001c0: f81b 77bd d234 2cbe 52c9 3c3e d6a0 193e
000001d0: 953f 78bd cf6d 60be 0bbf 663e 7483 633d
000001e0: b39c 83bd 16a5 9bbd a84a d5bd 6199 173e
000001f0: aac6 99bd c840 a4bd 5292 003e df2a 3abe
00000200: 6e24 96bd e5bb 133e b57a 28bd 68c4 703e
00000210: 2f6c 7dbe d257 b2bc 2077 1cbe 1474 1e3d
00000220: 09ba 8d3d 98ef 883e 7405 333e 0b0f 5a3d
00000230: 7f4c 5fbe 3f0e ba3d e345 e13d 7716 6abe
00000240: 269e 0e3e ba4a 1ebe 3ea5 073e 5830 28be
00000250: b64e 2d3e 7006 fc3c 2bac 943d 466a 273e
00000260: bb62 423b 7e27 253c 2d4c 83bd 7c75 9f3d
00000270: 8be7 4b3e 9bcc 093e cd9d 73be 8d55 0fbe
00000280: e00d 49be e84b eebc 5787 5dbe e954 843d
00000290: ddd4 b9bc d1c6 323e 37d8 8cbd 7d43 133e
000002a0: ee1a 47bd fd67 11bd aff7 0a3e 2216 1a3e
000002b0: 92ec 7b3d dff4 393e 23c8 39bd b792 be3d
000002c0: ec7a dfbd 113c a83d 3575 b6bd 0cf4 f9bd
000002d0: f7d5 13bc e5d5 8c3e 304d 343e 54fa 563e
000002e0: 4f3d b6bd 8001 b9bc a16f 9d3e 5e54 363e
000002f0: 40ee 38bd 5597 0f3e 00b5 c53d 4608 a03d
00000300: 3412 29be 4f15 8a3d 40a1 763e 1bc8 35be
00000310: ac5d 9cbd e6cb 5c3e e6ba 07bc e07c c83d
00000320: 57a7 1f3e 3bf6 423e b174 09be 03fd 31be
00000330: 9a77 323e b6fc 03be 2839 67be bab8 ae3d
00000340: a7e8 113e b62e 41bd ee2b 0dbd af61 e7bd
00000350: cf3a 4a3e 85d1 bfbd bce9 3cbd 230c f03d
00000360: acbf 3abe 0d30 0abe 8e54 06be b909 603d
00000370: 8ecb 37be bf63 833d 4d8c 253e 6a12 09be
00000380: 5d68 0cbe e5cc 16be 006f 5abd 60cc 873d
00000390: 2f79 c9bd cf7b 1f3e 7bbf ee3d df7d a9bd
000003a0: ca2b 2abe b687 64be bb43 4ebe 1251 f43d
000003b0: 7761 bb3d abdf 823e 88c8 b83d 33f1 6a3b
000003c0: 4771 683d a583 b63d 6ce4 fabc ecbb 263e
000003d0: d299 1a3e ed31 883d 5e36 2ebe 7b36 58bc
000003e0: b31d 223e 846f 1dbd fd4b e1bd 0737 393e
000003f0: e57e 0dbe 417c 2f3d 7cac 1dbe 206a fc3d

sequences.0.bias f4 [64]
-0.20855957 -0.08827686 0.16020021 0.21677992 0.035620052 -0.10068064 -0.0581432 0.245354
0.18860005 -0.18770754 -0.07942205 0.24623825 -0.1001499 0.2543916 0.15540919 -0.13293877
0.053510904 -0.2204627 0.19833106 -0.06288095 -0.13826825 0.17689759 -0.060739685 -0.11784506
-0.23853849 -0.21666674 -0.23696148 0.21849594 -0.07129299 -0.2135492 0.26408416 -0.16881512
0.044632714 -0.14088328 0.19539528 -0.2412508 0.22430949 0.048036125 0.20291072 -0.041851208
-0.22998327 0.11641213 0.22021747 -0.2273606 0.029594775 0.21968079 0.1870183 -0.18916069
0.2346736 -0.1637079 -0.03029506 0.17050372 0.2227029 -0.23804821 -0.06938966 -0.2791393
0.19361407 -0.18765968 0.16660444 -0.17899583 0.016185934 -0.23974445 -0.24248834 -0.07003235
00000000: a490 55be 80ca b4bd 860b 243e 8efb 5d3e
00000010: 55e6 113d a731 cebd 9027 6ebd 143e 7b3e
00000020: 5f20 413e 6836 40be 07a8 a2bd e125 7c3e
00000030: 641b cdbd 9e3f 823e 9623 1f3e 1a21 08be
00000040: 402e 5b3d f9c0 61be 4c17 4b3e bac7 80bd
00000050: 3196 0dbe a424 353e 2dca 78bd c058 f1bd
00000060: 6f43 74be e3dd 5dbe 08a6 72be 66bd 5f3e
00000070: 0f02 92bd a4ac 5abe 0a36 873e dfdd 2cbe
00000080: cbd0 363d b543 10be b315 483e 730a 77be
00000090: 63b1 653e 87c1 443d d4c7 4f3e 2c6c 2bbd
000000a0: bc80 6bbe 7c69 ee3d b080 613e 38d1 68be
000000b0: be70 f23c 00f4 603e ba81 3f3e 57b3 41be
000000c0: 474e 703e 0ba3 27be 582d f8bc 8798 2e3e
000000d0: 3b0c 643e e9c2 73be 2b1c 8ebd 59eb 8ebe
000000e0: c442 463e dc29 40be 5b9a 2a3e af4a 37be
000000f0: 5d98 843c 927f 75be dd4e 78be 1f6d 8fbd

sequences.2.weight f4 [32, 64, 3, 3]
-0.10376478 -0.052504156 0.051695637 0.06344742 -0.064692795 0.030812943 -0.03326034 -0.014311428
0.06960038 -0.1050352 0.13002859 0.04681038 0.27738425 -0.19011304 0.08472276 -0.23500921
-0.19355737 0.13437267 0.071810484 -0.055682592 0.07383708 -0.06439325 -0.06966195 0.22224614
-0.20849162 -0.018905366 -0.01571845 -0.029129056 0.009096025 0.029837126 0.0063594882 -0.13235284
0.07966689 0.089457706 0.12884395 0.054150853 -0.118491076 -0.21866855 0.19901761 -0.2012246
0.12933667 0.18813653 -0.088453814 0.14790103 0.0044026077 -0.38611454 0.3701693 -0.025808817
0.101932116 -0.05560497 -0.09722254 -0.10956962 -0.27459458 0.44260684 0.09481408 -0.032464117
0.050139077 -0.11406417 -0.10234285 0.034717727 -0.013046689 0.1665724 0.10726086 -0.078796506
-0.010542408 0.058742817 -0.056682926 0.15825132 0.11838686 0.0996612 0.021121625 -0.0037915232
0.017936833 -0.14282869 -0.009982337 0.28733233 0.23790997 0.028242156 0.21107888 -0.37803316
-0.13899091 -0.19760923 -0.119884804 0.15570821 -0.24830987 0.13296255 -0.067958385 -0.08173286
-0.09956141 -0.023438398 0.05835372 -0.058011778 0.028484577 0.059653696 0.060343225 -0.0038496812
0.061135337 -0.005678565 -0.02291475 -0.043492198 -0.03388388 -0.023337336 -0.080670916 -0.017898634
0.07008348 0.02615315 -0.023422226 0.00685069 -0.23847379 -0.07954686 0.23277083 -0.25384986
0.38315886 0.062333323 0.29146388 -0.026170483 -0.2283114 0.007821348 0.085517064 0.23778443
0.080248706 -0.056018755 0.14277503 -0.067051746 0.014485459 -0.048024714 0.29917005 0.17695709
-0.27791992 0.009265586 -0.24910913 -0.024592936 0.27049267 -0.0506946 0.123333685 0.011551887
0.072118506 0.1272761 0.023275735 0.0009888852 0.036972854 0.111898124 0.0929386 0.17113805
0.22724196 0.033798244 0.117612146 0.21580021 -0.122085966 0.13034998 -0.0037828954 0.07534492
0.2029586 -0.11250255 0.035331234 0.04871951 0.055214237 -0.081520386 0.0079162605 -0.070950046
-0.18819271 -0.008913585 -0.062400155 0.0082795145 0.122246325 -0.0024126223 0.06993497 -0.014454866
0.15424246 0.032014437 0.005361587 0.096944794 -0.101373605 -0.03402278 -0.061886955 -0.016621137
0.026012087 0.065787695 0.12910174 -0.04460707 -0.0965567 -0.027713634 -0.05257177 0.04999233
0.15703245 -0.024407307 0.15078047 -0.03627158 -0.089975335 0.22023746 0.12460753 0.17056009
0.023223788 -0.03401408 -0.001240287 -0.11718306 0.022646545 0.06414829 -0.09951908 -0.17432481
-0.118337095 -0.12692644 0.119709685 0.072556965 -0.25638103 -0.16290428 -0.17360891 0.15817523
0.075023614 0.05039826 0.063903905 -0.11639554 -0.0153889395 -0.0035383701 -0.09911544 0.03882222
-0.015494232 -0.032388076 0.102358274 0.031962562 0.03938196 0.09967527 -0.018651536 0.08847891
-0.06283245 -0.02633073 -0.22161552 -0.25274858 0.06187168 0.14557745 0.017422246 0.2127091
-0.09134644 0.10835005 0.091506 0.041647226 -0.072657354 -0.019553628 -0.08599866 -0.06515422
-0.15096124 -0.11160379 -0.037079703 -0.013162969 0.08405833 0.029737994 0.0410611 -0.099502236
-0.034717996 -0.07367907 -0.023395639 0.057672855 0.05407934 0.06865641 0.10866771 0.053450365
00000000: a182 d4bd 990e 57bd cebe 533d b9f0 813d
00000010: a87d 84bd 6d6b fc3c ff3b 08bd 7b7a 6abc
00000020: a58a 8e3d b21c d7bd 3726 053e 3ebc 3f3d
00000030: 4f05 8e3e feac 42be 2083 ad3d 41a6 70be
00000040: e733 46be fd98 093e 6011 933d 6e13 64bd
00000050: e537 973d 9ce0 83bd edaa 8ebd 7e94 633e
00000060: d47e 55be 6ddf 9abc fbc3 80bc 0fa0 eebc
00000070: 7e07 153c fd6c f43c 4163 d03b 8187 07be
00000080: 6528 a33d 9a35 b73d abef 033e 49cd 5d3d
00000090: 73ab f2bd a6ea 5fbe 46cb 4b3e d20d 4ebe
000000a0: d570 043e dda6 403e 4627 b5bd 5e73 173e
000000b0: c043 903b ceb0 c5be d586 bd3e 036d d3bc
000000c0: c9c1 d03d 09c2 63bd 9c1c c7bd 0966 e0bd
000000d0: a997 8cbe 5d9d e23e e22d c23d 18f9 04bd
000000e0: a25e 4d3d 7a9a e9bd 2199 d1bd 2d34 0e3d
000000f0: c8c1 55bc f591 2a3e 95ab db3d 1060 a1bd
00000100: 10ba 2cbc 4f9c 703d 5b2c 68bd a20c 223e
00000110: cf74 f23d 2c1b cc3d 4207 ad3c 347b 78bb
00000120: 44f0 923c af41 12be f58c 23bc 391d 933e
00000130: ac9e 733e 185c e73c 1025 583e 908d c1be
00000140: a253 0ebe 135a 4abe 2a86 f5bd f971 1f3e
00000150: f144 7ebe 5627 083e c42d 8bbd 8f63 a7bd
00000160: dae6 cbbd e201 c0bc 4f04 6f3d c29d 6dbd
00000170: 7d58 e93c 6f57 743d 752a 773d ef4a 7cbb
00000180: 0c69 7a3d 4113 babb b7b7 bbbc e024 32bd
00000190: d3c9 0abd f12d bfbc cb36 a5bd 28a0 92bc
000001a0: ed87 8f3d 213f d63c f8df bfbc c17b e03b
000001b0: 7932 74be 77e9 a2bd 7a5b 6e3e 9cf8 81be
000001c0: 662d c43e 3a51 7f3d c13a 953e 7b63 d6bc
000001d0: 77ca 69be 1c25 003c 9223 af3d c37d 733e
000001e0: 6f59 a43d ec73 65bd 9e33 123e 6d52 89bd
000001f0: 6b54 6d3c 90b5 44bd d12c 993e 3d34 353e
00000200: 854b 8ebe afce 173c 7716 7fbe 2077 c9bc
00000210: 047e 8a3e 24a5 4fbd 5f96 fc3d 2044 3d3c
00000220: deb2 933d aa54 023e c1ac be3c 7b9d 813a
00000230: d970 173d d82a e53d 9856 be3d d03e 2f3e
00000240: 1eb2 683e 0770 0a3d a3de f03d bbfa 5c3e
00000250: 3508 fabd 777a 053e 74ea 77bb 704e 9a3d
00000260: 61d4 4f3e bd67 e6bd 7cb7 103d 1c8e 473d
00000270: 5328 623d 29f4 a6bd 34b3 013c 424e 91bd
00000280: 97b5 40be 490a 12bc 4e97 7fbd cda6 073c
00000290: 485c fa3d 161d 1ebb 113a 8f3d 1ad4 6cbc
000002a0: bcf1 1d3e 9221 033d 40b0 af3b fe8a c63d
000002b0: f79c cfbd 785b 0bbd 2d7d 7dbd 0d29 88bc
000002c0: 4d17 d53c b3bb 863d 3f33 043e e7b5 36bd
000002d0: 85bf c5bd b407 e3bc 7f55 57bd c2c4 4c3d
000002e0: 1dcd 203e d5f1 c7bc 3266 1a3e 8291 14bd
000002f0: fd44 b8bd ee85 613e 3c32 ff3d 4ea7 2e3e
00000300: d03f be3c 5952 0bbd 2091 a2ba acfd efbd
00000310: 3f85 b93c 2e60 833d a9d0 cbbd 3482 32be
00000320: b85a f2bd 01f9 01be 5a2a f53d bf98 943d
00000330: 6044 83be 61d0 26be 89c6 31be b0f8 213e
00000340: fba5 993d 686e 4e3d 0de0 823d c960 eebd
00000350: e421 7cbc 00e4 67bb 09fd cabd 0c04 1f3d
00000360: 85db 7dbc 5ca9 04bd 37a1 d13d 2deb 023d
00000370: fa4e 213d 8c22 cc3d 1bcb 98bc 6e34 b53d
00000380: 4dae 80bd 8bb3 d7bc 2eef 62be 4368 81be
00000390: 296d 7d3d 4112 153e 19b9 8e3c 6ad0 593e
000003a0: d813 bbbd a2e6 dd3d 7f67 bb3d 4896 2a3d
000003b0: 61cd 94bd ee2e a0bc 1120 b0bd 936f 85bd
000003c0: 9595 1abe 8790 e4bd e3e0 17bd 7ea9 57bc
000003d0: c626 ac3d 189d f33c af2f 283d d4c7 cbbd
000003e0: 7534 0ebd 0de5 96bd 36a8 bfbc 5f3a 6c3d
000003f0: 4c82 5d3d bb9b 8c3d 2d8d de3d c5ee 5a3d

sequences.2.bias f4 [32]
-0.020981167 -0.026843235 -0.030995185 0.031734075 -0.116599955 0.008309825 -0.002293771 -0.10975989
0.008239137 -0.037806276 -0.008022645 0.038828637 0.004650064 0.0482061 -0.12858184 -0.019377245
0.056910664 -0.004308063 -0.1263231 0.018974042 -0.022937592 0.10154033 0.0010170079 0.038151614
-0.05474068 -0.05529348 0.05756623 0.073457286 0.0063467314 -0.04172916 0.1168324 -0.12425926
00000000: b2e0 abbc 58e6 dbbc 9de9 fdbc 97fb 013d
00000010: f5cb eebd ef25 083c 1753 16bb cbc9 e0bd
00000020: 72fd 063c c1da 1abd 6971 03bc c70a 1f3d
00000030: 905f 983b c273 453d f5aa 03be 07bd 9ebc
00000040: 281b 693d a72a 8dbb d85a 01be 736f 9b3c
00000050: 9ee7 bbbc 60f4 cf3d 1f4d 853a de44 1c3d
00000060: c337 60bd 6b7b 62bd 91ca 6b3d c670 963d
00000070: 3ef8 cf3b 32ec 2abd d345 ef3d a47b febd

sequences.4.weight f4 [49, 32, 3, 3]
-0.2557226 0.12214052 0.00614086 0.07810896 0.29946312 -0.011541301 -0.05039973 -0.009278016
-0.002482853 -0.009920257 0.21481715 0.028181823 -0.03456189 0.122085415 -0.051906 -0.10588056
0.04752996 -0.036896292 -0.09314509 0.011799271 0.0019882482 0.08335926 -0.009949537 0.0764618
-0.029210918 -0.005919473 -0.044512223 -0.08366575 -0.092648745 -0.10049989 0.06261607 -0.13276567
-0.032828536 -0.03279425 -0.11157478 0.023600243 0.03357219 0.10733481 -0.016302558 0.050696276
0.11082985 -0.034941886 -0.07027464 0.06102358 0.0042632576 -0.026656754 0.023170829 -0.021882784
0.13903469 0.12574096 0.06375799 0.0038890308 0.057528682 0.019851021 -0.10625825 -0.17549185
0.05437111 -0.18467137 -0.32407367 0.022568421 0.04753726 0.051215544 0.081426434 0.05671918
0.015972104 -0.07466196 0.06688996 0.09504762 0.050717402 -0.029765697 0.0040035034 -0.029973088
-0.16736205 -0.16270214 0.021427996 -0.14022896 -0.15832965 -0.064888 -0.0502514 -0.100127816
0.037716616 0.015324855 -0.0052590035 0.023462942 0.008337261 0.01749614 0.0040871366 0.0068202475
0.04514216 -0.06292292 0.16118318 0.0863688 0.029526189 -0.023129653 -0.020987742 -0.027375368
-0.026698748 -0.012258163 -0.009577596 0.06595091 -0.03950137 -0.022824705 -0.0742943 -0.04200522
-0.014163068 0.04343796 0.055439394 0.0021916265 -0.0558166 -0.10856262 0.05789874 -0.06562754
-0.131931 0.016054492 0.030789498 -0.006234166 0.006276656 0.027883137 -0.009926712 -0.012160111
-0.10684916 -0.08157866 0.009212763 -0.0014991136 -0.014696122 0.056924116 0.06023063 0.09659671
0.013312709 0.1076941 0.1475503 -0.010263863 -0.0015414451 0.031463455 -0.057545982 0.0108256405
0.014867636 0.049444366 0.10754779 0.108092025 0.029018695 0.0037819312 -0.029601503 0.046795063
-0.3034504 -0.062279534 0.081214756 -0.21334404 -0.13418801 0.04743482 0.0596984 0.05032398
0.024127796 -0.04162592 0.03850341 -0.06446744 0.033678107 0.063391685 -0.028973758 0.002344082
0.035883594 0.043861803 0.059867866 0.0908625 0.010318527 0.090445116 0.08782362 0.07596681
-0.0015881939 -0.047854587 -0.06515459 -0.03194768 -0.12094534 -0.016887363 -0.012535443 -0.09963045
-0.005132436 0.046762016 0.0517028 0.0051936763 -0.13223575 0.139491 -0.052686546 -0.11269762
-0.028798811 -0.14984174 0.028289225 0.04986558 0.04113432 -0.01563285 -0.059414785 -0.012627082
-0.08099386 -0.11432014 -0.046468917 -0.08776832 -0.098334044 -0.02251815 -0.0034050953 0.020211224
0.03896306 -0.045363907 0.13299747 0.014126939 -0.024886876 0.03238779 0.03836974 0.030530429
-0.05011843 -0.025836222 -0.027574426 -0.12956457 -0.07734218 -0.023339527 -0.048007865 -0.03244249
0.033959866 0.011908165 0.009382259 0.07893997 0.05019558 0.022853125 -0.05240642 0.008215612
-0.005856054 0.07624228 0.08763537 -0.035575602 0.0036155626 0.06664795 -0.04629634 -0.034940217
0.080612786 0.031220652 -0.22953905 -0.11776698 0.07580827 -0.22958644 -0.17541265 0.05718252
0.082483694 0.104505174 0.0367508 -0.037049238 -0.06357732 0.016351473 0.038889814 -0.090984985
-0.0012810832 -0.04975492 0.0018298388 -0.05303714 0.03653373 0.031449966 -0.07159003 -0.11257227
00000000: 13ee 82be cf24 fa3d 4439 c93b 97f7 9f3d
00000010: 3b53 993e ba17 3dbc f36f 4ebd d202 18bc
00000020: 5cb7 22bb 9388 22bc 07f9 5b3e 91dd e63c
00000030: c590 0dbd eb07 fa3d 639b 54bd e8d7 d8bd
00000040: c6ae 423d 9120 17bd dac2 bebd bb51 413c
00000050: 454d 023b 42b8 aa3d 6203 23bc 0198 9c3d
00000060: bc4b efbc 23f8 c1bb 7352 36bd f358 abbd
00000070: a0be bdbd e3d2 cdbd db3c 803d b9f3 07be
00000080: 3777 06bd 4353 06bd 5181 e4bd 4c55 c13c
00000090: fe82 093d 5ad2 db3d f18c 85bc e6a6 4f3d
000000a0: c3fa e23d 391f 0fbd 27ec 8fbd ddf3 793d
000000b0: ccb2 8b3b 445f dabc c0d0 bd3c 8643 b3bc
000000c0: 1c5f 0e3e 3dc2 003e 8d93 823d 1cdf 7e3b
000000d0: 32a3 6b3d 9c9e a23c ed9d d9bd 23b4 33be
000000e0: 3eb4 5e3d 7e1a 3dbe fcec a5be 69e1 b83c
000000f0: 6eb6 423d 64c7 513d e7c2 a63d 5f52 683d
00000100: eed7 823c 5fe8 98bd 9afd 883d 54a8 c23d
00000110: 0dbd 4f3d 31d7 f3bc d22f 833b 1f8a f5bc
00000120: f560 2bbe 649b 26be c489 af3c 2e98 0fbe
00000130: 2b21 22be 00e4 84bd 69d4 4dbd d00f cdbd
00000140: bd7c 1a3d 1a15 7b3c b853 acbb 5b35 c03c
00000150: 0299 083c 1154 8f3c 63ed 853b 627c df3b
00000160: fce6 383d bbdd 80bd 340d 253e 20e2 b03d
00000170: e8e0 f13c 667a bdbc 7cee abbc 4f42 e0bc
00000180: 55b7 dabc 76d6 48bc 59eb 1cbc 4511 873d
00000190: 30cc 21bd e0fa babc 9c27 98bd aa0d 2cbd
000001a0: 360c 68bc 01ec 313d 6b14 633d 64a1 0f3b
000001b0: f29f 64bd 1456 debd 3b27 6d3d bb67 86bd
000001c0: ec18 07be b684 833c 423a fc3c fa47 ccbb
000001d0: 68ac cd3b 2d6b e43c a6a3 22bc 343b 47bc
000001e0: bbd3 dabd b612 a7bd 21f1 163c e87d c4ba
000001f0: 01c8 70bc 4329 693d 65b4 763d 7fd4 c53d
00000200: 8c1d 5a3c b98e dc3d 6d17 173e c329 28bc
00000210: 510a caba d3df 003d 56b5 6bbd 075e 313c
00000220: 6397 733c 2d86 4a3d 0442 dc3d 5a5f dd3d
00000230: 9db8 ed3c 47da 773b da7e f2bc 2eac 3f3d
00000240: da5d 9bbe d318 7fbd ec53 a63d dc76 5abe
00000250: 9568 09be 044b 423d 4f86 743d 8520 4e3d
00000260: a8a7 c53c f17f 2abd c0b5 1d3d 8107 84bd
00000270: 0ef2 093d 80d3 813d 605a edbc 2c9f 193b
00000280: adfa 123d 6fa8 333d 0238 753d 1e16 ba3d
00000290: 0a0f 293c 4a3b b93d dfdc b33d 7d94 9b3d
000002a0: f22a d0ba 2c03 44bd c56f 85bd 92db 02bd
000002b0: 31b2 f7bd 5e57 8abc 7561 4dbc 0d0b ccbd
000002c0: fe2d a8bb 8789 3f3d 51c6 533d b72f aa3b
000002d0: cf68 07be bbd6 0e3e d9cd 57bd 03ce e6bd
000002e0: 7ceb ebbc 1d70 19be cebe e73c da3f 4c3d
000002f0: 767c 283d 7610 80bc eb5c 73bd d2e1 4ebc
00000300: 1ce0 a5bd ad20 eabd 3156 3ebd e1bf b3bd
00000310: 5c63 c9bd fc77 b8bc 0528 5fbb 0292 a53c
00000320: bb97 1f3d 81cf 39bd 7d30 083e ad74 673c
00000330: 90df cbbc 0fa9 043d 9729 1d3d f31a fa3c
00000340: fc48 4dbd 7ca6 d3bc c3e3 e1bc 93ac 04be
00000350: 9465 9ebd 8932 bfbc e5a3 44bd 6be2 04bd
00000360: 8019 0b3d 771a 433c 0cb8 193c 47ab a13d
00000370: e199 4d3d 7a36 bb3c 1da8 56bd c69a 063c
00000380: 24e4 bfbb ea24 9c3d 2c7a b33d b9b7 11bd
00000390: 13f3 6c3b b87e 883d 3ba1 3dbd 791d 0fbd
000003a0: 5118 a53d 74c2 ff3c 490c 6bbe d02f f1bd
000003b0: 5e41 9b3d b518 6bbe 609f 33be 3838 6a3d
000003c0: 36ed a83d cf06 d63d 0288 163d f1c0 17bd
000003d0: d334 82bd 86f3 853c ed4a 1f3d 5656 babd
000003e0: 05ea a7ba d1cb 4bbd 34d7 ef3a 793d 59bd
000003f0: 64a4 153d aed1 003d cb9d 92bd 4a8c e6bd

sequences.4.bias f4 [49]
-0.0014978262 -0.056282885 -0.05234745 0.006229791 -0.026231674 -0.00449236 -0.029909547 -0.031121703
-0.039397392 -0.036207646 -0.028623192 -0.0034241423 -0.05562818 -0.014073668 0.0044693197 -0.036618337
-0.0133436555 -0.033894006 -0.036645666 0.010329778 -0.048596907 -0.014694232 -0.012383832 0.018431073
-0.050875366 -0.049965493 -0.011076243 0.043140892 -0.04177341 -0.017092725 0.024913577 -0.019978482
-0.026253002 -0.0083412975 0.0200564 -0.0114542665 -0.023083834 -0.039736215 0.01785409 -0.008381526
0.0068726665 0.041898157 -0.019302575 -0.032672282 -0.018552594 -0.0046333726 -0.043491587 -0.026125195
0.017582962
00000000: b552 c4ba e288 66bd 486a 56bd 4623 cc3b
00000010: cfe3 d6bc a634 93bb de04 f5bc f1f2 febc
00000020: 295f 21bd 784e 14bd 2f7b eabc 9367 60bb
00000030: 60da 63bd 3e95 66bc 5f73 923b 1cfd 15bd
00000040: 599f 5abc 71d4 0abd c419 16bd 3b3e 293c
00000050: 8d0d 47bd 13c0 70bc 8ee5 4abc c3fc 963c
00000060: b062 50bd 9ea8 4cbd 2179 35bc 81b4 303d
00000070: 981a 2bbd 0b06 8cbc 8f17 cc3c eaa9 a3bc
00000080: 8910 d7bc f0a9 08bc 524d a43c adaa 3bbc
00000090: 4f1a bdbc 71c2 22bd be42 923c ab52 09bc
000000a0: 1b34 e13b 679d 2b3d 6f20 9ebc 5fd3 05bd
000000b0: 9cfb 97bc 8cd3 97bb 3c24 32bd 8104 d6bc
000000c0: 250a 903c
