saved_models/UPSCALE_X7/epoch_37.pth (torch, 139743 bytes, 6 tensors)

sequences.0.weight f4 [64, 1, 5, 5]
00000000: f50f c33c 03b7 443e 3194 623c e374 c5bd
00000010: 2a32 363d 1053 2d3e 8681 593d df14 ac3d
00000020: 9ac8 473e a848 213e 8bb6 e1bc 20ff b13d
00000030: 4a22 babd bcc6 cb3d ea95 0ebe d4a4 37be
00000040: e7cc a0bd dff6 7dbd 4284 943d cfd4 5b3d
00000050: aa00 47bd 6669 11be 240c 44be d697 163c
00000060: 6ebd d9bc 07ab 1abd fe44 583e ca0f b53d
00000070: ea6b 023e 968f 4bbe fdd9 f23d 528f 1a3d
00000080: 0806 90bd a0e3 803d 370e 8a3d 6cb8 413e
00000090: 238f 173e 63fa 90bc e2e5 5c3e 44c1 1ebe
000000a0: 3e56 2cbd 6941 16bd 39a0 253e 484e 2ebe
000000b0: f227 d8bd 385d 0cbe 9f3d bebd 0af9 21be
000000c0: 8e94 213e 4034 353d 57ea 873d b34c 133e
000000d0: 4bb7 2dbe e0c9 8b3d 4693 3dbe 68f3 4f3c
000000e0: 8317 a4bc 4c71 14be 2860 0fbe 1dfc 4bbc
000000f0: a647 043e b6f0 273e f607 43be 5159 b73d
00000100: ec4a 9abd eb3e 4dbd 6e1f a73d 3607 13be
00000110: b53f 303e 1526 3f3e 94fa fb3c ca05 1fbe
00000120: 4f95 4cbd 0dc8 1cbe 2033 83bc ee6e 2b3e
00000130: 9f41 3dbb 07f2 bcbd 1e5e 443d 340c 303e
00000140: 5fe1 45be f757 173e 1624 183e 7fef 0d3e
00000150: 3dda 3bbd a829 9f3d 99e8 38be 0afa 95be
00000160: 9d60 9c3d cb9f ffbd 8830 b43d 43af 10bd
00000170: ba38 813d bb93 df3b 4b19 ecbd 2d37 d83d
00000180: 7fe5 19be 9dc9 49be 48c7 dd3d 9023 0a3e
00000190: 5acc 6ebd 6477 833d 6af1 28bd 5521 1a3d
000001a0: 30d1 c2bd 09d2 48be 2ef1 423e a01d 43be
000001b0: 5050 fdbd 892d 243d 698d c8bc 5e29 063e
000001c0: 47fe 4dbd 6710 27be d3ae 353e 69ba 193e
000001d0: 775f 77bd c7f1 52be e1dc 593e 2b59 5e3d
000001e0: 59b4 60bd 4ff0 90bd 0463 dbbd 8593 0f3e
000001f0: 4ff4 95bd 6147 afbd b66c e33d e548 3cbe
00000200: ffd9 aebd aa93 0d3e 03fd 20bd c8a7 6d3e
00000210: 3530 65be 4de6 44bc fe11 1bbe 3a40 363d
00000220: 1467 693d d943 733e 7b7b 2b3e 8a61 6f3d
00000230: 8d47 56be 7a00 c03d 1e04 f43d 15fa 5abe
00000240: 9f72 133e 5147 1ebe 10a4 063e f680 20be
00000250: 9aa7 353e 8ece f73c 738c a33d ded2 283e
00000260: 59d2 363c 56a5 903c 9b93 92bd b366 9a3d
00000270: c5ad 3a3e 1343 023e cbcf 6cbe d519 0ebe
00000280: bb0f 44be ec21 83bc 2514 47be c3e3 893d
00000290: 33c6 bbbc 08da 2b3e 6510 92bd a6e5 0d3e
000002a0: 69b8 78bd 32cb 20bd 5c37 083e 3eed 1a3e
000002b0: 9c36 783d a655 383e c404 12bd 9a1f c93d
000002c0: 793b 0ebe 6f6b a43d e811 88bd 4d74 0abe
000002d0: 2b73 9c3c 5670 803e b963 093e 9b46 733e
000002e0: 3739 84bd 8120 1ebc 3e94 863e 1740 153e
000002f0: e09e 18bd be9e 003e f2f0 da3d 86c2 793d
00000300: 988f 2dbe 3869 2a3d 70b4 5a3e d01c 1ebe
00000310: 3bdc a6bd 5f13 533e 29fc 9fbc a9b8 e43d
00000320: a259 1b3e 9b74 413e ce34 0dbe 4685 33be
00000330: 06af 363e 7d0e fabd 48a6 55be ad82 b63d
00000340: d69a 103e 0523 36bd da4b 1ebd eca9 debd
00000350: 6f0a 383e 2532 c2bd 11bc 44bd 3712 e73d
00000360: 514e 3bbe 1d7d 04be c06f f7bd 6730 5c3d
00000370: 34e5 2fbe 2993 903d 689a 223e 381b 05be
00000380: 9e35 11be 74e6 19be 4efe 72bd a29b 6f3d
00000390: 572d d1bd a274 193e 4f24 f93d 0688 93bd
000003a0: efa2 1dbe cc45 55be 9b5b 4ebe 4be8 f73d
000003b0: 7004 b53d 4fa0 743e f9e1 bb3d 8688 093c
000003c0: 089d 693d a311 bf3d 866b d0bc 8fc8 233e
000003d0: defc 1c3e 788c 843d 2108 2bbe 52c0 a0bb
000003e0: 5281 283e 72fa 1bbd 516a c7bd 1cb0 493e
000003f0: 502e 04be d705 573d c091 0fbe 57a1 063e
0.02381132 0.19210438 0.013829277 -0.09641435 0.044481434 0.16926217 0.05310204 0.08402418
0.19510117 0.15750372 -0.027552864 0.08691239 -0.09088571 0.09950015 -0.13924375 -0.1793397
-0.07851582 -0.062003013 0.07251789 0.053669747 -0.048584618 -0.14200363 -0.19145256 0.009191474
-0.026579585 -0.03776076 0.21120068 0.08840902 0.12736478 -0.19878992 0.11857984 0.037734337
-0.070324 0.06293416 0.067409925 0.18918008 0.14800696 -0.017697519 0.21572068 -0.15503412
-0.042074434 -0.036683474 0.16174401 -0.1702205 -0.10554494 -0.13707435 -0.09289097 -0.15817657
0.15779325 0.044239283 0.06636494 0.14384727 -0.16964452 0.06825614 -0.18513212 0.01269231
-0.020030743 -0.14496344 -0.14001524 -0.012450245 0.12917957 0.16400418 -0.19046006 0.08952583
-0.075338215 -0.05010883 0.081602916 -0.1435822 0.17211802 0.18666871 0.030759133 -0.15529552
-0.04994708 -0.15310688 -0.01601559 0.16741535 -0.0028878225 -0.092258506 0.04794132 0.17192155
-0.19324253 0.1477965 0.14857516 0.13860892 -0.045862425 0.07771617 -0.18057479 -0.29292327
0.07635615 -0.1248165 0.08798319 -0.035323393 0.06309648 0.0068230308 -0.11528262 0.10557399
-0.15028952 -0.19705816 0.108290255 0.13490129 -0.058300354 0.06419256 -0.041245855 0.037629444
-0.095125556 -0.19611372 0.19037315 -0.1905427 -0.12368834 0.04008249 -0.024481492 0.13101718
-0.050291326 -0.16314851 0.17742471 0.15012516 -0.060393777 -0.20600043 0.21275665 0.054284256
-0.054859493 -0.07077085 -0.10712245 0.14021118 -0.07321989 -0.08558536 0.11104719 -0.18387182
-0.08537673 0.1382586 -0.03930379 0.23208535 -0.22381671 -0.012017799 -0.15143582 0.044494845
0.05698307 0.2375635 0.16746323 0.05844263 -0.20925732 0.09375091 0.11914848 -0.21384461
0.14399193 -0.15456893 0.13148522 -0.15674195 0.17739716 0.03024986 0.07985773 0.1648669
0.011158549 0.017656963 -0.0715706 0.075391196 0.1823035 0.127209 -0.23126142 -0.13877042
-0.19146626 -0.016007386 -0.19441278 0.06732895 -0.022921657 0.16782391 -0.07132033 0.13857135
-0.060722742 -0.039256282 0.13302368 0.15129563 0.060598955 0.18001422 -0.035649076 0.09820481
-0.13889875 0.08028304 -0.0664404 -0.13520928 0.019097885 0.25085706 0.13416947 0.23757403
-0.06456225 -0.009651304 0.26284975 0.1457523 -0.03726089 0.12560555 0.10690488 0.060976528
-0.16949308 0.04160425 0.21357894 -0.15440679 -0.081474744 0.20612858 -0.019529419 0.11168034
0.15170911 0.18892138 -0.13789675 -0.17531309 0.17840204 -0.12209795 -0.20864213 0.08911643
0.14121565 -0.04446699 -0.038646556 -0.10872254 0.1797273 -0.094822206 -0.048030917 0.11282771
-0.18291594 -0.12938352 -0.120818615 0.053757098 -0.17177278 0.070593186 0.15879214 -0.12998664
-0.1418061 -0.15029317 -0.059324555 0.058498032 -0.10213726 0.14985898 0.121651284 -0.07203679
-0.15394185 -0.20827407 -0.20152132 0.12104853 0.08838737 0.23889278 0.0917396 0.008394366
0.057034522 0.09329536 -0.025441896 0.15994476 0.15330836 0.06472105 -0.1670232 -0.004905739
0.16455582 -0.03808064 -0.09737075 0.19696087 -0.12908292 0.052495804 -0.14020443 0.13147484

sequences.0.bias f4 [64]
00000000: b1f1 4bbe f11b b0bd 8663 1a3e 7ea1 423e
00000010: 7134 eb3c fdbc c4bd c55a 4fbd 8666 5c3e
00000020: d7a2 3b3e 7978 38be ab3b 96bd e01e 6e3e
00000030: 8155 afbd 0719 763e 6d38 0d3e 683d b8bd
00000040: b051 513d 5415 59be 75a9 423e b73c 6dbd
00000050: 0a15 e3bd 4ba1 203e 2e24 91bd b703 dfbd
00000060: 859b 56be 4b42 54be 8796 50be d831 483e
00000070: 3390 67bd e146 4fbe 8527 743e 39d2 25be
00000080: f577 1d3d 91a6 fcbd 7031 353e be96 5dbe
00000090: ff88 5e3e d2d3 213d 359b 453e d8dd 27bd
000000a0: 46e8 5ebe 9cb4 e53d 5f42 553e 5aea 5cbe
000000b0: a994 163d e2c2 573e 501d 333e 3e6c 40be
000000c0: 46c0 593e d9b9 22be a251 10bd a251 0b3e
000000d0: ad1c 563e a457 68be 4d62 83bd 8ba1 67be
000000e0: a75b 413e a59a 2dbe f263 183e 6b1b 2fbe
000000f0: d929 063d bc8f 68be 509e 6bbe 742b 57bd
-0.19916417 -0.085990794 0.15077028 0.19006917 0.02871153 -0.09606359 -0.050623674 0.21523485
0.18323837 -0.18014707 -0.073355995 0.23253965 -0.085612305 0.24032985 0.13791056 -0.08996087
0.051103294 -0.21199542 0.19009955 -0.05791923 -0.11087997 0.15686528 -0.07086979 -0.108893804
-0.20957763 -0.20728414 -0.20369922 0.19550264 -0.056534003 -0.20241882 0.238432 -0.16193475
0.038444478 -0.123364575 0.1769464 -0.21639535 0.21731947 0.03950865 0.19297488 -0.04098305
-0.21768293 0.11216089 0.208261 -0.21573773 0.036762867 0.21070436 0.1749165 -0.18791291
0.21264753 -0.15891208 -0.0352341 0.13605359 0.20909376 -0.22689682 -0.06415234 -0.22620218
0.18882619 -0.16953523 0.14881876 -0.17100303 0.032754753 -0.2271108 -0.2300961 -0.052531675

sequences.2.weight f4 [32, 64, 3, 3]
00000000: 82cb c9bd 5d81 b4bc bcc7 373b e6f9 253d
00000010: 6fbc 95bd 5c4a 22b9 a15a a03b efe4 01bc
00000020: 522e c23d 142a a7bd e47c c83d c71d 1e3d
00000030: e0e0 4a3e bdc9 1ebe 3ece b33d 1fba 25be
00000040: 17b7 23be 6a13 253e 8d6f 9f3d 3eeb febb
00000050: a54e ca3d b195 d1bd 960b 9bbd 17f9 373e
00000060: 49eb 31be 156a 87bd 7544 883b 11db 0fbc
00000070: e956 fabb d424 283d fcfe 88bb 2237 c6bd
00000080: 5daa b13c b9c3 ce3d 14e0 d43d a9ae b33d
00000090: b96e b9bd 868b 1bbe a7bc 223e 2acb 38be
000000a0: 2427 f13d ffa5 283e f532 d6bd f7d5 e73d
000000b0: 67c2 51bd 96d0 adbe d334 973e 42b3 86bc
000000c0: 4152 8c3d c335 05bd add0 b5bd 4f0b 29be
000000d0: 73ca 7dbe 248f b43e 667e 5d3d 710d 3bbd
000000e0: d8d5 7b3d 6318 94bd ae93 1ebd 4557 553d
000000f0: 530e 1bba 9e3d 1e3e bc99 2c3e df4d 90bd
00000100: afe2 4cbc 2993 553d 179e a1bd af6a 063e
00000110: d672 d83d 6c3d a93d c19f 233c 266a 6dbc
00000120: 1a72 c93d b2cf c0bd 6b38 cbbc e43d 883e
00000130: f8b0 2b3e 3da8 31bd 50c6 6e3e 0040 76be
00000140: b46b 02be f0ad 3abe 3e25 b6bd 703c 063e
00000150: 9f0f 62be 20ca e23d be2f 36bd 7afa 08be
00000160: 4830 0dbe a3cc 77bd ac85 9d3c 080c c7bc
00000170: 3add d43c c651 5b3d 3439 7b3d 8f5d 133c
00000180: aecd 053d 062a e6ba bb8a 43bc 951e 2ebd
00000190: 6571 3cbd 6e28 64bc f08c 94bd 4525 03bd
000001a0: c02b 8e3d 66f4 6c3c ee49 e4bc b66a 6d3c
000001b0: 7c02 6cbe 986a 71bd 4034 6b3e 75a9 4abe
000001c0: b3ce ad3e cd55 dc3d 53db 6a3e cd9b 62bd
000001d0: f59f f3bd 25e7 b53d d38b 633d 12b3 643e
000001e0: 3a84 7f3d aad1 65bd 3152 093e 04eb 80bd
000001f0: 7b59 abbc 3f98 b23b 37b3 823e 05cb 0f3e
00000200: 8d9f 70be 819d 9b3d 9741 64be 175e 00bd
00000210: 41f5 4e3e 95aa b3bc 645d c23d 2429 733d
00000220: d356 f93d 4c03 f83d 57b5 1e3d f1dd 7e3d
00000230: 4a84 603d d3c0 a13d 3b77 b83d c39a dc3d
00000240: 5eab 873e d473 673d 25f9 e13d 9dae 2c3e
00000250: 6a37 fdbd e68a fc3d 8982 e3bb c4b7 d03d
00000260: d513 323e bc55 f3bd 6bd6 663d 953f 763d
00000270: 1e61 33bc 4c75 18bd 0ee7 0b3d 05fc e4bd
00000280: 1889 45be 2277 2bbd 9f83 58bd 978f 273c
00000290: ba72 bd3d 48de ca3b bfa5 403d cbb5 46bb
000002a0: b957 d93d a6bd 8bba 8133 15bd 7c5f 673d
000002b0: 60b1 a2bd d5f1 bdbc 7df4 87bd 61ea cebc
000002c0: d552 f33c 01e7 f33d d603 1c3e fe05 213d
000002d0: 0434 59bd 674c 62bb 3bbc 50bd 1df7 8d3c
000002e0: 981d cf3d f1b7 b8bc c904 b43d 6757 9ebc
000002f0: 6728 f5bd 5638 443e 6c08 8a3d a3e2 043e
00000300: 8f55 253d e7ac 85bb 9c2a babc c6b7 26be
00000310: 0f99 823c b26d 1f3d a129 f1bd 7c88 07be
00000320: 0c3e 18bd 09f9 fdbd 70c8 993d 1afc 803d
00000330: 8b66 31be c075 f6bd 0466 d8bd 73df 023e
00000340: a7f9 993d ab55 d23c b54b 6b3d d285 aabd
00000350: 3939 0bbd e942 31bd 3e12 d6bd 8787 f53c
00000360: 7d2c 21bc a436 f4bc ba21 cc3d 0444 db3b
00000370: bc2b 403d 1d9c ca3d 045c 22bd dee9 723d
00000380: 2296 e2bc 716b 17bd 92b6 1ebe 8397 fbbd
00000390: a8ac ec3c 8d15 f53d dfba 8e3d c305 fd3d
000003a0: 8589 663c 0578 b93d b26a 5a3d fc1e f43c
000003b0: 2aa7 b2bd 20fc 07bb c2d9 8ebd c131 9ebd
000003c0: fc53 fdbd b465 d5bd ec0a 55bd a7cb 933c
000003d0: 8e03 8a3d d2b7 0f3c cb9d 1a3d 7041 97bd
000003e0: b8a9 36bd a3f3 82bc 88b4 efbb 3a13 793d
000003f0: 7b60 573d 4acd 8d3d 5c45 b23d 9ea4 8a3d
-0.09853269 -0.022034341 0.0028042635 0.040521525 -0.073113315 -0.00015477225 0.0048936163 -0.007928117
0.09481491 -0.08162323 0.09789446 0.038602617 0.19812346 -0.15506645 0.08779572 -0.16184281
-0.15987812 0.16120687 0.077849485 -0.007779508 0.098782815 -0.102336295 -0.07570569 0.17966114
-0.1737491 -0.066120304 0.0041585513 -0.008780257 -0.007639755 0.041050747 -0.004180787 -0.096784845
0.02168768 0.10095925 0.10394302 0.08773548 -0.09054322 -0.15189943 0.15892278 -0.18046251
0.117750436 0.16469572 -0.10458938 0.113201074 -0.051210787 -0.339482 0.2953249 -0.016442899
0.06851626 -0.032521974 -0.08877692 -0.1650822 -0.2478426 0.35265458 0.05407562 -0.045667116
0.061483234 -0.07231214 -0.038715057 0.05208518 -0.0005914915 0.15453193 0.1685552 -0.07046103
-0.012505217 0.052142296 -0.07891481 0.13126634 0.10568778 0.082636684 0.009986819 -0.01449064
0.09836216 -0.09414615 -0.024807176 0.2660972 0.16766727 -0.043373335 0.23317838 -0.24047852
-0.12736398 -0.18230414 -0.08893822 0.13108993 -0.22076271 0.110737085 -0.044479124 -0.13376799
-0.13787949 -0.06049789 0.019228779 -0.02429773 0.025984395 0.053544782 0.06133385 0.008994474
0.032666855 -0.0017560131 -0.011934931 -0.042509634 -0.04600658 -0.013925655 -0.07253444 -0.032017965
0.069419384 0.014462566 -0.027867284 0.014490774 -0.23047823 -0.058939546 0.2296915 -0.19791205
0.3394676 0.10758553 0.22935228 -0.055324364 -0.11895744 0.08881978 0.05555327 0.22333935
0.06238196 -0.056108154 0.1341026 -0.06294826 -0.020916691 0.005450278 0.25527355 0.1404229
-0.23498364 0.07598401 -0.22290646 -0.03133973 0.20210744 -0.021931926 0.09490469 0.059365407
0.121747635 0.12110004 0.038747158 0.06222338 0.05481366 0.078981064 0.090071164 0.10771706
0.2649793 0.056506947 0.11033849 0.16863485 -0.12364085 0.1233118 -0.0069430512 0.101913005
0.17390378 -0.11881587 0.05635683 0.06011923 -0.0109484475 -0.037221238 0.034155898 -0.111808814
-0.19290578 -0.04186166 -0.0528599 0.010227106 0.09250398 0.006191049 0.047033068 -0.003032076
0.10612435 -0.0010661378 -0.03642607 0.056487545 -0.07943988 -0.023186604 -0.06638429 -0.025258245
0.029702583 0.11909295 0.15235838 0.039312355 -0.05302812 -0.0034530403 -0.05096076 0.017329747
0.101130664 -0.022548648 0.08789975 -0.019328786 -0.11970597 0.19162115 0.067398876 0.1297708
0.0403648 -0.0040794495 -0.022725396 -0.16281042 0.015942125 0.038922973 -0.11775518 -0.13235658
-0.037168548 -0.12401015 0.075089335 0.062980846 -0.17324273 -0.12034178 -0.10566333 0.12780552
0.075183205 0.025675615 0.057445247 -0.083263054 -0.03399012 -0.0432767 -0.10452698 0.029971851
-0.009837267 -0.02981121 0.0996737 0.0066914577 0.04691671 0.098930575 -0.039638534 0.059305064
-0.02765948 -0.0369677 -0.15499333 -0.12284758 0.028890923 0.11967001 0.069692366 0.123546146
0.014070873 0.09056095 0.05332441 0.02979993 -0.0872329 -0.0020749643 -0.06975128 -0.077243336
-0.123695344 -0.10419789 -0.05201237 0.018041445 0.06738959 0.0087718535 0.03774814 -0.07385528
-0.04459545 -0.015985316 -0.007315222 0.06080935 0.052582245 0.069239214 0.087046355 0.067696795

sequences.2.bias f4 [32]
00000000: f853 e7bc bd37 efbc 2bd2 c4bc 1306 f93c
00000010: 72b9 bbbd 099a d73b b903 613c ce3c 8fbd
00000020: d2e3 ee3c 3c19 1abd d76e a1bc 6621 ff3c
00000030: f48d 123c d5f8 453d 8e04 d7bd 7dc0 e1bc
00000040: 5eae 143d 2783 1abc 5970 c6bd 429f 9f3c
00000050: 97aa 8cbc 3166 943d 7a97 e4ba 3ab7 263d
00000060: 6574 3fbd b972 74bd a205 a83d c9f0 973d
00000070: 580f c23b 674c 27bd 3ad3 c93d b167 f9bd
-0.028238282 -0.029201383 -0.024025997 0.030398404 -0.0916623 0.0065796417 0.013733798 -0.069940194
0.029161368 -0.03762172 -0.019706173 0.031143855 0.008944977 0.048333008 -0.104989156 -0.027557606
0.036299102 -0.009430683 -0.09689397 0.01948512 -0.017171187 0.07246054 -0.0017440163 0.040702082
-0.04674186 -0.05967972 0.082041994 0.07418973 0.0059222393 -0.040844347 0.098547414 -0.12177981

sequences.4.weight f4 [49, 32, 3, 3]
00000000: e3ab 74be 749c d63d f4eb 883c 52d7 873d
00000010: ff13 923e d0ff 143d 1f80 85bd c48c 053d
00000020: a1d8 9e3b bd50 943c f696 203e a1c7 9c3d
00000030: 2158 64bc f5f1 2b3e 1bdf a8ba 3182 02bd
00000040: d788 043d 8562 403d 187b 6dbd 80f7 67bd
00000050: 17c1 26bc f0c8 5a3d 6724 12bd c528 6a3d
00000060: 7129 bcbb cc0e 173c 6845 06bd d4ad 17bd
00000070: 8216 84bd 7872 00bd 339c bb3c 7df0 17be
00000080: d8eb 2cbd 66d0 15bc fb08 c8bd 7934 d23a
00000090: 5662 123d 39f0 cd3d 3776 4c3b 608d 033d
000000a0: b159 b83d d912 6fbc 1b7a 72bd bce3 9a3d
000000b0: 50e1 933c df94 b1bc a324 4bbb 87e4 23bd
000000c0: 5793 d63d 0181 bd3d 8b3f 913d d0d4 71bc
000000d0: 12ae 1e3d ac50 e43c d73a 8cbd 1c46 1bbe
000000e0: c4ba 0f3d 4832 06be bf37 92be 11a6 c83b
000000f0: 41bb b03c 419a ba3c b2bd d23d 9cef 253d
00000100: cbf3 21b8 ec0d 7dbd cd9c 063d b9ec 963d
00000110: b247 8b3d 34d1 fcbb 6c12 013d 9e11 53bc
00000120: bcb4 febd 8872 e4bd 6553 743c 3222 14be
00000130: c9d4 24be 3a14 97bd ecc2 68bd 9d15 dbbd
00000140: 15c6 9b3c 333c 5e3c b685 98bc e756 2ebc
00000150: cc11 913c e91e f33c 823f 9e3b 1bb8 f03c
00000160: 8915 753d fb97 56bd 5c26 003d f361 773d
00000170: 3c18 273c 183d 303c 30b3 ea3c 6735 493c
00000180: fece 4abd 14c1 01bd 44c1 54bd ef80 6f3d
00000190: 304b 01bd 31bf fcbc 3e3d 85bd c1a6 d1bc
000001a0: ad65 2dbc 1b16 433d e660 4a3d 0571 0ebc
000001b0: 4245 70bd dcea b2bd 60e9 383d 3733 80bd
000001c0: 25ad cabd 5808 c53c 2f0d 3d3b dcc8 0dbd
000001d0: 5da1 b0ba 70c8 a93c 3f9b 0abd 7f56 ad3b
000001e0: 5207 afbd 3379 a8bd 7eb3 713b 2abf 85bb
000001f0: ab9a 51bc 9a07 683d ae31 553d 0564 983d
00000200: 2b86 2e3c 877b b83d 0afc 083e 003b d8bb
00000210: 9450 9a3c 6924 4c3d f3de 39bd 162f 2b3c
00000220: e551 453b 840c 483d d9e7 c43d f9b3 c13d
00000230: 365f 223d bffa 8b3b 570a 32bd e400 f43c
00000240: 7610 87be a0f3 8cbd 0771 ee3d 1b9d 66be
00000250: 1ee9 bdbd 7fb1 503d 9606 6b3d ba84 803d
00000260: 398d b73c 86e5 2bbd 9d3e 6f3d 9d53 87bd
00000270: bf51 c93c 7f72 5f3d c707 19bd 5725 9b3b
00000280: 2ee0 0e3d 701f 293d 3dbf 393d 33a3 8c3d
00000290: 5cc0 043b 4699 813d 0a7b 9a3d 3cb9 9c3d
000002a0: 1179 fb3c 585e 85bc 2c4a 34bd 6243 65bd
000002b0: 431f a9bd 41f9 2dbc 285d cf3a ca36 f0bd
000002c0: 4dea 4abd db34 8d3c 7ac6 4c3d 2dbe 84bb
000002d0: dfe6 80bd c0c0 aabd b51e 39bd d42c 6abd
000002e0: 8cc5 63bd 8949 9dbd 5d71 9dba 916a d83c
000002f0: e364 113d 581b a2bc 58b4 58bd 727a fabc
00000300: 93d5 99bd 3ee2 ddbd 9e4a 80bd a0ba afbd
00000310: 0b25 c7bd 2276 09bd b8bf 08bd def5 82bb
00000320: e1b3 d13c cb07 e8bc b6b6 ef3d d9f2 2c3d
00000330: a638 e5bc e7b5 6d3c 8658 d33c d3ad 47bb
00000340: 3220 89bd 9027 f6bc b891 94bc 5734 ecbd
00000350: 4d88 7abd fc9f 42bd 4e89 16bd 69f1 64bd
00000360: 1fd2 123d ed16 b03c 0da0 40bb 9c88 a23d
00000370: 2134 4a3d ce31 bd3c 9bbf 53bd bac6 923c
00000380: fbad a0bb c51a a33d fce4 c03d 611f 49bd
00000390: 0dc7 b73a 0c33 783d c459 45bd f550 25bd
000003a0: ae65 a43d 5cfe e93c 9d06 56be 4158 00be
000003b0: 8582 cf3d e70b 86be 8658 4ebe 850d 243d
000003c0: c518 803d ab0f af3d 289b 4a3d f8ca 2cbd
000003d0: 7ff9 95bd 8bbd 0a3c 3ea3 9e3c 7431 a1bd
000003e0: c401 433b 5741 eabc 06f8 a73c c191 55bd
000003f0: 58ea 833c e826 563d bd50 17bd fd9e b3bd
-0.23893695 0.1047906 0.016714074 0.06632866 0.2853088 0.036376774 -0.06518578 0.032604948
0.0048476015 0.018104905 0.15682587 0.07655264 -0.013937027 0.16791518 -0.0012883873 -0.03186244
0.032357063 0.046968956 -0.05797872 -0.05663252 -0.010177872 0.053414285 -0.035679247 0.057167787
-0.005742245 0.009219836 -0.032781035 -0.03703101 -0.064496055 -0.031359166 0.02290163 -0.14837833
-0.042217106 -0.009143924 -0.09767338 0.0016037367 0.03573831 0.100555845 0.0031198391 0.032117248
0.09001482 -0.014591896 -0.05919848 0.07562968 0.018051773 -0.021677433 -0.003099718 -0.040012863
0.104773216 0.09253121 0.07092198 -0.014760211 0.038740225 0.027870499 -0.0684716 -0.15163463
0.035090223 -0.13105118 -0.28558156 0.0061233123 0.021573665 0.022778632 0.10290088 0.040511712
-3.861244e-05 -0.061780855 0.03286438 0.0736937 0.06800784 -0.0077153686 0.03151171 -0.012882618
-0.12436816 -0.111546576 0.014912461 -0.1446617 -0.16096796 -0.07376905 -0.056826517 -0.10697482
0.019015351 0.013564157 -0.018618446 -0.010640836 0.017708682 0.029677825 0.004829348 0.029384663
0.05983499 -0.052391034 0.031286582 0.060396146 0.010198649 0.010756753 0.028649896 0.0122807985
-0.04951381 -0.031678274 -0.051942125 0.05847257 -0.031565845 -0.030852886 -0.06505822 -0.02559221
-0.010583323 0.047628503 0.049408816 -0.008693938 -0.0586598 -0.08736202 0.04514444 -0.062597685
-0.09896306 0.02405183 0.002884697 -0.034615383 -0.0013475824 0.020725459 -0.03383946 0.005289852
-0.08546318 -0.08226242 0.0036880667 -0.0040816264 -0.012793223 0.056647874 0.05204933 0.07440952
0.010652105 0.09007936 0.13377395 -0.00659883 0.01883725 0.04983941 -0.045378637 0.010448238
0.0030108627 0.04884006 0.09614534 0.09458155 0.03964158 0.0042718346 -0.043466892 0.029785581
-0.26379746 -0.06882405 0.11642652 -0.22520868 -0.09272979 0.050950523 0.057379328 0.062753156
0.022406207 -0.041966937 0.058409322 -0.06607745 0.024575112 0.05455255 -0.037360933 0.004734676
0.034881763 0.041289747 0.045348395 0.06867065 0.0020256257 0.06328063 0.07542999 0.07652518
0.030697377 -0.016280338 -0.04401605 -0.055972464 -0.08257916 -0.010618509 0.0015820609 -0.117292
-0.049539853 0.017237118 0.04999397 -0.004050991 -0.06294035 -0.083375454 -0.0451953 -0.057171658
-0.055608317 -0.07680041 -0.0012011934 0.026418002 0.035496604 -0.01978843 -0.052906364 -0.030575965
-0.07511439 -0.10834168 -0.06264232 -0.08580518 -0.09723862 -0.033559926 -0.033385962 -0.003996595
0.025598468 -0.028324028 0.11704771 0.042223785 -0.027981114 0.014508701 0.025799047 -0.0030468598
-0.06695594 -0.030048162 -0.01813589 -0.115334205 -0.061165143 -0.047515854 -0.036752038 -0.05589429
0.03584492 0.021495307 -0.0029392273 0.079362124 0.04936612 0.023095038 -0.0516964 0.017917026
-0.0049035526 0.0796409 0.09418675 -0.04910219 0.0014021114 0.060595557 -0.04818131 -0.04036041
0.08027206 0.02856367 -0.2090096 -0.12533666 0.101323165 -0.26180956 -0.20150957 0.040051956
0.062547244 0.0854791 0.049464375 -0.042185754 -0.07322978 0.008468042 0.01936495 -0.078707606
0.002975569 -0.02859561 0.020504009 -0.052140955 0.016102955 0.052283198 -0.036942232 -0.08770559

sequences.4.bias f4 [49]
00000000: 727c e8bb da2a 76bd 1bcb 50bd cdd1 2d3c
00000010: 8bc2 c1bc 42ea 91bb f870 2cbd d61c 1ebd
00000020: 41af 32bd 3ba0 0dbd 1cba dabc 396a b4b9
00000030: 398f 66bd 9f9f 80bc fcd3 17bb 4434 12bd
00000040: 31e6 85bb 75a3 03bd 5b38 fbbc ace2 333c
00000050: 4495 5fbd 2107 88bc 8439 1cbc c7f6 ad3c
00000060: 74b9 4fbd 1402 53bd edbb 89bc 0822 293d
00000070: 7bd6 35bd 51a6 9fbc 348d be3c c1e4 bcbc
00000080: 41fd fdbc dc17 37bc 529a 593c aa13 8bbc
00000090: fdd6 c9bc 6659 3dbd f3f7 913c 31d0 4cbc
000000a0: 9ffb a83b e479 ff3c 4d12 b5bc 5938 0fbd
000000b0: 8ace 71bc 4157 13bb 2c6e 35bd c389 dcbc
000000c0: 4c8b 383c
-0.007094913 -0.06009946 -0.050974946 0.010609102 -0.023652336 -0.0044529745 -0.042099923 -0.03860172
-0.043624166 -0.034576636 -0.026700072 -0.00034411417 -0.05628893 -0.015701113 -0.0023167124 -0.035694376
-0.004086279 -0.032138307 -0.03066652 0.010979336 -0.05458571 -0.016604962 -0.009535197 0.021235837
-0.05071397 -0.051515654 -0.016813243 0.04129222 -0.044393998 -0.019488486 0.02326069 -0.023058297
-0.03100455 -0.011175122 0.013281422 -0.01697715 -0.024638647 -0.046227835 0.017818427 -0.012500809
0.0051569487 0.031186052 -0.022103453 -0.034965847 -0.014758715 -0.0022482427 -0.04429452 -0.026921159
0.01126368
