saved_models/UPSCALE_X7/epoch_31.pth (torch, 139743 bytes, 6 tensors)

sequences.0.weight f4 [64, 1, 5, 5]
00000000: e34d bf3c eb3a 443e 414b 6d3c fa19 c5bd
00000010: 1d32 363d b191 2c3e 3b81 523d 74d1 a93d
00000020: 6084 463e 49ff 203e d618 dbbc a560 b13d
00000030: 7467 babd e672 ca3d 57b9 0dbe 72db 37be
00000040: 08f0 a0bd 9622 7dbd 652c 943d dddb 5b3d
00000050: 1521 4abd 7a38 12be 8fc2 43be cb98 103c
00000060: 73c8 dbbc e07d 20bd b902 573e 0572 b43d
00000070: acb6 013e 3b92 4cbe a2e1 f03d 2194 143d
00000080: 806a 90bd 283b 7b3d 9101 883d 16b7 413e
00000090: 0b00 163e 6fe9 94bc ddf2 5b3e c951 1ebe
000000a0: 99b2 2cbd f1aa 18bd 6bf2 243e fa46 2ebe
000000b0: c0a3 d9bd 82d9 0dbe 5443 c0bd 7dce 21be
000000c0: c0c4 203e 87d1 313d 1a40 893d d81b 123e
000000d0: 0288 2fbe aa28 8a3d e1f6 3dbe 6523 5c3c
000000e0: ecb0 a5bc 2e08 13be ecc1 0ebe 84ba 4dbc
000000f0: 9105 033e 7241 263e b117 41be b785 b43d
00000100: 0159 9bbd 1470 4cbd b908 a63d f51a 13be
00000110: 7ba8 2e3e c5a8 3e3e b4b0 003d c13f 1fbe
00000120: 7687 4dbd 78f8 1cbe beb2 7fbc ace6 2b3e
00000130: 4492 04bb f704 bdbd 484a 453d 93fb 2f3e
00000140: f1ab 44be 424e 173e 07c0 163e 6baa 0d3e
00000150: fb23 38bd b391 9c3d f2bf 38be 5daf 93be
00000160: 1498 9c3d d707 00be db96 b13d 0ef3 12bd
00000170: c3cd 803d da6f b23b 8d3e efbd 88da d83d
00000180: fc8c 19be 56ce 49be 466e db3d 279b 0a3e
00000190: cfc5 69bd f092 823d f265 2dbd 29ff 193d
000001a0: 6dbb c3bd ebc9 47be 1917 423e 2230 42be
000001b0: 83a1 fabd a600 273d 85e1 cbbc 72c0 033e
000001c0: de7c 48bd 3735 26be e477 353e 61f2 193e
000001d0: addf 77bd 896c 51be 6743 583e f9ce 5f3d
000001e0: c25f 5bbd cf26 90bd e271 dbbd d74f 0f3e
000001f0: 9e3e 94bd 5d44 b4bd 230f dd3d 14b8 3cbe
00000200: 831d b3bd e6a2 0b3e 5eac 23bd f819 6c3e
00000210: 39d1 60be 57f1 2fbc 993c 1bbe 89a7 373d
00000220: 55b8 5d3d 25fd 6c3e 6731 293e 7c00 743d
00000230: 64e0 53be ad31 c23d 5d68 f73d 907d 58be
00000240: 7577 153e 0532 20be afa0 053e fd39 1ebe
00000250: f3f5 363e c548 f83c 10a6 a43d cf74 283e
00000260: 22fb 443c 434a 953c 8498 94bd 5606 993d
00000270: 9d7f 373e c4cd 003e 5bf0 6bbe c344 0ebe
00000280: 5fe2 42be df7f 6dbc f482 44be f2cb 8a3d
00000290: 6ffa b7bc 879c 2a3e 0528 93bd a6eb 0c3e
000002a0: d16a 80bd 0c24 26bd 43ad 073e 5c45 1a3e
000002b0: aaaa 773d ec58 383e 6904 11bd caca c63d
000002c0: f8a8 11be 646a 9f3d 3f9e 86bd 8af8 0dbe
000002d0: 8e46 a63c faea 7b3e 0f2a 013e e725 733e
000002e0: 0ab2 80bd cd82 24bc 38ea 813e bd7d 0d3e
000002f0: b06e 1fbd 5558 f83d df81 da3d 19fd 683d
00000300: 4327 30be 7f74 1c3d a3a5 563e 116a 1dbe
00000310: dc63 aabd 5cff 4f3e 9f12 b4bc 0840 e43d
00000320: 799e 1b3e d0f1 413e 75ab 0dbe 372e 34be
00000330: 5fb7 363e 293e f9bd ba0a 54be 9ea9 b63d
00000340: 9330 103e 7e0f 37bd 4cc7 20bd fdd1 dcbd
00000350: 0220 363e d1e3 c1bd f598 49bd 2f41 e63d
00000360: a5f8 3abe b132 04be 1403 f6bd 0827 5b3d
00000370: 004e 2fbe 47fa 913d 4bdb 213e 480f 05be
00000380: 7d80 11be c73e 1abe ede2 76bd aa52 6c3d
00000390: d04c d2bd 4c53 183e 206a fb3d b7dc 90bd
000003a0: 7568 1cbe 809e 53be e64d 4ebe a5d6 f83d
000003b0: ea67 b43d 5e0e 723e 0133 bc3d cbc2 173c
000003c0: af31 6b3d 399a c03d 85ee c9bc c533 233e
000003d0: 187d 1d3e 10f8 823d 8f96 2abe 0354 70bb
000003e0: 384f 293e edb4 1abd f26c c3bd 3922 4c3e
000003f0: 56f4 02be 9836 5d3d dd81 0cbe 27b6 073e
0.023352569 0.191631 0.014483274 -0.09624095 0.044481385 0.16852452 0.051392775 0.08291903
0.19386435 0.15722384 -0.026745241 0.086610116 -0.09101763 0.098851964 -0.13840233 -0.17954805
-0.07858282 -0.06180056 0.0723503 0.053676475 -0.049347956 -0.14279357 -0.19117187 0.008825491
-0.02682898 -0.039182544 0.20997132 0.0881081 0.1266734 -0.19977657 0.11761786 0.03627408
-0.07051563 0.061335713 0.06640924 0.18917498 0.14648454 -0.018177716 0.21479364 -0.15460886
-0.04216251 -0.037272397 0.161081 -0.17019263 -0.10626936 -0.13852504 -0.09387842 -0.15801425
0.15700054 0.04341271 0.067016795 0.14268434 -0.17141727 0.06746037 -0.18551208 0.013436173
-0.020225964 -0.14358589 -0.13941163 -0.012556676 0.12795092 0.16235903 -0.18856694 0.088145666
-0.075853355 -0.049911574 0.081071325 -0.14365752 0.17056458 0.18619068 0.031418517 -0.15551664
-0.050178014 -0.15329158 -0.01560658 0.16787213 -0.0020228783 -0.092294626 0.048166543 0.17185812
-0.19206215 0.14775947 0.1472169 0.1383454 -0.04495619 0.076449774 -0.18041971 -0.2884473
0.07646194 -0.1250299 0.086713515 -0.035876326 0.06289246 0.0054454627 -0.116818525 0.105885565
-0.14995188 -0.19707617 0.10714392 0.13535748 -0.05707341 0.06375682 -0.04233355 0.037596855
-0.09557233 -0.1951062 0.18954124 -0.18963674 -0.12237837 0.040772103 -0.02488781 0.12866381
-0.048947208 -0.16231237 0.17721516 0.15033866 -0.06051605 -0.20451559 0.21119462 0.054640744
-0.05355812 -0.07038652 -0.10715081 0.139953 -0.07238506 -0.08802102 0.10793903 -0.18429595
-0.08745863 0.1363636 -0.039959304 0.23056781 -0.21954812 -0.010738692 -0.15159835 0.04483751
0.05413087 0.23143442 0.16522752 0.059570774 -0.20691067 0.09482131 0.120804526 -0.21141648
0.1459635 -0.15644081 0.13049577 -0.15451808 0.1786726 0.030308137 0.080394864 0.16450809
0.012022765 0.018223887 -0.072556525 0.074719116 0.17919774 0.12578493 -0.23040907 -0.13893418
-0.19031666 -0.014495819 -0.1919058 0.06777181 -0.022458283 0.16661273 -0.071853675 0.13761768
-0.062703736 -0.04056172 0.13249688 0.15065521 0.060465492 0.18002671 -0.035404596 0.09706648
-0.14224613 0.07783964 -0.06573152 -0.13864341 0.020297315 0.24601355 0.126137 0.23744927
-0.06283958 -0.010040951 0.25374007 0.13817497 -0.03892392 0.12126223 0.10669302 0.056881998
-0.17202477 0.038197037 0.20961623 -0.15372492 -0.08319828 0.20312256 -0.021981535 0.111450255
0.15197171 0.189399 -0.13834937 -0.17595755 0.17843388 -0.12170059 -0.20707217 0.08919071
0.1408103 -0.04469251 -0.039252564 -0.107822396 0.17785648 -0.09467281 -0.049218137 0.112429015
-0.18258913 -0.12909962 -0.12012306 0.05350402 -0.17119598 0.07127815 0.1580631 -0.1299411
-0.1420917 -0.1506301 -0.060275007 0.057696022 -0.10268557 0.14875525 0.12276101 -0.07073348
-0.15274222 -0.20665932 -0.20146903 0.12150315 0.088088825 0.23638293 0.09189416 0.009262751
0.05742043 0.09404416 -0.024649868 0.15937717 0.1537975 0.063949704 -0.16658996 -0.0036671169
0.16534126 -0.0377702 -0.09542264 0.1993493 -0.1278852 0.054007143 -0.13721414 0.1325308

sequences.0.bias f4 [64]
00000000: 271a 4abe 4e90 aebd 1851 183e c131 3f3e
00000010: 422e e03c a2c6 c0bd 40e3 4abd fdce 543e
00000020: 8853 3a3e f913 37be bc4d 95bd 57c5 6a3e
00000030: 60f8 a9bd 204a 733e 81e0 093e 8780 a7bd
00000040: 8847 4d3d 5272 57be 7330 413e 1f26 69bd
00000050: c9fc dabd d4a0 1d3e 300d 94bd 74b1 d9bd
00000060: e9ec 52be 1136 52be fa2a 4bbe dfb6 433e
00000070: 7503 57bd b4de 4cbe d242 703e 9155 24be
00000080: 328e 153d d14e f3bd d7a7 313e aba3 59be
00000090: 2ab7 5c3e eecf 1b3d 2468 433e c872 27bd
000000a0: 5cc8 5cbe d5a4 e33d aa05 533e 7948 5abe
000000b0: 9346 173d 289d 553e 3bf7 303e 1416 40be
000000c0: a841 563e e800 21be eb44 10bd 3f4c 063e
000000d0: d0fb 533e 372d 66be 8bfb 80bd 7510 62be
000000e0: 2783 3e3e 7c72 2abe 4926 153e 9046 2dbe
000000f0: ee68 1b3d 0af9 65be 8137 69be c199 4cbd
-0.19736539 -0.08523618 0.14874685 0.18671323 0.027365807 -0.09412886 -0.04953313 0.20782085
0.18195927 -0.17878713 -0.07290217 0.22926842 -0.08299327 0.23758745 0.13464548 -0.081788115
0.050117046 -0.21039703 0.18866138 -0.05692112 -0.10692746 0.15393382 -0.07229078 -0.106295496
-0.20598187 -0.20528437 -0.19840613 0.19112729 -0.05249353 -0.2000683 0.2346299 -0.16048266
0.03651256 -0.118802674 0.17349182 -0.2125384 0.21554247 0.038040094 0.19082695 -0.04088095
-0.21560806 0.111154236 0.2060763 -0.21316709 0.03693254 0.20860732 0.17281811 -0.18758422
0.20923483 -0.15723002 -0.035221975 0.13115023 0.20701528 -0.22478186 -0.06297978 -0.2207659
0.18604718 -0.16645235 0.14565386 -0.16921449 0.037941866 -0.22458282 -0.2277508 -0.04995132

sequences.2.weight f4 [32, 64, 3, 3]
00000000: a562 c3bd ec4a a2bc daf6 9ebb 1bab 183d
00000010: a462 93bd 81b7 69bb 9e80 2e3c ec0c e9bb
00000020: 51a2 c33d e16c a1bd 4fe0 b83d 5d14 2e3d
00000030: 566f 3d3e 04a8 16be 9140 b33d 6253 17be
00000040: 24ef 19be 47b5 263e c871 9d3d 74ea 613a
00000050: 4680 ae3d 8510 cdbd b4d4 95bd 2003 2e3e
00000060: cbe5 20be 336f 98bd 2812 f4bb c7d7 9fbb
00000070: 4b52 efbb c7a1 1b3d 7605 bcbb ff2d b8bd
00000080: c913 223c d43e ca3d b4ac d23d 56a7 b23d
00000090: e105 aabd 550d 15be c2da 153e 9335 2fbe
000000a0: 46d8 ee3d 87f8 223e 4d56 d6bd 0123 e43d
000000b0: fc2d 86bd 0f17 a6be c57b 893e 3b20 96bc
000000c0: ee4d 853d b496 f8bc 6f8e bebd cd65 2cbe
000000d0: db65 78be f22e a73e fe5e 513d ac88 4dbd
000000e0: 19b1 803d 94d3 85bd 09aa e8bc e9ba 543d
000000f0: 7b76 57bb d8c4 173e 5415 2b3e 946c 8fbd
00000100: 78b9 17bc 5432 503d 7c24 a5bd 0655 033e
00000110: 68cd d23d 4405 a83d c035 173c 8bb3 85bc
00000120: ebb1 d33d f417 b8bd 0d67 ddbc 3387 833e
00000130: 1fc7 193e 1f2f 4bbd 83c5 6d3e ed6f 63be
00000140: 1d5a 00be 8076 35be 9c43 b3bd b315 f43d
00000150: 84fa 52be a52d e23d 1a97 0ebd 60b8 12be
00000160: 6f44 13be bc2f 8cbd 8850 883c 7734 a6bc
00000170: dd56 c93c 3502 4f3d f6c8 763d 6b8c e73b
00000180: 7b94 e43c 72e4 11bb 3285 45bc ff39 2ebd
00000190: 7e07 35bd efc5 6abc 2c5c 91bd fe17 03bd
000001a0: a6f9 8b3d 646f 643c ac4c dbbc 23e7 843c
000001b0: 388c 60be 36af 61bd 3c59 653e 3850 35be
000001c0: 4d9e a93e de0f f53d 4a73 5b3e c432 63bd
000001d0: 526c d5bd 565b cc3d 776c 453d 08e8 503e
000001e0: 2aee 6a3d 315d 70bd bb25 f13d eba6 83bd
000001f0: f832 b0bc 94db e6b9 7063 773e db51 113e
00000200: 0bf6 5ebe d7d0 ac3d eae1 60be a55d 0cbd
00000210: 6245 403e 93f0 c1bc 48bf c93d 520b 513d
00000220: fef9 f13d 6b48 e73d a2b3 fd3c 2e49 713d
00000230: 61e1 483d 79a8 8c3d 71e3 aa3d 95dd ca3d
00000240: cfb7 833e 4c83 563d 219a c43d a1ec 1d3e
00000250: 4d47 f8bd 1dfe e83d 8d25 06bc 7614 de3d
00000260: 8ee8 273e 2971 fdbd ebe0 563d 7a13 693d
00000270: f2d2 99bc 95b1 b7bc c743 103d de24 ebbd
00000280: b1f2 3dbe 1d6d 1bbd 0b3a 3dbd a5cf 813c
00000290: cbf7 b23d 3a97 a53b e012 303d e606 14bc
000002a0: 8b65 c53d 7dcd 27bb b4fa 29bd c523 443d
000002b0: 9d33 a0bd c2b1 adbc f6c0 86bd 43bc d6bc
000002c0: 4112 f73c 89f2 fe3d c8ee 1e3e af4b 563d
000002d0: 34c3 50bd e9dd 1ebb a7db 51bd d2a7 483c
000002e0: e788 c13d 9ccd a2bc 5dbf a33d c31f 93bc
000002f0: d9a5 edbd fc11 473e 1a93 673d 9264 e73d
00000300: ce2d 403d cdf9 25bb 3ce2 f9bc 6d2b 23be
00000310: 1d37 3e3c d857 053d 9dbf ffbd 3796 02be
00000320: 1f47 0fbd 4390 efbd 98e1 8e3d f955 7e3d
00000330: 853c 22be b0fd ebbd 53f6 d8bd 7354 ff3d
00000340: 8788 963d f201 c03c aede 6a3d 18ec a0bd
00000350: daf5 16bd 207f 3abd 044f d8bd 9579 e53c
00000360: a428 03bc b297 03bd dcb5 c63d ed69 6f3b
00000370: 07eb 4c3d 9a9c c83d 1cb9 24bd 1c0d 6e3d
00000380: 254c aebc 2270 23bd 0f26 1bbe 06b8 d2bd
00000390: 9c30 d13c 9bf8 f23d d2f0 a13d 1167 d93d
000003a0: 83bf ee3c ec3e ac3d e42c 503d 15d5 dc3c
000003b0: 8043 b2bd e38d a93a 6057 8dbd a119 9bbd
000003c0: a225 f8bd 8ab8 d6bd 24c0 57bd 7303 aa3c
000003d0: 026a 8b3d defd 043c fd48 0a3d fd99 92bd
000003e0: c3a1 4bbd f767 27bc f149 93bb b844 763d
000003f0: 4e2a 5c3d 65c4 8b3d 191f ac3d b9ee 8b3d
-0.09540299 -0.019811116 -0.0048512043 0.037272554 -0.071965486 -0.0035662355 0.010650782 -0.007112136
0.09552444 -0.07882095 0.090271585 0.04249989 0.18499503 -0.1471253 0.087525494 -0.14777902
-0.15032631 0.1628009 0.07687718 0.0008618005 0.0852056 -0.100129165 -0.073159605 0.1699338
-0.15712659 -0.074430846 -0.0074484535 -0.0048780176 -0.0073035113 0.03799608 -0.0057379557 -0.08993148
0.009892412 0.09875265 0.10286847 0.08723323 -0.083019026 -0.14555867 0.1463423 -0.1711028
0.11662345 0.15915118 -0.10465679 0.11139489 -0.065517396 -0.32439467 0.2685224 -0.018325916
0.065090045 -0.030345298 -0.09304511 -0.16835709 -0.24257605 0.32653004 0.051115982 -0.05017917
0.06283779 -0.06534496 -0.028401392 0.051936064 -0.0032877016 0.14821184 0.16707355 -0.070031315
-0.009260528 0.050829247 -0.080635995 0.12825403 0.102930844 0.08204129 0.009229124 -0.016320964
0.103366695 -0.08988944 -0.027026678 0.25689086 0.15017365 -0.049605485 0.23219876 -0.22210665
-0.12534375 -0.17720985 -0.0875313 0.11918201 -0.20603377 0.11043862 -0.03481207 -0.14328146
-0.14381574 -0.06845042 0.016639963 -0.020288689 0.024577552 0.050539214 0.060250245 0.0070662997
0.027902832 -0.0022261408 -0.012055682 -0.042535778 -0.0441966 -0.014329418 -0.070976585 -0.032005303
0.06834726 0.013942573 -0.026769958 0.016223496 -0.21928489 -0.055098735 0.22397321 -0.17706382
0.33128586 0.11965917 0.21430698 -0.055468336 -0.10421051 0.099783584 0.048199143 0.20401013
0.057356037 -0.058682624 0.11774775 -0.064283215 -0.021508679 -0.00044032617 0.24159026 0.14191382
-0.21773545 0.084382705 -0.2196118 -0.034268994 0.18776467 -0.023674285 0.09850937 0.051036187
0.1181526 0.112931095 0.030969445 0.05890768 0.049043063 0.06868071 0.08344162 0.09905545
0.25726172 0.05237131 0.0959971 0.15422298 -0.121229745 0.11376593 -0.008187664 0.10843746
0.16397306 -0.12375099 0.052460592 0.05690334 -0.018777344 -0.022423545 0.035220888 -0.11481641
-0.1854961 -0.037945855 -0.046197932 0.015846083 0.08738669 0.005053428 0.04298675 -0.009034848
0.096385084 -0.0025604658 -0.041498855 0.047885675 -0.078223445 -0.021202926 -0.06579773 -0.026212817
0.030160071 0.12448604 0.15520775 0.05231827 -0.05096741 -0.0024241155 -0.051234867 0.012247043
0.0944994 -0.019873433 0.07995484 -0.017959481 -0.116038986 0.19440454 0.05653677 0.11298479
0.046918683 -0.0025325895 -0.030503385 -0.15934534 0.01160982 0.032554477 -0.12487719 -0.12752615
-0.034979936 -0.116974376 0.06976622 0.06209371 -0.15843399 -0.115229964 -0.105938576 0.12467279
0.07350259 0.023438428 0.05734127 -0.07857531 -0.036855556 -0.045531392 -0.10561946 0.028012076
-0.008005295 -0.03212709 0.09702656 0.0036531643 0.050028827 0.097954944 -0.040215597 0.05811797
-0.021276543 -0.03990186 -0.15151237 -0.10289006 0.025535874 0.11863824 0.07907261 0.106153615
0.029144054 0.08410439 0.05082406 0.026957074 -0.08704281 0.0012935962 -0.06901431 -0.07573248
-0.12116553 -0.10484417 -0.052673474 0.020753598 0.06807329 0.008117167 0.033761013 -0.07158277
-0.049714815 -0.010217658 -0.0044948985 0.06012413 0.053751282 0.06824569 0.08404369 0.06832642

sequences.2.bias f4 [32]
00000000: 9f73 eebc 410e f3bc 7323 b5bc da51 f93c
00000010: ae0a b6bd 5371 d33b 35de 853c 13f0 86bd
00000020: 8417 013d 5277 1abd 7094 abbc 49cf f53c
00000030: 4b3f 303c 980c 463d bc73 d1bd 0197 e4bc
00000040: 9a39 0b3d 92fb 1cbc e7ce bfbd 9995 a73c
00000050: cf2d 83bc 1d35 8e3d ec9a 26bb 10da 263d
00000060: e24f 3bbd dda7 73bd f76f ad3d 763f 973d
00000070: fc0e be3b 62ec 20bd 2cdf c33d 8e2a f5bd
-0.029107867 -0.029669883 -0.02211163 0.030434538 -0.08888756 0.0064527183 0.016341308 -0.06588759
0.031516567 -0.03771145 -0.020944804 0.030006068 0.010757278 0.048351854 -0.10227153 -0.027904036
0.03399048 -0.009581463 -0.09365635 0.020457076 -0.016013054 0.06943724 -0.002542193 0.040735304
-0.04573048 -0.05948626 0.08468621 0.07385151 0.005800126 -0.039287932 0.09564051 -0.11971007

sequences.4.weight f4 [49, 32, 3, 3]
00000000: d942 69be 1c5a d73d a246 a63c 0c8e 893d
00000010: 7f52 903e 362f 343d c7d0 82bd 445f 1d3d
00000020: 9ac2 f33b 2596 a93c 3a32 0c3e 3e70 a33d
00000030: 17fc f83a ddca 283e c74a 143c 90bc abbc
00000040: 4ad2 f33c 4edf 633d 065b 5fbd c46a 89bd
00000050: bfea 47bc aab1 523d 5a0a 1abd 7d47 633d
00000060: 6e6b 8cba 39e8 4f3c a4c9 ddbc 9235 20bd
00000070: be67 68bd 7850 ccbc 77b2 9c3c 1ea9 14be
00000080: bedf 26bd 5eae ddbb 3fc5 c6bd 1de7 1ebb
00000090: 0a8d 153d 1b67 ca3d 633d e33b 860b fe3c
000000a0: d03c b43d 2ff9 2bbc 5c00 67bd cd53 9d3d
000000b0: 19b9 9f3c d717 a2bc 8d56 96bb 058e 21bd
000000c0: 25a1 cd3d 3dfd b23d 54e3 8f3d 6a7a 84bc
000000d0: 74d2 1b3d 0c67 f13c 1581 83bd e5ed 15be
000000e0: ac8c fc3c 604f f8bd 00a7 8dbe 06d7 313b
000000f0: fa5a 973c 4aff 9f3c 3dd4 d53d bf15 1c3d
00000100: 5faa 37bb 276d 74bd d666 ef3c a829 933d
00000110: daf7 903d 381b 90bb da0b 0e3d 3249 27bc
00000120: 42e9 f5bd 9aaf d8bd 29e7 5f3c 219c 14be
00000130: fa67 24be 5155 99bd 1daf 68bd 6bdb dbbd
00000140: 1509 833c 5fb1 4e3c 9ebd 97bc 006f 2fbc
00000150: 0ff7 703c 9f1f ea3c 0d2c 813b 5a69 f03c
00000160: 33b5 793d 198e 58bd efce dd3c 1bc3 6b3d
00000170: 4aaa 243c f553 493c 8cda db3c 38e7 0a3c
00000180: 3a17 51bd dfb6 03bd 0767 59bd 0a7f 693d
00000190: 1fce ffbc 99f1 02bd 5175 81bd 8236 b3bc
000001a0: 5722 eabb a341 413d 48cc 473d 1126 05bc
000001b0: 137a 76bd 18c7 aebd 1360 2b3d 0e20 7ebd
000001c0: 6aaf bebd ac35 c93c 5a91 82b9 7d4d 1bbd
000001d0: 3ee1 5abb 4190 a53c aba3 11bd e05f 343b
000001e0: ab40 a7bd dac6 a8bd 69ef 7bb7 636c 9ebb
000001f0: 5591 53bc d307 683d aa7e 503d 4299 913d
00000200: ce87 2d3c 7b80 b43d ef79 073e 7ee7 bdbb
00000210: 7399 b53c 454f 553d eb35 34bd 5a04 2d3c
00000220: 82e6 2e3b 1c95 4b3d e292 bd3d 0834 bc3d
00000230: b1ca 213d b4c7 8c3b 9e21 2ebd 5107 e93c
00000240: ca58 85be 7f6e 8cbd 3a8c f43d a9c5 63be
00000250: 5380 afbd 0e81 543d dbfb 683d 33d8 843d
00000260: 16d0 d53c 6193 22bd 9492 773d 990a 81bd
00000270: 6f2f c63c 1774 583d 512d 1bbd 46d6 c53b
00000280: 0a3b 0d3d 18aa 233d 496a 2e3d fee8 853d
00000290: 8e75 283a d0d4 733d fab7 973d a954 9c3d
000002a0: 126f 103d 443b 44bc f058 29bd 2cb5 73bd
000002b0: 6969 a4bd 2c1f 56bc 6e9e 98ba a2bd f2bd
000002c0: 0cc5 4fbd b508 823c af1a 4a3d fc70 80bb
000002d0: 1f53 8bbd a1a5 c7bd 3ecb 29bd 8a67 45bd
000002e0: 3f8f 6abd babc 87bd d772 97b9 8f6f ac3c
000002f0: 00a6 f23c 5f59 a4bc b127 51bd 9363 05bd
00000300: 49d9 97bd 2500 ddbd 4e30 86bd 4ad3 aebd
00000310: df8d c4bd 013c 0bbd ec6c 0ebd c3ef c1bb
00000320: 3c52 d53c 0806 e9bc a78f e83d 46e3 2e3d
00000330: 256a ddbc 240f 793c b4d4 d33c 0618 11bc
00000340: a3df 8abd 5989 04bd b53e 88bc f354 e4bd
00000350: aa05 74bd f164 44bd 115f 0dbd 1880 6abd
00000360: f310 1b3d 4339 af3c de4c cbba d491 a33d
00000370: 5578 463d 06a6 c53c 13d8 4cbd af70 943c
00000380: 7234 c2bb fed6 a53d 0c5f c03d c2a1 43bd
00000390: 82be ed3a 1ea0 753d 2782 3cbd d5d6 22bd
000003a0: 8dc8 a23d ef34 e63c 738f 50be ae0c fcbd
000003b0: f79d d03d 3679 86be 6cdd 4ebe 316d 193d
000003c0: df2a 6a3d cf10 a83d d155 583d 5b0a 33bd
000003d0: e2d1 98bd 52aa a03b b723 903c 8dad 9abd
000003e0: a692 dc3b 0e16 d3bc f8c1 bd3c 7add 4dbd
000003f0: 648e 853b e8cb 403d 2338 14bd a27b adbd
-0.22779407 0.10515234 0.020297352 0.067165464 0.2818794 0.043990336 -0.06387477 0.03842093
0.00743897 0.020701477 0.13691035 0.07980393 0.0018996027 0.16483636 0.009051031 -0.020963937
0.02976336 0.05563288 -0.054530166 -0.06709817 -0.012201964 0.051438965 -0.03760753 0.0554881
-0.0010713169 0.012689644 -0.027073689 -0.03911359 -0.05673956 -0.024940714 0.019128067 -0.14517638
-0.04074072 -0.006765171 -0.097055905 -0.002424664 0.03651146 0.09882947 0.006934808 0.031011354
0.088006616 -0.010496422 -0.056396827 0.07681999 0.019497441 -0.019786758 -0.0045879544 -0.03944208
0.100405015 0.087397076 0.07025781 -0.016171653 0.0380425 0.029468082 -0.06421105 -0.14641531
0.030828796 -0.121245146 -0.27666473 0.002713622 0.018475998 0.019530911 0.10440872 0.038106676
-0.0028025133 -0.05967441 0.02922384 0.0718568 0.07078524 -0.004397776 0.03467927 -0.010210322
-0.12007381 -0.10580368 0.013665953 -0.14512683 -0.16055289 -0.07486976 -0.056807626 -0.1073521
0.015995542 0.012615531 -0.018523034 -0.010707617 0.014707341 0.028579531 0.003942019 0.02934711
0.06096382 -0.05286989 0.027076213 0.057559114 0.010050366 0.012288083 0.02683761 0.008477978
-0.05104754 -0.03215682 -0.05307677 0.05700592 -0.031226216 -0.031968687 -0.063212045 -0.021876577
-0.007145207 0.047181737 0.048778802 -0.0081267515 -0.060175013 -0.08534068 0.04183967 -0.06204229
-0.09310801 0.024561726 -0.00024903828 -0.037915695 -0.0033398415 0.020210387 -0.035556477 0.0027522966
-0.08166631 -0.08241053 -1.5016508e-05 -0.004834698 -0.012913068 0.056648087 0.050902046 0.0710931
0.01059146 0.08813568 0.13230108 -0.0057954183 0.022167897 0.05207755 -0.043996733 0.0105601195
0.0026687686 0.04970275 0.09256531 0.09189612 0.039499942 0.0042962674 -0.04251253 0.028445872
-0.26044303 -0.06857013 0.119408086 -0.2224337 -0.08569398 0.05188089 0.056880813 0.06486549
0.0261002 -0.039691333 0.060442522 -0.063008495 0.02419254 0.052845087 -0.037885014 0.0060375063
0.034480132 0.039957136 0.04258183 0.0653858 0.00064262084 0.059529126 0.074081376 0.07633335
0.035262175 -0.011977021 -0.041344583 -0.05949895 -0.08027918 -0.013068955 -0.0011643895 -0.11852576
-0.050725028 0.015873292 0.049341854 -0.003919719 -0.068029635 -0.09748388 -0.041453592 -0.048194446
-0.057265516 -0.066277936 -0.00028886527 0.021049289 0.02962017 -0.020062147 -0.051063243 -0.032565664
-0.07414491 -0.10791043 -0.06552182 -0.08536394 -0.09597372 -0.03399277 -0.034771845 -0.0059184744
0.026040189 -0.028445259 0.113555245 0.042697214 -0.027028153 0.015201364 0.02585826 -0.008855825
-0.067809366 -0.032357547 -0.016631464 -0.11149015 -0.059575714 -0.047947828 -0.03451449 -0.057251066
0.03785796 0.02138961 -0.0015510579 0.07986799 0.0484546 0.024127018 -0.050010752 0.018120138
-0.005926662 0.08097647 0.09393129 -0.047761686 0.0018138441 0.059967153 -0.04602256 -0.03975566
0.07948408 0.028101413 -0.20367222 -0.12307106 0.101863794 -0.26264352 -0.20201653 0.03745765
0.05716979 0.08206331 0.052816216 -0.043711048 -0.07461907 0.0049031163 0.017595155 -0.075526334
0.006731349 -0.025767352 0.02316378 -0.050260045 0.004075812 0.04706946 -0.03618635 -0.08470847

sequences.4.bias f4 [49]
00000000: 27ff febb 0ddd 78bd 684b 52bd 3d09 2d3c
00000010: 15e9 cabc 5289 b5bb baac 34bd 2180 1fbd
00000020: 97be 36bd 66d4 11bd 4880 d7bc bdb3 08ba
00000030: 1666 6abd 262d 8bbc bf01 1bbb 7644 10bd
00000040: 2bb0 4dbb 6aa6 04bd 1f31 f7bc bc70 383c
00000050: 0039 66bd 45c9 84bc 10c5 1dbc c498 ab3c
00000060: 31e6 51bd 95d4 58bd 3222 8bbc f6e4 233d
00000070: ee71 36bd bdf4 9dbc 73aa c23c c81a c6bc
00000080: 63aa 05bd a1be 43bc b76b 3b3c e27c 8bbc
00000090: ef38 cfbc ca0e 40bd 08d2 963c 642f 5fbc
000000a0: c88f 823b e4ae ed3c c89a b7bc 95a2 11bd
000000b0: 8859 82bc c2fe deba c02e 38bd 91aa ddbc
000000c0: a252 0e3c
-0.0077818814 -0.060757685 -0.051341444 0.010561285 -0.024769345 -0.0055400515 -0.044110037 -0.038940553
-0.044615354 -0.03560295 -0.026306286 -0.00052147714 -0.057226263 -0.016989302 -0.0023652164 -0.03522154
-0.0031385522 -0.032385267 -0.03017479 0.011257347 -0.056206703 -0.016209254 -0.009629503 0.020946868
-0.05124492 -0.05293711 -0.016984079 0.040013276 -0.044542246 -0.01928174 0.023762917 -0.024182692
-0.032633197 -0.011947305 0.011439255 -0.017027322 -0.025295703 -0.046889104 0.018410698 -0.013622139
0.003984425 0.029014058 -0.022412673 -0.03555544 -0.015911832 -0.001701318 -0.04496646 -0.027058871
0.008686693
