saved_models/UPSCALE_X7/epoch_69.pth (torch, 139743 bytes, 6 tensors)

sequences.0.weight f4 [64, 1, 5, 5]
00000000: a242 dd3c b503 483e 7353 253c 760f c6bd
00000010: 0fb9 3e3d 3b58 313e 9738 7d3d c54a b53d
00000020: 0016 4e3e 5ff1 233e eca1 febc 1a40 b53d
00000030: 4a16 bbbd e44e d43d 08f7 10be 54c0 36be
00000040: f224 a2bd 2e66 81bd 7899 973d 6abb 5e3d
00000050: 87cd 3ebd 2135 0ebe ee4a 45be aa99 2b3c
00000060: 2191 e6bc 559d 00bd 3bb7 603e d34f bd3d
00000070: d4a4 063e 737d 47be 5782 f83d 0b20 333d
00000080: 7ebe 8ebd 015a 8d3d f0fb 8b3d 8a87 423e
00000090: c5b7 1d3e 8723 79bc a7d0 613e c51d 22be
000000a0: f382 29bd 703d 15bd 912b 283e a71f 2ebe
000000b0: 33d8 d6bd 32d2 06be 6ad5 b6bd 47be 22be
000000c0: 5553 243e 2a50 313d e7ea 883d 1974 1b3e
000000d0: da6a 25be 6a35 933d f1f3 3cbe 7e77 383c
000000e0: 2af8 89bc 7b26 1bbe a603 12be a796 40bc
000000f0: 270d 0b3e ca14 303e eda3 4dbe bbf3 c13d
00000100: 8d5a 9bbd b126 51bd 699e ab3d d76c 13be
00000110: bb05 373e 27ea 3b3e e404 f93c b973 1dbe
00000120: e121 4fbd fa28 1abe 97c0 99bc 6c43 253e
00000130: 0a5d 0cbc 88e4 c2bd 63ac 443d 671c 343e
00000140: 30b2 4bbe 6a40 1a3e 566c 253e 704c 173e
00000150: fcac 37bd 5f20 ad3d 2752 3abe b1a1 a3be
00000160: 0e75 993d 1f37 02be fb7c b73d e51d 1cbd
00000170: 72ba 863d bd45 933c 4c37 e9bd 20c6 e83d
00000180: 4c23 1bbe ffcb 4ebe 4cd3 f03d 40e7 063e
00000190: 3dbe 80bd aab7 893d def0 10bd 15e4 203d
000001a0: d37f bbbd ee5d 4ebe 79ce 473e 7b83 47be
000001b0: 901c 05be a574 1f3d 3400 cebc 9cc2 0f3e
000001c0: 221c 70bd 1e3d 2bbe 9f30 3a3e bc5b 193e
000001d0: 5c0c 78bd 0677 5dbe 937c 623e c7c7 5d3d
000001e0: f268 82bd 1d6f 9abd 056e d9bd 2788 143e
000001f0: f53e 9bbd 15ab a4bd 27e0 fc3d 3d4e 3abe
00000200: d48c 9bbd bb95 133e 550d 2cbd 5913 713e
00000210: 5758 77be 7092 9ebc 162b 1cbe 8dd0 263d
00000220: 70bb 8a3d 39b1 853e 2dff 303e d798 603d
00000230: 94d2 5ebe 87bd b93d b31d e43d 7c3c 67be
00000240: 0c82 0e3e 6cb7 1dbe 6bf7 083e e45b 26be
00000250: 77c6 2f3e 663d ff3c 9933 983d 9f69 273e
00000260: 85fb 833b 2d73 403c 2beb 87bd cd58 9f3d
00000270: 2fdc 473e 05c7 073e e5c4 71be 08e8 0ebe
00000280: d099 48be 53d0 d1bc 5bea 57be 9530 843d
00000290: 3349 c5bc 41ff 303e 4457 8fbd fd54 113e
000002a0: 95fa 55bd e1e8 15bd 48e7 093e 44fa 193e
000002b0: fb95 783d fd08 3a3e 2872 28bd 2eca c43d
000002c0: 0285 ecbd 446b aa3d bc76 a5bd 83aa f1bd
000002d0: 565a a039 fadb 8a3e d8f9 2a3e ec59 623e
000002e0: abf4 9fbd c1ae 7cbc 649c 993e 4a79 323e
000002f0: 56df 1fbd e700 103e afac d03d 268b 9a3d
00000300: c497 27be f045 843d 12f0 723e fda1 2cbe
00000310: ca2c 9dbd 2422 5c3e 402e cfbb faf4 da3d
00000320: 16e4 1d3e f735 423e c019 09be 4a1b 31be
00000330: 4453 333e 1824 02be 91a1 61be aa62 b23d
00000340: deb4 123e 2e88 3bbd 9dbe 11bd 5c74 e5bd
00000350: e9b3 443e 7f68 c0bd 42d3 38bd 8301 ec3d
00000360: 9c69 3abe 7919 07be af88 02be b7f2 5f3d
00000370: 8385 34be c322 883d 38ef 243e b25c 08be
00000380: fa15 0ebe 5611 17be c235 5dbd 5bfa 833d
00000390: 6dc9 c9bd ef35 1f3e 1154 ef3d 5deb a2bd
000003a0: 164e 26be ce6c 60be 5364 4ebe 1888 f43d
000003b0: bcb3 b93d f691 803e 3f46 b83d 90ee 993b
000003c0: dc9c 643d da95 b83d c708 eebc e20a 263e
000003d0: f5b6 1a3e 7762 893d 1021 2dbe 1049 33bc
000003e0: 7921 243e c9d4 1cbd 6f48 dcbd bcaf 3b3e
000003f0: f607 0cbe ba60 373d 47ff 1abe 6d78 003e
0.027009312 0.19532664 0.010090697 -0.09670918 0.046563204 0.17318814 0.061821546 0.08852152
0.2012558 0.16010045 -0.03108307 0.08850117 -0.09135111 0.1036661 -0.14156735 -0.17846805
-0.07917203 -0.06318317 0.07402319 0.05437795 -0.046582725 -0.13887455 -0.19266865 0.010473648
-0.028145375 -0.031400044 0.21944897 0.09243741 0.13148814 -0.19481449 0.12134235 0.04373173
-0.06969927 0.069019325 0.06835163 0.18997017 0.15402134 -0.015206224 0.22052251 -0.15831669
-0.04138465 -0.036435544 0.1642287 -0.17004262 -0.104904555 -0.1316612 -0.08927424 -0.15892898
0.16047414 0.04328934 0.06685429 0.15181006 -0.16154042 0.07187922 -0.18452431 0.011258958
-0.016841967 -0.15151398 -0.14259204 -0.011754668 0.13579236 0.1719543 -0.20082064 0.09470316
-0.075856306 -0.05106229 0.08379824 -0.14396988 0.1787328 0.18351041 0.03039784 -0.15376176
-0.05056942 -0.15054694 -0.018768592 0.16139 -0.008567104 -0.09516245 0.048015963 0.1758896
-0.19892192 0.15063635 0.16154608 0.14775252 -0.044842705 0.0845344 -0.18195401 -0.31959298
0.074930295 -0.1271634 0.08959385 -0.038114447 0.0657853 0.01797759 -0.113875 0.11365914
-0.15150183 -0.20195006 0.11759052 0.13174152 -0.06286285 0.06724484 -0.03538596 0.039280016
-0.0915524 -0.20153019 0.19512357 -0.1948375 -0.12999177 0.0389296 -0.025146581 0.14039081
-0.05862058 -0.16722533 0.1818261 0.149764 -0.06055866 -0.21627435 0.22117834 0.0541456
-0.06367673 -0.075407244 -0.10616688 0.14505063 -0.075803675 -0.08040444 0.12347441 -0.18193908
-0.0759522 0.14412586 -0.042004902 0.23542537 -0.24154793 -0.019356936 -0.15250811 0.040726233
0.06774032 0.26111773 0.17284842 0.05483326 -0.21760017 0.090693526 0.11138477 -0.22581667
0.13916796 -0.15402001 0.13375632 -0.16245991 0.17165552 0.031157207 0.074317165 0.16348885
0.004027786 0.01174621 -0.066366516 0.07780609 0.19517587 0.13259514 -0.23610266 -0.139557
-0.19589925 -0.025612032 -0.21085493 0.06454579 -0.024082756 0.17284872 -0.069990665 0.14192577
-0.052240927 -0.036599044 0.13467133 0.15036875 0.060689908 0.18167491 -0.041124493 0.09608875
-0.11548807 0.083212405 -0.080792874 -0.11800101 0.00030584884 0.27120954 0.1669687 0.22104615
-0.078103386 -0.015422524 0.3000213 0.1742908 -0.03903135 0.14062844 0.10189187 0.07546072
-0.16366488 0.06458652 0.23724392 -0.16858669 -0.076745585 0.21497399 -0.006322652 0.10691257
0.15419039 0.18965898 -0.13388729 -0.17295566 0.17512232 -0.12709081 -0.22034289 0.08710225
0.14326808 -0.045784168 -0.035582174 -0.112038344 0.19209255 -0.09394931 -0.045123346 0.11523726
-0.1820435 -0.13193311 -0.12747453 0.05467483 -0.17629056 0.06647255 0.1610688 -0.1331661
-0.13875571 -0.14752707 -0.054006346 0.06444236 -0.09852872 0.15547918 0.11685956 -0.07955048
-0.16240725 -0.21916506 -0.20155458 0.1194002 0.09067485 0.2511136 0.089977734 0.0046976283
0.055813655 0.09012957 -0.02905692 0.16215089 0.15108855 0.06708234 -0.16907144 -0.010942712
0.16028394 -0.038288865 -0.10756003 0.18328756 -0.13674912 0.04476998 -0.15136443 0.12545939

sequences.0.bias f4 [64]
00000000: 9d36 53be 1da6 b4bd a86d 223e 606a 573e
00000010: 092c 0c3d f7f6 ccbd 1d84 68bd 7c54 763e
00000020: 6801 403e f5d3 3ebe 433c 9fbd 6a0c 7a3e
00000030: 1488 c6bd d7b5 803e 8cd8 1b3e 89bb fdbd
00000040: e7e4 5a3d 14c0 5fbe 4354 493e 3fa6 7ebd
00000050: 387f 07be cf2c 303e ea9f 84bd 0219 efbd
00000060: 0b37 6cbe 82e7 5bbe 2726 6cbe d368 593e
00000070: 74ec 8bbd e84c 58be c21b 843e d17b 2bbe
00000080: 26a0 333d 93ce 0dbe f1a5 443e 2f1e 71be
00000090: 2740 643e f498 3d3d 839d 4d3e 6f0b 28bd
000000a0: 782e 68be 4342 ed3d 76b5 5e3e 549d 66be
000000b0: fbe1 0a3d 8a6a 5f3e 7d9b 3c3e df98 41be
000000c0: 211a 6b3e f647 27be 8f8c 02bd 40e1 263e
000000d0: 9d7d 603e 8923 71be fb9f 8bbd 4c53 88be
000000e0: 8a5c 443e c834 3bbe d395 263e 1eb5 35be
000000f0: e277 883c 07da 72be 7885 75be 10ca 85bd
-0.20626302 -0.08820746 0.15862143 0.21036673 0.034221683 -0.10008042 -0.056766618 0.24055666
0.18750536 -0.18635543 -0.07775166 0.24418798 -0.096939236 0.25138733 0.15219325 -0.12389285
0.053440955 -0.21850616 0.1966105 -0.062170263 -0.13232124 0.17204593 -0.06475814 -0.11674692
-0.23067872 -0.21475032 -0.23061429 0.21231394 -0.06832209 -0.21123087 0.25802428 -0.16746451
0.0438539 -0.13848333 0.19203927 -0.2354667 0.22290097 0.046288446 0.20079617 -0.04102653
-0.22673976 0.11584904 0.2174891 -0.22520953 0.033906918 0.21817985 0.18418689 -0.18905972
0.22959186 -0.16336045 -0.03187233 0.16296864 0.21922918 -0.23548712 -0.06817623 -0.2662605
0.19175926 -0.18281853 0.16268091 -0.17744872 0.016658727 -0.23715983 -0.23976696 -0.06532681

sequences.2.weight f4 [32, 64, 3, 3]
00000000: 9eff d4bd b08d 2fbd 6a10 353d 9d4d 803d
00000010: 6952 83bd 145e bd3c 8d93 d6bc 8118 0dbc
00000020: 624b 933d b5b3 ccbd 0d35 fb3d 90c0 153d
00000030: 02c6 873e 8351 3cbe b0a4 b33d 95eb 68be
00000040: 0e64 45be 18fb 0f3e c7e7 953d 9071 60bd
00000050: ac19 b93d bb45 9ebd 7bc0 96bd 545a 613e
00000060: cf20 59be fafe ddbc e670 69bb 6524 cabc
00000070: 8df0 5d3b e72c 323d da4e 913b c11b 04be
00000080: 7c9f 9c3d e032 cc3d 7feb fc3d 5552 813d
00000090: 1e75 04be b35b 50be 27ca 483e 39b9 54be
000000a0: f2b9 043e 34c7 423e 3b44 b8bd 3146 0f3e
000000b0: eaa6 363b 241a c8be 4d9c bc3e 6480 cbbc
000000c0: 0d93 bd3d d1da 4bbd c34d c5bd edf8 02be
000000d0: fad5 87be 0d07 dd3e c1dc ad3d 8f2d f8bc
000000e0: 87e3 593d e6bf d9bd 358d c4bd 3215 1d3d
000000f0: fc1b cdbb ac53 2b3e 9cf1 fc3d be3c 9cbd
00000100: 4f5b 77bc 5d18 663d 9e1b 81bd ad7c 1b3e
00000110: 9132 f03d 96f2 c53d 6061 a23c b22b a8bb
00000120: 8913 183d e94f 01be bdd7 54bc e2ba 913e
00000130: 503d 683e 16b3 993c 74a5 5f3e 1aab b2be
00000140: f3c7 0abe 5353 50be 51a0 f6bd b24b 1d3e
00000150: b68c 7fbe eb6f 033e 10c0 89bd 3171 bdbd
00000160: d8c5 dcbd 2244 f7bc fc40 4e3d 3d12 4bbd
00000170: ce20 013d 2729 7b3d 9607 753d 4e01 e93a
00000180: e73d 713d 16f0 55bb f28e a9bc 0bd2 2bbd
00000190: 2d85 1fbd 0313 a1bc 8a0a a4bd 70e5 c1bc
000001a0: 6efa 903d 60bd c53c 6e33 d5bc 1411 173c
000001b0: ef67 7cbe fb7a 9ebd d79d 713e 5899 80be
000001c0: 618a bf3e 97e3 883d e6e2 913e 5666 18bd
000001d0: 3f78 53be e924 9d3c f2d1 a73d 383f 803e
000001e0: fbc9 953d 94e6 62bd 0774 1c3e 738d 83bd
000001f0: 5888 453b a206 eebc c8f9 9a3e 86e6 273e
00000200: 5aac 8bbe 6f42 923c 7bec 7dbe c84b d7bc
00000210: 334e 833e 49a9 35bd fc88 ee3d 30dc 073d
00000220: 7022 be3d 8bad 043e 54ad 263d 2d23 023d
00000230: e610 583d be7a e23d f5ed cb3d 75aa 213e
00000240: b6c8 783e 2c10 303d a023 003e 8090 573e
00000250: 3e99 00be 0700 0c3e e533 fe3a 1663 9f3d
00000260: 9ae0 4d3e 7ab9 e4bd ef55 1d3d 10e2 643d
00000270: 3e9c 343d abd5 a3bd a4b3 7c3c 08fc a2bd
00000280: 95cd 48be ec17 c7bc 1b98 83bd 0929 573a
00000290: cdac 023e 8730 c0ba 5d1b 813d 837f 48bb
000002a0: 7028 203e 05ab c23c 7398 773a b179 bc3d
000002b0: 1cc8 bebd 0176 1dbd 8cbc 87bd 924e 85bc
000002c0: 2df8 d73c 7cf0 903d 6a30 043e ca8a 10bd
000002d0: 446f b2bd 21bd aabc 5ea4 4abd e7df 383d
000002e0: f9bd 143e 63db babc 1fa0 123e e5b4 01bd
000002f0: 1eb8 cbbd 8910 4b3e 1d8d fb3d 0d80 2d3e
00000300: b9f3 803c 142c d8bc 71d7 013a 5dac 0fbe
00000310: c09b b43c 78e2 6e3d c30f d0bd 5f2f 2ebe
00000320: 919c d7bd 2cfc 05be 7a74 e23d 1d1d 983d
00000330: 387d 79be 8823 1fbe a936 1ebe d222 1a3e
00000340: d240 9d3d 145e 313d 78ac 773d db01 e4bd
00000350: 5e5f c5bc 40d3 87bc 2ffa cdbd 7a05 053d
00000360: 7ba5 87bc 9d99 e8bc 041d dc3d 22bb e63c
00000370: 3ff0 243d d00c cc3d 5af7 a8bc ee95 a53d
00000380: 7ebf 67bd 25b2 d9bc f63e 4dbe 8256 74be
00000390: fa95 663d eda2 033e 6588 fc3c 9cfe 503e
000003a0: b93f 95bd b1d8 e63d 0499 ab3d f2f3 2d3d
000003b0: d9bb 98bd 8b86 58bc f364 9fbd afca 8bbd
000003c0: 21af 13be a0c9 debd bf5e 25bd e590 c9bb
000003d0: d9d7 993d 34af c33c 79c9 363d 0afd bbbd
000003e0: 8e9a 01bd 0fa2 85bd 3030 b0bc c57d 703d
000003f0: 0a8e 4f3d f5a2 8d3d aacb d93d ec2c 663d
-0.104003176 -0.042859733 0.044205107 0.062648036 -0.06412203 0.023116149 -0.026193405 -0.008611799
0.071921125 -0.09995214 0.12265978 0.036560595 0.26518255 -0.18390469 0.08771646 -0.22746117
-0.19276449 0.14060628 0.07319599 -0.0547958 0.090381 -0.07728144 -0.073609315 0.22007114
-0.21203922 -0.027099121 -0.0035620271 -0.024675557 0.0033865303 0.043499853 0.0044344487 -0.12901212
0.07647607 0.09970641 0.12349605 0.06314532 -0.12935302 -0.2034748 0.19608365 -0.20773782
0.12961558 0.19021302 -0.08997389 0.1399162 0.0027870485 -0.39082444 0.36837998 -0.024841495
0.09256563 -0.049769226 -0.096339725 -0.1279027 -0.2653044 0.43169442 0.08489371 -0.030295162
0.053195503 -0.10632305 -0.095972456 0.03835029 -0.0062594395 0.16731137 0.12350771 -0.07628773
-0.015097453 0.05617558 -0.06304096 0.15184279 0.11728395 0.0966541 0.019821823 -0.005132162
0.037128005 -0.1262814 -0.012990889 0.28462893 0.22679639 0.018762153 0.21840459 -0.34896165
-0.13552837 -0.20344286 -0.12042297 0.15360907 -0.2495602 0.12835662 -0.06726086 -0.09250105
-0.10779923 -0.030183855 0.050354943 -0.04957794 0.031525426 0.061318543 0.059821688 0.0017776878
0.058896925 -0.0032644323 -0.020698044 -0.04194836 -0.038945366 -0.019662386 -0.08009823 -0.023668975
0.07079016 0.024138153 -0.0260255 0.00922038 -0.24649023 -0.077383004 0.23595367 -0.25116992
0.37410262 0.06684034 0.28493422 -0.03720697 -0.20651339 0.01918264 0.08194341 0.25048232
0.07313915 -0.055395678 0.15278636 -0.06423464 0.0030141082 -0.029055897 0.30268693 0.16396531
-0.2727993 0.017853944 -0.24797241 -0.026281253 0.256456 -0.044350896 0.116472214 0.03316897
0.09283912 0.12956826 0.040692642 0.031771827 0.05275049 0.110585675 0.09957496 0.1578768
0.24295315 0.042984173 0.1251359 0.21051216 -0.12558457 0.13671885 0.0019394128 0.07782571
0.2010521 -0.11168189 0.03841203 0.055879653 0.044094317 -0.07999738 0.015423689 -0.079582274
-0.19609673 -0.024303399 -0.06425496 0.0008207714 0.12761231 -0.00146629 0.06304047 -0.003059358
0.15640426 0.02376319 0.0009445019 0.09202898 -0.093155116 -0.038442615 -0.06627759 -0.016272817
0.026363457 0.07077119 0.12909093 -0.03528861 -0.087126285 -0.020842137 -0.04947316 0.045135405
0.14525594 -0.02280969 0.14318894 -0.031666655 -0.09947227 0.19830526 0.122827746 0.16943379
0.015741216 -0.026388206 0.0004953063 -0.14030595 0.022046924 0.058321446 -0.10159256 -0.17010258
-0.105279095 -0.13084477 0.110573724 0.07427428 -0.24364173 -0.15540898 -0.15450539 0.15052345
0.07678379 0.04330261 0.060467213 -0.111331664 -0.024093326 -0.016580224 -0.10057484 0.032475926
-0.0165584 -0.028393561 0.10747722 0.028165404 0.04026818 0.09963381 -0.020625759 0.080852374
-0.056579106 -0.026574204 -0.20043549 -0.23861125 0.056295373 0.1285512 0.030826757 0.20409626
-0.07287545 0.11271799 0.08378795 0.042468973 -0.07457704 -0.013215671 -0.077829264 -0.06825768
-0.14422275 -0.10878301 -0.04037356 -0.006151306 0.07511873 0.023887254 0.044625733 -0.09179123
-0.031641535 -0.06525051 -0.021507353 0.058713693 0.05067257 0.06915847 0.10634549 0.056195185

sequences.2.bias f4 [32]
00000000: 2cf8 c1bc af82 d6bc 7af3 edbc c0e1 033d
00000010: f0ec e1bd e6f2 ec3b d353 433b 0d16 cfbd
00000020: ebd8 5f3c 9bc2 19bd e874 07bc 802e 173d
00000030: 189b be3a 28db 463d 8466 fcbd 871d babc
00000040: 91ad 5c3d d2d6 b9bb 4b4c f6bd 4de1 8d3c
00000050: 9293 aebc 41c8 c13d d433 6f3a 195d 223d
00000060: eace 56bd 02df 66bd dbf5 743d 81d0 953d
00000070: 1d8f cd3b 3d5d 2abd 961f ec3d bd11 00be
-0.023677908 -0.026185362 -0.029046763 0.032197714 -0.1103152 0.007231104 0.0029804602 -0.10111628
0.013662557 -0.037539106 -0.008267619 0.03690958 0.0014542071 0.048548847 -0.12324241 -0.022719158
0.053876463 -0.0056713605 -0.120262705 0.017319346 -0.021310601 0.094620235 0.00091248495 0.039639566
-0.052443422 -0.05636502 0.05980478 0.073151596 0.006273164 -0.041592825 0.11529462 -0.12506767

sequences.4.weight f4 [49, 32, 3, 3]
00000000: 4880 83be 867b f33d b058 043c 9bfe 983d
00000010: 73b1 983e 98b5 3e3a f722 67bd 367c 09ba
00000020: 426a 21bb 7486 a83b d5f4 5f3e e0ad 373d
00000030: e660 84bd c792 e03d c85b 9fbd 98b5 bebd
00000040: 2131 543d a9bf bcbc 98b2 aebd fd0a f9bb
00000050: 970c 20bb 8bf2 9e3d a6ed 50bc ee93 9b3d
00000060: 70fc d7bc af47 c4bb 2bb2 41bd 4b56 8bbd
00000070: 703a bdbd 8dbe a8bd 6ae0 573d cf3f 0abe
00000080: 903a f4bc fe0e 1ebd cce5 e6bd 82f8 493c
00000090: 1d7c 093d 6707 d63d ac5b 4bbc eb52 3e3d
000000a0: c0df d63d ed4e f2bc 7d67 8cbd ca59 843d
000000b0: a81b 023c f295 d2bc b9be 593c f05f f1bc
000000c0: 5b80 073e 5d39 f33d 3f59 883d 0de1 26ba
000000d0: b685 5c3d 21a6 ba3c b332 c5bd 3a04 2fbe
000000e0: a770 4b3d 65d3 2fbe 8ab1 a1be fcd0 ac3c
000000f0: 4ce5 2b3d 86f7 3b3d e36a b63d 3a85 573d
00000100: 5d92 3a3c 3b45 93bd c0f6 713d fe1c b73d
00000110: 22be 673d 002f ccbc 7c56 263c 85fe e5bc
00000120: d386 20be 2058 1abe 59e6 8c3c 0a56 0fbe
00000130: 804d 22be dd37 88bd 10a7 55bd d704 d0bd
00000140: 8e23 0a3d 922d 853c a82d 31bc 0924 4e3c
00000150: 2bc3 8f3c 760f bb3c 9210 7f3b b445 843c
00000160: b51b 423d 4a87 77bd daf1 da3d 2c9e a03d
00000170: a500 993c 2c92 c6bc 5c98 1c3b ff49 11bc
00000180: cc3b 1fbd a72d afbc 9ea5 cfbc 9e06 853d
00000190: b1f6 0dbd 1a87 c5bc 595c 92bd 74a2 1abd
000001a0: 8782 52bc 56eb 3d3d 3d49 5f3d 8605 2dbb
000001b0: 0eb7 67bd cefa d2bd 4659 653d 7132 83bd
000001c0: 3f10 fdbd 221e 9f3c 779d c43c 6626 4bbc
000001d0: 45a1 bb3b c7ef d33c 3bfd 96bc 7694 08bc
000001e0: 8fe7 d0bd 939a a3bd 256c 253c 9913 12bb
000001f0: c6a0 69bc 1052 693d b1a5 6f3d 9419 ba3d
00000200: 6253 4e3c a067 d53d bad4 133e c4bb 11bc
00000210: 348b 6f3b 359e 123d 82ed 63bd 7c59 5b3c
00000220: 4f17 3c3c 55cd 523d 8b59 dd3d 10c0 d63d
00000230: 523e 033d 3cd1 d93b ab01 0dbd 7162 333d
00000240: eaa3 96be 7c55 89bd 0fef b33d dcb6 60be
00000250: 2602 ffbd 11d7 4d3d 14dc 703d 9723 463d
00000260: 0c47 9e3c a1a9 37bd 5294 303d f296 88bd
00000270: d3fa ed3c 14f2 723d 7556 09bd 182f 343b
00000280: d116 183d 0f28 413d e3f9 693d 8b22 af3d
00000290: 47ac 133c b344 ae3d 5e07 af3d 8349 9d3d
000002a0: 0d91 b53b e939 2abd 0db6 7dbd d010 24bd
000002b0: 9499 e0bd f354 51bc 8e86 073b 242c d1bd
000002c0: 8f14 82bc 789f 283d 5f45 613d 2749 b33b
000002d0: f04d debd b23d dd3d 7623 5ebd 0e1c eebd
000002e0: 0bc4 72bc 81b7 22be 1438 063d 025c 6d3d
000002f0: 6df7 323d fe1b 93bc c363 73bd 8386 9fbc
00000300: 8366 a5bd c32b e7bd 0640 4fbd 41aa b4bd
00000310: ff9f cbbd 2927 d9bc 0dd6 41bc 0e48 453c
00000320: 3522 113d 7780 1dbd 6ba6 013e 5652 9a3c
00000330: d7ed c3bc 6aa1 e83c 9087 1d3d b098 e23c
00000340: 61c2 5abd ad75 c3bc 4bd7 d6bc 5754 03be
00000350: 171d 92bd 6180 02bd 367f 3ebd 548d 1dbd
00000360: 2adb 0b3d a4cb 823c c924 7e3b ed6d a43d
00000370: 217c 513d c9dd b53c 789e 5cbd 7f6e 4c3c
00000380: d4e9 62bb c348 9d3d 9044 b93d 59a7 2dbd
00000390: e1a2 653b d995 863d ab46 49bd 1a4e 18bd
000003a0: f017 a83d e8b1 fe3c e1bd 69be fbbc fbbd
000003b0: 99b7 a63d f9c0 75be 8cd9 38be f8dc 623d
000003c0: c271 a53d b558 d03d 67ce 1a3d e88b 1cbd
000003d0: f539 84bd 7081 8d3c fdb4 103d 94c1 b2bd
000003e0: 9f3b 323a b1bb 40bd 1862 6c3b 6ce9 73bd
000003f0: 215c 243d 7412 2d3d 4d07 8abd 5ae3 d5bd
-0.25683808 0.118887946 0.008077785 0.07470437 0.29822883 0.00072749844 -0.05642983 -0.0005244644
-0.0024629985 0.005142981 0.2187074 0.044843554 -0.064637944 0.109654956 -0.07781178 -0.0931198
0.051804665 -0.02304061 -0.08530158 -0.007600187 -0.0024421567 0.07761105 -0.012751972 0.07596575
-0.026365489 -0.0059899907 -0.047289055 -0.068035685 -0.09239662 -0.0823947 0.052704252 -0.13500904
-0.029813081 -0.038588516 -0.11274299 0.012327315 0.03356563 0.10450631 -0.012411993 0.046465795
0.10491896 -0.02957865 -0.06855676 0.064624384 0.007941164 -0.025706265 0.013290101 -0.029464692
0.13232557 0.118761756 0.06657647 -0.00063659326 0.053838454 0.022784295 -0.09628811 -0.17091456
0.04966798 -0.17170484 -0.31580764 0.021095745 0.04196672 0.045890354 0.08907106 0.05261729
0.011387435 -0.07190939 0.05907321 0.08941077 0.05657781 -0.024924755 0.010152455 -0.028075466
-0.15676431 -0.1507268 0.017199682 -0.13997665 -0.15849876 -0.0665128 -0.052161276 -0.10157173
0.033725314 0.016257081 -0.010814108 0.012581834 0.017549118 0.02283452 0.0038919789 0.016146518
0.047389705 -0.060431756 0.10690661 0.07842669 0.018677065 -0.024239622 0.0023894524 -0.00886774
-0.038875386 -0.021384073 -0.025347527 0.06495403 -0.03465909 -0.024112273 -0.0714652 -0.037752584
-0.012848503 0.046367012 0.054513205 -0.0026400997 -0.05657106 -0.103017434 0.05599334 -0.06406105
-0.12356614 0.019423548 0.024000866 -0.012399292 0.005726012 0.02587117 -0.018431297 -0.008336177
-0.10200416 -0.07988467 0.010096584 -0.0022289513 -0.014259523 0.056963027 0.058507625 0.0908691
0.012593122 0.104201555 0.14436617 -0.0088948645 0.0036551477 0.03579541 -0.055646427 0.013388034
0.011480167 0.05146535 0.108080946 0.10485852 0.032041855 0.006647257 -0.03442542 0.043795053
-0.29421932 -0.06705758 0.08785831 -0.21944755 -0.12451582 0.05025393 0.058803633 0.048373785
0.019320987 -0.044839505 0.0431102 -0.066694155 0.029050266 0.059312895 -0.033529717 0.002749389
0.037131134 0.047157343 0.057123076 0.085515104 0.009013242 0.08509197 0.08546327 0.07680037
0.005540973 -0.041559134 -0.061941195 -0.040055096 -0.10966793 -0.012776601 0.0020679566 -0.10213497
-0.015878944 0.041167706 0.054997798 0.005471367 -0.10854709 0.10802783 -0.054233037 -0.11626445
-0.014817248 -0.15890314 0.032768324 0.057949074 0.043692995 -0.017957684 -0.059421312 -0.01947332
-0.08076193 -0.11287644 -0.050598167 -0.08821536 -0.09942626 -0.02650793 -0.011830819 0.012041105
0.035433013 -0.03845259 0.1266114 0.018838089 -0.023917122 0.02839728 0.03845936 0.027660698
-0.05340803 -0.023859823 -0.026225707 -0.12825142 -0.07134455 -0.031860713 -0.046508037 -0.03846486
0.034144558 0.015966244 0.003877925 0.08028779 0.05114377 0.022200482 -0.053862065 0.012477516
-0.0034624236 0.07679894 0.090462804 -0.042395923 0.003503971 0.0657155 -0.04913966 -0.03718386
0.08207691 0.031090692 -0.2282634 -0.122919045 0.08140487 -0.23999394 -0.18051738 0.055386513
0.08078338 0.101731695 0.037794497 -0.038219362 -0.06456367 0.017273635 0.035328854 -0.08728328
0.00067990454 -0.047053996 0.003606921 -0.05954878 0.040126923 0.042253926 -0.06739674 -0.104437545

sequences.4.bias f4 [49]
00000000: c613 80bb b5b6 69bd 5d9d 50bd 526a fd3b
00000010: 5138 c9bc abab 8abb b030 08bd 745d 08bd
00000020: c7f3 20bd 98eb 0bbd e44d e9bc 7572 2bbb
00000030: 0d4b 64bd 223a 69bc bac0 4a3b 36e9 13bd
00000040: b755 2dbc 4dc6 04bd a6e5 0dbd 516e 283c
00000050: 1c4e 4ebd 847b 7cbc d4cf 31bc 2321 9e3c
00000060: 126c 50bd 843b 4dbd 6cfb 4dbc e135 303d
00000070: dd97 2cbd 5bd8 94bc 69ab ca3c 1ba8 a3bc
00000080: da0c debc 07e7 0cbc 74ba 9a3c a2e1 51bc
00000090: 8a38 c6bc 616d 2bbd 6a8b 8f3c 5259 0abc
000000a0: 6e27 fd3b 11ac 233d 7468 9dbc f948 07bd
000000b0: c673 87bc b03d a0bb b2d3 34bd 492f d8bc
000000c0: 2be5 8b3c
-0.003908607 -0.05705901 -0.050931323 0.0077336216 -0.024562987 -0.00423189 -0.033249557 -0.03329225
-0.039294984 -0.034160227 -0.028479524 -0.002616075 -0.055735637 -0.014235051 0.0030937628 -0.03611108
-0.010579518 -0.032415677 -0.034642838 0.010280208 -0.05036746 -0.015410308 -0.010852773 0.01930291
-0.050884314 -0.050105587 -0.012572151 0.043020133 -0.042137016 -0.018169573 0.024739938 -0.01997762
-0.027105737 -0.008600003 0.018887736 -0.012810143 -0.024196882 -0.04185236 0.017522532 -0.008444147
0.0077256477 0.039959017 -0.019214846 -0.033028577 -0.016534697 -0.004890166 -0.0441472 -0.026389735
0.01707705
