saved_models/UPSCALE_X7/epoch_80.pth (torch, 139743 bytes, 6 tensors)

sequences.0.weight f4 [64, 1, 5, 5]
00000000: 564f e13c d10b 493e 65d2 173c bc45 c6bd
00000010: dc6e 403d f3b9 313e 4361 833d 1030 b83d
00000020: 9732 503e 38ae 243e 1791 05bd 6803 b53d
00000030: b47a bdbd 856b d63d 7d79 11be 71e3 36be
00000040: 3e82 a1bd 1e1a 81bd 41e8 993d b586 613d
00000050: 0ae9 39bd d061 0cbe cb8e 44be 0f87 3f3c
00000060: ca6b e4bc 34c0 fdbc 9b19 633e ea48 c03d
00000070: 26a7 073e 5b32 47be 82c2 fa3d 6554 3e3d
00000080: 95cf 8cbd b37b 913d 23cd 8c3d bf81 423e
00000090: 0a28 1f3e 88a3 71bc 0933 633e 08c1 22be
000000a0: de68 29bd 8274 12bd 4ef0 283e 8cd7 2dbe
000000b0: c717 d7bd bed3 04be 0f2a b3bd 00ce 21be
000000c0: febe 253e d582 313d 2dfc 883d 4cdd 1c3e
000000d0: 4915 24be 18fb 923d b829 3fbe f655 313c
000000e0: 351c 80bc 2a13 1dbe 14e5 12be 26fa 46bc
000000f0: d067 0c3e e5f4 323e d11c 50be ab01 c43d
00000100: 9791 9bbd d9c5 52bd fd89 ad3d e88b 13be
00000110: 24c6 383e 3849 3b3e 9a2e fe3c 4a16 1cbe
00000120: 6b82 4ebd bf3c 19be 8bc3 97bc 4612 243e
00000130: 9549 0ebc 698e c4bd 6ac1 443d 2a74 353e
00000140: 949b 4ebe efef 1c3e 31b9 2b3e eae0 1b3e
00000150: 41d0 2fbd dcf2 af3d 1aad 39be 082d a8be
00000160: c2b4 963d 4b52 02be b8fd b53d 5888 20bd
00000170: 4cce 873d 4634 a13c 4ca8 eebd a142 ec3d
00000180: c2b7 1bbe 5211 51be 2cc5 f43d 1ca9 043e
00000190: f419 82bd a741 893d 945a 0abd 6ac0 213d
000001a0: 8e42 bbbd 9570 4fbe 87ea 483e 72d8 47be
000001b0: e678 06be 598a 223d 74c9 cebc 10c3 123e
000001c0: be47 76bd 0120 2cbe 1f6b 3c3e 3d9b 193e
000001d0: ff30 78bd 8312 60be d528 663e b5b3 623d
000001e0: 8889 83bd 1482 9bbd 94c5 d5bd 2f3b 173e
000001f0: 3a08 9abd 654c a4bd f949 003e 7536 3abe
00000200: 3af1 96bd 15a2 133e 1e47 29bd ccc9 703e
00000210: 05ab 7cbe 6f2b b0bc fe7a 1cbe 886b 1f3d
00000220: 2963 8d3d a684 883e dac0 323e e5d8 5a3d
00000230: f03f 5fbe b5f9 b93d 1886 e13d d8c5 69be
00000240: ae7e 0e3e 8a38 1ebe 35d1 073e 43f5 27be
00000250: 4294 2d3e 8f50 fc3c 3304 953d d05e 273e
00000260: 393b 473b 6970 283c 69d0 83bd 9f6f 9f3d
00000270: f45c 4b3e e983 093e ee6c 73be 8d5a 0fbe
00000280: f908 49be 1430 ebbc b8e4 5cbe a22c 843d
00000290: aa7e bbbc 197b 323e 1a57 8dbd 8ef4 123e
000002a0: c927 49bd 930f 12bd b3c1 0a3e 5df3 193e
000002b0: d233 7b3d 25ee 393e 7be5 37bd b069 bf3d
000002c0: 29a4 e0bd 54c5 a83d 796b b4bd 8c72 f8bd
000002d0: 1a8f 03bc 8ea4 8c3e 8865 333e 545a 583e
000002e0: c051 b3bd 1d8b b2bc 2206 9d3e 20f6 353e
000002f0: 0495 36bd 6f8b 0f3e 609b c63d 7c3c 9f3d
00000300: 4be8 28be 3a70 893d da27 763e c6fa 34be
00000310: 02c4 9cbd f0b8 5c3e 15c6 03bc b571 ca3d
00000320: 037b 1f3e 69e9 423e 8c55 09be 42d9 31be
00000330: 4594 323e 11d0 03be f582 66be e52b af3d
00000340: 7014 123e b749 40bd e6c6 0dbd 472a e7bd
00000350: 1382 493e c2d8 bfbd b35c 3cbd 8896 ef3d
00000360: bca1 3abe 28ba 09be 5fdd 05be ca08 603d
00000370: cf55 37be af0b 843d b076 253e ce00 09be
00000380: 3e8b 0cbe bddb 16be f5e6 5abd 5d27 873d
00000390: 2ba1 c9bd cf62 1f3e 5fb6 ee3d 95a2 a8bd
000003a0: 0faf 29be 1203 64be 6c48 4ebe 154d f43d
000003b0: 2c1c bb3d 988e 823e d7a2 b83d aa0d 743b
000003c0: e7d1 673d 84b6 b63d 7e6c f9bc 0d9b 263e
000003d0: de90 1a3e 6b65 883d bb0f 2ebe 4bf8 53bc
000003e0: 145a 223e 1455 1dbd 3cb1 e0bd 7982 393e
000003f0: 4e40 0dbe e694 303d c25e 1dbe 2700 fd3d
0.02750365 0.19633414 0.009266471 -0.096812695 0.046980724 0.1735609 0.064150356 0.08993542
0.20331798 0.16082084 -0.03260907 0.0883854 -0.092519194 0.104697265 -0.142065 -0.178602
-0.0788617 -0.063038096 0.07515002 0.055060107 -0.04538826 -0.13709188 -0.19195096 0.011689915
-0.02788343 -0.030975439 0.22177736 0.09388907 0.13247356 -0.19452803 0.12244131 0.046467204
-0.06875531 0.07103672 0.06875064 0.18994807 0.15542617 -0.014748462 0.22187437 -0.15893948
-0.041359775 -0.03575564 0.16497919 -0.16976756 -0.10502582 -0.12971398 -0.087482564 -0.15801239
0.16186139 0.04333766 0.06688724 0.15318793 -0.16023745 0.071767986 -0.18668258 0.010823717
-0.01563845 -0.15339342 -0.14345199 -0.012144601 0.13711476 0.17476232 -0.20323493 0.09570631
-0.075961284 -0.051458213 0.08473585 -0.14408839 0.18044335 0.1828965 0.03102808 -0.15242878
-0.050417345 -0.14964579 -0.01852586 0.16022596 -0.0086845355 -0.09597475 0.048036017 0.17720094
-0.20176536 0.15325902 0.16769864 0.15222517 -0.042923216 0.085912436 -0.1813244 -0.32846856
0.073586956 -0.12726705 0.08886284 -0.039192528 0.06631145 0.019678246 -0.11653194 0.11536146
-0.15206817 -0.20416763 0.1195167 0.12955135 -0.063526064 0.06701975 -0.03377779 0.03949014
-0.09143554 -0.2025779 0.19620715 -0.19516161 -0.13132057 0.03968272 -0.025242545 0.14332223
-0.060127012 -0.16809084 0.18400238 0.15000625 -0.0605936 -0.21882062 0.22476514 0.055347163
-0.064227164 -0.0759317 -0.10438076 0.1476867 -0.075211 -0.080223836 0.12528218 -0.18184836
-0.07370229 0.14417298 -0.04132759 0.2351448 -0.24674614 -0.021505086 -0.15281293 0.03892091
0.06903679 0.26663703 0.1745638 0.053429503 -0.21801734 0.09080831 0.110119045 -0.22829378
0.13915512 -0.15451255 0.132634 -0.16402154 0.16951087 0.030800132 0.072761916 0.16344762
0.003040029 0.010280707 -0.064362355 0.07784962 0.19859678 0.13429226 -0.23772022 -0.13999386
-0.19632329 -0.028709449 -0.21571624 0.064538255 -0.022887547 0.1742977 -0.06901379 0.14351103
-0.049110208 -0.035659384 0.13550453 0.15034242 0.061328717 0.18157251 -0.044896584 0.0934633
-0.10968811 0.08240762 -0.08809561 -0.12131223 -0.008029724 0.27469295 0.175192 0.21128207
-0.08755827 -0.02179485 0.3066874 0.1776967 -0.044575706 0.14018033 0.09697604 0.07775208
-0.16494863 0.06710859 0.2403864 -0.17673787 -0.07654573 0.21554923 -0.008042832 0.09884969
0.15574269 0.19034351 -0.1341154 -0.17368034 0.17439373 -0.1287234 -0.22510894 0.08553294
0.14265609 -0.0469453 -0.034613512 -0.11287361 0.19678526 -0.09367515 -0.045986842 0.116986334
-0.1822576 -0.13449919 -0.13072728 0.054695882 -0.17903827 0.06447541 0.16158557 -0.13379213
-0.13724992 -0.14732261 -0.053442914 0.06599305 -0.098451935 0.15565036 0.11655878 -0.08234135
-0.16570686 -0.22266796 -0.20144814 0.11928765 0.09136233 0.25499415 0.09015434 0.003723959
0.056596663 0.08921531 -0.03044724 0.16270085 0.15094325 0.06659969 -0.16998188 -0.012937616
0.15854675 -0.038411215 -0.10971305 0.18116178 -0.13794062 0.04311075 -0.15368178 0.12353545

sequences.0.bias f4 [64]
00000000: 7248 55be 80cc b4bd 1cd4 233e c230 5d3e
00000010: 441c 113d e012 cebd a1ae 6dbd 9aac 7a3e
00000020: b8fe 403e 9d10 40be 5539 a2bd 8cea 7b3e
00000030: 8d53 ccbd 0510 823e aaca 1e3e c547 07be
00000040: 5716 5b3d e47e 61be 54e0 4a3e 7baa 80bd
00000050: 06d8 0cbe 977f 343e 9269 7bbd 0b1e f1bd
00000060: 3160 73be 8ca2 5dbe 1dd0 71be 8e02 5f3e
00000070: d966 91bd 7262 5abe 14db 863e 2db1 2cbe
00000080: ef9f 363d 82f0 0fbe 96b6 473e cf71 76be
00000090: 557f 653e 7df3 433d e194 4f3e 3615 2bbd
000000a0: ba0e 6bbe 3651 ee3d 4d2f 613e 3391 68be
000000b0: 61a9 f73c e6c6 603e 0a27 3f3e efb1 41be
000000c0: dbad 6f3e 259d 27be eda5 f9bc f0cf 2d3e
000000d0: 5c91 633e f267 73be e9cb 8dbd c64c 8ebe
000000e0: 4114 463e f09a 3fbe 1437 2a3e b020 37be
000000f0: fac7 833c 852b 75be 94f8 77be a82d 8ebd
-0.20828417 -0.08828068 0.15998882 0.21600631 0.035427347 -0.10062194 -0.058027867 0.24479905
0.18847167 -0.18756337 -0.079210915 0.24601191 -0.099768735 0.25402847 0.15506998 -0.13210972
0.0534881 -0.22021061 0.19812137 -0.062825166 -0.13754281 0.17626797 -0.061379977 -0.11773308
-0.23767163 -0.21644038 -0.23614545 0.21778318 -0.07099695 -0.21326616 0.26339018 -0.16864462
0.04458612 -0.1405659 0.19503245 -0.24066852 0.22411855 0.04783963 0.20271637 -0.041768275
-0.22954836 0.116365835 0.219907 -0.22711639 0.030232133 0.21950874 0.18667236 -0.18915533
0.23406164 -0.1636854 -0.030474627 0.16973853 0.22223419 -0.2377012 -0.069236584 -0.27792948
0.19343664 -0.18711448 0.16622573 -0.17883563 0.016086567 -0.23942383 -0.24215919 -0.06942302

sequences.2.weight f4 [32, 64, 3, 3]
00000000: 476c d4bd 523c 53bd 873a 513d 7460 823d
00000010: 39f9 83bd 5843 f73c e62f 05bd 6b0a 5ebc
00000020: a9d5 8e3d 3cd9 d5bd 97de 043e ed22 3d3d
00000030: 89c3 8d3e 28a5 41be 8bd5 ae3d bef6 6fbe
00000040: b7fe 45be fc5d 0a3e 1be5 923d d398 64bd
00000050: 8c37 9a3d d23f 86bd 8853 8fbd cc98 633e
00000060: 7128 56be dce5 a0bc d519 71bc eeb9 eabc
00000070: 440e 0f3c 7125 003d 9e62 c53b db52 07be
00000080: 3cf6 a23d 3f55 b93d c597 033e 298f 603d
00000090: b790 f5bd a9c5 5ebe 4d61 4b3e 7fe4 4ebe
000000a0: c86f 043e 0cc6 403e cda0 b5bd f59c 163e
000000b0: 1e8d 8c3b 97d4 c5be f497 bd3e 194b d2bc
000000c0: c3dc cf3d a835 60bd 378d c6bd ff5c e3bd
000000d0: 6615 8cbe 5d56 e23e e3b9 c03d 7ce8 02bd
000000e0: e4c6 4f3d b2ca e7bd bf95 d0bd 6b27 103d
000000f0: 918d 48bc 28e8 2a3e 1b2a df3d 1897 a0bd
00000100: 995c 32bc 130c 703d 931a 6abd 8d9e 213e
00000110: 5dad f23d 33d2 cb3d 6e6e ad3c e146 77bb
00000120: 2489 9e3c ec10 11be 1aeb 29bc d4e6 923e
00000130: a980 723e 02c7 e13c eea3 583e 267c c0be
00000140: dd4c 0ebe 9ef6 4abe fd14 f6bd 2148 1f3e
00000150: e839 7ebe 21f9 073e 3aa6 8abd fe3b a9bd
00000160: e204 cdbd 2496 c2bc d789 6b3d 5f13 6bbd
00000170: 8e35 eb3c ae97 743d 6d17 763d 9464 65bb
00000180: b485 793d b43d b6bb 6595 bbbc f4f2 30bd
00000190: 80fd 0bbd 164c bbbc 120d a5bd 8032 96bc
000001a0: 2cf5 8f3d 0a64 d53c 38c7 c0bc 9789 ec3b
000001b0: 49f0 74be 9c7a a2bd 33c4 6e3e 14eb 81be
000001c0: f7ca c33e 667a 803d a3fd 943e 6618 debc
000001d0: efdd 67be 2ea1 0d3c ca80 ae3d 4410 753e
000001e0: a475 a23d 592b 66bd f124 133e 865b 89bd
000001f0: 2ff2 563c ca10 3fbd e870 993e e929 343e
00000200: 1b21 8ebe c935 1c3c e635 7fbe f73b ccbc
00000210: 9fcc 893e 7abc 4dbd 1ee4 fa3d 6156 653c
00000220: dd55 983d de99 023e 46d7 cf3c b7ea 8e3b
00000230: 9dfb 1e3d 9f15 e53d bd19 c03d 1625 2e3e
00000240: 3116 6a3e 413e 0d3d 95d0 f23d c097 5c3e
00000250: 7216 fbbd 8211 063e aa2f 53bb ba24 9a3d
00000260: ceaf 4f3e 752e e6bd 72ca 113d e1dc 4a3d
00000270: 4325 603d 084d a6bd 1a57 103c 2a7b 92bd
00000280: 1966 41be a638 27bc 9f50 80bd b17d f23b
00000290: 7d80 fb3d 3cce 3fbb b114 8d3d 1342 61bc
000002a0: ee0e 1e3e 74f8 fd3c 92d2 973b c263 c63d
000002b0: daaa cdbd 6999 0cbd 5dc1 7ebd 89d9 86bc
000002c0: 8e29 d73c e5c6 873d 5b3e 043e 4484 33bd
000002d0: dc40 c4bd da04 e1bc 2590 56bd 7d4e 4b3d
000002e0: d9a1 1f3e 9741 c6bc b5d5 193e 077a 13bd
000002f0: 791d babd 964c 5f3e 4216 ff3d cda4 2e3e
00000300: 2395 b43c 707e 0abd fe4d 9dba 25a3 f4bd
00000310: bf8a b73c 1739 823d da9c ccbd 9f42 32be
00000320: beb0 f0bd 3172 02be 30da f33d ad70 953d
00000330: 5eb7 82be cb1d 26be df13 30be cf51 213e
00000340: ff06 9a3d 0ae3 4b3d cc2c 823d d4b9 edbd
00000350: 40ee 85bc 96bf 9dbb eb58 cbbd d600 1c3d
00000360: eb4b 80bc 4532 03bd daa6 d23d c1b4 013d
00000370: 0770 213d f1e0 cb3d e2d2 99bc 83c2 b33d
00000380: 2fb9 7fbd 4d23 d6bc 58ee 60be a6d9 80be
00000390: 667e 7d3d 32be 133e 00ea 9d3c 1dab 593e
000003a0: 63b6 b7bd a81c e03d 72f4 b93d 19c0 2a3d
000003b0: a63e 95bd d3d6 9bbc e09e aebd 3526 86bd
000003c0: 3b06 1abe 3b36 e4bd 3443 19bd cf1d 4cbc
000003d0: 10ba aa3d 662e f13c 3030 2a3d f322 cabd
000003e0: b662 0cbd f19c 95bd 5413 bebc fbcb 6c3d
000003f0: 8e73 5b3d 1c78 8c3d 4b25 de3d 625c 5b3d
-0.10372215 -0.051571198 0.051081207 0.06366053 -0.0644402 0.03018348 -0.032516383 -0.0135522885
0.06974346 -0.10441825 0.12975536 0.046175886 0.27688244 -0.18910658 0.08536824 -0.23433968
-0.19335447 0.13512415 0.07172605 -0.055809807 0.07530126 -0.065551415 -0.06998354 0.22226256
-0.20913865 -0.019640855 -0.0147156315 -0.028653111 0.0087314285 0.031285707 0.006023719 -0.132152
0.07957122 0.090494625 0.12850864 0.05482403 -0.11990493 -0.21755089 0.19861336 -0.20204352
0.12933266 0.18825549 -0.08868561 0.14708312 0.0042892834 -0.38638756 0.37029994 -0.025670575
0.10149529 -0.05473867 -0.09694903 -0.11101722 -0.27360076 0.44206515 0.09410455 -0.031959996
0.050726786 -0.11317958 -0.10184812 0.035193842 -0.012240783 0.16690123 0.10896703 -0.07841319
-0.010886335 0.058605265 -0.05715425 0.15783139 0.11849473 0.09952202 0.021170821 -0.0037731456
0.019352503 -0.14166611 -0.010370994 0.28691733 0.23681892 0.027560715 0.21156284 -0.37594718
-0.13896509 -0.1982064 -0.12015722 0.15554859 -0.24826777 0.13278629 -0.067699865 -0.08263396
-0.10010697 -0.023753233 0.0575045 -0.05739152 0.02871206 0.059714966 0.060080934 -0.0035002576
0.060918525 -0.005561555 -0.022898385 -0.04320045 -0.034177303 -0.022863429 -0.080591336 -0.018334627
0.07029185 0.026048679 -0.023532495 0.0072185504 -0.23919787 -0.07933542 0.23317032 -0.25374663
0.38240787 0.06273346 0.2909976 -0.027111243 -0.22643255 0.008644385 0.08520658 0.23931986
0.079325944 -0.056193683 0.14369561 -0.0670691 0.0131192645 -0.04664687 0.29968953 0.17594112
-0.27759632 0.009534308 -0.24922904 -0.024930937 0.26913926 -0.050228573 0.12250541 0.013997645
0.07438252 0.12754008 0.025371205 0.0043614763 0.038814176 0.111857645 0.09379909 0.17006335
0.22860028 0.034483198 0.1185619 0.21542263 -0.122601405 0.13092616 -0.0032224455 0.07526536
0.20281908 -0.1123933 0.035593458 0.049527053 0.054723036 -0.08120161 0.008809829 -0.07152398
-0.18886603 -0.010206377 -0.06265377 0.0074002375 0.122803666 -0.0029267212 0.06888712 -0.0137486635
0.15435383 0.03100226 0.0046332562 0.09686996 -0.10042353 -0.03432599 -0.062196124 -0.01646115
0.026264932 0.06629733 0.12914412 -0.04382731 -0.095826834 -0.027468134 -0.05238356 0.0496354
0.15589084 -0.024201198 0.15022929 -0.036005046 -0.09087653 0.21806559 0.12455417 0.17055054
0.02204377 -0.033811986 -0.0012001393 -0.1194518 0.022405026 0.06358545 -0.099908546 -0.17408226
-0.11752461 -0.12738873 0.1190685 0.07296882 -0.25530523 -0.16222303 -0.1719508 0.15753864
0.07520866 0.04977707 0.063562006 -0.116077095 -0.016348958 -0.0048140986 -0.09929069 0.038086735
-0.0156612 -0.032030363 0.10285731 0.03166652 0.03941348 0.099550135 -0.018777315 0.087773345
-0.062432464 -0.02613988 -0.21965921 -0.25166053 0.06188812 0.14428023 0.019276619 0.21256681
-0.089703344 0.10942966 0.09079827 0.041687105 -0.0728734 -0.019023335 -0.08526397 -0.06550256
-0.15041439 -0.11143156 -0.037417606 -0.012458279 0.0833627 0.02944107 0.04154986 -0.09869947
-0.034273826 -0.07305325 -0.023202576 0.05781172 0.053577 0.068588465 0.10846957 0.0535549

sequences.2.bias f4 [32]
00000000: 3f91 adbc c659 dabc 9d3a fcbc ff4d 023d
00000010: b174 edbd 73bb 053c 44b6 ffba 7a6d dfbd
00000020: 4162 103c 5dbd 1abd 00f4 01bc 0f55 1e3d
00000030: bba1 883b a28b 453d d737 03be 900f a2bc
00000040: ea95 683d 74ee 8fbb d1f9 00be 6edf 983c
00000050: fd0b babc 497b ce3d edbd 803a 7fdf 1c3d
00000060: 40c5 5ebd 0eba 62bd f066 6c3d c358 963d
00000070: 4245 d03b ed2f 2bbd 6a35 ef3d dbcd febd
-0.021187423 -0.026654135 -0.030789668 0.031812664 -0.11594523 0.008162367 -0.0019509275 -0.10909553
0.008812488 -0.037778247 -0.007931709 0.038655337 0.0041696704 0.048228867 -0.1281427 -0.019782811
0.056783594 -0.0043924395 -0.12595297 0.018661227 -0.022710795 0.100821085 0.0009822227 0.03829908
-0.05438733 -0.055353217 0.057715356 0.07341149 0.0063559124 -0.041793752 0.1168011 -0.124416076

sequences.4.weight f4 [49, 32, 3, 3]
00000000: 150f 83be c06f f93d a156 ce3b 6efe 9e3d
00000010: da47 993e c110 26bc e3e1 50bd 659a 07bc
00000020: 62c6 23bb 68ea 08bc efea 5c3e 5c1e f63c
00000030: 58a1 19bd 29b0 f73d ca29 5fbd 772a d7bd
00000040: 801d 453d a763 12bd cb1c bdbd 1a10 1c3c
00000050: 0ce0 c23a 159c a93d 1804 26bc 9bcc 9c3d
00000060: f607 edbc 1785 c5bb a61f 38bd 0ab4 a8bd
00000070: 27b8 bebd dc5e cabd b317 7d3d 201b 08be
00000080: ccb1 03bd 09a9 08bd 1fed e4bd 118f b73c
00000090: 9891 093d fb0e db3d da4f 82bc 87f2 4d3d
000000a0: 3897 e13d 449f 0cbd 918c 8fbd 327b 7b3d
000000b0: 2980 983b 910a d9bc 77c2 b43c 723a b9bc
000000c0: 36ab 0d3e 7a03 003e b21b 833d ee07 583b
000000d0: a4ff 693d 7760 a43c 9c57 d7bd b332 33be
000000e0: d393 5c3d 34a8 3bbe b082 a5be bb67 b73c
000000f0: e598 403d 34e9 4f3d 8594 a83d d995 663d
00000100: fd13 7d3c 8c54 98bd 354f 873d 1660 c13d
00000110: cca2 523d 3cf1 efbc f95b 973b e8cc f4bc
00000120: 7f37 2abe 275b 25be 51dd aa3c ee85 0fbe
00000130: c632 22be 4b51 85bd 587f 4ebd e96e cdbd
00000140: fa9d 183d 6473 7f3c 1e59 bcbb 947b b83c
00000150: ad1b 1b3c d580 943c 59dd 803b 836a ff3b
00000160: a26c 393d 6aad 80bd f0be 1f3e 4026 b03d
00000170: b15b ea3c a91f c8bc bad3 99bc e2e6 d3bc
00000180: 1d2a e8bc d000 55bc 4d57 34bc ffef 863d
00000190: 1712 1fbd 638f bbbc 8477 97bd cf15 2abd
000001a0: 0934 64bc 335b 333d d5ae 623d afe4 d43a
000001b0: 1de3 64bd cc1b ddbd 2a75 6c3d 1ef5 85bd
000001c0: db2e 06be 565e 863c 008c f63c f2f3 e1bb
000001d0: 2cb5 ca3b eccc e23c 9296 32bc 974b 42bc
000001e0: d1b8 d9bd b377 a6bd 6463 1a3c b422 d8ba
000001f0: 18fa 6fbc f3b4 693d 6a11 763d be87 c43d
00000200: 99ac 583c c1e6 db3d 32bf 163e 15b8 25bc
00000210: 564c 7aba 53ab 023d e02b 6bbd 4374 373c
00000220: 584f 6e3c 5447 4c3d d287 dc3d aec1 dc3d
00000230: da65 f03c be7a 873b 7144 f7bc 0375 3e3d
00000240: dbe8 9abe 12ec 80bd 945a a73d 5061 5bbe
00000250: cf59 08be 42cd 433d 84ee 733d d590 4c3d
00000260: e535 c03c 2fa6 2cbd 4760 1f3d 2dac 84bd
00000270: c98d 073d 72cb 803d e29b f2bc 50c7 1d3b
00000280: af0a 143d aec7 353d dc29 743d dce0 b83d
00000290: 4e0d 273c 532f b83d 0a60 b33d 35c4 9b3d
000002a0: ad5d 5aba d670 41bd 25e0 84bd 4e80 07bd
000002b0: 6e4e f5bd 0ea0 87bc 333d 2fbc 71ba ccbd
000002c0: bbd1 ccbb 77f5 3c3d 5746 553d d72f af3b
000002d0: 550a 05be ec17 0c3e 4c6a 58bd 508c e7bd
000002e0: c5a0 e1bc d2c5 1abe c20c f03c abc3 4f3d
000002f0: 4692 2a3d b88e 82bc 9b70 73bd 1c50 5cbc
00000300: b0f8 a5bd 6ecb e9bd cb2c 40bd 96e6 b3bd
00000310: 2a9f c9bd 6b26 bcbc d40a 90bb 325b 9e3c
00000320: 9517 1f3d 1517 37bd 1f51 073e 9cc4 6b3c
00000330: ea0b cabc a847 033d b03f 1e3d 654c f93c
00000340: a3de 4ebd 366d d2bc 20a8 e1bc a4a9 04be
00000350: 98f8 9cbd d017 c6bc d0c1 43bd 5302 07bd
00000360: 3da7 0b3d 94c6 4a3c 60e3 0e3c 1d4a a23d
00000370: f041 4e3d bb5d ba3c ad17 57bd acf5 0f3c
00000380: 489d b4bb 1460 9c3d cf2a b43d 9341 15bd
00000390: ec10 6f3b bf4a 883d 246d 3fbd 9722 10bd
000003a0: bb88 a53d b25a ff3c b11f 6bbe f27d f2bd
000003b0: 8748 9c3d 357b 6cbe 261c 34be cdde 693d
000003c0: 4a67 a83d 7152 d53d 1494 163d 4de2 17bd
000003d0: 782a 82bd 0d27 883c c858 1e3d 8b6e b9bd
000003e0: 5a82 74ba 09d9 4abd b897 ff3a 3ca7 5cbd
000003f0: 730b 183d c4af 053d b626 92bd 4dbd e4bd
-0.25597444 0.12179518 0.006296948 0.07763372 0.2993763 -0.01013583 -0.050996672 -0.008276557
-0.0024990072 -0.008356668 0.21573995 0.030043773 -0.037507385 0.12094147 -0.054483213 -0.105061464
0.048123837 -0.035739567 -0.092340074 0.009525323 0.0014867797 0.082817234 -0.010132812 0.07656213
-0.02893446 -0.0060278284 -0.044952057 -0.08237465 -0.09312468 -0.09881374 0.06179018 -0.13291597
-0.032151982 -0.03336433 -0.1117804 0.022407087 0.033586115 0.10696217 -0.015907217 0.05028012
0.11015171 -0.034331575 -0.07009233 0.061396785 0.0046539498 -0.026494296 0.022065384 -0.022610877
0.13834843 0.12501326 0.06401767 0.003296371 0.057128564 0.02006553 -0.10514757 -0.17499809
0.053851914 -0.18325883 -0.3232627 0.02238833 0.04702081 0.05075951 0.08231453 0.05629525
0.01544666 -0.07438001 0.066069044 0.09442155 0.051424786 -0.029289834 0.0046191183 -0.029882863
-0.16622733 -0.16148053 0.020857485 -0.14015934 -0.15839681 -0.06509646 -0.050414413 -0.1003092
0.037260033 0.015591476 -0.0057479283 0.022519864 0.009467048 0.018127838 0.0039326367 0.0077946796
0.045269616 -0.06283076 0.1560018 0.086010456 0.028608175 -0.02442916 -0.018777717 -0.02586693
-0.028340394 -0.013000682 -0.011007142 0.06588744 -0.03883561 -0.02289552 -0.07395843 -0.041524705
-0.013928422 0.043788146 0.055342514 0.001624247 -0.055880655 -0.107963175 0.057728924 -0.06540893
-0.13103811 0.016402405 0.030096054 -0.0068955356 0.006186148 0.027685605 -0.010900157 -0.011858842
-0.10630954 -0.081282996 0.009423111 -0.0016489835 -0.014647029 0.057057332 0.0600752 0.09596203
0.013224744 0.10737372 0.14721373 -0.010114689 -0.0009548118 0.03190167 -0.05741489 0.011197153
0.014545284 0.04987271 0.10768093 0.10779129 0.029345442 0.004134505 -0.030184003 0.04649831
-0.3025578 -0.06295027 0.08171573 -0.2142384 -0.1331551 0.04780317 0.059553638 0.04994281
0.023463199 -0.042150673 0.038910177 -0.064781524 0.0330942 0.06288804 -0.029615346 0.0024075098
0.036143 0.044379883 0.059610233 0.090272635 0.010196043 0.089934014 0.08758552 0.07605783
-0.0008329999 -0.04722675 -0.06488065 -0.033081345 -0.1197785 -0.016555812 -0.010695743 -0.099964984
-0.0062505878 0.04613253 0.052069034 0.005346279 -0.12992223 0.13681 -0.052835748 -0.11306059
-0.027542481 -0.15114525 0.029302958 0.050723713 0.041643403 -0.015937194 -0.05943356 -0.013446834
-0.08104074 -0.11415754 -0.046917718 -0.08784215 -0.09844811 -0.022967538 -0.004395822 0.019330595
0.03884085 -0.044699747 0.13214539 0.014390137 -0.024663884 0.03205076 0.038634956 0.030431936
-0.05050529 -0.025686841 -0.027545989 -0.12955338 -0.07664603 -0.024181277 -0.047792256 -0.0329612
0.034095038 0.012376446 0.008721203 0.07924292 0.05035585 0.022749772 -0.052512813 0.0087866
-0.0055119134 0.07635513 0.087972276 -0.03643949 0.0036478592 0.06654882 -0.046734944 -0.035189237
0.0808272 0.031171177 -0.22961308 -0.118404284 0.07631021 -0.23093875 -0.17588863 0.057097245
0.08222826 0.10416115 0.036762312 -0.03708105 -0.063557565 0.016620183 0.038658887 -0.090542875
-0.0009327285 -0.049523387 0.0019500172 -0.053870425 0.037120294 0.032638326 -0.0713629 -0.11168919

sequences.4.bias f4 [49]
00000000: 4eea e5ba 5fdf 66bd 9caa 55bd 2522 d23b
00000010: 9243 d5bc f0f5 91bb ace6 f7bc ae83 00bd
00000020: 8839 21bd aa47 13bd ff66 eabc 0f74 5bbb
00000030: 710d 64bd e2b4 66bc bb24 8d3b d3c3 15bd
00000040: d2b9 55bc 9d1a 0abd 2d48 15bd 49b0 283c
00000050: 830c 48bd 228c 72bc 276d 48bc e5b4 973c
00000060: 9b7d 50bd 8ae4 4cbd ad06 38bc 7b95 303d
00000070: 6eff 2abd 88d1 8cbc 2a07 cc3c c34f a3bc
00000080: 95d3 d7bc f3d0 08bc 1594 a33c e9de 3dbc
00000090: cb28 bebc ed8b 23bd ea0a 923c 3d09 09bc
000000a0: 1c9c e63b ac0e 2b3d 52f0 9dbc 57e8 05bd
000000b0: d040 96bc ad58 9abb 3e95 32bd 7c3d d6bc
000000c0: ceb9 8f3c
-0.0017541142 -0.056365367 -0.05216466 0.0064127618 -0.026033197 -0.004454367 -0.03026136 -0.03137558
-0.039361507 -0.035957016 -0.028613565 -0.0033485924 -0.05567688 -0.014081212 0.004307357 -0.036563706
-0.013044791 -0.033716787 -0.036445785 0.010295936 -0.048840057 -0.014803918 -0.012233055 0.018518874
-0.050901037 -0.05002264 -0.01123206 0.043111306 -0.041747503 -0.017189756 0.02490576 -0.019935494
-0.026346007 -0.008350599 0.019968072 -0.01158879 -0.023212811 -0.039928365 0.01782747 -0.008364019
0.0070376527 0.04176204 -0.019279633 -0.03269228 -0.018341452 -0.004710278 -0.04359936 -0.026152365
0.017544653
