saved_models/UPSCALE_X7/epoch_46.pth (torch, 139743 bytes, 6 tensors)

sequences.0.weight f4 [64, 1, 5, 5]
00000000: c532 c93c 463d 453e 2b9f 4a3c fc88 c6bd
00000010: 6d72 373d 0aa5 2e3e 0983 643d e431 af3d
00000020: e594 493e 1104 223e cd31 ecbc cdef b23d
00000030: 9a0a babd e5ab cd3d 3d9c 0fbe 835b 37be
00000040: 11fa a0bd e37f 7fbd 99d1 943d bdf3 5c3d
00000050: f95b 43bd 1455 10be 92b1 44be 36f7 193c
00000060: 153e d9bc 2f37 11bd 1266 5a3e c998 b63d
00000070: 1aa7 033e dfa9 49be c389 f53d 98cf 223d
00000080: 9d76 8fbd 7bc4 853d 30b7 8c3d cec7 413e
00000090: 33c2 193e ed5e 89bc 7986 5e3e d277 1fbe
000000a0: 3a05 2cbd 182c 14bd 91b2 263e b885 2ebe
000000b0: 8f5c d6bd 834d 0abe 1970 bbbd 8e7a 22be
000000c0: 167c 223e 0511 383d 1871 873d dfb5 153e
000000d0: f484 2abe 360d 8f3d d361 3cbe 4118 3f3c
000000e0: 555b a2bc 96ae 16be dc5d 10be 95d8 45bc
000000f0: 2164 063e ad41 2a3e 4e4b 46be a071 bb3d
00000100: 088c 99bd 7421 4ebd 0852 a83d 2cf1 12be
00000110: d985 323e a81a 3f3e b74e f43c c505 1fbe
00000120: bb98 4dbd afbf 1cbe 8beb 8bbc 72cf 2a3e
00000130: 9cee 86bb f7e4 bcbd 6b01 443d a481 303e
00000140: 290f 48be 7d50 173e 23ff 1a3e 5c19 0f3e
00000150: 8134 40bd f50f a53d 364f 39be c1f3 99be
00000160: ec24 9c3d b212 00be b758 b93d be4f 0fbd
00000170: d99d 823d 4e7a 243c 516d e7bd 1323 da3d
00000180: 576b 1abe e953 4abe 8b19 e33d fb9e 093e
00000190: cf3c 76bd 2d06 853d 46ea 20bd 3f41 1c3d
000001a0: 8eba c0bd d1ba 4abe 911c 443e 12d0 44be
000001b0: 41e3 00be a721 203d 586d c7bc a86b 093e
000001c0: 538f 58bd 4e64 28be 2ca9 363e 3b4c 193e
000001d0: 5528 78bd 92f4 55be a368 5c3e 50d1 5c3d
000001e0: db8d 6cbd d489 93bd f0ac dbbd 1d53 103e
000001f0: 2d41 98bd 002c aabd 1ab3 eb3d 8ceb 3bbe
00000200: 02e9 a8bd 936d 103e 992e 22bd a347 6f3e
00000210: 6b74 6bbe 9d5f 64bc 15dc 1abe 015e 323d
00000220: 4530 7a3d f25c 7c3e 5742 2e3e b0f2 693d
00000230: 527f 5abe 512d bc3d 6aac ed3d daad 5fbe
00000240: 9d6c 103e 73e9 1cbe a22d 083e 9862 23be
00000250: 7ed1 333e ba6e f93c aeba a13d 47c7 283e
00000260: 4fad 143c 498b 843c 6d41 90bd fcbf 9c3d
00000270: 3f44 3f3e 130d 043e 016b 6ebe 061c 0ebe
00000280: e7d0 45be ff9c 99bc d3f8 4bbe ade0 873d
00000290: 0383 c3bc d0ad 2d3e 8dc0 90bd ec1a 0f3e
000002a0: 13be 6dbd 8f18 1cbd 8cdc 083e a377 1b3e
000002b0: 6319 783d 1e66 383e 0f25 15bd 0b45 cc3d
000002c0: 24d5 07be 1c0a a83d fdcf 8cbd bc17 04be
000002d0: bf42 813c c211 843e c180 143e c96b 713e
000002e0: 348f 8bbd de47 0ebc 8a9c 8d3e d570 203e
000002f0: f51e 0fbd 92c3 073e d90d dd3d fcb7 873d
00000300: 0736 2bbe c836 453d 85be 623e 5e86 1fbe
00000310: 2d26 a2bd a753 563e a075 75bc b466 e63d
00000320: 3f5e 1b3e 3b50 413e 4ed1 0bbe 3e02 32be
00000330: 1b4f 363e a31f fcbd a760 58be 9bc0 b63d
00000340: 12db 113e f686 35bd 95ea 19bd 0096 e0bd
00000350: 5ab2 3b3e 6da7 c1bd 1eb2 3dbd b791 e83d
00000360: 8a55 3bbe 8fc4 04be c16e f9bd e91c 5e3d
00000370: 0fd5 30be e324 8e3d 2de6 233e 862a 05be
00000380: 0fa8 10be 9918 19be b421 6cbd 6916 763d
00000390: 328c cebd 859c 1b3e c84e f53d bf59 98bd
000003a0: 2b09 20be 862c 58be 7a4c 4ebe 368a f63d
000003b0: 9a7b b63d 23e3 783e 8bac bb3d 8897 f43b
000003c0: a3ab 663d d7c4 bc3d 7a5c d9bc c4c6 243e
000003d0: 0747 1c3e 14fd 863d fceb 2bbe 1624 dfbb
000003e0: 5866 273e fae7 1cbd be6d cdbd 38a1 453e
000003f0: 1f17 06be 8722 4e3d fabb 13be b57b 043e
0.024560342 0.19261655 0.01236705 -0.096940964 0.04478686 0.17055145 0.055789027 0.08554438
0.19685705 0.15821864 -0.02883234 0.087371446 -0.09084053 0.10042552 -0.14024444 -0.17906003
-0.078601964 -0.06237782 0.0726654 0.053943384 -0.047695134 -0.14094955 -0.19208363 0.009397319
-0.02651886 -0.035453018 0.21327999 0.0891586 0.12856713 -0.19693707 0.119891666 0.039748758
-0.070050456 0.06531616 0.06870878 0.18923876 0.15015487 -0.016768897 0.21730985 -0.15573052
-0.041997172 -0.036174864 0.16279055 -0.17043197 -0.10466873 -0.13506131 -0.0915224 -0.15867063
0.15867648 0.044938106 0.06613368 0.1462016 -0.1665228 0.06984942 -0.18396692 0.011663497
-0.019818941 -0.14715037 -0.14098305 -0.012075563 0.13124134 0.16626616 -0.19364664 0.091525316
-0.07497412 -0.050324872 0.08218771 -0.14349812 0.17433871 0.18662512 0.02982269 -0.15529545
-0.050194483 -0.15307496 -0.01708009 0.16680697 -0.0041178 -0.09223359 0.047852915 0.17236954
-0.19537033 0.14776798 0.1513639 0.13974518 -0.04692507 0.08059684 -0.18096623 -0.30068782
0.0762423 -0.12507132 0.09050124 -0.034988157 0.06377763 0.010038925 -0.11300147 0.10651221
-0.1508001 -0.19758572 0.11088856 0.13439552 -0.060116585 0.064953186 -0.03928592 0.03814816
-0.094105825 -0.19797827 0.19151522 -0.19219998 -0.1258669 0.039094593 -0.024344131 0.13419974
-0.05287106 -0.16444513 0.17837971 0.14970486 -0.06058534 -0.20894077 0.2152429 0.053910553
-0.05775247 -0.07204023 -0.107263446 0.14094205 -0.07434306 -0.083091736 0.1150877 -0.18351573
-0.08247568 0.14104299 -0.03959522 0.23367171 -0.22993629 -0.013938812 -0.15123017 0.04354668
0.06108119 0.24644831 0.17017494 0.05711621 -0.21337631 0.09188331 0.11605151 -0.21843663
0.14103933 -0.15323429 0.13298658 -0.1595558 0.17560384 0.030448306 0.078969344 0.16482268
0.009074523 0.016179698 -0.07043729 0.076538056 0.18678378 0.12895612 -0.23283006 -0.13877878
-0.19317971 -0.01875162 -0.19919138 0.066346504 -0.023866182 0.16960835 -0.07067976 0.13975114
-0.058042597 -0.03810936 0.13365382 0.15182357 0.060571086 0.18007705 -0.036412295 0.099741064
-0.132649 0.08205053 -0.06875608 -0.12899679 0.015778897 0.25794798 0.1450224 0.23576273
-0.06814423 -0.008684127 0.27658492 0.15668042 -0.034941632 0.13258198 0.10793657 0.06626889
-0.16719829 0.048147947 0.2214299 -0.15578601 -0.07917438 0.20930348 -0.014981657 0.11250058
0.15172671 0.18878262 -0.13654062 -0.17383668 0.17803614 -0.12310722 -0.2113062 0.08923455
0.14243725 -0.044318162 -0.03757723 -0.1096611 0.18329754 -0.09455762 -0.046312444 0.11355918
-0.1829435 -0.12965606 -0.12179328 0.05422679 -0.17268775 0.06940629 0.16005774 -0.13004503
-0.1412661 -0.1495079 -0.05764933 0.060079966 -0.10085334 0.15196426 0.11977917 -0.07438993
-0.15628497 -0.21110734 -0.20146361 0.120380804 0.08910294 0.24305396 0.09163769 0.007464353
0.05631603 0.09217232 -0.026533354 0.16091448 0.1526147 0.065912396 -0.1678924 -0.0068097217
0.16347635 -0.038307168 -0.10030697 0.19299781 -0.13094757 0.050325897 -0.14427176 0.12937815

sequences.0.bias f4 [64]
00000000: 027e 4ebe c94a b2bd e167 1d3e 705b 493e
00000010: 10a8 fc3c f051 c9bd 2890 56bd 87ee 663e
00000020: c863 3d3e 249c 3abe a516 98bd 1b5b 733e
00000030: e633 b7bd 7e07 7a3e 3d0f 123e 525b d2bd
00000040: 84e7 553d 7b96 5bbe ddef 443e fca8 72bd
00000050: 5b48 f1bd 141d 263e 98ee 8cbd 475d e7bd
00000060: d82d 5dbe 8600 57be b63c 5abe 3be0 4d3e
00000070: a577 7ebd cfbe 52be 5794 7a3e 07f9 27be
00000080: c0d4 263d 21af 04be b6b6 3a3e ffde 63be
00000090: 7ee3 603e faf8 2a3d 068f 483e 857e 26bd
000000a0: 7604 62be 3c9d e83d b26c 583e 9368 60be
000000b0: d2d6 163d b79b 5a3e fa61 363e 30de 40be
000000c0: c24d 5f3e 06c8 24be fdc1 0dbd cfe0 133e
000000d0: 5d93 593e 5b82 6bbe e8af 86bd c48f 72be
000000e0: 10db 423e 930a 32be 0f22 1d3e 4e5f 31be
000000f0: d534 d03c 923e 6cbe 2c17 6fbe 3dec 64bd
-0.20165256 -0.087056704 0.15371658 0.19663787 0.030841857 -0.098300815 -0.052383572 0.22551928
0.18495095 -0.18223625 -0.07426194 0.23765223 -0.08945446 0.2441692 0.14263625 -0.10271324
0.052222744 -0.21444122 0.19232126 -0.059243187 -0.11781379 0.1622203 -0.06881446 -0.11297088
-0.21599519 -0.20996293 -0.21312222 0.20105068 -0.06212582 -0.205806 0.2447065 -0.1640359
0.040730238 -0.12957431 0.18233761 -0.22253035 0.21961781 0.04174135 0.19585809 -0.040648002
-0.22072014 0.11358115 0.21135214 -0.21914892 0.036825962 0.21348463 0.17810813 -0.18834758
0.21807006 -0.16091928 -0.03460883 0.14441226 0.21247621 -0.22998945 -0.0657652 -0.23687655
0.19028878 -0.17386846 0.15345024 -0.17321512 0.025415817 -0.23070744 -0.23348683 -0.055889357

sequences.2.weight f4 [32, 64, 3, 3]
00000000: 9a09 cebd 68b7 cfbc 7cea 983c cf3c 413d
00000010: 7212 95bd 90d7 bf3b 3555 c9bb cc3a 1ebc
00000020: a35c b43d de3c adbd 5414 dc3d 02a2 0d3d
00000030: 4c28 613e f908 2ebe 9c85 b23d 01b1 3dbe
00000040: 4394 33be f58e 1f3e 9102 973d d982 c1bc
00000050: 7e62 e53d 5535 d4bd a549 99bd 533b 4b3e
00000060: 02f6 48be 7614 4dbd cce2 873c 1664 7fbc
00000070: 718d f7bb 6f9a 4c3d ee84 3db9 ede8 dfbd
00000080: 592d 3b3d 53ac d23d 2159 d43d da7f ab3d
00000090: a6da e3bd 2390 28be 9bce 363e 6ddd 49be
000000a0: 309a fc3d 6b43 343e 80f0 ccbd 63c0 f73d
000000b0: 109f dbbc df02 b9be e384 ab3e 41e1 a7bc
000000c0: 5dcf 953d 7bfd 11bd 3ae1 babd 5f2f 1fbe
000000d0: e29f 7bbe 730a c53e cd46 7f3d 8d12 1abd
000000e0: f639 6b3d 969e acbd 027b 6dbd 1d5c 483d
000000f0: d86b 523a 60f1 253e b0c1 233e b09c 93bd
00000100: fa61 8abc 7ccd 5a3d 4b53 99bd aa8c 0c3e
00000110: 8e31 e13d 8cbc b03d c971 503c cbe1 3fbc
00000120: 78d2 ab3d 9cdc cfbd d43d a6bc 0493 8d3e
00000130: 0f8c 453e 9816 e3bc af84 6c3e c0b8 8abe
00000140: 4f52 03be 428c 44be 8656 c5bd d5af 163e
00000150: 9910 72be a308 ea3d 5e8a 65bd 0397 ebbd
00000160: 9045 02be aa9e 45bd 559e d73c 4ad6 febc
00000170: df69 ee3c f018 6a3d d074 7b3d be61 213c
00000180: 3086 243d 8db6 05bb 27ce 5cbc 48a7 2fbd
00000190: 7fa6 44bd 1d5e 6cbc 5a88 99bd d43d ffbc
000001a0: 0d57 913d 6713 893c 9a38 f0bc 1193 433c
000001b0: 01ec 7abe bbf2 84bd 2c2d 733e 318c 65be
000001c0: 79a4 b33e 7942 be3d ec4b 813e 2742 5dbd
000001d0: 035a 12be 69ca 803d 75fc 8d3d 0410 7e3e
000001e0: 7e5e 873d 279c 4ebd 1e5e 1d3e 2d84 81bd
000001f0: 50ea 6fbc c66e de3b 3c48 8d3e c599 0d3e
00000200: 2a95 81be b324 6b3d 359b 6ebe 32ab c9bc
00000210: 86da 5e3e 62b1 eabc 2c7c c93d 1a97 813d
00000220: 0442 f83d 56cb 063e 1a62 473d 2a0a 823d
00000230: d78e 7d3d 4250 c43d 4070 ca3d bf85 fd3d
00000240: e075 893e 9b54 783d 2ba8 fb3d daa0 3c3e
00000250: 3f79 00be 9a15 073e e6c8 98bb 73cf c23d
00000260: e492 3c3e b2e6 e1bd 4c7c 663d 8f8e 833d
00000270: 838a 9e3b 2137 7bbd e83d df3c 6a9e cebd
00000280: a8bd 4cbe 6a43 2ebd 05a5 87bd 8493 4c3a
00000290: 66db da3d 6883 b23b 0544 573d 4ac3 ce3b
000002a0: 8c27 fd3d cd25 233b ad2d c1bc 5bc2 933d
000002b0: 00d3 a7bd ee58 fdbc 1279 88bd 2d89 b0bc
000002c0: 7102 e03c 3e6d d63d 5c5c 133e fdce 343c
000002d0: a620 74bd 4a5a bbbb cc34 4dbd c1a1 db3c
000002e0: a8fb e83d b08b debc 52d1 d93d 5e24 adbc
000002f0: 4e89 f7bd 1b41 3b3e 6268 b43d c3c6 133e
00000300: 5a1c ef3c 846e d3ba 5f34 3cbc beb4 29be
00000310: 0a7c d33c e74f 473d 82d5 dfbd ef47 12be
00000320: 1bb1 4dbd 15b9 03be acfd b23d c356 8b3d
00000330: 3023 4abe 64ec 05be 6a03 e7bd 3236 093e
00000340: 4b36 9f3d b128 ef3c 39a4 653d 3619 bebd
00000350: af22 fcbc 5383 1fbd e5b0 d1bd 3954 033d
00000360: 25ec 54bc 4063 dabc 6778 d83d 6f5d 4b3c
00000370: 9924 2e3d 2fef cd3d 89c2 0dbd 6585 833d
00000380: 8b46 11bd a011 edbc 96ce 26be 905f 28be
00000390: 2b87 183d 168d f43d 3016 4d3d 3354 1f3e
000003a0: 6960 28bc 3c57 c83d 382f 773d 5f7b 0f3d
000003b0: 86a4 aebd 61ad c9bb 7df5 8fbd b6fc 9cbd
000003c0: 010f 03be 7a9e d2bd 1c14 45bd 4dde 4c3c
000003d0: b224 883d 08ac 493c 3025 333d 5ecb a1bd
000003e0: 6d83 16bd 140f fbbc c0ef 6cbc 8aca 723d
000003f0: 5346 513d c73b 913d 234f bf3d bd47 843d
-0.10060425 -0.02535601 0.018666498 0.047177132 -0.07278909 0.0058545545 -0.0061441907 -0.009657573
0.088067316 -0.08458875 0.10746065 0.03457833 0.21988028 -0.1699561 0.0871689 -0.18524553
-0.17537026 0.15581878 0.073735364 -0.023621963 0.112004265 -0.10361735 -0.0748475 0.19846849
-0.19625095 -0.05006834 0.016587637 -0.015587827 -0.007554703 0.049951967 -0.00018073965 -0.10933099
0.045697544 0.102867745 0.103685625 0.08373995 -0.11125688 -0.16461234 0.17852251 -0.19713373
0.123340964 0.17603843 -0.10006809 0.12097242 -0.026809245 -0.36135003 0.33499822 -0.020493152
0.07314942 -0.03564213 -0.0912499 -0.15545414 -0.24572709 0.38484535 0.06232338 -0.037615348
0.057428323 -0.08428685 -0.057978638 0.04891597 0.0008026934 0.16205359 0.15991855 -0.0720762
-0.016892422 0.05341862 -0.0748659 0.13725534 0.1099578 0.086297125 0.012722441 -0.011711548
0.08389753 -0.101495 -0.020293154 0.27651227 0.1929171 -0.027720734 0.2309749 -0.27094078
-0.12824367 -0.19194129 -0.09635644 0.14715512 -0.23639144 0.114274286 -0.05604016 -0.115034126
-0.12721848 -0.048247017 0.026320616 -0.03110804 0.029103218 0.05715269 0.061390698 0.009849964
0.040167034 -0.0020402998 -0.013476885 -0.04288414 -0.048010346 -0.014426735 -0.0749671 -0.031157412
0.07096682 0.016732885 -0.029323865 0.011936919 -0.24504091 -0.0649161 0.237477 -0.2241676
0.3508642 0.092900224 0.25253236 -0.054018166 -0.14292149 0.06288607 0.06932918 0.24810797
0.0660982 -0.050441887 0.15367934 -0.06324039 -0.014643267 0.0067881076 0.27594173 0.1382819
-0.25309116 0.057408046 -0.23301394 -0.024617765 0.21763048 -0.028649036 0.09838137 0.063276485
0.121219665 0.13163504 0.04867754 0.06349595 0.0619038 0.095856205 0.09884691 0.12379026
0.26847744 0.06062756 0.12287935 0.18420735 -0.12546252 0.13191834 -0.004662621 0.09512224
0.1841541 -0.1103033 0.056270882 0.06423675 0.004838289 -0.061331872 0.027251199 -0.10088809
-0.19994223 -0.04254476 -0.06623272 0.0007803964 0.10686378 0.0054477938 0.052555103 0.0063099014
0.123610586 0.0024894357 -0.02358135 0.07214805 -0.08194542 -0.030926194 -0.06663717 -0.021549786
0.027344914 0.10470055 0.14390701 0.011035678 -0.05960145 -0.0057175504 -0.05009918 0.026810529
0.113761246 -0.027166218 0.10635628 -0.021135505 -0.12086736 0.18286555 0.08808972 0.1443129
0.029188324 -0.0016130959 -0.011487096 -0.16572854 0.025815982 0.048660185 -0.10929395 -0.14285253
-0.05021773 -0.12863572 0.0873979 0.06803658 -0.19739985 -0.13078457 -0.11279948 0.1339958
0.077740274 0.029194208 0.056064818 -0.09282152 -0.030778257 -0.0389436 -0.10238818 0.032062743
-0.012995754 -0.026658654 0.1056984 0.012412413 0.04251537 0.10055386 -0.03460935 0.06421927
-0.035467666 -0.028939068 -0.16289744 -0.16442704 0.03723828 0.119409725 0.050069988 0.15559463
-0.010276892 0.09782264 0.060347766 0.035029765 -0.08527474 -0.0061547016 -0.07029245 -0.07665388
-0.12798692 -0.10284133 -0.04811488 0.0125041725 0.06647624 0.012309082 0.043736637 -0.07900117
-0.03674643 -0.030646838 -0.014461458 0.059275188 0.051092457 0.0709148 0.09341266 0.064589955

sequences.2.bias f4 [32]
00000000: 9ff0 d8bc 9db3 ebbc a7d2 d3bc 1f11 fe3c
00000010: 5579 c5bd c32f df3b 68cf 2f3c ce96 9fbd
00000020: f307 cd3c ae15 19bd 198c 89bc d539 083d
00000030: f572 a73b 97f4 473d 8772 e1bd 9bee dbbc
00000040: 595e 2a3d afec 0dbc 25af d3bd fa57 953c
00000050: adcc 98bc b238 a03d e778 05ba 1eb8 263d
00000060: bc3b 47bd a431 72bd 825c 9a3d 77c3 973d
00000070: 9efd bf3b 1385 2dbd 2cb4 d43d 2be0 ffbd
-0.026481925 -0.02877217 -0.025857283 0.031014023 -0.09642283 0.0068111136 0.010730602 -0.077924356
0.025028205 -0.03737419 -0.016790437 0.033258278 0.0051101395 0.048817243 -0.110081725 -0.026847174
0.041593883 -0.008662387 -0.103361405 0.018230427 -0.018652285 0.07823314 -0.0005091563 0.04070293
-0.04864095 -0.059129372 0.07537176 0.07410329 0.005859091 -0.042363238 0.103859276 -0.124939285

sequences.4.weight f4 [49, 32, 3, 3]
00000000: 4f54 80be eeee dd3d a5ff 5e3c 66e8 8a3d
00000010: dabf 943e a609 ce3c eda2 87bd 941d b33c
00000020: e57e 573a c65c 473c 1958 3a3e 621b 823d
00000030: fb75 52bd fc74 133e 1aa5 28bd 6426 49bd
00000040: 235a 1b3d bf13 ce3c 6f03 87bd 99ba 2dbd
00000050: 38cb 0dbc a0b3 6f3d 1685 f6bc 760a 7d3d
00000060: 7a29 52bc fe7f 5d3b 3f08 26bd 4e25 26bd
00000070: 7dcf a0bd 8ffe 43bd bda5 ed3c c569 16be
00000080: 8fe8 24bd 1a07 9cbc 126f ccbd 61e0 ca3b
00000090: 890b 0d3d 1d3d d03d b27c 2fbb bb1e 103d
000000a0: a6f5 be3d 1b25 a5bc 2a09 80bd c309 963d
000000b0: ab0b 833c 15e1 bdbc 7077 9ab9 cd91 23bd
000000c0: 8c30 ea3d 0116 cf3d f273 913d 002c 2cbc
000000d0: 9b6f 2b3d fe34 d93c eb28 9cbd 4caa 22be
000000e0: 897c 263d 662a 14be dedc 97be 1811 4c3c
000000f0: 1b46 dc3c 06f1 eb3c b5f2 cc3d 4f52 333d
00000100: fc66 493b 5f13 86bd 839a 223d 51d7 9d3d
00000110: e64b 833d d921 4bbc dc32 d53c acb9 8bbc
00000120: f013 08be 60f4 f9bd aeba 773c 24c3 12be
00000130: 7859 24be 59fb 92bd 58c3 66bd c1e6 d7bd
00000140: e5a6 c33c 2d4c 6f3c b032 9abc e076 0ebc
00000150: 22ec b73c 6f37 f63c cad6 af3b b7c6 ed3c
00000160: 1d3a 693d 5fa3 57bd 77d5 363d 1dd4 873d
00000170: e980 3d3c f9b1 a43b 70f7 e23c 150f 733c
00000180: 27b9 3dbd 355b f6bc 1a95 41bd d425 783d
00000190: a37c 02bd 9351 eebc 71b0 88bd 2f2b f1bc
000001a0: fdcd 54bc 4953 453d 94f7 4f3d 94b6 12bc
000001b0: ec9d 6cbd 147c bbbd e55b 493d 9e75 81bd
000001c0: b2ca dabd 80f2 c03c 4f42 0d3c fb0e e6bc
000001d0: 9b2b 043b fa64 b03c 5781 fdbc 8903 893b
000001e0: 2c84 babd 5250 a5bd 9519 f83b 89ba 58bb
000001f0: 6c46 54bc 4447 633d 7f05 5c3d 9599 a13d
00000200: 7a76 2f3c 02db bf3d fb69 0b3e afd1 f8bb
00000210: c7bd 6c3c 34a1 3d3d 38f3 42bd 65c4 4a3c
00000220: 2c9b 9f3b 3657 473d c595 d23d 44f3 c93d
00000230: 9e2a 1f3d f82d b63b 4914 2fbd e1b2 093d
00000240: 12f3 8abe 5cc5 8dbd 42d8 e13d 1885 67be
00000250: 61de d1bd cea0 503d 48ef 6a3d 7564 6c3d
00000260: 0f8c 9a3c 34de 34bd 4eb4 5f3d 5803 8cbd
00000270: a220 cb3c 87bc 623d 8a13 16bd 7a00 6e3b
00000280: 6c4d 123d 242e 373d 27eb 483d ad85 963d
00000290: e4b4 803b 853b 8e3d c2b5 9f3d 5d3c 9d3d
000002a0: d9ca bf3c c011 c0bc baaa 47bd a523 50bd
000002b0: d05f b3bd fb3a ddbb 70ea bf3b 8089 e6bd
000002c0: b2b0 2fbd 39e8 b83c 8a76 553d f461 53bb
000002d0: 7472 7dbd 1b1d c4bc 36ad 5dbd 0d91 aabd
000002e0: 0761 1abd 372f e7bd 1f0c 0b3c 7f23 3f3d
000002f0: cd54 243d 64af 9dbc 1913 62bd ec17 e1bc
00000300: 5518 9dbd cf5d dfbd bfdd 6fbd 62e2 b2bd
00000310: 7484 cbbd e26a 07bd 8592 edbc f07d 19ba
00000320: f234 d23c cff2 e3bc 1452 f83d fef6 1c3d
00000330: 7712 e4bc 420d 833c 35a1 e43c 7c40 ed3b
00000340: 9789 80bd 6b51 d1bc 2965 afbc f76a f6bd
00000350: 0e6c 81bd 07cf 3fbd f726 27bd fff0 57bd
00000360: 2f11 0a3d 5f03 aa3c 6f12 53bb 469d a13d
00000370: ed19 4c3d ddad b53c 6893 5bbd 200f 8d3c
00000380: 7ce6 38bb 54d8 9e3d 3c5d bf3d a608 4dbd
00000390: 29b9 993a 030f 7c3d e8f5 4dbd 44f4 24bd
000003a0: c608 a73d 0cf3 f63c 5f6c 5dbe 0d0b 02be
000003b0: 81fa c83d 20ed 83be 2921 49be e1c2 393d
000003c0: 2680 8e3d 0cd3 ba3d 48c6 373d 2e9f 27bd
000003d0: fdd9 90bd eb6e 503c 85da c13c 66fe a6bd
000003e0: 10cf beb9 477e 09bd da4f 7f3c f3f7 68bd
000003f0: 5df2 0b3d eedb 6e3d 3a34 37bd 268a bfbd
-0.25064322 0.10836588 0.013610755 0.06782608 0.2905262 0.025151085 -0.066228725 0.02186469
0.0008220508 0.012168115 0.18197669 0.06352879 -0.051382046 0.14400095 -0.041173078 -0.049108878
0.037927758 0.0251559 -0.06592452 -0.04241428 -0.008654408 0.058520913 -0.030092757 0.061777554
-0.012827272 0.0033798213 -0.040535208 -0.04056292 -0.07852075 -0.047850188 0.029009694 -0.14688785
-0.040260848 -0.019046355 -0.099821225 0.006191299 0.03443483 0.101679064 -0.0026777205 0.035185557
0.093241975 -0.020159295 -0.06251748 0.07326081 0.015996775 -0.023178617 -0.00029462157 -0.03993397
0.11435041 0.10111619 0.07102193 -0.010508537 0.041854482 0.026514526 -0.07624992 -0.15885276
0.04064611 -0.14469299 -0.29660696 0.012455247 0.026888898 0.028801452 0.1000723 0.043779667
0.003073155 -0.065466635 0.039698135 0.07707084 0.06410961 -0.012398207 0.026025228 -0.017056309
-0.13288856 -0.12204814 0.0151201915 -0.14332253 -0.16049755 -0.07176847 -0.056338638 -0.1054206
0.023883292 0.014605564 -0.018822998 -0.008695334 0.022451464 0.03005573 0.005366181 0.029025419
0.056940187 -0.052646037 0.04463717 0.06632254 0.011566379 0.005026099 0.027705878 0.014835139
-0.046319153 -0.030072788 -0.047261335 0.06058295 -0.031857144 -0.029091632 -0.066742785 -0.029439537
-0.012988565 0.04817513 0.05077322 -0.008954663 -0.057767794 -0.091545254 0.049159903 -0.06321262
-0.10683192 0.023553133 0.008621766 -0.028083315 0.0020167592 0.021532524 -0.030945463 0.0041813296
-0.09107241 -0.080719605 0.007571409 -0.0033070168 -0.012956243 0.055487886 0.05371618 0.078906216
0.010709399 0.09367944 0.13614647 -0.0075933556 0.014449543 0.046296313 -0.047595233 0.012375926
0.004870793 0.048667155 0.102824725 0.09860852 0.038859002 0.005559679 -0.042743955 0.033617858
-0.27138573 -0.06922409 0.11027576 -0.22609365 -0.102474935 0.050934605 0.057357103 0.05771299
0.018865613 -0.044157222 0.05461531 -0.06836575 0.024795834 0.055355575 -0.036639728 0.0036316202
0.035718367 0.044721738 0.049052384 0.073497154 0.003927814 0.06944946 0.077983394 0.07677529
0.023412155 -0.023445964 -0.048746802 -0.050815243 -0.08758509 -0.006751416 0.0058568045 -0.11256695
-0.04289312 0.02257167 0.052115 -0.003225443 -0.06187673 -0.02393966 -0.054120265 -0.083284475
-0.03769019 -0.112883024 0.008486777 0.04666471 0.040119935 -0.019248672 -0.055193994 -0.027477227
-0.076706566 -0.109065644 -0.058561083 -0.08734585 -0.09937373 -0.033060916 -0.02900053 -0.0005855253
0.025660012 -0.027825741 0.1212503 0.038321488 -0.027840836 0.015997533 0.0279089 0.007240353
-0.06276243 -0.025551518 -0.021410542 -0.12032121 -0.06319438 -0.046828296 -0.040808644 -0.052720066
0.033707794 0.02075356 -0.0032207032 0.07891326 0.049829412 0.022177631 -0.053607374 0.017219126
-0.0028213551 0.07756105 0.09343955 -0.050057076 0.0011728156 0.061537754 -0.050283343 -0.040272012
0.0815597 0.03014519 -0.21623372 -0.12699528 0.09813405 -0.2576685 -0.19641556 0.045351867
0.06958036 0.09122285 0.04486683 -0.04092329 -0.07072828 0.012721757 0.023663769 -0.081539914
-0.00036393898 -0.033567693 0.015583003 -0.056877088 0.034166683 0.05831521 -0.04472754 -0.093525216

sequences.4.bias f4 [49]
00000000: 57fa cabb faf0 70bd 6100 4dbd 3753 2d3c
00000010: d66f b8bc c862 66bb c518 20bd 1182 17bd
00000020: 1245 2abd 7b25 08bd bc9d debc 1f8e 24ba
00000030: 98dc 62bd 8007 69bc f06a 78ba b26a 13bd
00000040: fb06 b1bb 48d8 00bd c4bf 00bd 46ad 2d3c
00000050: 6704 57bd 8209 89bc d9f8 1cbc 3396 ac3c
00000060: 3225 4fbd ec1d 4ebd e143 83bc 3b0e 2e3d
00000070: bdc8 34bd 06a7 a2bc f776 bb3c 2147 b3bc
00000080: 3e7c f0bc f147 2abc 6bf9 7c3c 23cb 83bc
00000090: b4a9 c8bc c9c7 39bd e048 8c3c 689a 34bc
000000a0: 9898 d73b 0eaa 0c3d ebce acbc d15f 0cbd
000000b0: bb1e 67bc bbf5 6dbb a3a0 35bd a073 dcbc
000000c0: 9be3 673c
-0.0061943936 -0.058823563 -0.05004919 0.010578922 -0.022514265 -0.0035154093 -0.039086122 -0.036989275
-0.041569777 -0.03323887 -0.027174823 -0.0006277281 -0.055386156 -0.01422298 -0.0009476384 -0.035990424
-0.0054024435 -0.031456262 -0.031432882 0.010600394 -0.052494433 -0.016728166 -0.009580814 0.021067714
-0.05057258 -0.050321504 -0.016023578 0.04249404 -0.04413675 -0.019855034 0.022883875 -0.021884503
-0.029356118 -0.010393129 0.015440325 -0.016088074 -0.024494983 -0.045356546 0.017124593 -0.011023141
0.00657947 0.034341864 -0.02109476 -0.034271065 -0.014106448 -0.0036309797 -0.04434265 -0.026910603
0.0141533865
