saved_models/UPSCALE_X7/epoch_62.pth (torch, 139743 bytes, 6 tensors)

sequences.0.weight f4 [64, 1, 5, 5]
000000 e6 2a d8 3c 3e 16 47 3e 7e eb 2c 3c 34 4c c6 bd
       0.026387643 0.19442078 0.010554193 -0.09682503
000010 82 61 3d 3d cf d2 30 3e f1 4f 76 3d 3c 76 b3 3d
       0.04623557 0.17267917 0.06013483 0.08762786
000020 9f ba 4c 3e 13 84 23 3e ff a3 f7 bc 14 ec b4 3d
       0.19993065 0.15968351 -0.030229567 0.08834091
000030 c7 3f ba bd 28 7e d2 3d 23 90 10 be 76 d5 36 be
       -0.09094196 0.10277969 -0.14117484 -0.17854866
000040 7f 2e a2 bd e9 44 81 bd 57 5b 96 3d 34 f2 5d 3d
       -0.07919025 -0.06311972 0.073416404 0.05418606
000050 4d 4f 40 bd 13 0e 0f be 1b 95 45 be 7e 14 21 3c
       -0.046950627 -0.13970213 -0.1929516 0.009831546
000060 09 0a e4 bc a0 a3 03 bd ad d3 5e 3e 08 24 bb 3d
       -0.027836816 -0.032138467 0.21760435 0.09137732
000070 8a d7 05 3e ea c1 47 be 86 80 f7 3d dc 0f 2d 3d
       0.13070503 -0.19507566 0.12085061 0.042251453
000080 39 70 8f bd db 14 8b 3d 16 2f 8c 3d 32 6d 42 3e
       -0.07003827 0.06791087 0.068449184 0.18986967
000090 43 a5 1c 3e dc 5d 7e bc ea e7 60 3e 8d 7b 21 be
       0.15297417 -0.0155253075 0.21963468 -0.15769787
0000a0 89 10 2a bd 69 a3 15 bd b0 d1 27 3e 3e 67 2e be
       -0.041519675 -0.036532793 0.16388583 -0.17031571
0000b0 8c 90 d6 bd a6 d4 07 be 5d 95 b8 bd 70 31 23 be
       -0.10476789 -0.13264713 -0.09012864 -0.15936828
0000c0 af 7d 23 3e bf a5 32 3d 29 e2 88 3d eb 18 1a 3e
       0.15965913 0.0436151 0.066837616 0.15048568
0000d0 e8 8e 26 be 01 b0 92 3d 71 e5 3b be f7 60 3b 3c
       -0.16265452 0.07162476 -0.18349244 0.011436692
0000e0 61 97 92 bc ea f4 19 be b9 85 11 be 96 0f 3d bc
       -0.017894449 -0.15034834 -0.14211167 -0.0115393605
0000f0 0c f3 09 3e 63 2f 2e 3e 4c cf 4b be 89 5f c0 3d
       0.13471621 0.17010264 -0.19903296 0.09393222
000100 81 e9 9a bd 08 db 4f bd 31 48 aa 3d da 67 13 be
       -0.075640686 -0.050745994 0.08314551 -0.14395085
000110 ca af 35 3e 69 a9 3c 3e a9 64 f5 3c cb 39 1e be
       0.1774284 0.18424 0.029955225 -0.15451734
000120 44 77 4f bd e8 08 1b be 39 16 98 bc 8a 1c 27 3e
       -0.05065085 -0.15140116 -0.018565284 0.1631948
000130 a9 a7 f7 bb e3 d6 c0 bd 4b b4 44 3d e7 b6 32 3e
       -0.0075578284 -0.094159864 0.048023503 0.17452584
000140 2a 8a 4a be ab 8e 18 3e 30 8d 21 3e 72 55 14 3e
       -0.19779268 0.14898174 0.15776515 0.1448572
000150 b7 89 3c bd 65 be ab 3d 8b 6b 3a be f1 c6 a0 be
       -0.046029773 0.08385924 -0.18205087 -0.3140178
000160 32 de 9a 3d 3e e2 01 be 07 86 b9 3d 55 58 18 bd
       0.07561912 -0.12683961 0.09058767 -0.037193615
000170 5e a7 85 3d 37 cb 84 3c 4e eb e6 bd ee d2 e4 3d
       0.065260634 0.016210182 -0.112753496 0.11173044
000180 bd eb 1a be 54 33 4d be 1a c5 ed 3d 17 38 08 3e
       -0.1512899 -0.20039111 0.1160986 0.13302647
000190 2a e8 7e bd ea 0c 89 3d 91 4e 15 bd 0c 18 20 3d
       -0.062233128 0.06691916 -0.03645188 0.039085433
0001a0 54 53 bc bd 33 7b 4d be 71 c0 46 3e 83 17 47 be
       -0.09195581 -0.20066528 0.19409348 -0.19442563
0001b0 f8 14 04 be b6 48 1e 3d 26 40 cc bc 63 e4 0d 3e
       -0.12898624 0.03864356 -0.024932932 0.13856654
0001c0 61 ad 6a bd 8f 75 2a be 5b 03 39 3e 29 3b 19 3e
       -0.057294253 -0.16646408 0.18067686 0.14963974
0001d0 45 4e 78 bd 16 96 5b be 82 63 60 3e ba ee 5b 3d
       -0.06062152 -0.21443972 0.21912959 0.053694464
0001e0 1e 47 80 bd de d3 98 bd 9a 13 db bd d7 ed 12 3e
       -0.062635645 -0.074622855 -0.10697098 0.14348541
0001f0 ee 03 9b bd 64 66 a5 bd 4d 18 f9 3d 29 ac 3a be
       -0.07569109 -0.0807617 0.12162838 -0.18229736
000200 50 1d 9f bd 25 47 13 3e 46 c6 2a bd 70 fa 70 3e
       -0.07769263 0.14382608 -0.041692995 0.23533034
000210 4d 02 74 be 84 1e 92 bc bd c5 1b be 90 89 2a 3d
       -0.23829003 -0.017836817 -0.1521215 0.041635096
000220 84 bb 87 3d 0c c5 83 3e 3f ff 2f 3e 97 09 63 3d
       0.06627563 0.25736272 0.17187212 0.055429067
000230 9a 52 5e be 89 06 ba 3d 07 4b e6 3d 40 9a 65 be
       -0.21711197 0.09083278 0.11244779 -0.22422123
000240 9f 98 0e 3e a8 76 1d be af 55 09 3e 93 bd 25 be
       0.13925408 -0.15377295 0.13411592 -0.16185598
000250 2d ed 30 3e 46 01 fe 3c 04 10 9b 3d 3f aa 27 3e
       0.17277975 0.031006467 0.07571414 0.16373537
000260 4c 22 a9 3b fd ee 52 3c f7 ce 8a bd 67 f8 9e 3d
       0.005161559 0.012874362 -0.06777757 0.07762223
000270 35 8a 45 3e d6 b6 06 3e 9f b6 70 be 78 77 0e be
       0.19291003 0.13155684 -0.23507164 -0.13912761
000280 ad 19 48 be dc 4b c1 bc 3d 9c 54 be 72 8b 84 3d
       -0.19541045 -0.023595743 -0.20762725 0.064719096
000290 ca 76 c9 bc a9 18 30 3e 73 e9 8f bd 0b 9e 10 3e
       -0.024592776 0.17196907 -0.07026949 0.14122789
0002a0 f2 5f 5d bd 1b e2 17 bd f9 85 09 3e 32 87 1a 3e
       -0.05404658 -0.037080865 0.13430013 0.15090635
0002b0 22 fd 77 3d aa bb 39 3e a5 9a 1f bd 89 d2 c8 3d
       0.06054414 0.18137994 -0.03896584 0.098057814
0002c0 ab 63 f6 bd c7 18 ab 3d 69 c0 9a bd e8 8b f1 bd
       -0.12030729 0.08354335 -0.075562306 -0.11794263
0002d0 72 7c c6 3b 34 12 89 3e 94 89 24 3e b7 e4 68 3e
       0.0060573155 0.267717 0.16068107 0.22743498
0002e0 b4 e2 95 bd b2 21 3d bc 05 91 96 3e 48 7f 2e 3e
       -0.07318631 -0.011543678 0.29407516 0.17040741
0002f0 da 04 12 bd d4 93 0f 3e e2 b0 d7 3d bb b3 95 3d
       -0.035649158 0.14021236 0.105317846 0.073096715
000300 ec 46 28 be dc 00 7b 3d ce f2 6f 3e 3d 5d 27 be
       -0.16433305 0.061280116 0.23432466 -0.16344161
000310 6b 57 9e bd f1 5f 5a 3e a4 6b ea bb 5d 46 e3 3d
       -0.077315174 0.21325661 -0.007153945 0.11097405
000320 1e be 1c 3e 5c c5 41 3e 3c 88 09 be cb e9 30 be
       0.15306899 0.18922943 -0.13430876 -0.17276685
000330 e2 06 34 3e f1 ee 00 be 14 86 5e be 53 72 b4 3d
       0.1758075 -0.12591149 -0.21730834 0.08810868
000340 38 d6 12 3e 30 39 39 bd ef 74 14 bd eb e0 e3 bd
       0.1433953 -0.045220554 -0.03624433 -0.11126884
000350 4d 05 42 3e e3 b0 c0 bd 5e d3 37 bd 15 61 ea 3d
       0.18947335 -0.094087385 -0.04487931 0.11444298
000360 d5 82 3a be a4 e7 05 be b7 64 00 be bf 0c 60 3d
       -0.18213971 -0.13076645 -0.1253842 0.054699656
000370 9b 2a 33 be 37 3d 8a 3d 77 ed 24 3e 1d 54 07 be
       -0.17496721 0.06749957 0.1610621 -0.1321568
000380 6f 10 0f be 3f 5b 17 be 19 c5 5f bd 09 d3 81 3d
       -0.13971113 -0.14780901 -0.054631326 0.0633908
000390 01 68 ca bd b2 b9 1e 3e d7 86 f0 3d 33 a0 9f bd
       -0.098831184 0.15500525 0.11744469 -0.077942275
0003a0 c5 47 24 be 1f fd 5d be 2b 60 4e be ad cc f4 3d
       -0.16043003 -0.2167859 -0.20153873 0.11953101
0003b0 91 cc b8 3d a8 da 7e 3e fc fa b8 3d 51 ce b1 3b
       0.09023393 0.24888098 0.090322465 0.005426206
0003c0 43 11 64 3d b8 e6 b9 3d 7a f6 e6 bc 55 b7 25 3e
       0.055680525 0.09077209 -0.028193701 0.16183217
0003d0 ad f4 1a 3e ee 68 89 3d db d4 2c be 96 67 1e bc
       0.15132399 0.06709467 -0.16878073 -0.0096682515
0003e0 9c 3b 25 3e 32 f8 1c bd 74 9b d8 bd 2d e4 3d 3e
       0.1613602 -0.038322635 -0.10576525 0.18544073
0003f0 7a a8 0a be 93 8b 3d 3d ba fe 18 be 2a b5 01 3e
       -0.13540831 0.046275686 -0.1494092 0.12666765

sequences.0.bias f4 [64]
000000 79 ee 51 be 48 74 b4 bd 1b 46 21 3e 82 91 53 3e
       -0.20501126 -0.088112414 0.157494 0.20660976
000010 a9 e5 08 3d 39 6e cc bd 35 f1 63 bd 9d c3 72 3e
       0.033422146 -0.09981961 -0.055649955 0.23707433
000020 59 60 3f 3e a0 d1 3d be ee eb 9c bd 6c c0 78 3e
       0.18689097 -0.18536997 -0.076621875 0.24292153
000030 33 77 c2 bd a2 6d 7f 3e 93 71 19 3e b4 87 f2 bd
       -0.09495392 0.24944165 0.14984731 -0.118422896
000040 6c 2c 5a 3d ae b1 5e be 2c 3a 48 3e 04 e0 7b bd
       0.05326502 -0.21747467 0.19553441 -0.061492935
000050 50 a4 03 be 22 89 2d 3e 36 ed 87 bd 41 c6 ed bd
       -0.12855649 0.16946843 -0.06637041 -0.116100796
000060 34 95 67 be 61 a1 5a be b0 91 67 be d0 af 55 3e
       -0.2261551 -0.21350624 -0.22614169 0.20867848
000070 c8 2c 89 bd 47 f0 56 be c3 32 82 3e 35 a5 2a be
       -0.066979945 -0.20990096 0.25429353 -0.16664584
000080 01 0d 31 3d 0e e1 0b be 13 1c 42 3e 2a 4d 6d be
       0.043225292 -0.1366007 0.18956022 -0.23173967
000090 98 6f 63 3e a2 4e 38 3d 2d 67 4c 3e 32 01 27 bd
       0.22210538 0.044996865 0.19961233 -0.040772624
0000a0 8f 6c 66 be e8 55 ec 3d ab 0d 5d 3e dc 0e 65 be
       -0.2250235 0.11539823 0.21587245 -0.2236895
0000b0 8c 25 12 3d 79 4e 5e 3e 07 eb 3a 3e d0 8b 41 be
       0.03568034 0.21709622 0.18253718 -0.1890099
0000c0 40 d2 67 3e a0 e2 26 be 50 46 06 bd c2 6e 21 3e
       0.22638798 -0.16297388 -0.0327819 0.15764907
0000d0 e0 82 5e 3e 15 b4 6f be 53 57 8a bd 86 d1 83 be
       0.21729612 -0.2340854 -0.06754937 -0.2574579
0000e0 9d 53 43 3e c5 53 38 be f2 fc 23 3e e4 a5 34 be
       0.19074865 -0.18000706 0.1601446 -0.17641407
0000f0 6b 14 92 3c 52 24 71 be 32 d4 73 be 04 6b 80 bd
       0.017832002 -0.23549011 -0.23811415 -0.062704116

sequences.2.weight f4 [32, 64, 3, 3]
000000 60 55 d4 bd 26 21 18 bd 68 9d 1c 3d a3 09 74 3d
       -0.103678465 -0.037140988 0.03823605 0.059579503
000010 f1 93 87 bd 54 fe 8b 3c e0 78 ac bc 54 8e fb bb
       -0.066200145 0.017089047 -0.021053731 -0.007676879
000020 16 c9 97 3d ec 04 c4 bd 8f 55 f0 3d 4b c6 03 3d
       0.07411401 -0.09571251 0.11735069 0.03217153
000030 67 00 82 3e 8e 0d 3a be 61 d8 b2 3d 52 27 60 be
       0.25390932 -0.18169233 0.08732677 -0.2189
000040 8f fe 42 be 5e 0c 14 3e 8a e8 96 3d da 63 4c bd
       -0.19042419 0.14457843 0.07368572 -0.049899913
000050 80 5d cb 3d 0f 9b b0 bd 7b f6 98 bd 4f 9d 5d 3e
       0.09929943 -0.08623325 -0.074688874 0.2164204
000060 05 69 59 be b1 13 07 bd 32 7e 6e 3b 16 89 b7 bc
       -0.21231468 -0.032977764 0.0036391136 -0.022404235
000070 df aa fa b9 14 b5 4e 3d c0 85 89 3b 49 4b 00 be
       -0.00047811025 0.05046566 0.0041968524 -0.12528719
000080 36 7d 92 3d 22 46 d4 3d 85 5a f1 3d 6f 2a 8f 3d
       0.07152788 0.10364939 0.11784843 0.069905154
000090 48 5c 06 be 96 a2 44 be 57 90 45 3e 7f 92 55 be
       -0.1312114 -0.19202647 0.19293343 -0.20856665
0000a0 25 69 04 3e d8 19 42 3e d2 6c ba bd 42 71 09 3e
       0.12930734 0.18955171 -0.09102787 0.1342211
0000b0 39 6d f1 ba 64 f1 c6 be 5b 98 ba 3e 9d b5 ca bc
       -0.0018419392 -0.3885604 0.36444363 -0.024744803
0000c0 8f ef b1 3d 8d a5 3a bd 62 98 c4 bd 37 41 0c be
       0.0868827 -0.045568038 -0.09599377 -0.13696752
0000d0 4e af 83 be 32 dd d7 3e 84 cb a0 3d 39 72 f8 bc
       -0.25719684 0.42160946 0.078513175 -0.030327903
0000e0 21 ff 5d 3d 50 ce cf bd ed 69 b5 bd 52 a0 26 3d
       0.054198388 -0.10146773 -0.08858094 0.040680237
0000f0 0f 2b 50 bb e4 f2 2a 3e 80 2d 09 3e 51 7b 99 bd
       -0.0031763946 0.16694218 0.13396263 -0.07494224
000100 60 f4 8c bc c2 8b 60 3d 86 c5 88 bd 88 33 17 3e
       -0.01720637 0.054820783 -0.066782996 0.14765751
000110 0c 36 ed 3d 41 31 c1 3d e1 ea 97 3c 67 88 ce bb
       0.11582574 0.094332226 0.018544616 -0.0063028815
000120 d5 01 4f 3d 38 eb ef bd c5 bb 74 bc 95 8b 90 3e
       0.050538857 -0.11714786 -0.014937346 0.28231493
000130 79 da 5f 3e e1 75 07 3c c0 7e 63 3e 9e eb a7 be
       0.21860684 0.008267851 0.2221632 -0.3279695
000140 25 16 09 be 62 5a 50 be df 6e ed bd c2 5b 1c 3e
       -0.13387354 -0.20346978 -0.115934126 0.15269378
000150 2d 3f 7e be c5 90 00 3e a8 c0 85 bd d4 49 c8 bd
       -0.24828787 0.12555225 -0.06530887 -0.097797066
000160 bb 4d e8 bd 6d c2 10 bd 73 84 34 3d 51 1e 34 bd
       -0.11342951 -0.03534167 0.044071626 -0.043974224
000170 5c 2d 04 3d e7 61 79 3d 5d 29 75 3d dd 9a a1 3b
       0.03226982 0.060884383 0.0598539 0.004931791
000180 88 28 62 3d 96 17 1f bb d0 6b 9b bc f0 a8 2b bd
       0.055214435 -0.0024275533 -0.018972307 -0.04190916
000190 e8 96 2e bd 15 7f 91 bc ea ec a1 bd 99 20 db bc
       -0.042624384 -0.017760793 -0.07906516 -0.026748942
0001a0 a8 e6 91 3d 69 60 b8 3c 53 4f e1 bc c7 47 2c 3c
       0.07124072 0.02250691 -0.027503645 0.01051516
0001b0 63 3b 80 be d5 38 9a bd 48 95 72 3e 09 49 7d be
       -0.25045308 -0.07530371 0.23689759 -0.24734892
0001c0 87 49 bc 3e 22 95 93 3d b5 70 8e 3e 23 b7 36 bd
       0.36774847 0.07206179 0.27820364 -0.044608247
0001d0 e4 fb 42 be 6b 4e e6 3c 8d 10 a4 3d c7 ee 81 3e
       -0.19041401 0.028113564 0.08010969 0.25377485
0001e0 c7 5b 8f 3d da 05 5a bd 2a 96 20 3e c6 fd 80 bd
       0.06999927 -0.053228237 0.15682283 -0.062984034
0001f0 6a 6e 45 bb 67 27 87 bc 1e ba 99 3e 16 5e 1e 3e
       -0.0030125626 -0.01649828 0.3002481 0.15465578
000200 b2 bf 88 be 1e 9f d7 3c 75 6e 7b be d1 e5 ca bc
       -0.26708752 0.02632099 -0.24553855 -0.024767788
000210 85 12 7b 3e fd 7a 22 bd 33 ce e8 3d a0 80 35 3d
       0.24518783 -0.039668072 0.113674544 0.04431212
000220 4c c0 d4 3d 65 29 07 3e 24 a3 43 3d 92 77 3e 3d
       0.1038824 0.13199385 0.047763005 0.04650075
000230 b3 0d 74 3d 15 ee df 3d 1c 57 d1 3d fa e5 18 3e
       0.059583377 0.109340824 0.10221693 0.14931479
000240 01 f1 80 3e ec 6f 49 3d 28 cd 00 3e 95 b1 50 3e
       0.2518387 0.049179003 0.12578261 0.20380242
000250 01 26 02 be 95 5a 0c 3e 48 56 2d 3b 57 25 a7 3d
       -0.1270981 0.1370643 0.0026449133 0.08161419
000260 f2 ad 49 3e 5d 74 e0 bd 75 f4 30 3d a3 d3 76 3d
       0.19695261 -0.109596945 0.043201882 0.060260426
000270 39 bf 0b 3d f1 f4 9f bd fc da 9b 3c 8c 55 ac bd
       0.03411791 -0.07810391 0.019025318 -0.08414754
000280 1a 95 4b be bf 48 03 bd 82 ab 89 bd 14 be 05 bb
       -0.19881096 -0.032051798 -0.06722166 -0.0020407485
000290 7a 90 02 3e a5 b2 59 3a 33 75 76 3d 5b b2 67 3b
       0.12750426 0.0008304513 0.060170364 0.003535411
0002a0 a0 55 1c 3e fa 26 90 3c cc 25 1e bb bb c6 b1 3d
       0.15267038 0.01759671 -0.0024131415 0.08680483
0002b0 d3 0f b7 bd 20 34 25 bd 60 d6 8a bd bd 21 8e bc
       -0.08938565 -0.040332913 -0.0677917 -0.017350072
0002c0 33 88 ce 3c eb 6b 9c 3d 2d 79 05 3e f3 35 dc bc
       0.02521143 0.07637771 0.13034506 -0.026881194
0002d0 3d 05 a3 bd bd 68 7d bc 32 14 48 bd 78 45 26 3d
       -0.079599835 -0.015466866 -0.048847385 0.040593594
0002e0 14 2d 0c 3e 9d 81 c5 bc 73 35 0b 3e 25 ee e5 bc
       0.13689071 -0.024109656 0.13594608 -0.028067658
0002f0 a4 6b db bd b8 81 3e 3e d1 c5 ee 3d 53 b0 27 3e
       -0.1071389 0.18604171 0.11658824 0.16375856
000300 45 82 87 3c 30 4a 8f bc 99 f6 84 39 bd ee 1c be
       0.01654161 -0.01749143 0.00025360732 -0.15325446
000310 f1 6f b6 3c f1 87 5f 3d fb 01 d0 bd 25 95 27 be
       0.022270175 0.054573003 -0.10156628 -0.16365488
000320 d1 af ba bd 2c 1d 06 be 27 49 d7 3d 6b e4 98 3d
       -0.091155656 -0.13097066 0.105119996 0.07465442
000330 ff d2 6f be 03 c7 19 be 9e 5e 11 be be 68 14 3e
       -0.23420332 -0.15017323 -0.1419625 0.14493081
000340 8b 3d 9e 3d e1 36 1c 3d e6 27 6d 3d 40 e4 db bd
       0.07726582 0.038138274 0.05789938 -0.107368946
000350 19 65 e5 bc f7 f9 cd bc 58 3f d0 bd 9c 70 f8 3c
       -0.028002309 -0.025143607 -0.10168332 0.030327134
000360 da e5 8a bc 1e 72 dc bc 5a df de 3d 4a 7b c5 3c
       -0.016955305 -0.026909884 0.10882445 0.02410664
000370 02 96 24 3d 41 1e cc 3d 48 7a bd bc 65 8c 9a 3d
       0.04018212 0.09966708 -0.023129597 0.075463094
000380 d0 4c 52 bd be 03 d2 bc 00 66 3f be 35 23 65 be
       -0.051342785 -0.02563655 -0.18691254 -0.22376712
000390 80 8c 4f 3d 46 d3 f7 3d c6 92 11 3d 8e 12 48 3e
       0.0506711 0.12100844 0.035540365 0.19538328
0003a0 15 21 65 bd 3e 08 e3 3d 4c 52 9e 3d 1b 23 2a 3d
       -0.055939753 0.110855564 0.07730541 0.041537385
0003b0 f9 ed 9d bd f3 b8 29 bc 07 f6 97 bd 1f f4 90 bd
       -0.07711405 -0.010359037 -0.07419973 -0.070778124
0003c0 be 10 0f be ed fb da bd 87 83 2f bd 24 02 5e ba
       -0.1397123 -0.10692582 -0.042850044 -0.0008468947
0003d0 18 52 90 3d 7e af a4 3c 40 1d 3c 3d c4 0e b3 bd
       0.07046908 0.020103212 0.045926332 -0.08743051
0003e0 87 09 00 bd d4 be 69 bd 4b f7 a3 bc 79 77 71 3d
       -0.031259086 -0.057066754 -0.02001538 0.05895183
0003f0 14 27 4b 3d 92 8c 8e 3d b1 de d3 3d 67 a7 6e 3d
       0.049597815 0.069604054 0.103452094 0.058265116

sequences.2.bias f4 [32]
000000 52 af ca bc 6c e6 db bc e8 80 e4 bc d6 b0 03 3d
       -0.024741802 -0.026843272 -0.027893499 0.032151066
000010 0e e4 d8 bd ba ce df 3b dd 9b c3 3b bf 22 c2 bd
       -0.10590373 0.0068300636 0.005969508 -0.094792835
000020 cc cb 8e 3c 2e 0e 19 bd 26 16 26 bc cb a4 12 3d
       0.017431162 -0.03736704 -0.010137117 0.03580169
000030 77 47 95 3a d2 a4 47 3d 84 18 f5 bd 2f 78 c8 bc
       0.0011389096 0.04874117 -0.119675666 -0.02447137
000040 79 e9 50 3d a1 f4 d8 bb d6 c9 ed bd c6 1f 8b 3c
       0.051003907 -0.006620959 -0.11610763 0.016982924
000050 02 64 a8 bc 82 51 b8 3d db 39 45 3a cb d2 24 3d
       -0.0205555 0.089999214 0.0007523575 0.04024009
000060 26 0c 52 bd 0c e1 69 bd 31 c0 80 3d 92 10 96 3d
       -0.051281117 -0.057099387 0.062866576 0.07327379
000070 49 08 ca 3b c6 5b 2b bd 34 6e e7 3d 8d 29 01 be
       0.0061655384 -0.04183557 0.113003165 -0.12613507

sequences.4.weight f4 [49, 32, 3, 3]
000000 f6 3f 83 be a7 ef ee 3d 8f 24 20 3c 29 9f 95 3d
       -0.25634736 0.11666804 0.009774341 0.07305748
000010 f6 03 98 3e 27 fa 00 3c 93 48 77 bd af 33 a4 3b
       0.29690522 0.007872141 -0.060371947 0.005011044
000020 47 1f 12 bb 97 2e 2c 3c f5 95 5b 3e cd 10 4f 3d
       -0.0022296475 0.010509155 0.21443923 0.05055313
000030 32 bd 99 bd a0 49 de 3d 8f 32 ae bd fc 07 a6 bd
       -0.07506789 0.108538866 -0.08505737 -0.08106992
000040 0f a7 52 3d b0 2a 41 bc ff b0 a3 bd e1 f9 96 bc
       0.05142885 -0.011789963 -0.07992744 -0.018429698
000050 97 85 a1 bb f2 d9 94 3d eb ef 86 bc b8 fd 95 3d
       -0.004929255 0.07268132 -0.016471824 0.07323784
000060 42 73 c2 bc 70 33 9d bb 91 4b 42 bd 15 2e 6e bd
       -0.0237366 -0.0047973916 -0.047435347 -0.058149416
000070 7a e1 b5 bd 49 37 90 bd 6d 91 32 3d 53 4f 0d be
       -0.08880897 -0.07041795 0.04359572 -0.13799791
000080 16 e2 ff bc 6b 6e 26 bd 2a a8 e5 bd 24 4b 00 3c
       -0.031235736 -0.040632647 -0.112137154 0.007830415
000090 b9 18 09 3d b9 81 d3 3d 19 79 20 bc 4c 1f 31 3d
       0.033470843 0.10327477 -0.009794497 0.043242738
0000a0 33 59 cf 3d 2f b2 da bc 3e b9 89 bd 7a 6d 89 3d
       0.10124435 -0.026696293 -0.06724785 0.06710334
0000b0 9e ca 2a 3c 48 e4 ca bc 86 ec 05 3c 6c b5 0b bd
       0.010424284 -0.024767056 0.008174067 -0.034108564
0000c0 48 16 03 3e 4b 9f e9 3d 70 db 8b 3d 38 66 43 bb
       0.12801468 0.11407336 0.06828964 -0.0029815566
0000d0 21 80 50 3d 76 14 c9 3c 03 cb b8 bd fc ec 2b be
       0.050903443 0.02454589 -0.090230964 -0.16789621
0000e0 1b 62 40 3d 99 b0 27 be c1 de 9e be ad ac a1 3c
       0.04696856 -0.1637596 -0.31029323 0.019735659
0000f0 87 55 1a 3d 8b a7 28 3d 54 2e be 3d 1c 12 4c 3d
       0.03767922 0.041175406 0.0928618 0.049821958
000100 55 9d 0d 3c 38 98 8f bd eb a3 5b 3d d9 74 af 3d
       0.008643468 -0.07011455 0.05362312 0.08567209
000110 fc bb 72 3d 0d 29 af bc 77 d5 6e 3c 98 2c d1 bc
       0.059261307 -0.02138188 0.014577261 -0.02553396
000120 48 5c 19 be 00 e2 11 be 87 f7 80 3c 41 d0 0f be
       -0.14976609 -0.14246368 0.01574303 -0.14044286
000130 5f 7e 22 be 47 a2 8a bd 69 a7 5b bd d0 02 d2 bd
       -0.15868519 -0.06769233 -0.05362645 -0.10254443
000140 31 a3 fe 3c 32 72 85 3c 45 4c 6c bc 64 9b 96 3b
       0.031083675 0.016289804 -0.014422481 0.0045961607
000150 88 f0 b1 3c 92 5d d1 3c ec 62 8d 3b bb 16 b3 3c
       0.02172114 0.025557313 0.004314771 0.021861425
000160 44 34 4c 3d c4 9c 6b bd b0 e0 a5 3d f4 c1 95 3d
       0.049854532 -0.05752255 0.08099496 0.07312384
000170 a2 c5 5b 3c e8 a0 82 bc 87 6a 60 3c b6 0d 18 3b
       0.013413819 -0.015945867 0.013697273 0.0023201532
000180 4e cf 29 bd ac e0 cf bc 08 3d 0b bd d9 08 83 3d
       -0.041457467 -0.025375687 -0.03399375 0.06398172
000190 85 de 06 bd c6 04 d1 bc 01 f4 8e bd d7 97 0f bd
       -0.032927055 -0.025514971 -0.06980134 -0.035056915
0001a0 a9 8e 50 bc ae 14 43 3d be da 5b 3d 88 5b ab bb
       -0.012729325 0.047627144 0.053675406 -0.0052294172
0001b0 cd bf 69 bd 80 1c cc bd 64 86 5e 3d 7e 35 82 bd
       -0.05706768 -0.099663734 0.054327384 -0.06357859
0001c0 58 bd f2 bd 12 bc ae 3c 91 6e 9e 3c 3f aa 89 bc
       -0.11852521 0.021329913 0.019339832 -0.016804812
0001d0 f1 02 a9 3b b9 fe c9 3c 36 8a bc bc cd 91 9e bb
       0.0051578213 0.024657594 -0.023015123 -0.004839158
0001e0 e1 ca ca bd 23 24 a3 bd c8 81 1e 3c 88 cd 19 bb
       -0.09901977 -0.07965877 0.009674497 -0.0023468453
0001f0 37 f1 61 bc 7f a9 65 3d 50 82 69 3d 6d 87 b2 3d
       -0.01379042 0.056069847 0.05700904 0.08717237
000200 cf 84 45 3c e5 7a cf 3d 29 68 11 3e eb 20 08 bc
       0.01205559 0.10130862 0.1419989 -0.0083086295
000210 40 b2 dd 3b 45 d5 1e 3d f7 a1 5b bd bd 87 69 3c
       0.006765634 0.03877761 -0.05362126 0.014253554
000220 ca 3a 19 3c fc 95 50 3d 18 dd dc 3d c7 b6 d2 3d
       0.009352395 0.050924286 0.10784358 0.10288768
000230 ab 8b 0b 3d 53 6f f9 3b dd b0 17 bd 67 bc 29 3d
       0.034068745 0.007612148 -0.037033904 0.04143944
000240 7d 45 93 be cc a4 8c bd 55 05 c1 3d e1 50 63 be
       -0.28763953 -0.0686737 0.09424845 -0.22198822
000250 03 5b f2 bd f8 45 51 3d 22 9d 6e 3d 26 fe 49 3d
       -0.11833765 0.051092118 0.058255322 0.04931464
000260 09 24 92 3c 05 51 3a bd cc ef 3e 3d b8 55 8a bd
       0.017839449 -0.045487422 0.046615407 -0.06754631
000270 fc 98 dc 3c ea ef 6a 3d 41 91 0f bd 77 fa 3f 3b
       0.026928417 0.057357706 -0.035050634 0.0029293576
000280 9e b1 17 3d 46 ab 43 3d 63 b3 60 3d c0 e5 a7 3d
       0.037034623 0.04777076 0.054858577 0.08198118
000290 6f 4f fe 3b 5b 97 a5 3d cc f6 aa 3d 13 c2 9d 3d
       0.007760934 0.080855094 0.08347854 0.07703032
0002a0 bd 3e 2a 3c d3 fc 16 bd 47 0c 71 bd 75 1f 31 bd
       0.010390935 -0.036862206 -0.0588496 -0.04324289
0002b0 c4 89 d1 bd 42 00 1c bc e9 80 f6 3b 2f ac d4 bd
       -0.10231355 -0.009521546 0.0075226915 -0.10384404
0002c0 33 06 bf bc 8f 6d 18 3d f6 9c 65 3d 8c a7 86 3b
       -0.023318386 0.03721386 0.056057893 0.0041093286
0002d0 e6 dc c1 bd 9c c6 a8 3d 0a 7c 65 bd 85 aa ea bd
       -0.09465961 0.08241007 -0.056026496 -0.11458305
0002e0 48 5e 36 bc c0 f6 20 be 70 be 00 3d c2 f0 79 3d
       -0.011130877 -0.15719128 0.031431615 0.06102062
0002f0 16 21 33 3d db 7f 98 bc 96 9f 70 bd b5 17 ba bc
       0.043732725 -0.018615654 -0.058745943 -0.022716383
000300 e5 7f a3 bd 08 e8 e4 bd ce 60 59 bd 95 b4 b4 bd
       -0.07983378 -0.11177069 -0.053070836 -0.08823506
000310 e9 a4 cc bd fc 71 ec bc fb 67 88 bc 9c ad fb 3b
       -0.099923916 -0.028862946 -0.016651144 0.007680608
000320 05 af 01 3d 16 8a 0a bd 9b f6 fe 3d c1 be c4 3c
       0.031661052 -0.033823095 0.1244938 0.02401674
000330 4d 40 c8 bc 0b 4a cb 3c c3 03 14 3d cc 68 bd 3c
       -0.024444724 0.02481558 0.0361364 0.02312126
000340 d6 2b 64 bd 20 ee ba bc 3f 57 cd bc 3c 86 01 be
       -0.055705868 -0.022818625 -0.025066016 -0.12648863
000350 49 74 8b bd 26 49 1a bd 54 77 3b bd fe 0d 31 bd
       -0.06809289 -0.037667416 -0.045768097 -0.043226235
000360 06 cc 09 3d ce 42 94 3c 68 5c 96 3a 1e e8 a3 3d
       0.033641838 0.018098261 0.0011471631 0.08003257
000370 ba 2c 51 3d a7 fd b4 3c 4b 64 5f bd b5 6a 6b 3c
       0.051068045 0.022093607 -0.054539006 0.014368703
000380 92 b6 27 bb eb 16 9d 3d dd f0 bb 3d 3b fc 3a bd
       -0.0025590998 0.07670387 0.091768004 -0.045650702
000390 23 13 3c 3b 37 9d 84 3d c2 e0 4c bd 57 7c 1d bd
       0.002869793 0.06475299 -0.050019033 -0.038448658
0003a0 61 d8 a8 3d a2 73 ff 3c 49 2c 67 be 6a 19 00 be
       0.08244396 0.031183068 -0.22575487 -0.12509695
0003b0 9e cb b0 3d f3 81 7b be 29 fd 3c be 02 d7 59 3d
       0.08632587 -0.2456129 -0.18455948 0.053183563
0003c0 23 08 a2 3d 29 8e cc 3d 93 37 22 3d 61 c7 20 bd
       0.07911708 0.099880524 0.03960378 -0.039252643
0003d0 61 5f 87 bd fa 40 88 3c ae 26 03 3d 60 e2 ae bd
       -0.06609989 0.016632546 0.03201931 -0.08539271
0003e0 fd 5c 0b 3a 17 97 34 bd 3e 08 c1 3b a5 b0 7b bd
       0.00053162855 -0.044089403 0.005890875 -0.06144776
0003f0 cf a1 24 3d 58 33 46 3d c3 b1 7f bd 3b 77 cf bd
       0.040193375 0.04838881 -0.062425386 -0.10130163

sequences.4.bias f4 [49]
000000 a5 ab a4 bb dd ba 6b bd 0d 03 4e bd a1 3b 0d 3c
       -0.0050253444 -0.057551254 -0.05029588 0.008620174
000010 47 d2 c2 bc 75 e6 89 bb a4 6b 10 bd 85 1c 0d bd
       -0.023781909 -0.004208381 -0.035258904 -0.034451026
000020 06 bd 21 bd e1 97 08 bd aa 75 e7 bc cb c4 07 bb
       -0.039486907 -0.033347968 -0.028254349 -0.0020716663
000030 3e f5 63 bd a3 a4 6a bc 36 29 14 3b e3 da 12 bd
       -0.055653803 -0.014321479 0.0022607571 -0.035853278
000040 e2 a2 11 bc 0b 32 02 bd f4 22 09 bd 70 a0 28 3c
       -0.008888932 -0.031786006 -0.0334806 0.0102921575
000050 eb 60 51 bd 05 7f 80 bc 20 cd 23 bc d9 ac a2 3c
       -0.05111782 -0.015685568 -0.009997636 0.01985781
000060 45 e5 4f bd f8 04 4d bd 49 df 5d bc d2 f4 2f 3d
       -0.050755758 -0.050053567 -0.013542005 0.04295809
000070 dc 5c 2e bd 18 5d 9a bc 89 7d c7 3c ce cf a5 bc
       -0.042569026 -0.018843219 0.024351852 -0.02024069
000080 30 15 e3 bc 9c 76 12 bc 0c a4 94 3c df 7f 5d bc
       -0.027720064 -0.0089394115 0.01814463 -0.013519256
000090 a3 3d c8 bc d4 b6 30 bd f0 82 8e 3c 6f cb 11 bc
       -0.024443453 -0.04314311 0.01739642 -0.0088986
0000a0 c6 00 ff 3b 98 f4 1d 3d 1a 08 9e bc 62 fa 07 bd
       0.0077820746 0.03856334 -0.019290973 -0.033197768
0000b0 a7 49 7b bc 67 3c 9a bb 88 37 36 bd c3 71 d9 bc
       -0.015337384 -0.0047069076 -0.044486552 -0.026543504
0000c0 81 27 87 3c
       0.01649833
