saved_models/UPSCALE_X7/epoch_51.pth (torch, 139743 bytes, 6 tensors)

sequences.0.weight f4 [64, 1, 5, 5]
000000 a1 07 ce 3c ef a0 45 3e c7 4a 3e 3c 92 d7 c6 bd
       0.025150122 0.19299673 0.011614508 -0.097090855
000010 27 4b 39 3d 05 7f 2f 3e 18 42 6a 3d 37 a0 b0 3d
       0.045237686 0.17138298 0.05719194 0.086243086
000020 9c 88 4a 3e 0f 92 22 3e ef 8e ef bc 37 81 b3 3d
       0.19778675 0.1587603 -0.02924296 0.0876488
000030 94 10 ba bd 6d e5 ce 3d b5 f5 0f be d6 1d 37 be
       -0.09085193 0.10102353 -0.14058574 -0.17882475
000040 d2 68 a1 bd 1b 4c 80 bd c2 ff 94 3d 5b 75 5d 3d
       -0.07881321 -0.06264516 0.072753444 0.054066997
000050 62 e6 41 bd 43 f5 0f be f7 2c 45 be ad 73 19 3c
       -0.04733885 -0.14058404 -0.19255434 0.009365958
000060 36 dd db bc d9 5e 0c bd 23 99 5b 3e eb b7 b7 3d
       -0.02683888 -0.03427014 0.21445136 0.089706264
000070 67 45 04 3e f0 da 48 be 5a 7c f6 3d 37 ff 25 3d
       0.129171 -0.19614768 0.12035437 0.040526595
000080 98 67 8f bd 24 c5 87 3d 3c 15 8d 3d 7e 00 42 3e
       -0.07002181 0.066293985 0.06888816 0.189455
000090 bf b8 1a 3e 5e 18 85 bc d5 57 5f 3e 55 10 20 be
       0.15109538 -0.01624697 0.21810849 -0.1563123
0000a0 5a 74 2b bd 1a 70 14 bd 40 33 27 3e 66 9c 2e be
       -0.04185901 -0.03623972 0.16328144 -0.17051849
0000b0 88 1f d6 bd 9c 68 09 be 38 78 ba bd fb e7 22 be
       -0.10455233 -0.13418812 -0.09104961 -0.15908806
0000c0 81 ba 22 3e 93 f5 36 3d b0 ec 87 3d ec 1d 17 3e
       0.15891458 0.04466779 0.066369414 0.14757508
0000d0 fb fd 28 be 40 9d 90 3d 8e d2 3b be 45 eb 3b 3c
       -0.16503136 0.07061243 -0.18342039 0.011469667
0000e0 37 ce 9f bc b0 d1 17 be 04 d1 10 be bf 32 42 bc
       -0.01950751 -0.14826083 -0.14142233 -0.011852919
0000f0 31 9f 07 3e d7 5e 2b 3e b5 1f 48 be 90 38 bd 3d
       0.1324432 0.16735397 -0.19543345 0.09239304
000100 0c f2 99 bd 75 4e 4e bd 22 a8 a8 3d 58 1a 13 be
       -0.0751687 -0.05036779 0.08235194 -0.14365518
000110 b2 86 33 3e d3 69 3e 3e 71 0e f3 3c c5 f7 1e be
       0.17531851 0.18595056 0.029669972 -0.15524204
000120 8e 97 4e bd dc 6b 1c be 86 d0 90 bc d8 0f 2a 3e
       -0.050437503 -0.1527552 -0.017677557 0.16607606
000130 8b 28 a5 bb 3b 59 bd bd 09 df 43 3d ec c3 30 3e
       -0.0050402335 -0.09245535 0.047820125 0.17262238
000140 d2 2c 49 be b0 31 17 3e 40 b8 1c 3e 2f 4d 10 3e
       -0.19646004 0.14765048 0.15304661 0.14091943
000150 63 aa 40 bd 11 e6 a7 3d d0 d4 39 be 90 28 9c be
       -0.047037493 0.081981786 -0.18147588 -0.30499697
000160 fc d1 9b 3d 6f ad 00 be f5 d5 ba 3d 4e 64 11 bd
       0.07608411 -0.1256616 0.0912284 -0.03549605
000170 36 93 83 3d d6 69 45 3c 11 50 e6 bd d2 a1 dc 3d
       0.06424563 0.012049159 -0.1124574 0.10773052
000180 9f b9 1a be 61 f5 4a be df d8 e6 3d 6b 5b 09 3e
       -0.15109871 -0.19820167 0.11271834 0.1341378
000190 d3 7d 79 bd 77 3b 86 3d 24 bc 1c bd 52 f0 1d 3d
       -0.06091101 0.06554311 -0.038265362 0.038559265
0001a0 f2 49 bf bd 1c b1 4b be 61 cf 44 3e 22 ba 45 be
       -0.09340276 -0.1989178 0.19219734 -0.19309285
0001b0 90 0c 02 be 2f 79 1e 3d e9 45 c8 bc 87 d9 0a 3e
       -0.12700105 0.03868979 -0.024447398 0.13559543
0001c0 c7 d5 5e bd 01 10 29 be c6 4f 37 3e f1 2d 19 3e
       -0.054403093 -0.16510011 0.17901525 0.14958932
0001d0 a1 0e 79 bd 47 de 57 be ad a6 5d 3e 34 09 5c 3d
       -0.060804967 -0.21080886 0.21645613 0.053719714
0001e0 d9 99 73 bd 40 65 95 bd 7f ea db bd 3b fb 10 3e
       -0.059472892 -0.072947025 -0.10738086 0.14158337
0001f0 0b 31 99 bd 57 36 a8 bd f4 01 f0 3d 8b ac 3b be
       -0.07480057 -0.082134895 0.117191225 -0.18327539
000200 8c e6 a5 bd 63 ab 11 3e 48 80 24 bd 69 f8 6f 3e
       -0.08100614 0.14225535 -0.0401614 0.23434605
000210 90 5e 6e be fb f0 77 bc f7 17 1b be 1e fe 2f 3d
       -0.2327826 -0.015133138 -0.1514586 0.042966954
000220 df d9 80 3d b7 3a 80 3e 6b fc 2e 3e 8e 48 67 3d
       0.062915556 0.25044796 0.17088477 0.056465678
000230 56 3f 5c be f8 e3 ba 3d c4 c4 ea 3d f3 08 62 be
       -0.21508536 0.09125513 0.11463311 -0.22073726
000240 a3 5a 0f 3e 4a d9 1c be 24 e7 08 3e 39 77 24 be
       0.13999419 -0.15317264 0.13369423 -0.16061105
000250 64 d3 32 3e 2e aa fa 3c 18 4f a0 3d d5 87 28 3e
       0.17463452 0.030598726 0.07827586 0.16458066
000260 5b 6c ff 3b 3d f9 77 3c 94 01 8f bd 28 d4 9d 3d
       0.0077948994 0.015135107 -0.06982723 0.07706481
000270 11 75 41 3e 1f e6 04 3e da 24 6f be a0 19 0e be
       0.18892314 0.12978409 -0.23353902 -0.13876963
000280 df 93 46 be a3 bd a5 bc c8 c7 4e be 7c aa 86 3d
       -0.19392346 -0.020232027 -0.20193398 0.06575486
000290 14 25 c7 bc 22 99 2e 3e a8 65 90 bd f4 90 0f 3e
       -0.024309672 0.17050603 -0.070506394 0.14020139
0002a0 c9 93 68 bd 9d 90 1a bd a6 1e 09 3e 03 6c 1b 3e
       -0.056781564 -0.03773557 0.13390598 0.15177922
0002b0 28 d1 77 3d 1a b7 38 3e 1b 12 17 bd 60 b4 cc 3d
       0.0605022 0.18038598 -0.0368825 0.09995341
0002c0 38 f5 03 be bf a4 a9 3d 7c 6c 8f bd bd 91 ff bd
       -0.12886512 0.08283376 -0.070031136 -0.12478969
0002d0 0a 16 5b 3c 69 b6 85 3e 25 d0 19 3e 49 de 6f 3e
       0.013371954 0.2611573 0.15020807 0.23424639
0002e0 db 6c 8e bd 1d 8a 0b bc bf ae 90 3e 2e 8b 25 3e
       -0.06954356 -0.0085168155 0.2825832 0.16166374
0002f0 a3 d7 0a bd 1b 4e 0b 3e 5d 96 dd 3d b6 ce 8b 3d
       -0.033897053 0.13604014 0.10819695 0.06826536
000300 b7 78 2a be 9a 82 57 3d b3 8a 67 3e c1 3e 21 be
       -0.16647612 0.052614786 0.22611503 -0.15746595
000310 12 50 a1 bd 01 5b 57 3e dc 79 42 bc d2 79 e7 3d
       -0.078766 0.21030809 -0.011869874 0.11302532
000320 4a 72 1b 3e 4f 58 41 3e 89 fe 0a be 05 52 31 be
       0.15180317 0.18881343 -0.1357366 -0.17316444
000330 55 c4 35 3e b5 e7 fd bd f4 0d 5a be b4 a3 b6 3d
       0.17750676 -0.1239771 -0.21294385 0.08917943
000340 39 70 12 3e 5e 3c 36 bd 9a 8c 18 bd b3 6f e1 bd
       0.14300622 -0.044491164 -0.037243463 -0.11007633
000350 a1 c8 3d 3e 24 39 c1 bd 20 bd 3a bd df fc e8 3d
       0.18533565 -0.09434727 -0.04559052 0.11376356
000360 a2 03 3b be 8f e4 04 be 6f 0f fb bd 1f 12 5f 3d
       -0.18263105 -0.12977813 -0.12258803 0.05446064
000370 49 82 31 be 56 f7 8c 3d ef 80 24 3e ca 8f 05 be
       -0.17334856 0.06883113 0.1606481 -0.13043132
000380 56 46 10 be 40 80 18 be d3 de 67 bd 59 6c 7a 3d
       -0.14089331 -0.14892673 -0.056608986 0.061138485
000390 6c dd cc bd ce da 1c 3e dd 7c f3 3d 98 ba 9a bd
       -0.1000317 0.15317842 0.1188905 -0.07555121
0003a0 5b 56 21 be 7e eb 59 be bc 4c 4e be bd d7 f5 3d
       -0.15755598 -0.2128124 -0.2014646 0.120040394
0003b0 a4 63 b7 3d f6 01 7b 3e 75 29 bb 3d 95 11 e3 3b
       0.08954552 0.24512467 0.09138767 0.006929586
0003c0 fb 66 65 3d fa d4 bb 3d 34 8f dd bc 4a 2a 25 3e
       0.056006413 0.091714814 -0.027045824 0.16129413
0003d0 23 d9 1b 3e 02 39 88 3d 74 4c 2c be 7e 9e fc bb
       0.1521955 0.066514984 -0.1682604 -0.0077093234
0003e0 f8 c9 26 3e 2b 05 1d bd a9 e6 d0 bd 95 2d 43 3e
       0.16287982 -0.038335007 -0.10200245 0.19060357
0003f0 97 54 07 be 98 9e 49 3d 95 6e 15 be c8 81 03 3e
       -0.13215862 0.049223512 -0.14592965 0.12842476

sequences.0.bias f4 [64]
000000 0b ac 4f be 0d 37 b3 bd 84 ce 1e 3e 0f dd 4c 3e
       -0.20280473 -0.087507345 0.15508467 0.20006202
000010 71 54 02 3d 74 c6 ca bd 09 b7 5a bd 29 6b 6b 3e
       0.03181881 -0.09901133 -0.053397212 0.22990097
000020 b5 1e 3e 3e c1 aa 3b be c3 58 99 bd aa 96 75 3e
       0.18566401 -0.18326856 -0.07487633 0.23983255
000030 74 18 bb bd e1 d5 7b 3e 8f 81 14 3e d6 2a de bd
       -0.091355234 0.24593307 0.14502548 -0.10848014
000040 2e ad 57 3d db bb 5c be f5 10 46 3e 4c b4 75 bd
       0.05265539 -0.21556036 0.19342406 -0.059986398
000050 cf cb f8 bd dd d3 28 3e 50 1d 8b bd d6 a1 ea bd
       -0.121482484 0.1648707 -0.067927 -0.11456649
000060 62 99 60 be 14 38 58 be 8a 25 5f be e8 3c 50 3e
       -0.21933511 -0.21115142 -0.21791664 0.20335734
000070 61 f0 83 bd 89 4a 54 be e8 c3 7d 3e 26 f1 28 be
       -0.06442333 -0.20731558 0.24781764 -0.16498241
000080 f6 cf 2a 3d 0d 5d 07 be 29 5c 3d 3e 2a ee 66 be
       0.041702233 -0.1321909 0.18492188 -0.2255179
000090 f9 d9 61 3e d2 73 2f 3d 2f e4 49 3e 28 3b 26 bd
       0.22055806 0.042835064 0.19715951 -0.04058376
0000a0 d9 7d 63 be 4b f2 e9 3d 33 02 5a 3e b9 fc 61 be
       -0.22215976 0.11423167 0.21289901 -0.22069062
0000b0 74 97 16 3d 81 e9 5b 3e c9 ed 37 3e 71 0f 41 be
       0.03676553 0.21475793 0.17961802 -0.18853547
0000c0 0d 18 62 3e 2d 9b 25 be 7d 97 0b bd a0 5a 18 3e
       0.22079487 -0.16172476 -0.034080017 0.1487832
0000d0 0f 3b 5b 3e 3c f4 6c be c7 05 88 bd 3b 46 79 be
       0.21409248 -0.23140043 -0.06641727 -0.24343197
0000e0 73 e3 42 3e f0 0b 34 be e3 5b 1f 3e 88 77 32 be
       0.19032077 -0.17582679 0.15562396 -0.1742841
0000f0 2e 53 b8 3c b9 e9 6d be f0 b7 70 be 7c ea 6c bd
       0.0225006 -0.2323369 -0.23507667 -0.05784081

sequences.2.weight f4 [32, 64, 3, 3]
000000 09 8c ce bd f2 fa e1 bc d4 89 da 3c 94 b3 54 3d
       -0.10085303 -0.02758548 0.02667705 0.05192907
000010 82 18 91 bd de 13 11 3c bc 07 36 bc aa 1a 14 bc
       -0.070847526 0.008854834 -0.011110242 -0.00903956
000020 23 28 a9 3d 3d 11 b2 bd a2 2d e4 3d 9f 96 07 3d
       0.082596086 -0.08694694 0.11141516 0.033102628
000030 22 37 6d 3e ae cc 33 be b1 29 b2 3d 09 b6 49 be
       0.23165563 -0.17558548 0.08699358 -0.19698347
000040 b3 93 39 be a2 44 1c 3e a4 90 92 3d 2e 11 07 bd
       -0.18122749 0.15260556 0.07156494 -0.03297537
000050 74 b2 e3 3d c4 69 ce bd b8 fa 96 bd 28 43 54 3e
       0.111180216 -0.10078767 -0.073720396 0.20728743
000060 e2 b6 52 be c8 fd 2f bd cf 84 84 3c af ee 97 bc
       -0.20577577 -0.042966634 0.01617661 -0.01854643
000070 41 d6 c7 bb 33 ac 5c 3d 8e 89 12 3b a8 a6 eb bd
       -0.006098539 0.05387516 0.002235982 -0.115063965
000080 d8 33 6c 3d 7c 13 d5 3d 7d f5 d9 3d 1e c6 a3 3d
       0.05766663 0.10404107 0.10642526 0.07996772
000090 df 5c fa bd ec 12 31 be 63 41 3d 3e 61 e0 50 be
       -0.12224745 -0.17292374 0.18481974 -0.20398094
0000a0 2d bb 01 3e fa 4b 3a 3e 60 35 c6 bd b2 a5 00 3e
       0.12669058 0.18193045 -0.09678149 0.12563208
0000b0 e9 6f 86 bc 39 67 be be 49 69 b3 3e d8 1c c6 bc
       -0.016410785 -0.37188128 0.35041264 -0.024183676
0000c0 21 30 9d 3d 58 e1 1d bd b2 26 c2 bd 7f 01 19 be
       0.076751955 -0.038544983 -0.09480037 -0.14941977
0000d0 e7 8f 7b be d3 e8 cb 3e 5c c7 89 3d 57 e3 0c bd
       -0.24566613 0.39826068 0.06727478 -0.034396496
0000e0 7e 87 62 3d 0d bb ba bd 50 d5 8d bd 69 df 3b 3d
       0.055304997 -0.09117708 -0.06925452 0.045867357
0000f0 12 27 5b 37 20 8e 28 3e 39 69 1b 3e 80 98 95 bd
       1.3062514e-05 0.16460466 0.15176858 -0.07304478
000100 70 d3 93 bc 01 0c 5c 3d da 24 94 bd ec 1f 10 3e
       -0.018045157 0.053722385 -0.072335914 0.14074677
000110 fc e3 e5 3d ae 82 b6 3d e4 65 73 3c 21 2b 1f bc
       0.11225125 0.08911644 0.014855836 -0.009714873
000120 eb a4 97 3d 68 0c d7 bd ee a8 8a bc e6 27 8f 3e
       0.074045025 -0.10500413 -0.016926255 0.27960128
000130 63 55 50 3e 6f c4 79 bc ea 02 6a 3e 73 ef 93 be
       0.20345072 -0.015244587 0.22852674 -0.28893623
000140 a9 64 04 be d9 90 4a be 2a 80 d4 bd 4a 89 19 3e
       -0.12929024 -0.19781817 -0.10376008 0.14993778
000150 36 08 78 be 28 99 f0 3d aa 7b 77 bd bc 9e dc bd
       -0.24221882 0.11747962 -0.06042067 -0.10772464
000160 bc fa fb bd 67 ed 33 bd 5f 90 01 3d ad 65 0f bd
       -0.12303683 -0.043927576 0.031631824 -0.035009075
000170 e0 90 fc 3c 3e 23 6f 3d 9e e7 78 3d 62 45 0f 3c
       0.0308308 0.05838322 0.060767762 0.0087445695
000180 da a5 38 3d c7 50 01 bb 5c b1 76 bc 40 82 2f bd
       0.045080043 -0.0019731985 -0.015056934 -0.042848825
000190 3d 72 42 bd 33 eb 7a bc 38 8b 9c bd cd 64 f7 bc
       -0.047472227 -0.015314865 -0.07643741 -0.030199433
0001a0 df 61 92 3d e9 62 98 3c 48 79 f0 bc aa b7 3b 3c
       0.07147574 0.018601852 -0.029354706 0.011457363
0001b0 9b 43 80 be ba b5 8c bd 79 d3 74 3e d7 11 70 be
       -0.2505158 -0.06870599 0.23908795 -0.23444305
0001c0 c2 a9 b6 3e 8d 4f b0 3d ef 75 86 3e b3 a5 57 bd
       0.3567639 0.08608923 0.2626185 -0.052648257
0001d0 80 73 21 be 59 bf 48 3d 01 e3 99 3d 01 14 82 3e
       -0.15766716 0.04901061 0.07514001 0.25405887
0001e0 f1 cf 88 3d e6 26 49 bd 03 68 22 3e 28 ba 81 bd
       0.06680287 -0.049109362 0.1585999 -0.063343346
0001f0 a8 52 29 bc 19 0b 31 3b fb 3f 92 3e e2 37 10 3e
       -0.010334648 0.0027014671 0.28564438 0.14083818
000200 ab 08 84 be 10 4c 3c 3d 7d 24 74 be 2e 91 b7 bc
       -0.25787863 0.045970976 -0.23842044 -0.022408094
000210 95 e8 66 3e 8f 4f 06 bd 27 d6 d5 3d 0a 12 75 3d
       0.2254966 -0.032790717 0.10441237 0.059831657
000220 19 b3 f1 3d a9 69 09 3e 74 c1 51 3d 85 be 7a 3d
       0.11801738 0.13419212 0.051209882 0.06121685
000230 b2 7a 82 3d a0 e5 d1 3d 1f 14 d0 3d 1c ef 07 3e
       0.063710585 0.102488756 0.10160088 0.13274807
000240 77 4c 88 3e 90 3f 75 3d 17 af 00 3e c2 53 43 3e
       0.26620838 0.05987507 0.12566791 0.1907492
000250 65 3d 01 be 55 ab 09 3e 1b 9b af ba 83 9c bc 3d
       -0.12621076 0.13444264 -0.0013397665 0.0920954
000260 9a 8f 41 3e 34 82 dc bd ab 8c 58 3d 1b 1f 83 3d
       0.18902436 -0.10767022 0.052868526 0.06402417
000270 cf 1e 61 3c 00 96 91 bd 9d 70 b9 3c b2 fa bf bd
       0.0137402555 -0.07108688 0.022636706 -0.09373988
000280 97 92 4d be 6b cd 26 bd 7c ee 90 bd 4d 73 1a bb
       -0.20075451 -0.040723246 -0.07076737 -0.002356726
000290 d6 04 ee 3d 68 0a 72 3b 15 3c 62 3d 86 42 10 3c
       0.11622016 0.0036932472 0.05523308 0.008804923
0002a0 2f a7 09 3e 1c 64 db 3b 32 76 6d bc 79 53 a1 3d
       0.13442682 0.0066952836 -0.014493512 0.07877249
0002b0 07 52 ab bd e0 81 11 bd 73 68 87 bd ee f9 9a bc
       -0.08365255 -0.03552425 -0.06611719 -0.018918004
0002c0 e0 7c d6 3c 5c fb c1 3d ff 63 0d 3e 9a ee 8c bb
       0.026182592 0.09471771 0.13807677 -0.0043009045
0002d0 56 ac 84 bd d2 d2 f5 bb 2a d5 48 bd f6 0c 03 3d
       -0.06478183 -0.0075019384 -0.049031414 0.031994782
0002e0 51 ff f7 3d c4 55 e3 bc 2f d3 f1 3d 96 47 b8 bc
       0.121092446 -0.027750857 0.11807858 -0.022495072
0002f0 1b 6f f2 bd 91 95 37 3e c0 e4 ca 3d 82 3d 19 3e
       -0.11837598 0.17928149 0.09906912 0.1496487
000300 18 eb c9 3c bf f1 2b bb 9f 34 b8 bb b9 36 2a be
       0.024648234 -0.0026236621 -0.0056215073 -0.16622438
000310 9c fb d4 3c d0 29 4d 3d e4 c7 da bd 11 90 1a be
       0.025998883 0.050088704 -0.10682657 -0.1509402
000320 e5 5a 83 bd 8f 10 05 be a9 78 c0 3d 41 c0 91 3d
       -0.06413821 -0.12994598 0.09398014 0.07116748
000330 91 06 59 be cd bc 0d be 1b ab f8 bd f6 81 0c 3e
       -0.21193911 -0.13841553 -0.12142011 0.13721451
000340 d4 0a a0 3d 25 86 00 3d d8 80 63 3d 93 3a c9 bd
       0.07814565 0.03137793 0.055542797 -0.09825625
000350 f4 37 f8 bc 05 d7 12 bd 50 e4 d0 bd 0b 44 01 3d
       -0.030300118 -0.03584959 -0.10199797 0.03155903
000360 f2 77 6b bc cc c7 d0 bc 97 0e de 3d d3 cf 83 3c
       -0.014371859 -0.025485896 0.108426265 0.01609031
000370 2d 56 28 3d 46 e2 cd 3d 4b 86 f5 bc f9 45 8b 3d
       0.04109781 0.10052924 -0.029971262 0.068004556
000380 8a ae 23 bd fe 93 d4 bc 6a 76 2d be 54 e5 3f be
       -0.039961375 -0.025949474 -0.16939703 -0.18739825
000390 42 ee 27 3d ce 5f f0 3d a5 56 29 3d 1a ad 2f 3e
       0.040998705 0.11737023 0.041342396 0.17155877
0003a0 bb 5f c7 bc 48 08 d1 3d d1 0a 86 3d 15 bc 19 3d
       -0.02433764 0.10206658 0.06545032 0.037532885
0003b0 7e 12 aa bd fd 44 f9 bb 1f 75 91 bd de 17 9a bd
       -0.08304308 -0.007607101 -0.07102417 -0.075240836
0003c0 5f ad 06 be c3 15 d4 bd 17 e3 3d bd 6a 53 11 3c
       -0.13152073 -0.10355713 -0.046359148 0.008869985
0003d0 3c 3e 89 3d e4 05 79 3c d2 4c 3c 3d e4 ba a6 bd
       0.067013234 0.015199158 0.0459717 -0.08141115
0003e0 51 57 09 bd f8 15 21 bd ff a1 8a bc 6b a1 71 3d
       -0.033530537 -0.03932759 -0.016922949 0.05899183
0003f0 2f 77 4e 3d 79 7d 91 3d 26 e1 c6 3d 86 06 80 3d
       0.05040663 0.0710401 0.097109124 0.06251244

sequences.2.bias f4 [32]
000000 bf 0a d2 bc c2 a8 e7 bc 3e 66 d7 bc 65 cb 00 3d
       -0.02563989 -0.028278712 -0.02629387 0.031443972
000010 84 45 cb bd ae 27 df 3b 66 25 1b 3c 99 50 aa bd
       -0.099253684 0.00681015 0.009469366 -0.08316154
000020 6c 92 bb 3c 74 c2 18 bd f0 86 72 bc 35 3f 0c 3d
       0.022896968 -0.03729482 -0.014802679 0.034239966
000030 43 63 50 3b 7a 8e 48 3d 5d 89 e7 bd 1e 10 d8 bc
       0.0031797446 0.048964 -0.11305497 -0.026374873
000040 df 17 37 3d 29 40 05 bc 91 f8 db bd b7 3e 92 3c
       0.0447005 -0.008132973 -0.1074077 0.01785217
000050 44 87 9e bc fa a2 a7 3d a7 87 e5 35 e6 9a 26 3d
       -0.019351609 0.08185382 1.710131e-06 0.040675066
000060 1d c4 4a bd 94 25 6f bd dc bb 91 3d 5a 1f 97 3d
       -0.049503434 -0.058385447 0.071159095 0.07379027
000070 e9 7c c0 3b ac 96 2e bd 86 16 db 3d e9 e1 00 be
       0.0058742655 -0.04262416 0.106976554 -0.12586178

sequences.4.weight f4 [49, 32, 3, 3]
000000 8c e8 81 be 9c 3a e4 3d 97 da 49 3c bb 75 8e 3d
       -0.25372732 0.11143991 0.012320182 0.06956049
000010 fa 08 96 3e b4 41 9e 3c d3 7d 85 bd 4d 03 84 3c
       0.29303724 0.019318439 -0.0651814 0.016114855
000020 55 81 3c ba b6 71 4b 3c 5a 32 48 3e 7d 65 6d 3d
       -0.0007190903 0.0124172475 0.19550458 0.057958115
000030 9e d5 8a bd 22 92 02 3e db fd 82 bd 2d 84 70 bd
       -0.067790255 0.12751058 -0.06396075 -0.058719803
000040 37 21 30 3d fe 80 48 3c 2b 92 90 bd 1a 4b 0f bd
       0.043000426 0.012237785 -0.07059129 -0.03498373
000050 8b b5 00 bc e8 ac 80 3d 6c 07 d2 bc c8 05 86 3d
       -0.007855783 0.06282979 -0.025638305 0.065440714
000060 b1 97 8a bc 88 d2 ab 38 0c d6 33 bd 5c b7 36 bd
       -0.016918035 8.19313e-05 -0.043905303 -0.04460846
000070 ba 3f a8 bd 73 7e 60 bd f9 41 03 3d 45 55 13 be
       -0.0821528 -0.05480809 0.03204534 -0.14387996
000080 21 22 19 bd 6d 1a f1 bc 9e 6c d5 bd 94 76 ca 3b
       -0.037386063 -0.029431546 -0.10421108 0.0061786864
000090 c9 af 0a 3d c9 fc d0 3d 82 17 a8 bb 38 d5 19 3d
       0.033859048 0.10204465 -0.0051297555 0.037556857
0000a0 b2 9c c3 3d 4e e4 b6 bc 89 9d 83 bd 0a 50 92 3d
       0.09551372 -0.022325661 -0.06426532 0.071441725
0000b0 3f 2c 6e 3c a7 07 c2 bc a2 56 dc 3a 75 b4 20 bd
       0.014536916 -0.02368529 0.0016810487 -0.039234597
0000c0 7a 99 f4 3d 75 11 d8 3d 5e 37 90 3d e9 98 fc bb
       0.11943336 0.10550205 0.070418105 -0.007708658
0000d0 8a f8 36 3d a3 cf d6 3c 76 35 a5 bd 80 08 26 be
       0.04467062 0.026222056 -0.080668375 -0.1621418
0000e0 3a e7 2f 3d a9 a6 1a be 0a 3f 9a be c3 ee 7d 3c
       0.042945124 -0.15102638 -0.3012622 0.01549882
0000f0 8f a4 f6 3c d1 37 05 3d b9 af c8 3d d2 7a 3a 3d
       0.030107765 0.032523934 0.097991414 0.045527287
000100 e4 4e 98 3b 54 50 89 bd fe 4a 34 3d 6f dc a2 3d
       0.0046480764 -0.067047745 0.04401683 0.079522006
000110 2b 38 80 3d 91 cb 78 bc ba 21 b8 3c e0 2d a1 bc
       0.06260713 -0.015185253 0.02247702 -0.019675195
000120 66 60 0d be 38 64 03 be b0 a4 77 3c fc ba 11 be
       -0.13806304 -0.12831199 0.015114948 -0.14231485
000130 6b a5 23 be bd 14 90 bd 20 98 64 bd ce 06 d6 bd
       -0.1598107 -0.070352055 -0.05580914 -0.10450517
000140 8f 64 d7 3c 3a 74 79 3c f2 4a 96 bc 51 70 c8 bb
       0.026293067 0.0152254645 -0.018346284 -0.006116905
000150 4f 18 c3 3c 40 dd ee 3c a9 00 a7 3b 22 ba e6 3c
       0.023815302 0.029158235 0.0050965142 0.028164927
000160 f3 41 61 3d d5 50 5a bd da 0c 5e 3d c2 ac 8c 3d
       0.054994535 -0.053299744 0.054211475 0.068688884
000170 3b 66 40 3c 1b a8 0f ba c3 ad cc 3c b7 2a 60 3c
       0.011743124 -0.0005480067 0.0249852 0.013682059
000180 f0 30 36 bd 90 3d ed bc 9f 2b 33 bd 28 0a 7d 3d
       -0.044480264 -0.02896002 -0.043742772 0.061777264
000190 31 de 02 bd 92 81 e6 bc ec 27 8a bd 69 79 fe bc
       -0.03195018 -0.028137956 -0.06745896 -0.031063752
0001a0 70 64 58 bc f1 47 46 3d 8a 1d 54 3d bd 4a 08 bc
       -0.01320754 0.048408452 0.051785983 -0.0083186
0001b0 68 09 6c bd 2c b9 c0 bd 15 18 51 3d 7a b6 81 bd
       -0.057626158 -0.09410319 0.051048357 -0.06333633
0001c0 e5 78 e2 bd c2 e8 be 3c 0d df 41 3c b1 af c8 bc
       -0.11058215 0.023304347 0.011832965 -0.024497839
0001d0 ea 2d 60 3b 8f da b6 3c 27 3e ee bc e3 b2 c3 3a
       0.0034207054 0.022321014 -0.02908237 0.0014930632
0001e0 5c 28 c0 bd e6 22 a4 bd aa dd 08 3c 9c 5e 34 bb
       -0.09382698 -0.08014469 0.00835363 -0.0027522212
0001f0 e2 6e 56 bc d6 41 61 3d 3a ab 5f 3d f2 a5 a6 3d
       -0.01308796 0.054994427 0.054606654 0.0813712
000200 35 37 36 3c fa 92 c4 3d 34 28 0d 3e 69 95 fd bb
       0.011121561 0.09598346 0.13784868 -0.0077387583
000210 60 17 44 3c 38 3b 34 3d 6c ea 49 bd c8 58 5f 3c
       0.011968464 0.044001788 -0.049295828 0.013632007
000220 b0 47 cb 3b 0e d9 48 3d 77 fd d7 3d 2e 0c cd 3d
       0.006203614 0.049035124 0.105463915 0.10012089
000230 d2 d6 19 3d 31 18 e0 3b 8f 83 28 bd 8e e1 14 3d
       0.037558384 0.0068388213 -0.04114109 0.03634792
000240 0d 84 8d be 5a 0f 8e bd 0b 25 d9 3d 30 9a 66 be
       -0.2763981 -0.06936522 0.106027685 -0.22519755
000250 92 57 dc bd 32 91 51 3d f3 f2 6a 3d 05 09 5f 3d
       -0.1075889 0.05116386 0.0573606 0.05445196
000260 eb 54 92 3c 19 78 37 bd 51 86 56 3d 1e c7 8b bd
       0.017862758 -0.04479227 0.052374188 -0.06825088
000270 f4 ea cc 3c 43 de 63 3d df c9 13 bd 1e 8d 50 3b
       0.025014378 0.055631887 -0.03608119 0.0031822394
000280 a9 ee 13 3d f9 2b 3e 3d eb 4b 50 3d 2e ed 9b 3d
       0.036116276 0.046428654 0.05085365 0.07613598
000290 02 63 aa 3b 90 8d 95 3d f8 36 a3 3d 7d bb 9d 3d
       0.005199791 0.073023915 0.07969469 0.07701776
0002a0 40 0c 9d 3c 3b 9b e3 bc 2a 98 54 bd 4a 15 46 bd
       0.01917088 -0.02778398 -0.051902927 -0.048360147
0002b0 c3 d4 bb bd 70 91 ce bb f2 44 06 3c 54 b5 df bd
       -0.091714405 -0.0063039586 0.008195149 -0.109232575
0002c0 e5 3c 18 bd 12 e2 e0 3c 29 33 5d 3d d7 3e 89 ba
       -0.03716745 0.027451549 0.05400387 -0.0010470998
0002d0 bc 5f 8e bd e7 b0 9a 3c 14 8f 69 bd 1a b2 c8 bd
       -0.06951854 0.018883182 -0.057021216 -0.09799595
0002e0 c7 eb b7 bc aa 0b 0b be 1e 3d 91 3c f9 33 6e 3d
       -0.022451295 -0.13578668 0.017729338 0.058155034
0002f0 cb e8 2c 3d a5 b0 9b bc 02 5a 67 bd e1 13 d7 bc
       0.042214196 -0.01900513 -0.056482323 -0.026254596
000300 44 13 9f bd 05 ed e0 bd 03 f0 68 bd 43 e1 b3 bd
       -0.077673465 -0.10982708 -0.056869518 -0.087832
000310 38 c4 cc bd 34 0d 04 bd f7 95 ce bc a6 71 d8 3a
       -0.09998363 -0.032239154 -0.025217993 0.0016513362
000320 0c 73 d8 3c cb 27 ea bc 30 df fa 3d 76 4a 0c 3d
       0.026422046 -0.028583428 0.12249601 0.0342507
000330 96 3a d9 bc 05 b2 96 3c 63 a8 f8 3c ac ac 55 3c
       -0.026517194 0.018395433 0.03035373 0.013041656
000340 3c 62 75 bd c0 7b bf bc ff 66 bb bc c6 de fa bd
       -0.059908137 -0.023374438 -0.02287626 -0.12249522
000350 d8 a4 83 bd ae 84 39 bd c4 1a 30 bd d5 79 4e bd
       -0.06427926 -0.04529255 -0.042994276 -0.050409157
000360 7d 34 08 3d 52 d3 a5 3c 0f 5a 0e bb 1b e4 a1 3d
       0.03325318 0.020242367 -0.002172116 0.07904836
000370 6a 90 4d 3d 9e c0 b5 3c 3c d3 5e bd 42 45 87 3c
       0.050186552 0.022186574 -0.054400668 0.016512517
000380 b8 1f 0d bb 46 76 9d 3d 56 87 be 3d b2 c1 49 bd
       -0.0021533798 0.076885745 0.09303157 -0.049256988
000390 32 b6 c0 3a 12 e0 7f 3d bf be 4e bd 1d e1 23 bd
       0.0014702736 0.06246955 -0.05047488 -0.040009607
0003a0 bc 0a a8 3d 38 bb fc 3c 71 1e 61 be 88 0c 02 be
       0.082051724 0.030850992 -0.21984269 -0.12700093
0003b0 41 5f c2 3d d2 36 82 be 8b 33 45 be 6c 8a 44 3d
       0.094908245 -0.2543245 -0.19257943 0.047983572
0003c0 73 e4 95 3d 7c b0 c1 3d 8e 25 30 3d ec 0c 26 bd
       0.07318964 0.0945749 0.043004565 -0.040539667
0003d0 ee ef 8d bd da 03 69 3c 68 e6 d7 3c 35 4d a9 bd
       -0.069305286 0.01422211 0.026354983 -0.08266679
0003e0 7f 08 4e ba 0a e3 16 bd 44 fa 4b 3c bf 0f 73 bd
       -0.00078595424 -0.036837615 0.012449805 -0.05934119
0003f0 c5 7d 1d 3d 39 d4 69 3d 60 6e 4f bd c7 0d c6 bd
       0.03845002 0.057087157 -0.05064237 -0.096705966

sequences.4.bias f4 [49]
000000 22 f9 c2 bb 63 04 6f bd 88 4e 4c bd 95 54 25 3c
       -0.005950109 -0.058353793 -0.04987958 0.010090967
000010 44 a6 b9 bc 62 c6 72 bb 61 8d 1b bd d0 ea 13 bd
       -0.02266229 -0.0037044515 -0.037976626 -0.036112607
000020 bc be 26 bd 9b 6b 07 bd c7 ee e1 bc d7 36 90 ba
       -0.040709242 -0.033061605 -0.027579678 -0.0011002672
000030 cc d1 62 bd 95 52 68 bc 69 57 3b 39 c5 36 13 bd
       -0.05537586 -0.014179845 0.00017866273 -0.035940904
000040 eb f9 d2 bb d6 7e 00 bd b8 21 03 bd e7 b0 29 3c
       -0.006438484 -0.03137096 -0.03201458 0.010357118
000050 d9 ef 54 bd 3b 18 86 bc 5e c6 1a bc 9f f3 a9 3c
       -0.05198655 -0.016368976 -0.0094467085 0.02074605
000060 98 0b 4f bd 37 d7 4c bd 3f 10 79 bc e3 6b 2f 3d
       -0.050548166 -0.050009932 -0.015201627 0.0428275
000070 21 ae 32 bd 51 1f a1 bc 25 8c be 3c 33 97 ad bc
       -0.043623094 -0.019668253 0.023260185 -0.021190261
000080 8c 52 ec bc d7 a5 21 bc e6 7d 87 3c b5 8b 78 bc
       -0.028847955 -0.009866199 0.016539525 -0.0151700275
000090 8e c5 c8 bc a7 b8 37 bd 23 19 8c 3c 18 c3 27 bc
       -0.024508264 -0.044853833 0.01710183 -0.010239385
0000a0 e7 13 ec 3b 78 d3 12 3d 69 4e a6 bc 96 af 0a bd
       0.007204521 0.035846204 -0.02030106 -0.033858858
0000b0 2f 88 68 bc 23 12 87 bb 3c 6a 36 bd e0 86 db bc
       -0.014192625 -0.004122035 -0.044534907 -0.026797712
0000c0 c0 b7 78 3c
       0.015180528
