saved_models/UPSCALE_X2/epoch_55.pth (torch, 87711 bytes, 6 tensors)

sequences.0.weight f4 [64, 1, 5, 5]
00000000: befe b5bd 969c 16be 5638 7bbb 03af 37be
00000010: 9033 18be 7db9 2c3e cf7e 9fbd cab5 973e
00000020: 45f0 2d3e cf82 853d d64c 3b3e 37e3 a8be
00000030: a335 8abd d3a4 f93d f76c 4e3d 0e76 523e
00000040: 9425 1c3e 1556 7bbd 49f2 b03d 839c 36be
00000050: aa9e 1d3e 12b6 3cbe f12a 8ebd df31 65be
00000060: 3551 d7bd 2a46 a73b 67bb 513d 7c3e e93c
00000070: 436c c03c 3bd5 c0bd b721 f3bd 8f29 263d
00000080: b433 1bbe 0619 9f3d bc3f 42bd b7a0 223e
00000090: b4b4 2e3e 56ae 803e 862f f7bd a27c 10bd
000000a0: acef 833c 2794 87bd 7b62 b6bd 728e 543e
000000b0: faa9 0e3e 178b c43d b39b 313d 67b7 943d
000000c0: d70d 48be 1711 0cbb cba3 de39 829a ccbd
000000d0: 3d49 303e 4234 fb3d 9e93 11be 7541 3f3e
000000e0: 6810 d63d b954 da3c 1006 06be 8e7a 84bd
000000f0: ce9c 953e 85d0 cf3e 13f0 db3e 829e 813e
00000100: 6cdb 8a3e edd0 fa3d cc9c 213e 6796 bc3e
00000110: 7a00 8c3e 74c5 b83d 5bee 00be 80b1 55bc
00000120: c1ff 5d3e 042b 823c c764 d4bd d8ea 5cbc
00000130: 17b4 9a3d 5b48 e63d b5b9 5a3e 3da3 713b
00000140: f0b1 2fbe 4178 edbd c70e 89be 1b0c 87bb
00000150: dc83 0bbe e7a4 52be fa3e a8bd 5f66 dbbe
00000160: fe65 88be c255 4f3e 9b67 123e 6d6a 06be
00000170: fbfc 173f 1682 1cbe 7892 293e fdb3 4d3e
00000180: e229 5cbd 7a2c 4f3e 62e7 a4bc 99c0 183e
00000190: 3073 d3bd e350 e23d e503 173e 5d50 013e
000001a0: 778e 16bd 599c 07be ba53 be3d d729 9c3d
000001b0: 4207 073e bab3 90b9 5f5f 8abd fc43 323d
000001c0: 20ac bd3d adc5 0cbd e8e6 2fbe f1be 133e
000001d0: 36c0 38be f311 3bbd b3d4 083d 1872 3cbe
000001e0: 756d bbbd e0d5 16be 79c1 44be 34ac 9b3c
000001f0: 6c6c 1e3e 122d d23d 74ea 323e d719 2e3d
00000200: ea93 8cbd ebd1 503e eec2 4ebd 9f41 4bbe
00000210: 04c1 b0bd 7cfd 08be 4f9c d5bc 8fda fc3d
00000220: b6bd 563d 963c c3bd a3ad dabd 3f6e 2a3e
00000230: 0b10 26be c920 df3d d8c8 2b3e 9b78 10be
00000240: 6679 59be 8cc9 21be 346e 9ebc a443 54be
00000250: ccb7 b1bd 67e1 3e3d 4feb 923d 8f02 a13d
00000260: 77bf 833d 18fd d03d d4c6 db3d 50f7 283e
00000270: e461 3cbd 117e 58bd 84e5 793d 65ed c6bd
00000280: fb7c 9f3d cef3 53be 8dae 7bbe 868e 85be
00000290: c5cb 13be bc8e 33be 7a55 8dbe 44b4 0a3e
000002a0: 01fe d83c 11ba 583d bbe2 5abd 3442 9abd
000002b0: f719 c7bd 9c0d 48bd 9656 293e e7b2 ffbb
000002c0: 5970 22be 8590 06be 40d0 42be ac36 d03d
000002d0: 469d 9f3d a0c5 b9b8 212c 593e d6e3 0b3e
000002e0: 81d7 25be cb55 16be 9768 2dbe 792f 68be
000002f0: c42f 69be 5460 fd3d 72d0 e7bd f1c0 c83d
00000300: 67b8 403e 5c94 ec3c 89ee 68bd 768c 193d
00000310: 672e 3bbe 6cff 093e a590 8b3c a62e 3e3e
00000320: b620 0d3e 6cfd 413e 6e5e 3ebe 5647 923d
00000330: 8371 7b3e b0a3 f2bd 774a 68be 9660 cfbe
00000340: d1b0 43be c579 943d f971 b1bd f8c9 9dbd
00000350: 2a97 b1bc 9ba2 a93e d00a 2f3e 03b7 4bbe
00000360: 43d1 9d3d fd16 a9be 9e49 2e3e 680d afbc
00000370: 0cba 293d e67d 413d 966e 4cbe 6319 513e
00000380: 1dcb 0a3e 6b48 e63d 1b8d 69be ebf7 72be
00000390: 1545 09be 9f6a 043e 9c0c 1a3e 2912 76be
000003a0: 7d0f afbd 51b0 acbd 3941 1c3e 9641 a6bb
000003b0: 9136 98bd 1b60 633d e397 903d 39ea b6bd
000003c0: 4043 97bd c408 323e 0638 673e 1419 53be
000003d0: d998 a6bc 9cc9 aa3d acfa a13d 845f 67bd
000003e0: b228 2fbe 4b04 493e 83f9 4abd f610 37be
000003f0: 676c 09be c7d7 dd3d 45e4 f4bc dfab cdbc
-0.08886479 -0.1470817 -0.003833314 -0.17937855 -0.1486342 0.16867633 -0.07787859 0.29630882
0.16986187 0.065190904 0.1829103 -0.3298585 -0.06748512 0.12189641 0.050396886 0.20552847
0.1524871 -0.06136139 0.08639962 -0.17833142 0.15392557 -0.1842883 -0.06941784 -0.22382306
-0.10513536 0.0051047998 0.05120411 0.028472178 0.023489123 -0.094156705 -0.11871665 0.040566977
-0.15156442 0.07768445 -0.047424063 0.1588162 0.1706112 0.25133008 -0.12069611 -0.03527511
0.016105495 -0.06620055 -0.089055024 0.20757464 0.13932028 0.09596842 0.043361377 0.07261544
-0.1953653 -0.002137249 0.00042465175 -0.099904075 0.17215438 0.12265827 -0.14216468 0.18677314
0.10452348 0.026651727 -0.1308825 -0.06468688 0.29221195 0.40588775 0.429566 0.25316244
0.2712053 0.12246881 0.1578247 0.36833498 0.27344114 0.09022036 -0.12590925 -0.013042808
0.21679594 0.015889652 -0.10370784 -0.0134837255 0.07553881 0.112442695 0.21359904 0.003687098
-0.17157722 -0.11595202 -0.26769087 -0.004121316 -0.13624519 -0.20570718 -0.08215137 -0.4285154
-0.26640314 0.20247558 0.14297335 -0.13126536 0.5937039 -0.15283999 0.1655978 0.20088191
-0.05375088 0.2023181 -0.020129863 0.1491722 -0.10324705 0.11050584 0.1474758 0.12628312
-0.03675696 -0.13243236 0.09293313 0.07625168 0.13186362 -0.00027599727 -0.06756472 0.043521866
0.09261346 -0.034368206 -0.17177927 0.14428307 -0.18042073 -0.045671415 0.03340597 -0.18402898
-0.09151737 -0.14730024 -0.19214429 0.019003011 0.15471047 0.10262503 0.1747225 0.04250511
-0.0686415 0.20392577 -0.05047887 -0.19849251 -0.08630565 -0.13377947 -0.02607551 0.12346374
0.052427016 -0.0953304 -0.1067765 0.16643618 -0.16217057 0.10894925 0.16775835 -0.14108507
-0.21237716 -0.1579954 -0.019339658 -0.20728928 -0.086776346 0.04660168 0.07173788 0.07861816
0.064330034 0.10204524 0.10731283 0.16500592 -0.045991793 -0.0528546 0.0610099 -0.09713248
0.0778751 -0.20698473 -0.24578305 -0.260853 -0.144332 -0.17534918 -0.27604276 0.13545328
0.026488306 0.05291182 -0.053438883 -0.075321585 -0.09721749 -0.048841104 0.16536936 -0.0078033092
-0.1586317 -0.13141067 -0.19024754 0.10166678 0.077936694 -8.858298e-05 0.2120824 0.13661131
-0.1619549 -0.14681165 -0.16934429 -0.2267436 -0.22772127 0.12371889 -0.11319055 0.09802426
0.18820344 0.028879337 -0.05686811 0.03748747 -0.1827942 0.13476342 0.017036745 0.18572482
0.1378201 0.18944329 -0.1859071 0.071425125 0.2455502 -0.11847627 -0.22684656 -0.40503377
-0.19110419 0.07249788 -0.08664317 -0.07704538 -0.021678526 0.3313187 0.17093968 -0.19894032
0.07705929 -0.3302535 0.1702027 -0.021368697 0.041437194 0.047239207 -0.1996406 0.2041984
0.13554044 0.112442814 -0.22807734 -0.23727386 -0.13405259 0.12931298 0.15043873 -0.24030365
-0.08547876 -0.08432067 0.15259255 -0.0050737364 -0.07432283 0.055511575 0.0706022 -0.08931393
-0.07385874 0.17386156 0.22579965 -0.20615035 -0.020336555 0.08339235 0.0790914 -0.056487575
-0.17105368 0.19630544 -0.04955436 -0.17877564 -0.13420258 0.10832172 -0.029894004 -0.025106369

sequences.0.bias f4 [64]
00000000: 3a0a 0d3e 1833 95be 9626 b43e 466b 17bd
00000010: 2486 2d3e 1d35 9f3e 52a0 aa3e 0f6a a73e
00000020: 9274 9e3d 5250 3e3e 6f35 7e3e 41ec 8dbe
00000030: 2d2d a6be ca57 a03e 5eda b83e 9c1d afbe
00000040: 35e6 943e 0f21 823c 2ec0 a9be 3fc6 95be
00000050: 7594 883e 9a73 8e3e f8ac 96bc d377 ab3e
00000060: 29c9 9dbe cd7a 303e a1cc acbe e9c0 7abd
00000070: b8ed 46be b9e8 a6be d4df b4bd 737b 813e
00000080: d49f 703d 6744 4dbe f4ee 25bd 362d e93d
00000090: e332 84bd 9e03 4f3d cab9 583d eb79 17bd
000000a0: 43e7 ae3e 3b1a b23e 4ebc 803e 2e61 26be
000000b0: 5e88 9dbd eb45 853e 6798 c43e 82ca 953e
000000c0: 1f8b c9bd 2fb5 8fbe cd0c bf3c daa0 c2be
000000d0: e054 b4be ebbb 853e c59c 233d b5f1 1b3e
000000e0: b128 70be be2d 673e 1381 b73e e320 ab3c
000000f0: 8585 953d fb07 0cbe 6a00 223e b492 33bd
0.13773432 -0.29140544 0.3518569 -0.03696754 0.16945702 0.3109521 0.3332544 0.32698104
0.07737078 0.18585327 0.24825071 -0.2771931 -0.3245634 0.31316978 0.361041 -0.34202278
0.29081884 0.015884904 -0.33154434 -0.29252812 0.26675764 0.27822572 -0.018393025 0.33489856
-0.30817536 0.17234345 -0.3374987 -0.06121913 -0.1942662 -0.32599428 -0.08831754 0.25289497
0.058746174 -0.20045625 -0.040511087 0.113855764 -0.06455018 0.05054056 0.052911557 -0.036981504
0.34160814 0.34785637 0.25143665 -0.16248009 -0.076920256 0.26029906 0.38397524 0.29256064
-0.09840988 -0.2806792 0.023321534 -0.38013345 -0.35221004 0.26119933 0.03994443 0.15228923
-0.23453023 0.22576043 0.35840663 0.020889705 0.073008575 -0.1367492 0.1582047 -0.04384108

sequences.2.weight f4 [32, 64, 3, 3]
00000000: 80c4 023d 7def e73d f9d1 233e 85f4 343d
00000010: 694d c63c 1456 6dbd 0cc2 87bd 718c ac3d
00000020: a644 17bd ae54 7aba 88ba 7b3d a062 423c
00000030: 1ae4 98bd a078 b13d 7f15 e83d 3b0f 313d
00000040: 9faa d3bb 6bab ac3d fc30 0bbe 7b6d 84bd
00000050: c063 ccbc f94c 88bc a08f 383c 7577 17bc
00000060: 25ea 27bd 7fb7 9ebd b7f5 8cbd 9779 0bbe
00000070: 5bb0 4d3e 9182 7f3d 106c 743e 9d49 0cbe
00000080: 7f13 013e 5378 0a3d 1c74 09be 72b7 2b3c
00000090: 5f7f 0b3d 7689 843d d7b7 4bbd 2a0e 1fbd
000000a0: feff 783c 244d 613c 0ad6 bc3c 7d0d 2dbb
000000b0: c79e 493d c4b7 43bd a788 863d c585 af3d
000000c0: 1c2d cfbc 9cf1 a9bd 6bf3 8f3d 9664 ff3d
000000d0: 51e8 003e 40ec a73c 8a7c 3d3d ee84 673d
000000e0: de99 bd3d e491 f7bd 999f 08be 041d 5c3d
000000f0: 5242 49bc d28e 53bd 2284 ccbc 0018 2d3d
00000100: c9a4 2b3e c7a4 ef3d 1492 1e3c e7cb a8be
00000110: 8719 9abd 36f0 92bd f477 ce3d d44a cebc
00000120: bc48 25bd 2c32 a2bc 9d08 fdbd 1564 033d
00000130: 3a5e 763e c33e 3ebd 4e3b 553e 5156 1a3e
00000140: 07cc 943d fc0d f63d cf3e cebd 07c6 7e3e
00000150: 7363 b5bd 12c4 6d3e ab78 953d 6a0a 813c
00000160: f124 b03d f897 bfbc cef1 5abd 3d7b d0bd
00000170: ba53 923d 891b de3a 38b3 0d3e fdd6 1c3e
00000180: 433a dabc ab92 8bbd d4e2 223d 95da 9fbd
00000190: 60ee 903b 62cf a5bd a8fa 82bc c699 143e
000001a0: c1f6 a23c cc33 583d 43c5 323d a1cd 7e3c
000001b0: 343e 18bd bc23 693d f224 2e3d 5f58 10bd
000001c0: bac8 f53b 4707 aa3d 04f7 6d3c 7760 bc3c
000001d0: ce42 85be 3ad1 bdbd c1a4 293e 1d28 4b3d
000001e0: a1b2 bebd f6db 283e 9757 043e 290a c7bd
000001f0: 8e7d 023c 1504 283d 8205 f43b 1b25 a2bc
00000200: 0616 1ebd 8734 ae3c fd98 30bd 18cf b03d
00000210: 2a44 143d 6375 8c3c a28a 54bc 9fea aa3d
00000220: 5f3d 3b3d 4e62 633d 13f8 003b 6dd1 ed3d
00000230: d705 f23c fc85 78bc 66a9 9d3d b7e5 4c3d
00000240: 3700 e33b 510a 42bd af63 3eba 9d59 233d
00000250: 2393 29bc 2a6c 92bc a0d5 7dbc 5552 c03b
00000260: af00 943d 5d03 f5bc dfa1 033e b900 bfbd
00000270: 79bb e03d cd0d 84be a2da ea3c e4f2 b93d
00000280: 6f27 58bd 99bc 0dbd b153 0cbe aa6a 7dbe
00000290: 7e1e fa3c 92b7 5cbe 1059 823c 6173 eabd
000002a0: 9e75 0f3d 9ca5 023e 8899 373c e89b b9bd
000002b0: 0a24 603d ddc4 dd3b 7430 76bd 411e 8bbb
000002c0: 1b67 97bd f27b adbd 360d 7e3c b03e 2f3b
000002d0: a707 6d3e e9e1 31bd 2bf3 553d 1fba 563e
000002e0: 2bc2 29be 477b a03d 6ecd 223e 74ae 33be
000002f0: be14 4abc aa2e cbbd de1e ac3a 45e4 31bd
00000300: d973 40bd 9c3c 5dbd b4f2 243d 12f4 dbbb
00000310: 7cfc acbd b352 08bc dd5a 38bd 1740 40bc
00000320: d702 bc3d 5705 8e3c 5f87 99bd a16d 313e
00000330: 70a5 2dbd cbd8 143e a851 43bd c87b f43b
00000340: e5b4 50bd 31c5 a6bc eb9b cabb 24d4 b63a
00000350: 0d56 ab3a 5d27 1dbc edbe f1bd e84d 5cbc
00000360: afa6 c5bc 8035 02bd 6c1d 4cbd b316 94bc
00000370: ad03 9c3d 4057 d83c 8010 90bd 70ec 81bc
00000380: b461 afbc dc60 63bd b59e d33c 384e 883d
00000390: ea4d a63b 4293 11bd 3e54 80bd ec3a a0bc
000003a0: 8756 9ebc 2833 2bbd 342d 3cbc a9ba 2f3d
000003b0: 47b5 893b 3066 6d3d b7b1 d13d 04ca 943c
000003c0: 3003 c0bc 4a1e e83c 38f0 333c c804 b0bc
000003d0: bef8 3fbd 32ec e2bb ea53 b33c d4d6 a63a
000003e0: db87 203d 5867 07bd eec5 803d acd6 f53c
000003f0: 82e6 c8bd e9f9 e1bc b049 84bd 78d6 32bd
0.03192568 0.11324976 0.15998067 0.044178504 0.024206834 -0.05794342 -0.066288084 0.084252246
-0.036930703 -0.00095493614 0.061457187 0.011864334 -0.07465382 0.086655855 0.11332225 0.043227416
-0.0064595486 0.08431133 -0.13592905 -0.06466194 -0.024949908 -0.016638266 0.011264712 -0.009244789
-0.040994782 -0.07749843 -0.06882804 -0.13620602 0.20086806 0.062380377 0.23869348 -0.13699956
0.12605093 0.033806156 -0.13423198 0.0104807485 0.034057017 0.06471531 -0.04973587 -0.038831867
0.015197752 0.013751302 0.02305128 -0.0026405745 0.049223687 -0.047782674 0.06569033 0.085704364
-0.025290065 -0.082980365 0.0702885 0.12470357 0.12588622 0.020498395 0.046261348 0.056523256
0.092578635 -0.12088373 -0.13342132 0.05373861 -0.012283878 -0.051649876 -0.02496535 0.042259216
0.1676208 0.11701351 0.009678382 -0.32968065 -0.075244 -0.07174723 0.10081473 -0.025182165
-0.040352568 -0.019799314 -0.123551585 0.032077868 0.24059382 -0.046446573 0.20823404 0.1507199
0.07265478 0.12014386 -0.100705735 0.24880229 -0.08856859 0.23219326 0.07298406 0.015752036
0.08600796 -0.023387894 -0.05345326 -0.10179756 0.07144876 0.0016945462 0.13837898 0.15316387
-0.02663911 -0.06815084 0.0397671 -0.07805363 0.0044229478 -0.08096196 -0.015988663 0.14511785
0.019893052 0.052783772 0.043645155 0.015551955 -0.037168697 0.056918845 0.042515703 -0.035240527
0.007500735 0.08302169 0.014524225 0.022995217 -0.2602753 -0.092684224 0.16566755 0.049598802
-0.093114145 0.16490158 0.12924038 -0.09718735 0.007964505 0.041019518 0.0074469456 -0.019793084
-0.038595222 0.021265281 -0.04311465 0.0863325 0.03619782 0.017145818 -0.012972506 0.08345532
0.045712825 0.055513673 0.0019679114 0.116122104 0.0295438 -0.015168663 0.07698326 0.05002376
0.006927516 -0.04737312 -0.0007262779 0.039880384 -0.0103500215 -0.017873842 -0.015492827 0.0058691897
0.07226693 -0.02990883 0.12854718 -0.0932631 0.109732576 -0.2579178 0.028668705 0.09079531
-0.05277198 -0.03460369 -0.137038 -0.2474772 0.030532118 -0.21554402 0.015911609 -0.11447788
0.035024278 0.12758487 0.011206038 -0.0906294 0.05472187 0.0067678527 -0.060104802 -0.00424555
-0.07392713 -0.08470906 0.015506079 0.0026740246 0.2314745 -0.043428335 0.052233856 0.20969437
-0.16577975 0.07836013 0.15898678 -0.17547017 -0.012334047 -0.0992101 0.0013131758 -0.043430585
-0.04698548 -0.05401288 0.040270522 -0.006712445 -0.08446595 -0.008320498 -0.04500853 -0.01173403
0.09180229 0.01733653 -0.07496523 0.17326976 -0.0423941 0.14535825 -0.047685295 0.007461045
-0.050953764 -0.0203577 -0.0061831377 0.0013948721 0.001307191 -0.0095919045 -0.11803994 -0.013446309
-0.024127332 -0.031789303 -0.049832746 -0.01807723 0.076178886 0.026408792 -0.07034397 -0.015859812
-0.021408893 -0.055512294 0.025832513 0.06655544 0.005075206 -0.035540827 -0.06266068 -0.019559346
-0.019328369 -0.041796833 -0.011485387 0.042902622 0.004202518 0.05795878 0.102389745 0.018162735
-0.02343902 0.028334755 0.010982566 -0.021486655 -0.04686808 -0.0069251293 0.0218906 0.0012728819
0.039192062 -0.03305754 0.06287752 0.03000959 -0.09809591 -0.027584987 -0.06459367 -0.043661565

sequences.2.bias f4 [32]
00000000: 8d7f 46bd 54f2 25bd a0e2 94bd 2dd0 90bd
00000010: 67b4 5dbe 65d7 e83d 554d a43e 8005 7a3e
00000020: 31a6 b6bd fdbc 263e bc10 97bc 5f68 493d
00000030: 2fce e9bb abe8 1b3e f52f 0abc 5678 28be
00000040: 7011 b2bc ee37 ccbd acd3 63be 5e22 e0bd
00000050: 7be4 8f3d 892c 883c 2c5b 9fbd 67a4 14bc
00000060: 1416 87bd e321 d5bc c0c8 35be 467c 37be
00000070: 35af 86bd 6f7f 0b3e 4e46 1d3c 6198 b63d
-0.048461486 -0.040514305 -0.07269788 -0.070709564 -0.2165085 0.11369208 0.3209025 0.2441616
-0.08918417 0.16283031 -0.018440597 0.0491718 -0.0071351747 0.15225475 -0.008434285 -0.16452155
-0.02173683 -0.09971605 -0.22248715 -0.10944055 0.07026001 0.016622799 -0.077810615 -0.0090724
-0.06596008 -0.026017135 -0.17752361 -0.179185 -0.06576387 0.13622831 0.0095992815 0.08915783

sequences.4.weight f4 [4, 32, 3, 3]
00000000: 70c0 be3e cf6c 9ebd 59e3 48bc ea61 2a3d
00000010: 1191 9abd dcd0 6ebc a45f a4bc df1c 8cbd
00000020: fa80 12bd 3a40 773c 18ea 1f3c 9934 dcbb
00000030: 16f9 29be 74a5 3c3e 8314 aebd 078f 9f3c
00000040: 0c2b 153c 6d58 cabb 1fd9 a43c d8f1 0abe
00000050: 50d8 08be 1ba1 b4bd 1945 95bd 56bd 39be
00000060: 0f94 493d c2f4 abbd 4f00 61bc dc8e 2cbe
00000070: 1fae 843e 57c9 91bd fef9 183c a218 2b3d
00000080: 65b2 b0bd a1b2 473d 3f5a 5cbd 90db f83c
00000090: a81e 0c3e 0489 403e c441 4cbd f69e 273e
000000a0: 21db 503e 1a82 2f3d d061 cbbd a0da 09bd
000000b0: 7cbc 55bd 0015 9e3b 216d d83c 3675 5abd
000000c0: 4593 e63d 26e6 6b3d db42 ee3b 56ba 783d
000000d0: ef16 173e d3a6 cebc 12fa e8bd 4b38 fabd
000000e0: 04d8 9bbc 8547 63bd 4b5d d6bd f2a2 ab3d
000000f0: e4be 3bbc 0cbe 8dbd 7011 e33c 5783 4b3d
00000100: 6bcf aa3d d6fa 44bd 7285 983d e0da 2b3e
00000110: 923e 473c 1b03 5e3d 9cbf aa3d a3ae 8cbc
00000120: 6360 1b3d 9020 9a3d 5653 073d 1b03 b4bd
00000130: 2050 26bd e7b5 afbd 4c98 923d d5be cebd
00000140: 34ab 453d 2766 c13b 199a 8fbd 10cb 93bd
00000150: 96b4 f73c defa 24be 9365 1fbd ab77 41ba
00000160: f5d0 a33c 2c67 81bc 1e45 34be 75aa 2bbe
00000170: b810 ad3d 4910 07be 78b6 84be 9013 273d
00000180: 6618 e93d f3a7 063e b55b 973d f8bd a73c
00000190: 5429 57bd 0803 cc3d 609b 903d 7c9d 27bd
000001a0: 0f8a a5bb 5a04 c7bb 9fcb 47bc df2c 12bc
000001b0: 5ade 08bc 1072 57bc 1dbd 5a3b c851 08be
000001c0: 488f 693d 1c8b 10bd f4ba e33d 9f28 e23d
000001d0: 8ad7 99bd e899 d1bd 8192 53bb 1f60 2cbd
000001e0: 5cb0 cdbc 74f5 0dbe bd50 32bd f73a 3abd
000001f0: 5d91 49bd 9b04 eebc 7fa9 473d f76f d7bb
00000200: 0744 8cbd 8801 5a3e 1f9b 883e 75db d2bd
00000210: d3ae e1bd a648 c13d 1da2 0fbe 890d 24bd
00000220: a33f 393d 99b0 a9bb 64df 233d a81b 3c3e
00000230: dda2 fcbc db4c ab3c 376a febd 7133 55bd
00000240: 8e2c 273d 472b 0d3d 27a4 d2bc b688 223c
00000250: aced 0f3b 9ce6 423c 20bc afbc c3e2 5ebc
00000260: 8baa 79bc 6bb9 823c 8e69 913d af72 56bb
00000270: 8aff 663d 85fe 6c3e 3373 f73c 638f 083d
00000280: 921a 7c3d eada 243d 19c3 7ebc 1c67 b23d
00000290: 4400 5b3d 9d8d 843d 87cd 1b3d 40ac fe3d
000002a0: d5a7 a83d 2fdc 0a3e 2176 b83d 1dd8 d73c
000002b0: dd56 4b3d 0f74 6bbd 2c73 773d 6e89 373e
000002c0: b7b0 11be 7424 3cbc ed1e 0cbd bd52 18bd
000002d0: cdbd 41bc 0d5b fbbb 5cca 383d 0d57 e33d
000002e0: dde0 39be 7fbd 843d 40d6 883b aca7 6ebd
000002f0: 6581 a03d 5c77 083e 862d f93e 2fab 59be
00000300: 2e3c d6be d2aa 67bc 062a 6ebc 7c58 293e
00000310: d7d7 203e baa6 d0bc 2f1a 07be 907d 873e
00000320: 7625 fabb 8b34 0e3d 678e 333d 1c07 bf3d
00000330: 9b88 4abd f041 02bd d31b 193d 5789 1c3e
00000340: c809 4abc 800c 8ebc d649 6bbe 8c19 ca3b
00000350: 884b aabc d2b5 f63d d476 f53b 0618 943c
00000360: 1c2c f8bc 7a0e 68bd 7901 6abd d876 e1bd
00000370: 142c 15be 5b45 82bd 65dc 1b3d 17fc bbbc
00000380: e2ce 00bd b2b8 8f3e ba4b d13c 8e94 3a3d
00000390: c354 f5be df00 473d 9b9a e2bd d988 453e
000003a0: 57cd 6ebd c781 363d b016 e73b bfc2 3d3b
000003b0: 810e d53b 9ba6 463d 9c27 9b3d 2a21 15bb
000003c0: 4a26 ab3d 647e e33d fd9f 4d3d fc37 6fb8
000003d0: 0747 d93d 30fe d1bc f76c e93d 6a82 e43d
000003e0: 518a ce3d f985 06bd 3d75 51bd 0ea5 043c
000003f0: bd1a a03d c9cb 313d 5edd 153d aa46 dc3c
0.37256193 -0.07735597 -0.012261235 0.041597284 -0.075472005 -0.014576163 -0.020065136 -0.06841444
-0.035767533 0.015090996 0.009760402 -0.0067201373 -0.16598925 0.1842249 -0.08500006 0.01947738
0.009104501 -0.006175092 0.020123063 -0.13568819 -0.13363767 -0.08819791 -0.0728857 -0.18138632
0.049213465 -0.08396293 -0.013732984 -0.16851372 0.25914094 -0.07118481 0.0093369465 0.04177154
-0.08627776 0.04875434 -0.053797003 0.030378133 0.1368357 0.18802267 -0.049867406 0.16369233
0.20396091 0.042848684 -0.09930766 -0.033655763 -0.052181706 0.0048242807 0.026419224 -0.053334437
0.11258558 0.057592534 0.0072711534 0.06072458 0.14754842 -0.025226032 -0.11375822 -0.12217768
-0.019023903 -0.05548813 -0.10467013 0.08380689 -0.011459086 -0.06921014 0.027718276 0.049685802
0.08340343 -0.04809078 0.07447328 0.16782713 0.012160914 0.05420218 0.08337328 -0.017173117
0.03793372 0.07525742 0.03303846 -0.08789655 -0.040603757 -0.08579617 0.071579546 -0.10094992
0.048258975 0.00590207 -0.07011814 -0.072164655 0.030237477 -0.16111323 -0.038915228 -0.00073801976
0.0199971 -0.015796266 -0.17604491 -0.16764243 0.084504545 -0.13189806 -0.25920463 0.04079014
0.11381607 0.13150005 0.073905386 0.020476326 -0.052529648 0.09961516 0.070608854 -0.040921673
-0.0050518583 -0.006073517 -0.012194543 -0.008921831 -0.008353794 -0.013149753 0.003337688 -0.13312447
0.05702141 -0.035288915 0.11119643 0.11042904 -0.07511814 -0.102344334 -0.0032283368 -0.042083856
-0.025108509 -0.13863164 -0.04353403 -0.04546639 -0.049210895 -0.02905493 0.04874563 -0.0065746265
-0.06848913 0.21289647 0.26680848 -0.10295764 -0.11019673 0.09437685 -0.14026685 -0.04005197
0.045226704 -0.005178523 0.040007964 0.18369925 -0.030839378 0.020910671 -0.124226026 -0.05205101
0.040813975 0.0344651 -0.02571304 0.00992029 0.0021961732 0.011895802 -0.02145201 -0.013603869
-0.0152384145 0.015957555 0.07100211 -0.0032722165 0.056396045 0.23143966 0.030206298 0.03333987
0.061548777 0.040247835 -0.015549445 0.08711073 0.05346705 0.06472323 0.038037803 0.12435198
0.082351364 0.13560556 0.09006906 0.026348168 0.049643386 -0.05748373 0.06041257 0.17923519
-0.14227568 -0.0114833005 -0.03420918 -0.03718828 -0.011825037 -0.007670766 0.04511486 0.11100588
-0.18152185 0.06481456 0.004175931 -0.058265373 0.0783718 0.13326782 0.48667544 -0.21256708
-0.41842788 -0.014139848 -0.014536386 0.1653766 0.15707336 -0.025470126 -0.13193582 0.26462984
-0.00763386 0.034718078 0.043836977 0.09327528 -0.049446683 -0.031801164 0.03738005 0.15286766
-0.012331434 -0.017339945 -0.22977385 0.006167596 -0.02078797 0.12046398 0.007490972 0.018077862
-0.03029447 -0.05665443 -0.05713031 -0.11008996 -0.14567596 -0.06360885 0.03805198 -0.022947354
-0.0314473 0.280706 0.025548805 0.04555183 -0.4791623 0.048584815 -0.11064645 0.19290484
-0.058301296 0.04455736 0.007052265 0.002895519 0.006501973 0.04849873 0.07575914 -0.0022755363
0.083569124 0.111080915 0.050201405 -5.703418e-05 0.106092505 -0.025633901 0.113977365 0.11157687
0.100849755 -0.03284261 -0.051137198 0.008095993 0.078176 0.043407235 0.036588065 0.026889164

sequences.4.bias f4 [4]
00000000: 9f20 5dbd 3084 7bbc a978 23bd 6e9e a8bd
-0.053986188 -0.01535134 -0.039909992 -0.08233343
