saved_models/UPSCALE_X2/epoch_71.pth (torch, 87711 bytes, 6 tensors)

sequences.0.weight f4 [64, 1, 5, 5]
0	0xbdeed483	-0.11661627
1	0xbe39b54a	-0.18135563
2	0xbda4a2fa	-0.08038898
3	0xbe586563	-0.21132426
4	0xbe1e894e	-0.15482065
5	0x3e41c4dd	0.18922754
6	0xbd80b33d	-0.06284187
7	0x3ea62a59	0.32454184
8	0x3e3b8145	0.18311031
9	0x3dc705f8	0.09717935
10	0x3e5bc9f8	0.21463764
11	0xbeae3a88	-0.3402903
12	0xbda2253b	-0.079172574
13	0x3e0f7b9e	0.14012
14	0x3d8bc8de	0.06825422
15	0x3e71ba9a	0.23606339
16	0x3e2a75fc	0.1664657
17	0xbda38e7b	-0.0798616
18	0x3db39ffa	0.087707475
19	0xbe0a355a	-0.13496915
20	0x3e36bb04	0.17844778
21	0xbe21c52f	-0.15797876
22	0xbdb37783	-0.087630294
23	0xbe66dabc	-0.22544378
24	0xbda70219	-0.08154697
25	0x3ae51b0b	0.0017479373
26	0x3d500d43	0.050793897
27	0x3ce3855a	0.027773548
28	0x3cb54ba3	0.022130793
29	0xbdbf17cc	-0.09330711
30	0xbdfdaa49	-0.12385995
31	0x3d22bc6f	0.039730486
32	0xbe1b3614	-0.15157348
33	0x3da2f7ca	0.07957418
34	0xbd4f54bc	-0.05061792
35	0x3e1c7d52	0.15282181
36	0x3e32748b	0.1742727
37	0x3e807201	0.25086978
38	0xbe00d67f	-0.12581824
39	0xbd02852e	-0.03186529
40	0x3c8f6d7b	0.017508259
41	0xbd81d722	-0.063398615
42	0xbdb6eb2e	-0.08931576
43	0x3e5145a9	0.2043673
44	0x3e0a9e67	0.13536988
45	0x3dcce144	0.100039035
46	0x3d3422b4	0.043978408
47	0x3d9d050a	0.07666977
48	0xbe4895a8	-0.1958834
49	0x3aba72d8	0.00142249
50	0xbc38e3cf	-0.011284783
51	0xbdd1f795	-0.10252301
52	0x3e2b5fe4	0.16735798
53	0x3de270bd	0.11056659
54	0xbe14aa79	-0.14518155
55	0x3e361cdf	0.17784451
56	0x3df0b0cf	0.117524736
57	0x3d05c177	0.032655206
58	0xbe103b44	-0.14085108
59	0xbd94a0db	-0.07257243
60	0x3e9e7666	0.30949706
61	0x3eeb78ea	0.45990688
62	0x3efa64c7	0.48905012
63	0x3e8f7a54	0.28023016
64	0x3e921403	0.28530893
65	0x3de544ab	0.11194738
66	0x3e336ece	0.17522737
67	0x3ecef6a6	0.40422553
68	0x3e9059da	0.2819355
69	0x3daf7a32	0.08568229
70	0xbe0fe684	-0.14052778
71	0xbcb77f7d	-0.022399658
72	0x3e589941	0.21152212
73	0xbbbe65ab	-0.0058104596
74	0xbe037167	-0.12836228
75	0xbcd586ff	-0.026065348
76	0x3d9a38eb	0.075303875
77	0x3ded9458	0.1160056
78	0x3e3b06b4	0.18264276
79	0xbca5b5f3	-0.020228362
80	0xbe3446c8	-0.17605126
81	0xbe1f2d0d	-0.1554453
82	0xbe9011ad	-0.28138486
83	0xbc915c0e	-0.01774409
84	0xbdec317d	-0.11532877
85	0xbe55a232	-0.20862654
86	0xbdef4db9	-0.11684746
87	0xbeee3abb	-0.46529183
88	0xbe8e2058	-0.2775905
89	0x3e3bb7ca	0.18331829
90	0x3e28d0dc	0.16485924
91	0xbdefe055	-0.1171271
92	0x3f1e87b4	0.61925817
93	0xbe0293ef	-0.12751745
94	0x3e43c7f6	0.19119248
95	0x3e72d57f	0.23714255
96	0xbc90a1a9	-0.01765521
97	0x3e74d967	0.23911057
98	0x3d0725a2	0.032994874
99	0x3e35ee51	0.17766692
100	0xbdc347e6	-0.09535198
101	0x3de9ba1b	0.1141245
102	0x3e231f1a	0.15929833
103	0x3df033bf	0.1172862
104	0xbd6d1f7b	-0.05789135
105	0xbe102a66	-0.14078674
106	0x3da653e8	0.081214726
107	0x3d7b7e8b	0.061399978
108	0x3e0d47c5	0.13796909
109	0xbc6c2e09	-0.0144152725
110	0xbd93c578	-0.072153986
111	0x3d27e1e1	0.0409869
112	0x3d9fc33a	0.078009084
113	0xbd0336d4	-0.03203471
114	0xbe26c3c5	-0.16285618
115	0x3e1b4bd3	0.15165643
116	0xbe3ca74f	-0.18423198
117	0xbd4e9534	-0.05043526
118	0x3d21e74f	0.039527234
119	0xbe270a3d	-0.163125
120	0xbdc89fa1	-0.09796072
121	0xbe1f6a4d	-0.15567894
122	0xbe55403b	-0.20825283
123	0x3c9b5985	0.018963585
124	0x3e23406d	0.15942545
125	0x3dd671a8	0.10470897
126	0x3e37dbd5	0.17954953
127	0x3d4293ab	0.04750411
128	0xbd927ac0	-0.07152319
129	0x3e4af58e	0.19820234
130	0xbd2eaf07	-0.042647388
131	0xbe4a2213	-0.19739561
132	0xbdb3061c	-0.087414
133	0xbe07057b	-0.13185684
134	0xbcba6346	-0.022752415
135	0x3e002201	0.12512971
136	0x3d60fa34	0.054926112
137	0xbdc576dd	-0.09641812
138	0xbddfbaa3	-0.1092427
139	0x3e25e37b	0.16200058
140	0xbe29fb37	-0.16599737
141	0x3ddd48f6	0.10804932
142	0x3e2a14ae	0.16609451
143	0xbe12c6e1	-0.14333679
144	0xbe5a1d51	-0.21300246
145	0xbe1f7bf9	-0.15574636
146	0xbc86225c	-0.016373806
147	0xbe505c61	-0.2034774
148	0xbdad24b7	-0.084542684
149	0x3d47e329	0.04880062
150	0x3da2e93d	0.07954643
151	0x3db4c164	0.08825949
152	0x3d99ba4a	0.07506235
153	0x3de250a4	0.11050537
154	0x3de8163f	0.11332368
155	0x3e2df673	0.16988544
156	0xbd2a9a27	-0.041650917
157	0xbd429ed5	-0.047514755
158	0x3d849165	0.06473044
159	0xbdb7e220	-0.08978677
160	0x3d8c356f	0.06846129
161	0xbe636723	-0.22207312
162	0xbe84a972	-0.25910527
163	0xbe89ec2a	-0.2693799
164	0xbe176390	-0.14784074
165	0xbe39ea53	-0.18155794
166	0xbe929d9c	-0.2863587
167	0x3dfe758f	0.12424766
168	0x3c76e430	0.015069053
169	0x3d2ba777	0.041907754
170	0xbd618d18	-0.055066198
171	0xbda0d3e2	-0.078529134
172	0xbdcffd20	-0.10155702
173	0xbd5de37d	-0.054172028
174	0x3e21a1d7	0.15784393
175	0xbbf410f8	-0.007448312
176	0xbe244de1	-0.16045333
177	0xbe098b4e	-0.13432047
178	0xbe416621	-0.18886615
179	0x3dd38fea	0.10330184
180	0x3da50145	0.08056883
181	0xb9f71306	-0.00047125685
182	0x3e5a67df	0.21328686
183	0x3e098fee	0.13433811
184	0xbe229f42	-0.15881065
185	0xbe0e55eb	-0.13899963
186	0xbe289212	-0.16461971
187	0xbe63a111	-0.2222941
188	0xbe611007	-0.2197877
189	0x3e04b746	0.12960538
190	0xbddcac9f	-0.10775112
191	0x3dcdd162	0.10049702
192	0x3e46f300	0.19428635
193	0x3d0a78b6	0.033806525
194	0xbd426b81	-0.047465805
195	0x3d28afec	0.041183397
196	0xbe39205d	-0.18078752
197	0x3e0c8b26	0.13724956
198	0x3cb5a328	0.022172526
199	0x3e40d700	0.18832016
200	0x3e03aa49	0.12857927
201	0x3e3483f1	0.17628457
202	0xbe56e2a0	-0.20984888
203	0x3dbdf264	0.09274748
204	0x3e8f9385	0.28042236
205	0xbdf49e1d	-0.1194422
206	0xbe8334a1	-0.2562609
207	0xbee7508f	-0.4517865
208	0xbe2d5218	-0.16925848
209	0x3deee6df	0.11665129
210	0xbdaccde2	-0.084377065
211	0xbdd06a15	-0.101764835
212	0xbd885b41	-0.0665803
213	0x3eb4f59f	0.35343644
214	0x3e4c0103	0.19922261
215	0xbe4eaa94	-0.20182258
216	0x3d7e83c0	0.062137365
217	0xbebece10	-0.37266588
218	0x3e56ecb9	0.2098874
219	0xbaabc33c	-0.0013104449
220	0x3ceb2fc3	0.028709298
221	0x3d453210	0.048143446
222	0xbe6347d1	-0.22195365
223	0x3e7b910e	0.24567053
224	0x3e2a4407	0.16627513
225	0x3df4b5fb	0.119487725
226	0xbe69f7a6	-0.22848377
227	0xbe7945f6	-0.24343094
228	0xbe03d360	-0.12873602
229	0x3dfb5817	0.12272661
230	0x3e1e62c6	0.15467367
231	0xbe77086b	-0.24124305
232	0xbdc590d9	-0.09646768
233	0xbda74d65	-0.08169059
234	0x3e1f0856	0.15530524
235	0xbba9b420	-0.0051789433
236	0xbdacf82f	-0.08445775
237	0x3d99da07	0.075122885
238	0x3d7819f5	0.06057163
239	0xbdb57414	-0.08860031
240	0xbd7ebbc1	-0.062190775
241	0x3e3716d3	0.178798
242	0x3e66d754	0.22543079
243	0xbe57d97f	-0.21079062
244	0xbc9a0ffa	-0.018806446
245	0x3da10ac4	0.078633815
246	0x3d94d201	0.072666176
247	0xbd86ccd9	-0.0658204
248	0xbe24b286	-0.16083726
249	0x3e4ce8ff	0.20010756
250	0xbd55b8db	-0.052178245
251	0xbe3caec4	-0.18426043
252	0xbe086796	-0.13320765
253	0x3de9ae13	0.11410155
254	0xbd12f2a1	-0.03587592
255	0xbc731f07	-0.01483894

sequences.0.bias f4 [64]
0	0x3e0b63d5	0.13612302
1	0xbe96e7e7	-0.29473802
2	0x3eb88328	0.36037564
3	0xbd46699a	-0.048440553
4	0x3e2bab61	0.16764595
5	0x3ea09ab5	0.31368032
6	0x3eadf09e	0.3397264
7	0x3ea9c4ac	0.3315786
8	0x3d7c85f8	0.0616512
9	0x3e3b3345	0.18281277
10	0x3e71f68f	0.23629211
11	0xbe8f529f	-0.27992722
12	0xbea91973	-0.3302723
13	0x3ea6dd08	0.32590508
14	0x3eb9a1e2	0.3625632
15	0xbeb04fc6	-0.34435862
16	0x3e98f830	0.29876852
17	0x3d1bf1af	0.038072284
18	0xbeaad268	-0.33363652
19	0xbe952c00	-0.29135132
20	0x3e8c1154	0.2735697
21	0x3e903a2c	0.28169382
22	0xbc611e3c	-0.013740119
23	0x3eae2f1e	0.34020323
24	0xbe9f8fb2	-0.31164318
25	0x3e2a6dfb	0.16643517
26	0xbeb0bf71	-0.34521058
27	0xbdc41bae	-0.09575592
28	0xbe45c057	-0.19311653
29	0xbea7b1a2	-0.3275271
30	0xbd8aa839	-0.06770367
31	0x3e8120f3	0.2522045
32	0x3d804fb0	0.06265199
33	0xbe4c0167	-0.1992241
34	0xbd0df5fa	-0.03465841
35	0x3dded5cc	0.10880622
36	0xbd7f0504	-0.062260643
37	0x3d4ffdb9	0.05077908
38	0x3cf6d30f	0.030129937
39	0xbd43b6d9	-0.0477818
40	0x3eb05f9c	0.34447944
41	0x3eb3c0c6	0.35108012
42	0x3e820263	0.25392446
43	0xbe1a0665	-0.15041502
44	0xbd6d3d3c	-0.057919726
45	0x3e87ec02	0.26547247
46	0x3ec5da43	0.38643083
47	0x3e94a80d	0.29034463
48	0xbdb2460d	-0.087047674
49	0xbe922a2d	-0.28547803
50	0xbb8e91e1	-0.004350886
51	0xbec3f221	-0.38270667
52	0xbeb60e5a	-0.35557824
53	0x3e86611c	0.26245964
54	0x3cab1a24	0.020886488
55	0x3e24e746	0.16103849
56	0xbe6ed67e	-0.2332401
57	0x3e5c1353	0.21491747
58	0x3eb8e97b	0.3611563
59	0x3bb45062	0.0055027464
60	0x3daec617	0.085338764
61	0xbdfbe91f	-0.12300324
62	0x3e2ec420	0.17067003
63	0xbd44acef	-0.048016485

sequences.2.weight f4 [32, 64, 3, 3]
0	0x3d878f0a	0.066190794
1	0x3e076851	0.13223387
2	0x3e480eca	0.19536892
3	0x3d63bf88	0.05560258
4	0xbc97dfc1	-0.018539311
5	0xbcf2391d	-0.02956825
6	0xbdbe47e1	-0.092910536
7	0x3d8be42f	0.06830632
8	0xbd1fb7b9	-0.03899357
9	0xbba96ec1	-0.0051706736
10	0x3d676ee6	0.056502245
11	0x3d4c36f7	0.049857106
12	0xbdc46ecf	-0.095914476
13	0x3ddb0265	0.10693816
14	0x3db1b883	0.08677771
15	0x3c80512b	0.015663704
16	0x3b7d6d23	0.0038669787
17	0x3d968309	0.07349212
18	0xbe1aed5c	-0.15129608
19	0xbda5a155	-0.08087412
20	0xbd387de8	-0.04504195
21	0xbc88f8be	-0.016720172
22	0x3c84d178	0.016213164
23	0xbb8f9b72	-0.004382544
24	0xbd311e5e	-0.04324185
25	0xbda045cd	-0.078258134
26	0xbd899d23	-0.067194246
27	0xbe0c43aa	-0.13697687
28	0x3e444bfa	0.19169608
29	0x3db02638	0.0860104
30	0x3e794bdd	0.24345346
31	0xbdb03b0e	-0.08605014
32	0x3e1a8e03	0.15093236
33	0x3d16f6e9	0.036856566
34	0xbde01648	-0.1094175
35	0x3c2575ce	0.010098888
36	0x3d53d374	0.05171533
37	0x3d59c102	0.053162582
38	0xbd7bec47	-0.06150463
39	0xbd159d52	-0.036526985
40	0x3cd610fc	0.026131146
41	0xbd110b1b	-0.03541098
42	0x3d3628a2	0.044472344
43	0x3c7de0d3	0.015495497
44	0x3d18a687	0.037268188
45	0xbd4cf073	-0.050033998
46	0x3d90b6c3	0.07066109
47	0x3d94a538	0.072580755
48	0xbcaff42e	-0.021478739
49	0xbd976906	-0.073930785
50	0x3d832a20	0.06404519
51	0x3e0c6a8b	0.13712518
52	0x3ddcee12	0.10787596
53	0x3d4e8656	0.05042108
54	0x3d9d4d28	0.07680732
55	0x3d1b3814	0.037895277
56	0x3ddf14c8	0.108926356
57	0xbe12302d	-0.1427619
58	0xbe1aae2f	-0.15105508
59	0x3d522ec0	0.051314116
60	0xbcd5cea6	-0.026099514
61	0xbdc5a72d	-0.09651027
62	0xbd3f83d8	-0.046756595
63	0x3d35c82d	0.044380356
64	0x3e3b50b8	0.1829251
65	0x3ded8046	0.11596732
66	0x3cacf31b	0.021112015
67	0xbe9f8e96	-0.31163472
68	0xbda9043f	-0.08252763
69	0xbdb62c4f	-0.0889517
70	0x3d90c7d2	0.07069363
71	0xbcac7958	-0.021053955
72	0xbdd78241	-0.10522891
73	0x3c782d98	0.015147589
74	0xbe027698	-0.12740552
75	0xbcd85cd7	-0.026411457
76	0x3e98901f	0.29797456
77	0xbd721131	-0.059098426
78	0x3e1de501	0.1541939
79	0x3e3ba630	0.18325114
80	0x3d55374e	0.052054696
81	0x3de176dd	0.110089995
82	0xbdc19e85	-0.09454063
83	0x3e833d1f	0.2563257
84	0xbd980556	-0.07422893
85	0x3e54145b	0.2071089
86	0x3d81a932	0.063310996
87	0x3a93295d	0.0011227537
88	0x3cc33b47	0.023831977
89	0xbd18c04f	-0.037292775
90	0xbd5ace4a	-0.05341939
91	0xbde61ff2	-0.11236562
92	0x3d868927	0.065691285
93	0xbc11f3d2	-0.008908229
94	0x3e20f5f2	0.1571882
95	0x3e18ebe3	0.14933734
96	0xbd11f396	-0.035632692
97	0xbdbadbfb	-0.09123989
98	0xbbe60b94	-0.007020423
99	0xbdbff2b5	-0.093724646
100	0xbcf5418e	-0.029938485
101	0xbdb273da	-0.08713503
102	0x3c29092f	0.010317131
103	0x3e0ae88a	0.13565269
104	0x3d7e0e70	0.062025487
105	0x3d87c981	0.06630231
106	0x3d9ff78a	0.07810886
107	0x3bcd8ced	0.006272903
108	0xbd019bda	-0.031642772
109	0x3d4b8b0e	0.04969316
110	0x3d27a6d2	0.040930577
111	0xbd5153ff	-0.051105496
112	0xb9cf5362	-0.00039544242
113	0x3da7698f	0.081744306
114	0xbca19aea	-0.01972719
115	0xbc102f71	-0.008800373
116	0xbe67955a	-0.22615567
117	0xbdccde76	-0.100033686
118	0x3def85b5	0.116954245
119	0x3c94510a	0.018105049
120	0xbdbb40bb	-0.09143206
121	0x3e344c90	0.17607331
122	0x3dc8e2e4	0.09808901
123	0xbdd2bd12	-0.102899686
124	0x3b60dc58	0.0034311023
125	0x3d0bfbd4	0.03417571
126	0x3d3dc398	0.04632911
127	0xbc183bd9	-0.009291613
128	0xbd158f15	-0.036513407
129	0x3d64c224	0.05584921
130	0xbd06f391	-0.032947127
131	0x3dcbd747	0.0995317
132	0x3d9ec4be	0.07752369
133	0x3d366a35	0.04453488
134	0x3c8e5377	0.017373784
135	0x3dd8a34a	0.1057802
136	0x3d2324fb	0.03983019
137	0x3d8ca861	0.06868053
138	0x3ac954c6	0.0015360347
139	0x3dceecb8	0.10103744
140	0x3caa4aa9	0.020787554
141	0xbbdf6477	-0.0068173963
142	0x3d36fad7	0.044672813
143	0x3d3591b3	0.044328403
144	0x3c335d58	0.010947548
145	0xbd3882b7	-0.045046534
146	0xbc2f51ed	-0.010700685
147	0x3d5c1a84	0.053736225
148	0xbb9327a7	-0.004490811
149	0xbca187cf	-0.019718079
150	0xbc488bd8	-0.012240373
151	0x3c3fd39c	0.011708166
152	0x3d8ea8ec	0.06965813
153	0xbd5a96b9	-0.053366397
154	0x3dcd6c8c	0.10030469
155	0xbdaed9dc	-0.08537647
156	0x3de7bc44	0.11315206
157	0xbe786d9f	-0.24260567
158	0x3c7d0834	0.01544385
159	0x3e0be878	0.13662899
160	0xbdaa48c9	-0.08314664
161	0xbc74cfd5	-0.014942129
162	0xbe08d652	-0.13363007
163	0xbe81d649	-0.253588
164	0x3b77a410	0.0037786998
165	0xbe6209d5	-0.22074063
166	0x3cd38ca9	0.025823908
167	0xbe15f407	-0.1464387
168	0x3c94526c	0.018105708
169	0x3e03de4e	0.12877771
170	0x3c7f9e0c	0.015601646
171	0xbdeb4db4	-0.1148943
172	0x3d51133d	0.051043738
173	0x3cbf0340	0.02331698
174	0xbd98c6a7	-0.07459765
175	0xbcc3a5a7	-0.0238827
176	0xbd49092f	-0.049081024
177	0xbdb16245	-0.086613216
178	0x3d6ddc6e	0.058071546
179	0xbc107c5f	-0.008818715
180	0x3e741c61	0.2383895
181	0xbd9cedab	-0.07662519
182	0x3d61f24f	0.055162724
183	0x3e3b5cb9	0.1829709
184	0xbe3a4b56	-0.18192801
185	0x3d52f499	0.051502798
186	0x3e0783bd	0.13233848
187	0xbe62718e	-0.2211363
188	0xbce7c5a9	-0.028292494
189	0xbdd6847a	-0.10474487
190	0xbc986845	-0.018604407
191	0xbd0123d3	-0.031528305
192	0xbd5abd75	-0.053403337
193	0xbc76cef9	-0.015063995
194	0x3d256ac0	0.040385008
195	0xbce69316	-0.028146308
196	0xbdf5e715	-0.12006966
197	0x3b2bc2cc	0.0026208637
198	0xbced17fa	-0.028942097
199	0x3c9e2a5f	0.019307313
200	0x3d880f80	0.066435814
201	0x3d212e90	0.039351046
202	0xbd4406c4	-0.047858015
203	0x3e26189e	0.16220328
204	0xbd6409c1	-0.055673365
205	0x3ded2306	0.11578946
206	0xbd770714	-0.060309485
207	0x3bc74b49	0.0060819727
208	0xbd39cf89	-0.045363937
209	0xbcfff71f	-0.031245766
210	0xbc97b725	-0.018519947
211	0xbb60b4b5	-0.0034287397
212	0x3b2869d2	0.002569784
213	0xbcfa7aaf	-0.030576078
214	0xbdaf56a6	-0.08561449
215	0xbcb94d7b	-0.022619953
216	0xbd04f479	-0.03245971
217	0xbd81984e	-0.06327878
218	0xbd6a8d9a	-0.057263948
219	0xbd35a6f1	-0.04434866
220	0x3dd4b281	0.103856094
221	0xbb3cbfa1	-0.0028800743
222	0xbd6daa4b	-0.058023732
223	0xbcbd380c	-0.023098014
224	0xbb5ab5ac	-0.0033372445
225	0xbdb6c963	-0.0892513
226	0x3d8b2598	0.0679428
227	0x3d8df7e5	0.06932048
228	0x3cd3a65b	0.02583616
229	0xbcc03f66	-0.02346773
230	0xbd7e792f	-0.06212729
231	0xbcba92c0	-0.022775054
232	0x3c84bd2f	0.016203491
233	0xbc720543	-0.014771762
234	0x3d3bad89	0.045819793
235	0x3c90636e	0.017625537
236	0x3c5c3283	0.013439777
237	0x3db75107	0.089510016
238	0x3dd3c00b	0.10339364
239	0x3c36b8b3	0.011152434
240	0xbcc5fd66	-0.024168681
241	0x3c49894e	0.012300802
242	0x3cb76048	0.022384778
243	0xbdf3d62b	-0.11906084
244	0xbcc3d651	-0.023905905
245	0xbdc36fa4	-0.09542778
246	0x3da084b7	0.07837813
247	0x3d490fb8	0.049087256
248	0x3dbbf2eb	0.09177192
249	0xbd0eb6f9	-0.034842465
250	0x3debf69d	0.11521647
251	0x3db1adac	0.086757034
252	0xbda6d3d8	-0.08145875
253	0xbcf52729	-0.0299259
254	0xbd88dcc9	-0.066827364
255	0xbd74202a	-0.059600987

sequences.2.bias f4 [32]
0	0xbd5481b8	-0.051881522
1	0xbd1f28fc	-0.038857445
2	0xbdd08e8f	-0.10183441
3	0xbdaf9faf	-0.08575379
4	0xbe7e05d8	-0.24806917
5	0x3e014f1c	0.12627834
6	0x3ebbb930	0.36664724
7	0x3e9abcf6	0.3022229
8	0xbdb6044c	-0.08887538
9	0x3e2a8893	0.16653661
10	0xbcd06aa2	-0.025441471
11	0x3d5e3cf0	0.054257333
12	0xbc6a4ebc	-0.014300998
13	0x3e1e10b4	0.15436059
14	0xbba46df2	-0.0050179893
15	0xbe2d8039	-0.16943444
16	0xbcabf9e3	-0.020993179
17	0xbdc4703b	-0.09591719
18	0xbe8358b7	-0.25653622
19	0xbdeb379a	-0.114852145
20	0x3d9eb3a4	0.077491075
21	0x3c5b2d23	0.013377461
22	0xbda19215	-0.07889191
23	0xbc21f42b	-0.009884874
24	0xbd912dd9	-0.07088823
25	0xbcbbd123	-0.022926873
26	0xbe392612	-0.18080929
27	0xbe4e5f70	-0.20153594
28	0xbd89814d	-0.06714115
29	0x3e082395	0.13294823
30	0x3c7276ab	0.0147988
31	0x3db31958	0.08745068

sequences.4.weight f4 [4, 32, 3, 3]
0	0x3efee01d	0.4978036
1	0xbdc01908	-0.09379774
2	0x3b59d3e9	0.003323788
3	0xbca6d89a	-0.020366956
4	0xbdc4ea3c	-0.09614989
5	0xbd02408d	-0.03179984
6	0xbcf37e54	-0.029723324
7	0xbdff2986	-0.12459092
8	0x3c76270e	0.01502396
9	0xba2e3bb0	-0.00066464674
10	0x3c000708	0.007814176
11	0xbc14c690	-0.009080544
12	0xbe245335	-0.16047366
13	0x3e3f96ef	0.1870992
14	0xbdc37d2e	-0.095453605
15	0x3cb7e0b6	0.022446018
16	0x3c4e4248	0.012589045
17	0xbc324a4e	-0.010881973
18	0x3c9ddaf5	0.019269446
19	0xbe135f2b	-0.14391772
20	0xbe1125c6	-0.14174566
21	0xbdc54d8d	-0.09633932
22	0xbd8bdccb	-0.06829222
23	0xbe493ba7	-0.19651662
24	0x3d6f8f12	0.05848605
25	0xbda739ea	-0.08165343
26	0xbc3f7473	-0.0116854785
27	0xbe5e5a78	-0.21714199
28	0x3e7bdb7d	0.24595447
29	0xbda8e482	-0.082467094
30	0x3dc2a69b	0.09504434
31	0xbd9bb46e	-0.076027736
32	0xbd29a39b	-0.041415792
33	0x3d560041	0.052246336
34	0x3cab44c8	0.02090682
35	0x3c1af51d	0.009457854
36	0x3e11701a	0.1420292
37	0x3e49d7d2	0.19711235
38	0xbd5ec23e	-0.054384463
39	0x3e2dbdf6	0.16966996
40	0x3e632c75	0.22184928
41	0x3d1dcbbc	0.038524374
42	0xbdc64b90	-0.09682381
43	0xbd3b5d37	-0.045743193
44	0xbd3fa2a4	-0.046785966
45	0x3bcfc6fb	0.006340859
46	0x3cb5a816	0.022174876
47	0xbd719596	-0.058980547
48	0x3de429dc	0.111407965
49	0x3d303347	0.043017652
50	0xbb2da8b4	-0.002649826
51	0x3d851256	0.06497638
52	0x3e1fad43	0.15593438
53	0xbd02b235	-0.031908233
54	0xbde5780a	-0.11204536
55	0xbdf807ec	-0.12110886
56	0xbc4640ef	-0.012100442
57	0xbd7c97d5	-0.061668236
58	0xbdf1cc2a	-0.11806519
59	0x3dac17bb	0.08402964
60	0xbc660fe9	-0.014041879
61	0xbd7d86fe	-0.061896317
62	0x3cb400a4	0.021972962
63	0x3d756257	0.059908237
64	0x3db38244	0.087650806
65	0xbd518a04	-0.051157013
66	0x3db57051	0.08859313
67	0x3e31b573	0.17354374
68	0x3c4d2bea	0.012522677
69	0x3d7d523d	0.061846007
70	0x3dba8667	0.091076665
71	0xbc9d623e	-0.019211885
72	0xbc2376b1	-0.009977029
73	0x3e0c54e1	0.13704254
74	0x3c7f2e1b	0.015574957
75	0xbd39a144	-0.04531981
76	0xbdd29108	-0.10281569
77	0xbd2ca74f	-0.042151745
78	0x3d1746da	0.036932804
79	0xbda7c160	-0.0819118
80	0x3c42cba2	0.01188937
81	0x3c3486b9	0.0110184485
82	0xbdba5543	-0.09098294
83	0xbd6f6810	-0.05844885
84	0x3cf7df9b	0.03025799
85	0xbe31be16	-0.17357668
86	0xbd23c575	-0.03998323
87	0xbb033f5c	-0.0020026779
88	0x3cb98989	0.02264859
89	0xbc96b868	-0.018398479
90	0xbe3ddb0f	-0.18540595
91	0xbe32a173	-0.174444
92	0x3da127bf	0.07868909
93	0xbe06c48e	-0.13160917
94	0xbe8d89b7	-0.2764413
95	0x3d3b0b82	0.04566527
96	0x3dec754d	0.11545811
97	0x3e13dc62	0.14439538
98	0x3d9ce0ac	0.0766004
99	0x3ca431f3	0.020043349
100	0xbd0674cc	-0.03282623
101	0x3d9d31dc	0.076755255
102	0x3d67748a	0.056507625
103	0xbcb4d565	-0.02207441
104	0x3b8c4b2b	0.0042814217
105	0xbbcb3d28	-0.0062023588
106	0xbbc766bb	-0.0060852445
107	0xbc0037d3	-0.0078258095
108	0x3afe44a7	0.0019399122
109	0xbc4f19c4	-0.01264042
110	0x3ad1f7ac	0.0016019247
111	0xbe17338c	-0.14765757
112	0x3d492982	0.04911185
113	0xbd048694	-0.032354906
114	0x3dcbef4a	0.0995775
115	0x3e09f53c	0.13472456
116	0xbda59064	-0.08084181
117	0xbdebfa65	-0.11522368
118	0xbb558e33	-0.0032585978
119	0xbd833557	-0.06406658
120	0xbb9e5a6e	-0.0048325574
121	0xbe173f11	-0.14770152
122	0xbd06cefc	-0.03291224
123	0xbd3e6cc1	-0.046490435
124	0xbd8626bd	-0.065503575
125	0xbccf96cb	-0.025340458
126	0x3dc8d777	0.09806722
127	0xbd00a31e	-0.03140556
128	0xbd0556f4	-0.032553628
129	0x3e714d56	0.23564658
130	0x3e805f93	0.25072917
131	0xbe00cbb9	-0.12577714
132	0xbdbd2f14	-0.09237495
133	0x3da55ad1	0.080739625
134	0xbe002c49	-0.12516893
135	0xbdb13798	-0.08653182
136	0xbcc6d814	-0.024272956
137	0xbd06f3a9	-0.032947216
138	0x3d094cd0	0.03352052
139	0x3ea05999	0.31318358
140	0xbd2d403d	-0.04229759
141	0x3d59369d	0.0530306
142	0xbdcd5647	-0.10026222
143	0xbd22633c	-0.03964542
144	0x3d512441	0.051059965
145	0x3c7405e0	0.014893979
146	0xbcaafc6c	-0.020872317
147	0x3cb98cab	0.022650084
148	0xbaf37048	-0.0018572891
149	0x3cdfe3f5	0.027330378
150	0xbd095978	-0.03353259
151	0xbb9a6ba9	-0.004712541
152	0xbc996958	-0.01872699
153	0x3c9083f4	0.017641045
154	0x3d81955e	0.06327318
155	0x3c1a6592	0.00942363
156	0x3d4ad2ec	0.049517557
157	0x3e7d5fbb	0.2474355
158	0x3cd2403a	0.025665391
159	0x3d062f14	0.03275974
160	0x3d84bd81	0.064814575
161	0x3d3026a4	0.0430056
162	0xbc956971	-0.018238755
163	0x3dbabd49	0.091181345
164	0x3d431591	0.04762799
165	0x3d752aa8	0.059855133
166	0x3d113925	0.035454888
167	0x3df6179f	0.12016224
168	0x3da9f8f7	0.082994394
169	0x3e1166af	0.14199327
170	0x3db3d4fb	0.08780857
171	0x3cf052b5	0.029336313
172	0x3d42ad2c	0.04752843
173	0xbd643c58	-0.05572161
174	0x3d62cb88	0.055369884
175	0x3e4bc0e7	0.19897805
176	0xbe098bc5	-0.13432224
177	0xbc58efa8	-0.013240732
178	0xbd40fee4	-0.047118083
179	0xbd17afd0	-0.037032902
180	0xbbe64a90	-0.0070279315
181	0xbc8cca95	-0.017186442
182	0x3d2989fb	0.041391354
183	0x3e1238a3	0.14279418
184	0xbe27ef4b	-0.16399877
185	0x3d822938	0.06355518
186	0xbb21cba2	-0.0024688025
187	0xbd33c69d	-0.043890584
188	0x3d8e8037	0.06958049
189	0x3d8ebdc5	0.069697894
190	0x3f031837	0.51208824
191	0xbe968fa0	-0.29406452
192	0xbed09bdc	-0.4074391
193	0xbd4f977a	-0.05068157
194	0x3cad9b05	0.021192083
195	0x3e0c9827	0.13729917
196	0x3e51a899	0.20474471
197	0xbd359b60	-0.04433763
198	0xbe36f644	-0.1786738
199	0x3e9e2a3f	0.30891606
200	0x3b66f51c	0.0035241311
201	0x3c4a2190	0.0123371035
202	0x3d1ebbd0	0.03875333
203	0x3de35f73	0.1110219
204	0xbd360161	-0.04443491
205	0xbd1549ca	-0.036447324
206	0x3d2b93d7	0.041889038
207	0x3e21daf6	0.15806183
208	0xbc222fc3	-0.009899083
209	0xbc982b91	-0.018575462
210	0xbe6cd447	-0.23127852
211	0xbcc6fb9a	-0.024289895
212	0xbc008f67	-0.00784669
213	0x3e019742	0.12655357
214	0x3cb12a7b	0.021626702
215	0x3cb94b17	0.022618813
216	0xbca0ed5d	-0.019644434
217	0xbd98a02d	-0.07452426
218	0xbd619f5b	-0.055083614
219	0xbdd782b2	-0.10522975
220	0xbe1d9110	-0.15387368
221	0xbd95f0da	-0.073213294
222	0x3d405fed	0.046966482
223	0xbcc7c4fb	-0.02438592
224	0xbd08288a	-0.033241786
225	0x3ea40027	0.32031366
226	0x3c94f9a0	0.018185437
227	0x3d07f261	0.033190135
228	0xbf040ec1	-0.5158501
229	0x3da392c9	0.079869814
230	0xbe068ebd	-0.13140388
231	0x3e88e99a	0.26740724
232	0xbdb2880e	-0.087173566
233	0x3d3f3b2c	0.04668729
234	0x3bf26b4a	0.0073980438
235	0x3b9c68c5	0.0047732317
236	0x3c13136c	0.0089767985
237	0x3d834883	0.06410315
238	0x3dbc3c47	0.091911845
239	0x3c544424	0.012955699
240	0x3da6ecbc	0.08150622
241	0x3de427c4	0.11140397
242	0x3d3b499e	0.045724504
243	0xbc0da759	-0.008645856
244	0x3de8268c	0.11335477
245	0xbcfd8686	-0.030947935
246	0x3de47f93	0.11157145
247	0x3dcb7ad6	0.099355385
248	0x3dd50cf8	0.10402864
249	0xbd3227d9	-0.043495033
250	0xbd5225fc	-0.051305756
251	0xbc0e6c21	-0.008692772
252	0x3daa21de	0.08307241
253	0x3d4fb5da	0.050710537
254	0x3d3b4de0	0.045728564
255	0x3ca4d7ca	0.020122427

sequences.4.bias f4 [4]
0	0xbd509638	-0.05092451
1	0xbc7d7635	-0.015470077
2	0xbd14470b	-0.036200564
3	0xbda14827	-0.0787509
