saved_models/UPSCALE_X4/epoch_45.pth (torch, 101599 bytes, 6 tensors)

sequences.0.weight f4 [64, 1, 5, 5]
000000 ff 28 36 be 3f 72 87 bd 23 52 09 3e f8 bc 87 bd
       -0.17789076 -0.066135876 0.13410239 -0.0662784
000010 96 9b 30 be 11 2d fa bc 26 6e 90 3c 22 14 49 3c
       -0.17246851 -0.030539067 0.017630648 0.012272866
000020 71 7e 8d bd 54 46 ed 3d d4 ce 68 3d 9a a1 4d 3e
       -0.069088824 0.1158568 0.05683787 0.20081177
000030 45 b6 45 bd bd 53 22 3e e0 da 28 be b3 59 2c bc
       -0.04826953 0.15852256 -0.16489744 -0.010519433
000040 e5 32 31 3e 20 78 08 3e ab d8 bc 3d 27 71 9d bb
       0.17304571 0.13327074 0.09221014 -0.0048047486
000050 11 6f d1 bd d4 3b 05 be 96 0e 6a bd fa 30 e8 3d
       -0.10226262 -0.13011104 -0.057142816 0.113374665
000060 8c 1c 2c 3e 30 4f 1a be 8c a0 ac 3c a0 3c a4 bd
       0.16807765 -0.1506927 0.021072648 -0.08019376
000070 6d c8 8a bc b0 d3 dd bd 4f e5 e6 3d f8 ba 48 be
       -0.016941274 -0.10831392 0.11274206 -0.19602573
000080 91 42 87 bd bb 78 02 3e 8e 4a 1d be bd 59 ea 3c
       -0.066044934 0.12741368 -0.15360472 0.028607244
000090 b5 da 0f 3e d7 ea ee 3c 0d 98 35 be 50 ea 7a 3c
       0.14048274 0.029164715 -0.17733784 0.0153146535
0000a0 72 67 23 be 59 50 19 be ec ae 74 3c 48 93 1c be
       -0.1595743 -0.14972056 0.014934283 -0.15290558
0000b0 01 d3 48 3e 95 a0 9f 3d e0 57 f9 3d 64 82 2e 3e
       0.19611742 0.077943005 0.12174964 0.17041928
0000c0 b9 5b f8 bc 19 a9 43 be b5 bb e6 3c 1b 37 21 3e
       -0.030317174 -0.19107474 0.028165678 0.15743677
0000d0 36 a2 46 3e 25 15 01 be f9 4b d4 bd 0a 22 28 bd
       0.19397816 -0.12605722 -0.10366053 -0.041048087
0000e0 30 21 61 3e 99 9c 36 3d cd f7 2b be 19 37 13 be
       0.21985316 0.044582937 -0.16793747 -0.14376487
0000f0 f1 ea 1a 3e fb 7d 05 be ca 5c c5 3d 4d 0a 75 bb
       0.15128686 -0.13036339 0.09636839 -0.0037390173
000100 97 97 07 3e f4 1c 03 3e eb c2 fb 3d 54 4a 24 3e
       0.1324142 0.12804013 0.12293037 0.16043979
000110 fe 48 1b 3d 4a e6 f5 bc 40 71 e4 bd 75 46 5e 3c
       0.037911408 -0.030017037 -0.11154413 0.013566603
000120 20 b5 2f be 23 cc 2c be 52 86 f8 bd 00 98 67 3c
       -0.17158937 -0.16874747 -0.121349946 0.014135361
000130 e5 41 16 be b6 a7 5b bd 37 6d 06 bc c5 9e 98 3d
       -0.14673574 -0.05362674 -0.00820475 0.07452158
000140 1d bb 5a bd 64 a1 00 bd 71 4a dd 3d 3a 05 85 bb
       -0.0534011 -0.031403914 0.10805214 -0.004059461
000150 e7 d9 4e be 3f 6d 51 3d 11 3c 66 bd 60 48 d7 bd
       -0.2020031 0.051129576 -0.056209628 -0.10511851
000160 8b dd 43 3e c4 e4 92 bc 7f d1 60 bd 4f f8 da bd
       0.1912748 -0.01793135 -0.05488729 -0.10691892
000170 fa 32 ae bd 17 59 99 3d b1 8b 84 3d 2a 8b d0 3d
       -0.08505817 0.07487696 0.064719565 0.101827934
000180 66 6b 69 bc ff 3c 08 bd aa a9 ba bd 9d f2 55 bc
       -0.014246797 -0.033261295 -0.09114392 -0.013058332
000190 58 99 98 bd 77 42 89 3d 98 97 c0 bd de ef 26 be
       -0.07451123 0.0670213 -0.09403914 -0.1630244
0001a0 e0 52 35 3d 9b e6 8b 3d 5b 9c 3e be 9f 86 36 be
       0.04426849 0.06831094 -0.18614332 -0.17824791
0001b0 7d 07 94 3c 09 05 4a 3d e5 b3 87 3d 33 f3 3c be
       0.018069977 0.04932121 0.06626109 -0.18452148
0001c0 02 27 c2 3d 8f 7c 1d be 8f 79 d5 3d cf 39 f4 3d
       0.094800964 -0.15379547 0.10423576 0.119250886
0001d0 5d 66 87 bd 24 a0 3d be 6d 3f 38 be 11 a0 84 bd
       -0.06611321 -0.1851812 -0.17992945 -0.06475843
0001e0 05 ff 60 bd 6f 16 b9 3d 3c 05 17 39 97 aa 48 3e
       -0.054930706 0.09037482 0.00014402432 0.19596325
0001f0 ab cd 35 3e 35 e1 b5 3c 30 c7 71 bd c3 22 bb bd
       0.17754237 0.022202114 -0.05902785 -0.0913749
000200 51 42 aa 3b 08 06 2e be 79 88 38 3e 82 98 ce 3d
       0.005195894 -0.16994488 0.1802081 0.10087682
000210 d9 03 66 bd 7e b8 42 3e eb e5 53 be 77 24 dc 3d
       -0.056156013 0.1901569 -0.20693175 0.107491426
000220 24 66 de 3d 0c 3e 74 bd 15 53 9d 3d 9c ce c3 3d
       0.108593255 -0.059629485 0.07681862 0.09560892
000230 f9 20 ef 3d 36 31 22 3e 70 75 9e bd c8 4f 7d 3d
       0.11676211 0.15839085 -0.07737243 0.061843663
000240 db 69 2a be 9d d4 09 3e 81 b6 33 be f7 4c 2d 3e
       -0.16641943 0.13460012 -0.17550088 0.16923891
000250 45 35 ce bd ea 91 61 bd bf 97 1b bd 61 ba 14 be
       -0.10068754 -0.055070795 -0.037986513 -0.14524223
000260 6c b4 88 bd 13 84 61 3d f2 95 03 3e ca a0 2f 3e
       -0.06675038 0.055057596 0.12850168 0.1715118
000270 f2 0b d4 bd ce d6 ff bd 93 b9 70 3e 2e c3 8e 3d
       -0.10353841 -0.124921426 0.23508291 0.06970821
000280 32 41 12 be f4 bb 84 bd 88 fc a1 3c cb 97 d0 3d
       -0.14282683 -0.06481162 0.019773737 0.10185202
000290 6b 5d c7 3a c9 91 39 be 2b 62 4d 3d 0d 39 6b 3e
       0.0015210336 -0.18122019 0.05014245 0.22970982
0002a0 2e b1 47 bd 51 14 2e bc e5 da d1 bc d3 90 1b be
       -0.048752956 -0.010624961 -0.025617072 -0.15191965
0002b0 63 c2 02 3e c1 7e 44 3e 43 d0 e8 bd 1b 36 af 3d
       0.12769465 0.19188978 -0.11367848 0.08555242
0002c0 78 6c e9 bd 68 34 25 be 42 55 26 3e 90 ce d4 3c
       -0.11397642 -0.16133273 0.16243461 0.025977403
0002d0 ae d0 c8 bd f5 fb e1 bd 67 cc 08 3c 41 70 05 bd
       -0.098054275 -0.11034385 0.008349515 -0.032577757
0002e0 fb 56 0d 3e 28 9e c6 bd 05 87 c6 3d e5 35 61 bd
       0.13802712 -0.09698135 0.09693722 -0.05498304
0002f0 42 14 b5 bc 86 b7 de bc 00 5c e8 bd b8 2e 3e 3e
       -0.022104386 -0.02718712 -0.113456726 0.1857251
000300 45 6a 53 be 4f 70 e0 bd ee 8f ef bd 0b 1d 09 be
       -0.20646007 -0.10958921 -0.11697374 -0.13389985
000310 ee 2a 30 bd 0b 4d 5a 3d 2d b7 da bc ed cd 58 3e
       -0.04300969 0.05329613 -0.026698673 0.21172304
000320 a8 38 9a bd 59 fb 63 bd ce 12 0b bd 2d 0b 59 be
       -0.075303376 -0.055659626 -0.03395348 -0.2119567
000330 63 96 d9 3c 83 ee 31 3e c6 be 7a bc c1 9f 3a be
       0.026560968 0.17376141 -0.015304273 -0.18225004
000340 0a 7c 67 3d dd 88 15 3e 0a 98 c1 3d 15 f0 93 3c
       0.056514777 0.1460299 0.09452827 0.018058816
000350 21 a9 4a 3e f9 18 80 3d 4d ef e4 bd 1d 53 1a be
       0.1979108 0.06254763 -0.111784555 -0.15070768
000360 a0 26 ab bd e5 db 91 3d a8 ca 38 3e 09 5b d3 bd
       -0.083569765 0.0712202 0.18046057 -0.10320098
000370 bb 11 f8 bb 5c 38 4b be bc ae 20 be c7 61 ca bd
       -0.007570473 -0.19845718 -0.15691656 -0.09881931
000380 49 c2 a7 bb ff 07 3d be fd 27 e7 3c 92 b4 0b bd
       -0.005119596 -0.18460082 0.02821731 -0.034107752
000390 30 68 02 3e 4d be d9 3d e6 1c 14 be f0 69 4d be
       0.12735057 0.10632 -0.14464149 -0.20059943
0003a0 67 ed 16 be 7e 90 cb bd 81 f0 b0 3d 99 29 1d 3e
       -0.14739 -0.09939669 0.086396225 0.153479
0003b0 5c 5f 88 bd c3 34 a2 bd 9f 4b 14 3e 96 57 14 bd
       -0.06658813 -0.0792022 0.14481972 -0.03621634
0003c0 50 2a a0 bd e0 4b 6f 3e ce a8 6d 3e b0 32 9d 3c
       -0.078205705 0.23368788 0.23208925 0.019189209
0003d0 8b a3 ff 3d 1b 31 51 3d ef 6e 06 be bf 1f 2a 3e
       0.12482365 0.05107222 -0.13128255 0.16613673
0003e0 57 46 42 3d 8e 2c f4 bd c7 51 2b 3c a9 8d f1 3d
       0.047430363 -0.11922561 0.010456509 0.11794598
0003f0 dd 16 2c 3e 38 e0 49 3c 84 3c ca 3d fd a1 b1 3d
       0.16805597 0.012321524 0.09874824 0.08673475

sequences.0.bias f4 [64]
000000 40 02 0d be 98 26 47 3e 79 49 95 bd 0d 1f 0e 3d
       -0.1377039 0.19448316 -0.072894044 0.03469758
000010 58 04 fe 3d 9b 33 6b be 66 a0 13 be 12 e5 43 3e
       0.12403172 -0.22968905 -0.14416656 0.19130352
000020 a9 c8 79 bd c4 73 28 be 4f a3 42 3e 20 2e 4f 3d
       -0.06098238 -0.16450411 0.1900761 0.050581098
000030 99 a4 38 3e 53 86 22 be 05 f4 91 3d 5d b9 96 bc
       0.18031539 -0.15871553 0.07126621 -0.018398935
000040 93 9b 75 3e d5 7c 29 3e 90 9f 90 bd 54 de 77 3e
       0.23985128 0.16551526 -0.07061684 0.24205905
000050 1c e4 91 3c 83 e2 39 be 1f 48 42 be a3 79 e3 3c
       0.017808966 -0.18152814 -0.18972825 0.027767962
000060 4c f4 4a 3e 42 85 e8 bd e5 25 60 be 8f 87 54 3c
       0.19819754 -0.11353542 -0.21889456 0.012971773
000070 9a ce 5d 3e 9a ce 04 3e b7 7d a0 3c dc 28 4b be
       0.21660843 0.12969437 0.019591196 -0.19839805
000080 58 8b ec 3d cf f4 60 be 3c 18 c5 3c 4e d5 1a bc
       0.11550015 -0.21968387 0.024059407 -0.00945027
000090 93 a7 d8 bd 4b e0 0b 3e fa a4 cf bd fb 78 2a 3c
       -0.10578837 0.1365978 -0.10138889 0.010404821
0000a0 67 06 3c 3e 1d 7a 08 be 90 7a ad 3d a2 43 4e 3d
       0.18361817 -0.13327833 0.084706426 0.05035747
0000b0 ea 18 43 3e 6f 80 d4 3d 8a 42 4b 3e b9 e9 34 3e
       0.19052473 0.10376059 0.19849601 0.17667283
0000c0 dd 4b 4a 3e 36 36 37 3e 99 ab 0d 3e 1a fa 4d be
       0.19755502 0.17891774 0.1383499 -0.20114937
0000d0 7b 69 20 be 4b 9a 0f 3d d7 a2 ba 3c 64 ea d7 3d
       -0.15665238 0.035059255 0.022782726 0.10542753
0000e0 f4 9c 23 3e c3 4b 16 be 5b 07 2d bc 94 3f 5f 3e
       0.15977842 -0.14677338 -0.010560836 0.21801597
0000f0 3d f5 37 be 3c 31 62 3e 70 d2 5e 3e 1e e1 55 be
       -0.17964645 0.22089094 0.21759963 -0.20886657

sequences.2.weight f4 [32, 64, 3, 3]
000000 26 51 27 3d d4 66 5b bc 59 26 45 bd ee f5 8d bd
       0.040848874 -0.013391215 -0.048132274 -0.06931673
000010 06 a2 bd 3d 61 75 cd bd 16 35 7a bd 1e ac 63 3d
       0.09259419 -0.10032154 -0.061085783 0.055584066
000020 af 63 17 bd 0e cd 85 3d e8 3d 07 3d ec 83 81 3c
       -0.0369603 0.06533252 0.033018023 0.015809976
000030 18 eb e3 3c d1 d4 40 3c 58 ea 5e 3b 68 4e 1d 3d
       0.027822062 0.011769489 0.0034014191 0.038404852
000040 84 96 53 bd 08 0f 09 bd 73 d1 86 bd 1e 1c b7 3c
       -0.051657215 -0.0334616 -0.06582918 0.022352275
000050 70 e1 71 be ef 2e 9c 3e 90 5d 2a be 3d 9e 04 3e
       -0.23621154 0.30504557 -0.16637254 0.12950988
000060 6a 4a 6b 3d b3 e7 8b 3d e7 52 10 3c 47 bc 41 3d
       0.057444014 0.068313025 0.008808828 0.047298696
000070 7c f6 05 bd 35 54 94 3c 3e 2f 13 bd a9 04 ab 3c
       -0.03270577 0.01810656 -0.035933726 0.020876246
000080 ad 0e ac 3c 86 e3 87 bd 97 9c 52 bd 6e ff f0 3b
       0.021003092 -0.066351935 -0.051418867 0.0073546683
000090 fc d1 48 3c 59 5c 81 3c 6d 0b bb 3c c3 60 e8 ba
       0.012257095 0.015791105 0.022832597 -0.0017729033
0000a0 cf 50 60 bd 5d 4c 40 3d 5f ae e1 bc d1 40 44 3a
       -0.054764565 0.046947826 -0.027548967 0.0007486465
0000b0 55 60 13 3d e6 be cc 3c 73 77 01 bd 30 86 c1 bc
       0.03598054 0.024993371 -0.031608056 -0.023623556
0000c0 18 11 80 bb b3 27 9a bc 05 c5 f0 bb 67 a4 df bc
       -0.0039082877 -0.018817758 -0.0073477053 -0.027300073
0000d0 8c 75 0c bc c9 bb a5 b9 1d 4a 1e 3d 04 f7 d9 bd
       -0.008572947 -0.00031611163 0.0386449 -0.106428176
0000e0 34 92 24 bc 36 72 3b bc dc 37 12 bd 48 6e 81 3c
       -0.010044623 -0.011440804 -0.035697803 0.015799657
0000f0 67 77 01 bd 57 a3 9d bc 52 1f 3c bc ce 7a 00 3c
       -0.03160801 -0.019242926 -0.011482077 0.007841779
000100 0e 8c a5 3c 07 72 7f bd 02 81 1f bd f1 2b 8b 3d
       0.020208385 -0.062364604 -0.03894139 0.067954905
000110 e8 80 2e bd c9 60 83 3c ad 6e 85 bd 6a 9c 03 3d
       -0.042603403 0.016037362 -0.0651525 0.03213159
000120 33 a1 56 ba ee 54 f2 3c 20 11 60 bc 37 89 d6 3c
       -0.00081874727 0.029581513 -0.013675958 0.026188476
000130 5f aa 96 bd fd e8 0d 3d ad 08 d2 3c 65 b5 86 bb
       -0.073567145 0.034646023 0.025638903 -0.0041109794
000140 ac 5c 8e 3b c8 5a 9d 3c bf 49 2d be 4b 06 8b bd
       0.0043445434 0.019208327 -0.16922663 -0.0678831
000150 9e e4 9b bd ab d5 81 3c 5e 03 69 bd 6a e2 43 bd
       -0.07611965 0.015848955 -0.056887977 -0.047823347
000160 09 b6 bc bd 23 d6 db 3c 60 4b 97 bc 49 5d 24 3d
       -0.09214408 0.026835507 -0.018468559 0.040128026
000170 18 20 7b bc 1a 8b b9 3c 3c 00 f3 bc 98 a1 fd 3c
       -0.015327476 0.022649337 -0.029663198 0.030960843
000180 10 3b 15 bd 12 26 df 3c 7e 51 3e 3c 83 97 f4 bb
       -0.03643328 0.027239833 0.011616109 -0.0074643507
000190 ab 4b 4c bd 5f d5 45 3b 53 f8 fc 3c 42 ac c2 3c
       -0.04987685 0.0030186994 0.030880129 0.02376378
0001a0 11 06 6d 3d 88 f2 7e 3b 7e 91 3d bd 5d 93 1e 3d
       0.057867114 0.0038901884 -0.04628133 0.038714755
0001b0 15 b5 3e 3d 0a 7b a3 bd 4b 47 33 3c b0 ab 05 3d
       0.046559412 -0.07982452 0.010942291 0.032634437
0001c0 fa fb ac bd 26 f9 da 3d fe ad b3 bc 43 12 0c 3d
       -0.08446498 0.106920525 -0.021933552 0.034197103
0001d0 29 15 cb bd 0d f4 f0 bc 1a 17 45 be a5 30 e7 3c
       -0.09916145 -0.029413247 -0.19247094 0.028221438
0001e0 d1 30 c4 bd dd bc c8 3d b9 c4 37 3b 58 d5 74 bc
       -0.095796235 0.09801648 0.002804084 -0.014943443
0001f0 a3 25 c0 bd e4 ad 35 3d 46 78 c3 3d 89 d4 0b bd
       -0.09382179 0.04435529 0.09544425 -0.034138236
000200 dd 5a 1f be 38 f1 63 3c 5e 94 19 bd 45 14 cf 3d
       -0.15562005 0.0139124915 -0.03749501 0.10111288
000210 37 6d b1 bd 38 55 c6 3c 06 cd e0 bd 13 97 88 bc
       -0.08663409 0.024210557 -0.10976605 -0.0166736
000220 b2 5c 55 bb a8 5b 2b bd 48 c7 08 3e bf b8 df 3c
       -0.0032556471 -0.041835457 0.1335727 0.027309773
000230 fb fb b5 3d 97 61 39 3d 7e f6 30 bd 93 e8 9d 3c
       0.08885952 0.045259085 -0.043203823 0.01927594
000240 6f f3 92 3c 0c 26 35 3d ca b4 46 3d cb cb 3c ba
       0.017938344 0.044225737 0.048512258 -0.00072019984
000250 fb 7a b3 3d c5 4c 1e bd 66 f3 aa bd ff 87 29 bd
       0.08763691 -0.038647432 -0.08347206 -0.04138946
000260 13 bb 56 bc 42 e4 56 bd 5e 25 f4 3c 34 fb 26 bd
       -0.013106125 -0.052463777 0.029802974 -0.04076691
000270 f9 73 31 3c 36 b1 82 bc e8 6e 26 bd 9f f3 a8 3c
       0.010830873 -0.015953641 -0.040633112 0.02062398
000280 e1 d6 62 bb bf 8f 01 3b 8d 6c 68 bc 47 08 1a bd
       -0.003461294 0.0019769517 -0.014186037 -0.03760555
000290 39 f9 0b bd 36 5a b2 bb 0b db 0a 3d 46 01 8b bc
       -0.034173224 -0.005442883 0.033900302 -0.01696838
0002a0 ec 64 42 3c 35 23 20 3d e7 53 3b 3d a6 86 2c bc
       0.011864882 0.039096076 0.045734312 -0.01053015
0002b0 b9 46 31 3d 18 db 26 3d 9b f5 8b 3d 45 d4 8b 3c
       0.043280337 0.040736288 0.06833955 0.017068991
0002c0 12 c8 95 3d cf 52 81 3d d1 04 98 bd 42 33 1c 3d
       0.07313551 0.063146226 -0.07422794 0.03813482
0002d0 e9 0b bd 3d 4e 50 a3 bd 31 b5 57 3d 49 b3 0a bd
       0.09230787 -0.07974301 0.052663032 -0.033862386
0002e0 62 68 ab 3c e5 65 5d bc 4f c2 23 bc fa ee 52 3c
       0.020923797 -0.013513063 -0.009995057 0.012874359
0002f0 a7 af 7d 3d 89 6d 0f 3d 2d 5d 54 bc 40 a6 46 bd
       0.061935093 0.03501657 -0.012961668 -0.048498392
000300 de e2 48 bd e6 8c c8 3c 24 af 07 3d 53 26 38 bd
       -0.049044482 0.024481248 0.03312601 -0.044958424
000310 4c 83 f4 bc a4 38 b2 bc f7 06 2b bc 44 24 d2 3a
       -0.029847763 -0.021755524 -0.010438672 0.0016032537
000320 9d d0 d6 bc 57 61 64 bd 0f 9d 99 bd ee ae 24 bd
       -0.026222521 -0.055756893 -0.0750066 -0.04020589
000330 78 91 ba 3c 65 c0 51 bc e7 71 a6 3c 46 37 e7 3b
       0.022774443 -0.012802218 0.020317985 0.0070561497
000340 04 44 f1 3c eb 88 89 3c ab d9 f5 bb 2a 35 f1 3c
       0.029451378 0.01678892 -0.0075027547 0.029444296
000350 18 04 1e bd 17 97 7b bd fc 5a 99 3d 76 ee 20 3d
       -0.038578123 -0.061423387 0.07488057 0.039289914
000360 2f d8 3a 3c 62 e3 3e bd e1 04 74 bd 59 07 8b 3d
       0.011404081 -0.046603568 -0.059574965 0.06788511
000370 27 8b 34 bc f6 95 e5 3c 59 eb e7 bb 34 58 97 3d
       -0.011019505 0.028025609 -0.007077616 0.0738987
000380 a3 70 08 be 83 d0 55 bc 8f 9e 59 bd 03 7a ea bb
       -0.13324217 -0.013050201 -0.05312973 -0.007155658
000390 43 d7 aa 3c 4c 2b d3 bc 18 97 b8 3b bd cb a3 bc
       0.020854598 -0.025777481 0.005633246 -0.01999461
0003a0 72 d1 06 bb 8d c0 67 bc cd 88 23 bc 8f c7 df bc
       -0.0020571616 -0.014145029 -0.009981346 -0.027316837
0003b0 ac 43 0e bc bf 0f 0f bc 2e ca 64 bd ce ea 4b bb
       -0.008683126 -0.0087317815 -0.055856876 -0.0031115296
0003c0 3f 9b d1 3c 5c c4 64 bd 05 ea ae bc 36 9c 52 bc
       0.025586722 -0.055851325 -0.021351824 -0.012854626
0003d0 fc 54 a8 bc 0e 81 0d bc 9e 21 8c bd 13 8c 32 bd
       -0.020548336 -0.008636726 -0.068423495 -0.043590616
0003e0 8c be 8e 3d 08 89 46 bc 73 86 04 bd 29 d5 70 bc
       0.06969938 -0.012117632 -0.032354783 -0.014699259
0003f0 16 09 26 bd b1 7a 13 3b d5 87 44 bc 87 d4 ba 3c
       -0.04053601 0.002250355 -0.0119952755 0.022806419

sequences.2.bias f4 [32]
000000 a6 db 79 bb fc 30 ed 3c d1 14 88 bd 58 f3 50 3c
       -0.0038125305 0.028954022 -0.066445954 0.01275333
000010 85 2b 87 bd ed 7f 5f 3d e8 66 91 3d ab 80 e4 3c
       -0.066000976 0.05456536 0.07099706 0.027893385
000020 34 2e 7c bd 27 98 9a 3c e0 1d 91 3d bf fc 6a 3d
       -0.0615675 0.01887138 0.07085776 0.057369944
000030 ad d5 37 3c ea 63 5c bd 98 d5 8f 3d 5c 80 9f bd
       0.011220378 -0.053806223 0.07023162 -0.077881545
000040 97 69 26 3d a2 6d 1b 3d 00 f8 1b bd a0 84 80 bd
       0.040628042 0.03794635 -0.038078308 -0.06275296
000050 cd 25 86 3d 12 71 46 3d 79 24 9a 3d c5 31 a3 3d
       0.06550179 0.048447676 0.07526488 0.07968477
000060 fe 8e db 3b 07 44 b3 3d 2d b0 75 bc 48 f6 53 bd
       0.0067003956 0.087532096 -0.014995617 -0.051748544
000070 41 d7 a7 bc 42 6e 32 bc cd d5 64 3d 13 09 a1 3d
       -0.020488383 -0.010890545 0.05586796 0.07863059

sequences.4.weight f4 [16, 32, 3, 3]
000000 cf 36 36 be bb 0f 4f bd 58 0e e3 3d 89 7a dd bc
       -0.17794345 -0.05055211 0.1108672 -0.027035968
000010 9c 49 64 3d 9e 1f c9 3d 84 1e db 3c a7 98 21 3d
       0.055734262 0.098204836 0.02674795 0.03945222
000020 8c a9 28 3d 31 d3 e9 bc ca 72 89 bd 05 ab 43 bd
       0.041177318 -0.028543087 -0.067113474 -0.04777052
000030 cc c5 81 bd e0 ea 5a bd 2f 54 52 bd c0 5c d5 3c
       -0.06336555 -0.05344665 -0.051349815 0.026045203
000040 63 26 76 3b 3f 5b 9b bd 18 95 db 3d 07 b9 dd 3d
       0.0037559501 -0.07585763 0.10721797 0.10826307
000050 fd 87 44 3c 86 68 07 3e da 80 fd 3d 78 7a 67 3d
       0.011995313 0.13223466 0.12378092 0.05651328
000060 49 35 89 bd 82 52 83 3c d4 73 72 bc c3 96 45 3d
       -0.066996165 0.016030554 -0.014798123 0.04823948
000070 2c ed 26 bb 26 9c 9b bd 1d 49 f2 39 12 d5 8c bc
       -0.0025470955 -0.07598142 0.0004621231 -0.017191444
000080 b4 43 bd 3c 9e 04 a6 bd b9 43 41 bc ab 1c 33 bd
       0.023103572 -0.081063494 -0.0117959315 -0.04372851
000090 90 fa 77 3d ac a4 cc 3d 75 6f ce bd 36 cb 1f 3e
       0.06054169 0.09992346 -0.100798525 0.15604863
0000a0 ac a2 4f 3e 2d 71 c4 3b b5 16 62 bd 59 92 11 3d
       0.20276898 0.005994937 -0.055197436 0.03553996
0000b0 28 d5 3c bd a5 ae 05 bd b4 2b 06 be ed be 8b bd
       -0.04610172 -0.032637257 -0.13102609 -0.068235256
0000c0 c2 80 19 bb 7f fb 1e be e2 be a1 bd 78 4b a8 3d
       -0.0023422693 -0.15525626 -0.07897736 0.082175195
0000d0 e7 6b 2a 3d 6c ff 34 3d 90 cc 90 bd c1 d1 49 bd
       0.04160681 0.0441889 -0.07070267 -0.049272303
0000e0 70 e6 0e bc 37 19 1d bd 5b a0 31 bd 14 7c 44 bd
       -0.008721933 -0.038354125 -0.043365818 -0.047969893
0000f0 67 fc 5b bd 4b 67 04 bd 3f 07 2c 3d 6d 6c 2a bd
       -0.053707507 -0.03232507 0.041999098 -0.04160731
000100 76 3e 3e bd dc 0f fc 3c fc f8 a3 bd b9 36 e9 bd
       -0.046446286 0.030769281 -0.080064744 -0.11387391
000110 5a e2 17 bd 61 1a 86 3b f9 54 2a bd 6f 60 70 3c
       -0.0370811 0.0040925 -0.041584942 0.014671429
000120 ec 5a 5d bd e2 f6 4a 3e 79 3f 70 bd 74 8b 3f bd
       -0.054041788 0.19820741 -0.058654282 -0.046763852
000130 c6 e4 57 3e 50 21 37 bd 4c 9f e6 3d 29 01 1f 3e
       0.21083364 -0.044709504 0.11260852 0.15527786
000140 57 8d e5 3b 1a dd 0f 3d e8 aa cc 3d 6a 92 44 3d
       0.0070053744 0.03512297 0.09993535 0.047991194
000150 9e 07 98 3d 98 e2 e9 3c 57 51 8d 3c e3 0d 29 3d
       0.07423328 0.028550431 0.0172507 0.04127301
000160 6b 29 99 3d c7 13 aa 3c c1 19 ca bc 64 ff 4c bd
       0.07478603 0.020761384 -0.024670484 -0.050048247
000170 16 46 3a 3d 70 64 42 be ca 5d 34 bd c4 d2 56 3d
       0.045476995 -0.18983626 -0.044034757 0.052447096
000180 61 30 96 bd 2b 39 18 bd 5e e1 2a bc ab db bf 3d
       -0.07333446 -0.037163895 -0.010429708 0.0936807
000190 aa 94 68 3d 3d 5f f9 3c 91 be 37 be df 92 00 be
       0.056782402 0.030440921 -0.17943789 -0.12556027
0001a0 cd 8d 21 bd 18 cd 8d bc 2a 38 da bc dc a3 57 bc
       -0.039441872 -0.01730971 -0.02663811 -0.013161626
0001b0 83 56 c1 3b 77 72 69 3c 18 f9 23 3d 25 e3 a6 bd
       0.0059002056 0.014248482 0.040032476 -0.08148793
0001c0 30 cd 92 bd 6d 74 5b bc 5e a0 b3 3d de 69 1a 3c
       -0.07168043 -0.013394457 0.08770822 0.009424655
0001d0 fd a1 48 ba 35 35 40 3d ff 27 88 3c fb 5a 9e 3d
       -0.00076535327 0.046925742 0.016620634 0.07732197
0001e0 81 ea b3 3d e2 52 ca 3d 48 e4 d4 3d f4 e9 25 bc
       0.087849624 0.0987909 0.10395104 -0.01012658
0001f0 ba c8 8e 3c 47 7b 6d 3d 9b 52 bb bd 30 74 c3 bd
       0.017429698 0.057978895 -0.09146615 -0.095436454
000200 c2 60 7a bd bb e3 c5 bd 7e 94 18 be 72 3b df bd
       -0.06112743 -0.09662577 -0.14900395 -0.1090001
000210 69 39 85 bd 72 a4 8a bd 6f 89 20 bd 9e d8 aa 3d
       -0.06505091 -0.06769647 -0.039193567 0.08342098
000220 ca 17 0e 3e 56 17 0a 3d ec 87 13 3e 39 be d1 3d
       0.13876262 0.03371366 0.14407319 0.1024136
000230 73 1b c7 b9 28 4f 1e bc 70 74 10 bd 7f 41 ba bd
       -0.0003797669 -0.009662427 -0.035267293 -0.09094524
000240 c8 e1 91 3c 12 bd f9 bd 95 61 af bc cc 3e 0f 3c
       0.017807856 -0.121942654 -0.021408835 0.008742999
000250 48 3f 8c bd ad 70 33 3d 4a c2 8f 3c d5 2c 12 3d
       -0.068480074 0.043808628 0.017548699 0.035687286
000260 2d 28 f9 3c cf a4 da bd 51 05 f4 bc 7f 0b 15 bd
       0.030414665 -0.10675966 -0.029787691 -0.036387917
000270 23 03 e8 3b 14 1d 13 bd aa cb 95 bd f9 92 17 bd
       0.007080452 -0.035916403 -0.073142365 -0.0370054
000280 ce cf 6e bd c0 86 b2 bd 41 d8 df 3d b2 92 5c bd
       -0.058303647 -0.08717108 0.10929919 -0.053850837
000290 bd e4 a0 bd 0a 82 3a 3e d8 aa 3c 3e ff 3a bf bd
       -0.07856128 0.18213668 0.18424547 -0.093374245
0002a0 88 60 c2 bc cc 36 01 3e 41 6c 68 bb af 61 d5 bc
       -0.02372767 0.1261856 -0.0035464915 -0.026047556
0002b0 7e aa ad 3d 19 f5 54 bd 16 d8 a5 3d 8f 77 53 3e
       0.084797844 -0.051991556 0.08097856 0.20651077
0002c0 84 fb 84 3d 36 3a 32 bd f4 50 e2 3c 09 50 03 bd
       0.06493285 -0.043512546 0.027626492 -0.03205875
0002d0 09 7d 01 bd 51 a3 72 3a 53 b3 29 3c d4 16 42 bd
       -0.031613383 0.00092559034 0.010357696 -0.04738505
0002e0 c8 40 04 be ab 0f 66 bd 6e 97 53 bc c3 c5 f6 ba
       -0.12915337 -0.056167286 -0.012914522 -0.0018827248
0002f0 86 83 c7 bc 2f a4 53 bd 7e 46 8a bd c2 77 28 3d
       -0.024354707 -0.05167025 -0.067517266 0.041129835
000300 50 21 1a 3d 40 c3 b5 bc a9 bb 8b bd 9e 6d 11 bd
       0.037629426 -0.022187829 -0.06822903 -0.03550493
000310 9f f6 4b bd 78 00 8a bd a8 ca 9e 3d dd 38 e8 3b
       -0.049795743 -0.06738371 0.07753497 0.0070868568
000320 04 0b be bd b1 64 be bd 3f fa cb bc 99 07 77 3c
       -0.09279445 -0.09296549 -0.0248996 0.015077495
000330 7f 7f 13 3c cf 84 7b bd 69 41 48 bc 33 f6 af 3b
       0.009002565 -0.061405953 -0.012222626 0.0053699254
000340 cf dd 03 bd 9e 21 55 3d d2 21 75 3c 44 e5 9f bd
       -0.032193955 0.052034013 0.014961677 -0.07807401
000350 03 fe 80 3c e4 17 ec 3d fe 82 16 bd 90 cf f8 3c
       0.015746122 0.11527994 -0.036746018 0.030372411
000360 74 0a 81 bd 43 ca 3a be f0 9e b0 bd 03 91 4b be
       -0.06300822 -0.18241219 -0.08624065 -0.19879536
000370 38 3f 4b 3e dc b4 f8 bb 98 6c 87 3d cc ef 94 3e
       0.19848335 -0.0075899195 0.066125095 0.290892
000380 9b 44 1e 3d 70 2c 8b bd 9d f5 a4 bd a4 6f 2b bd
       0.038639646 -0.06795585 -0.080546595 -0.041854516
000390 e6 73 d3 bd 26 5a 17 be 7a 23 8c bd 9f 40 05 bc
       -0.1032484 -0.14780483 -0.06842704 -0.008133083
0003a0 94 34 48 3d 02 95 49 3c b8 aa f2 bc 08 91 92 bd
       0.048878267 0.012303593 -0.02962242 -0.07156569
0003b0 f1 3c 18 bd b3 2f b4 bd 7e 89 72 bd 12 d3 2f bd
       -0.037167493 -0.087981604 -0.059213154 -0.0429259
0003c0 30 87 88 3d 7d 91 dc 3d b8 e9 94 3d f8 8d 8d bc
       0.0666641 0.10769937 0.07271141 -0.01727961
0003d0 40 97 33 3d 17 85 2f 3c ed 7a 8e 3d 38 e5 b2 3d
       0.043845415 0.010712883 0.0695704 0.08735126
0003e0 c2 3f b3 3d cd a3 7a 3c a8 fc 0f 3e 71 bb ff bc
       0.08752395 0.015297842 0.14061224 -0.031217309
0003f0 02 1f 66 3d 79 5e 00 3e b3 d2 8e bd 4f b7 0b 3e
       0.056181915 0.12536038 -0.069737814 0.13644145

sequences.4.bias f4 [16]
000000 19 e4 e8 3b 81 ec 12 bd 00 8a 8a bd 13 c1 f7 3b
       0.0071072695 -0.03587008 -0.06764603 0.007560858
000010 80 a6 92 bd d5 19 ca bc be 39 a4 bb a2 e5 17 bd
       -0.071606636 -0.02467052 -0.005011766 -0.03708423
000020 05 d0 97 bd c2 b5 6b bd c0 c2 2f bd 5e 6f 6e bd
       -0.074127235 -0.057546385 -0.042910337 -0.058211677
000030 83 24 4e ba be af 78 bc 10 35 31 bc 38 e5 22 3c
       -0.0007863717 -0.015178619 -0.010815874 0.009942345
