saved_models/UPSCALE_X4/epoch_2.pth (torch, 101599 bytes, 6 tensors)

sequences.0.weight f4 [64, 1, 5, 5]
0	0xbe370cf4	-0.17876035
1	0xbd8125d7	-0.063060455
2	0x3df9ba69	0.12193758
3	0xbd7fcfc9	-0.06245402
4	0xbe2a5012	-0.16632107
5	0xbcec763d	-0.028864974
6	0x3c21d1eb	0.0098767085
7	0x39968dc0	0.00028715841
8	0xbd8f32d5	-0.06992117
9	0x3df381f8	0.11890024
10	0x3d6c2e35	0.057661254
11	0x3e3119b9	0.17294969
12	0xbd8b9aad	-0.068166114
13	0x3e0e1488	0.1387502
14	0xbe1dfbb6	-0.15428051
15	0xbb4ed38e	-0.0031559202
16	0x3e233511	0.15938212
17	0x3ddf763b	0.109112225
18	0x3dad43f5	0.084602274
19	0x3a5c8c0d	0.0008413203
20	0xbdda1e14	-0.10650268
21	0xbe052699	-0.13003005
22	0xbd70401b	-0.058654886
23	0x3de67e06	0.11254506
24	0x3e31645a	0.17323437
25	0xbe1fff5d	-0.15624757
26	0x3c54240b	0.012948046
27	0xbdab852e	-0.083750114
28	0xbc9efe20	-0.019408286
29	0xbdefafc9	-0.1170345
30	0x3ddfc181	0.1092558
31	0xbe40892f	-0.18802331
32	0xbd576c1a	-0.052593328
33	0x3e01da14	0.12680846
34	0xbe205640	-0.15657902
35	0x3ccd633f	0.025071738
36	0x3e0fea85	0.14054306
37	0x3d1f3c18	0.03887567
38	0xbe25dbb9	-0.16197099
39	0x3c302cb7	0.010752848
40	0xbe27f399	-0.16401519
41	0xbe122349	-0.14271273
42	0x3ca7e191	0.0204933
43	0xbe17f15b	-0.14838164
44	0x3e3c9952	0.18417862
45	0x3d9ea5ad	0.07746444
46	0x3df61d42	0.12017299
47	0x3e2be7ff	0.16787718
48	0xbd04c976	-0.03241869
49	0xbe4941c6	-0.19653997
50	0x3d1e69ab	0.03867499
51	0x3e1a36f9	0.15060033
52	0x3e41f476	0.1894091
53	0xbdf85396	-0.12125318
54	0xbde94668	-0.11390382
55	0xbcf1c3a3	-0.029512232
56	0x3e4235d4	0.18965846
57	0x3ca08c76	0.019598227
58	0xbe11f3a4	-0.14253098
59	0xbe124bbc	-0.14286703
60	0x3e147e14	0.1450122
61	0xbe063d0d	-0.13109227
62	0x3d6dc265	0.058046717
63	0xbbead664	-0.0071666706
64	0x3dfac73a	0.12245031
65	0x3e12e4c7	0.14345084
66	0x3de3805c	0.11108467
67	0x3dff755b	0.12473556
68	0x3d10b90c	0.035332724
69	0xbc9c3c38	-0.019071683
70	0xbdc2a6e7	-0.0950449
71	0x3c7af84b	0.015317987
72	0xbe2cd4cf	-0.16878055
73	0xbe2e9af2	-0.17051294
74	0xbe00cd90	-0.12578416
75	0x3a993ee6	0.0011691719
76	0xbe0dbd88	-0.13841832
77	0xbd6183ec	-0.05505745
78	0xbc60b352	-0.013714628
79	0x3d8f2101	0.06988717
80	0xbd6ebce0	-0.058285594
81	0xbc8a4cc5	-0.01688231
82	0x3dcb7694	0.09934726
83	0x3aa19d66	0.0012330234
84	0xbe437e75	-0.19091208
85	0x3d3a2416	0.04544457
86	0xbd197485	-0.037464637
87	0xbdae4ba9	-0.08510525
88	0x3e29fd7c	0.16600603
89	0xbc855f62	-0.016280834
90	0xbd6a390a	-0.057183303
91	0xbdaeb41b	-0.08530446
92	0xbd7a2990	-0.061074793
93	0x3d915f16	0.07098214
94	0x3d80117f	0.06253337
95	0x3dc897db	0.09794589
96	0xbc6e7d3a	-0.0145562235
97	0xbd1cec6f	-0.03831142
98	0xbdcfeeef	-0.10152995
99	0xbc9d87b2	-0.019229744
100	0xbdaec922	-0.08534457
101	0x3d6030d1	0.054734055
102	0xbdd6e882	-0.10493566
103	0xbe328dbd	-0.17436881
104	0x3d09c1ef	0.033632215
105	0x3d67b2e6	0.056567095
106	0xbe4203e8	-0.18946803
107	0xbe3162c4	-0.17322832
108	0x3c6e320d	0.0145383
109	0x3d26d890	0.040733874
110	0x3d6b6ee8	0.057478815
111	0xbe37156e	-0.17879269
112	0x3dd4fcc8	0.10399777
113	0xbe187516	-0.14888415
114	0x3dc7c70c	0.09754762
115	0x3ddc2256	0.107487366
116	0xbd9255e9	-0.07145292
117	0xbe3b9cfa	-0.183216
118	0xbe3a3247	-0.18183242
119	0xbd9b61b4	-0.07586995
120	0xbd7a8bf9	-0.061168645
121	0x3daa0b15	0.08302895
122	0xbbcd2d49	-0.006261502
123	0x3e3eda1c	0.1863789
124	0x3e2c00d6	0.16797194
125	0x3ca3f6bf	0.020015119
126	0xbd855b37	-0.065115385
127	0xbdbdd9f0	-0.09270084
128	0x3c1a1422	0.009404214
129	0xbe2c674e	-0.16836283
130	0x3e35392e	0.17697594
131	0x3db34e95	0.08755223
132	0xbd9109e8	-0.070819676
133	0x3e36739a	0.17817536
134	0xbe4e4316	-0.20142779
135	0x3dd90bf4	0.10597983
136	0x3dafc659	0.08582754
137	0xbda6f799	-0.08152694
138	0x3d57afe4	0.052657977
139	0x3dbbe758	0.09174985
140	0x3deada6c	0.11467442
141	0x3e15bc4d	0.14622612
142	0xbdb305b1	-0.0874132
143	0x3d624f14	0.055251196
144	0xbe283991	-0.1642821
145	0x3e068336	0.1313599
146	0xbe37a239	-0.17932977
147	0x3e27563a	0.16341487
148	0xbdd1128a	-0.10208614
149	0xbd545000	-0.051834106
150	0xbd3905b3	-0.04517145
151	0xbe11619f	-0.14197396
152	0xbd950701	-0.072767265
153	0x3d57df2a	0.05270306
154	0x3e0fef5c	0.14056152
155	0x3e26d9b4	0.16293985
156	0xbdc51b6a	-0.096243694
157	0xbdfed82c	-0.12443575
158	0x3e564aa4	0.2092691
159	0x3d9cc521	0.07654787
160	0xbe139eec	-0.14416093
161	0xbd6f7b50	-0.05846721
162	0xbc28426d	-0.010269743
163	0x3d867468	0.065651715
164	0xbb5f53a4	-0.0034076953
165	0xbe3b99aa	-0.18320337
166	0x3d0988af	0.033577617
167	0x3e3947f4	0.18093854
168	0xbd756e5e	-0.059919707
169	0xbc236f6f	-0.009975298
170	0xbd30f773	-0.043204736
171	0xbe27fa0c	-0.16403979
172	0x3df22fe6	0.11825542
173	0x3e380dec	0.17974061
174	0xbdd7350b	-0.10508164
175	0x3d95da13	0.07316985
176	0xbdf9a34f	-0.12189352
177	0xbe280c7d	-0.16411014
178	0x3e1e1e67	0.15441285
179	0x3c9498bb	0.018139234
180	0xbdd84fb9	-0.10562081
181	0xbddf5803	-0.10905459
182	0x3c240d0a	0.010012874
183	0xbd04000e	-0.032226615
184	0x3e04723c	0.12934202
185	0xbdd5cdf6	-0.104396746
186	0x3dbd92b0	0.09256494
187	0xbd0f008c	-0.03491263
188	0xbc961e3b	-0.018324962
189	0xbd102742	-0.03519369
190	0xbdfb6ca6	-0.122765824
191	0x3e337fdb	0.17529242
192	0xbe46b687	-0.19405566
193	0xbdd7c183	-0.10534956
194	0xbdfd875b	-0.12379333
195	0xbe129a01	-0.1431656
196	0xbd3af41c	-0.045642957
197	0x3d48a1a8	0.048982292
198	0xbd040fae	-0.032241516
199	0x3e4dd16e	0.20099422
200	0xbd9fcf5d	-0.07803223
201	0xbd6b14b2	-0.057392783
202	0xbd146855	-0.03623231
203	0xbe54c5f4	-0.20778638
204	0x3ce53c6b	0.027982911
205	0x3e244c62	0.16044763
206	0xbc75344b	-0.014966081
207	0xbe24f7e5	-0.1611019
208	0x3d6ba4b5	0.057530124
209	0x3e0e3c4f	0.13890193
210	0x3d9fb099	0.07797355
211	0xbbaca0be	-0.0052681854
212	0x3e178090	0.14795136
213	0x3d3c2971	0.04593796
214	0xbde5ece1	-0.11226822
215	0xbe16b4b0	-0.14717364
216	0xbd895b6a	-0.06706889
217	0x3d861bb6	0.06548254
218	0x3e2d170e	0.16903326
219	0xbdd6bdb9	-0.104854055
220	0xbccd309e	-0.025047597
221	0xbe52be1f	-0.20580338
222	0xbe277b7d	-0.16355701
223	0xbdd63d7b	-0.10460945
224	0xbca65b93	-0.020307338
225	0xbe3811dc	-0.17975563
226	0x3d1ce3b3	0.03830309
227	0xbcf94e5b	-0.03043287
228	0x3e07a0a3	0.13244872
229	0x3dea7173	0.1144742
230	0xbe06406d	-0.13110514
231	0xbe279712	-0.16366223
232	0xbdf8258d	-0.12116537
233	0xbdbb4ed7	-0.09145897
234	0x3dcafd52	0.09911598
235	0x3e1a7b91	0.150862
236	0xbd850007	-0.06494146
237	0xbdd36a25	-0.1032298
238	0x3ded4c02	0.11586763
239	0xbcc43192	-0.023949418
240	0xbd9efbe3	-0.07762887
241	0x3e364e71	0.1780336
242	0x3e1762f2	0.14783838
243	0xbb80b361	-0.0039276336
244	0x3df644cf	0.12024843
245	0x3d5427f7	0.051795926
246	0xbe125db5	-0.14293559
247	0x3e14f3d2	0.14546135
248	0x3d218395	0.039432127
249	0xbdd90b82	-0.10597898
250	0x3dcb55ab	0.09928449
251	0x3e018de2	0.1265178
252	0x3e0afc81	0.13572885
253	0x3c7cc672	0.015428172
254	0x3e238998	0.15970457
255	0x3ddfec62	0.10933758

sequences.0.bias f4 [64]
0	0xbdc8feef	-0.0981425
1	0x3e2b1eaa	0.16710916
2	0xbcb98093	-0.022644317
3	0x3c7bf1ab	0.015377442
4	0x3dcd13f8	0.10013574
5	0xbe426127	-0.18982373
6	0xbdca55be	-0.09879635
7	0x3e23cd8c	0.15996379
8	0xbd3ba2b9	-0.04580948
9	0xbde2a713	-0.11067023
10	0x3e291f06	0.16515741
11	0x3d15b121	0.036545876
12	0x3e0ee973	0.13956241
13	0xbdcacefd	-0.09902761
14	0x3c746469	0.014916518
15	0xbbe7834c	-0.0070652124
16	0x3e481406	0.19538888
17	0x3de937b1	0.113875754
18	0xbd6489f4	-0.055795625
19	0x3e50d475	0.20393546
20	0x3c05f4c3	0.0081760315
21	0xbe1ea00b	-0.15490739
22	0xbe263301	-0.16230394
23	0x3c2af341	0.010433973
24	0x3e1e81c5	0.1547919
25	0xbd6e2cf3	-0.058148336
26	0xbe442024	-0.19152886
27	0x3bd41830	0.00647261
28	0x3e3097d3	0.17245416
29	0x3dbd8a34	0.09254876
30	0x3aa1042e	0.0012284571
31	0xbe3481be	-0.17627618
32	0x3dbdaf26	0.092619225
33	0xbe4271e5	-0.1898876
34	0x3cc0e55a	0.023546863
35	0xbcacd38c	-0.021096967
36	0xbd410416	-0.047123037
37	0x3de1abce	0.11019097
38	0xbcff9ffb	-0.031204214
39	0x3d213719	0.039359186
40	0x3e2df48f	0.16987823
41	0xbd946b60	-0.07247043
42	0x3d8013a0	0.06253743
43	0x3d542b12	0.051798888
44	0x3e268ed7	0.16265427
45	0x3d78c450	0.060734093
46	0x3e2031bf	0.15643977
47	0x3e076a6b	0.13224189
48	0x3e17fb53	0.14841966
49	0x3de33445	0.11093954
50	0x3dd31bb2	0.10308017
51	0xbe286dde	-0.16448161
52	0xbe0215a0	-0.12703562
53	0x3b55e94c	0.0032640276
54	0x3ce14441	0.027498366
55	0x3da85bd8	0.08220643
56	0x3df181e7	0.11792355
57	0xbd8d8256	-0.06909625
58	0x3b896108	0.004192475
59	0x3e3b5e8f	0.1829779
60	0xbe1a3430	-0.1505897
61	0x3e415b8e	0.18882582
62	0x3e41eac4	0.18937212
63	0xbe2ecfe7	-0.17071496

sequences.2.weight f4 [32, 64, 3, 3]
0	0xbc11bdbf	-0.008895337
1	0x3c5fd5d0	0.013661817
2	0x3c430bc3	0.01190466
3	0x3c944ca6	0.018102955
4	0x3bddd9ce	0.006770349
5	0xbb9e0109	-0.0048219007
6	0x3c5b6dfb	0.013392921
7	0x3c9bca47	0.019017352
8	0xbd0f7e29	-0.035032425
9	0x3d158249	0.036501203
10	0x3d14ecb5	0.036358554
11	0xbd1f821d	-0.038942445
12	0x3b7871f5	0.003790972
13	0x3d5d7299	0.054064367
14	0x3d10fa25	0.035394806
15	0x3d174f34	0.03694077
16	0xbd0dcff1	-0.034622137
17	0xbcd7f2ca	-0.026360888
18	0x3d40e6e4	0.047095194
19	0x3c15d66c	0.00914536
20	0xbdb646fc	-0.08900258
21	0xbd0d542c	-0.0345041
22	0xbd2f6d1b	-0.04282866
23	0xbd40fa51	-0.04711372
24	0x3d1b89f5	0.037973363
25	0x3d0143c9	0.031558786
26	0x3c78b6ca	0.015180299
27	0x3d45bc87	0.048275497
28	0xbc130fde	-0.008975951
29	0x3a8346aa	0.0010015566
30	0xbc5d85ed	-0.0135207
31	0x3c09435f	0.008377879
32	0x3d1fb5f5	0.038991887
33	0xbd25704e	-0.040390305
34	0xbd5c9734	-0.053855136
35	0x3c4d4a34	0.012529898
36	0x3c42466b	0.011857609
37	0xbc6b0636	-0.0143447425
38	0x3c2ca3af	0.010537072
39	0xbc6403e7	-0.013916946
40	0xbc0601b5	-0.008179118
41	0x3cd42a57	0.025899095
42	0xbcdf5c1b	-0.027265599
43	0x3ce42f1e	0.027854498
44	0x3ccacb7b	0.02475523
45	0x3d42a218	0.047517866
46	0xbd3c43d6	-0.04596313
47	0xbd0a9da8	-0.03384176
48	0x3d0b5269	0.03401414
49	0xbcedb742	-0.029018048
50	0x3c4d95ed	0.012547952
51	0xbcb0bbdf	-0.021573959
52	0xbcd080b8	-0.025452003
53	0x3cd49216	0.025948565
54	0x3c79d659	0.015248858
55	0xbd8c2552	-0.06843056
56	0x3aa27887	0.0012395539
57	0xbc7eb35f	-0.015545695
58	0xbd71238a	-0.058871783
59	0x3cc38dd7	0.023871345
60	0xbcf2d99e	-0.029644784
61	0xbc9398a5	-0.018017123
62	0xbc2f4d06	-0.010699516
63	0xbbfeeba3	-0.007779555
64	0xbc46779d	-0.012113479
65	0xbc842dd1	-0.016135128
66	0x3bf2d0b9	0.0074101356
67	0x3d019520	0.031636357
68	0xbc9bb0bb	-0.01900517
69	0x3c52ac59	0.012858474
70	0xbd00626a	-0.031343855
71	0x3cf4e86e	0.029895987
72	0x3bc2853f	0.0059362943
73	0x3cc0a777	0.023517353
74	0xbc6a633b	-0.014305885
75	0x3c953361	0.018212976
76	0xbd89c927	-0.0672782
77	0x3cf03aab	0.02932485
78	0x3ca4273c	0.02003824
79	0xbc5bb009	-0.013408669
80	0xbbd03470	-0.0063539073
81	0xbcc0684a	-0.023487229
82	0xbd89f35c	-0.0673587
83	0xbaa8f0c7	-0.001288914
84	0xbd46bc89	-0.048519645
85	0xbd607c54	-0.05480607
86	0xbd2911a6	-0.041276596
87	0xbd39e58c	-0.04538493
88	0xbc9ba471	-0.01899931
89	0xbc04c1d7	-0.008102856
90	0xbca4ea76	-0.020131331
91	0x3d2ff361	0.042956714
92	0xbc8f163a	-0.017466653
93	0x3cbd046e	0.023073401
94	0xbcd89b6b	-0.026441297
95	0x3d0baf73	0.03410287
96	0xbd0d7774	-0.034537748
97	0x3ce0a069	0.02742024
98	0x3c6b3e85	0.014358168
99	0xbc27013f	-0.010193168
100	0xbc38941c	-0.011265781
101	0xbbda2936	-0.0066577448
102	0x3c8b023b	0.016968837
103	0x3cad185a	0.021129776
104	0x3d1b6c29	0.037944946
105	0x3c0fb78a	0.0087717865
106	0xbd005c41	-0.03133798
107	0x3d4929b5	0.04911204
108	0x3d162aeb	0.036662024
109	0x3d10cb16	0.035349928
110	0x3cb5b422	0.02218062
111	0x3cc27276	0.02373622
112	0x3c997d5e	0.018736538
113	0x3c62b3a9	0.01383678
114	0xbb9d9e9b	-0.004810167
115	0x3acf5e99	0.0015821039
116	0x3c26fa43	0.010191503
117	0xbbceb67b	-0.0063083745
118	0xbc3ccee6	-0.011523938
119	0xbcac495f	-0.02103108
120	0xbd900d51	-0.0703379
121	0xbc158a78	-0.009127252
122	0x3c6aa3b0	0.014321253
123	0xbb860847	-0.004090342
124	0x3c4d6b7c	0.012537833
125	0xbc191ac1	-0.009344758
126	0xbbd6339c	-0.006536914
127	0xbc48cdbc	-0.012256082
128	0xbd9d9d71	-0.07696045
129	0x3b594972	0.003315535
130	0x3d0dbde2	0.034604914
131	0x3cb66eba	0.022269595
132	0xbd7dcba7	-0.061961796
133	0x3c3fb962	0.011701914
134	0x3b3f81fd	0.0029221766
135	0xbd377954	-0.044793442
136	0xbc3f90d3	-0.011692244
137	0xbd891ff3	-0.06695547
138	0x3d988412	0.074470654
139	0xbc0cd1c9	-0.008594939
140	0x3c22de22	0.009940656
141	0xbb9ff84b	-0.0048818938
142	0xbd027f1d	-0.031859506
143	0x3c89cdac	0.016821705
144	0xbcdf59fc	-0.027264588
145	0x3d0de50f	0.034642275
146	0x3cc64902	0.024204735
147	0x3d4edaee	0.050501756
148	0x3d06fb31	0.0329544
149	0x3c5fbe58	0.013656221
150	0xbd3ea36b	-0.046542566
151	0xbcb95f30	-0.022628397
152	0xbcf0a104	-0.029373653
153	0xbd2c6001	-0.042083744
154	0x3cdc5f04	0.026900776
155	0xbca34381	-0.01992965
156	0xbc451eb6	-0.012031248
157	0xbc20caca	-0.009813974
158	0xbd5fbd6f	-0.054624017
159	0x3cfa596e	0.030560222
160	0xbc09eab4	-0.008417774
161	0x3ca0976c	0.019603454
162	0xbcd0e5b3	-0.025500154
163	0xbd1cfa60	-0.038324714
164	0xbd045c39	-0.032314513
165	0x3c1aeb7e	0.00945556
166	0x3c77a69d	0.015115407
167	0x390a8343	0.00013209604
168	0x3bf931b6	0.007604803
169	0x3d034651	0.03204948
170	0x3d4f1d9a	0.05056534
171	0xbb466b21	-0.0030276256
172	0x3d120461	0.035648707
173	0x3d57e7a0	0.05271113
174	0x3caee414	0.02134899
175	0x3b702840	0.0036645085
176	0x3c119cb4	0.008887459
177	0x3d1159ea	0.03548614
178	0x3cdc3784	0.02688194
179	0x3c7f6544	0.015588108
180	0x3d582018	0.052764982
181	0xbd11d7b2	-0.035606094
182	0x3c28f176	0.010311475
183	0xbb770a5b	-0.0037695381
184	0x3c1672d9	0.009182655
185	0x3c952844	0.018207677
186	0xbc4a4e29	-0.012347736
187	0x3c364b32	0.011126326
188	0x3d2a6c44	0.041607156
189	0x3ceb8688	0.028750673
190	0xbd41c43c	-0.047306284
191	0xbd0dd66f	-0.034628328
192	0xbd1f5109	-0.03889564
193	0x3c8e7015	0.01738743
194	0x3ccc02c3	0.02490366
195	0xbd423fb1	-0.047424022
196	0xbd1e016d	-0.03857558
197	0x3bc8f92f	0.0061332206
198	0xbb75750b	-0.0037453796
199	0xbcfdebab	-0.030996164
200	0xbca1972c	-0.019725405
201	0xbd8bb195	-0.068209805
202	0xbd6bda78	-0.057581395
203	0xbd36b42f	-0.04460543
204	0xbcb7f359	-0.022454904
205	0xbc126a8c	-0.008936536
206	0xbb2d43db	-0.002643815
207	0x3c5998a5	0.013281022
208	0x3d09f45f	0.033680316
209	0xbc29fed1	-0.010375694
210	0x3bd0cf43	0.006372364
211	0x3d18d7bc	0.037315115
212	0xbcbcdd8a	-0.023054857
213	0xbd30a2b3	-0.043123912
214	0x3d3ece87	0.04658368
215	0x3d6363b7	0.055515017
216	0x3d42e8df	0.047585364
217	0xbcedad54	-0.029013313
218	0xbd324e8f	-0.04353195
219	0x3ccd1752	0.025035534
220	0xbc6ded0b	-0.0145218475
221	0x3ca8d396	0.020608705
222	0x3b346eac	0.0027531786
223	0x3d417db4	0.04723902
224	0xbd42a725	-0.047522683
225	0xbce557c2	-0.027995948
226	0xbd51af90	-0.05119282
227	0xbc8eda47	-0.017438067
228	0x3c91eed6	0.017814081
229	0xbd0d7b95	-0.034541685
230	0xb866f23a	-5.5061864e-05
231	0xbc7842ba	-0.015152628
232	0xb90049fd	-0.00012234594
233	0xbc83e35a	-0.01609962
234	0xbcb1745d	-0.021661932
235	0xbd46d8cb	-0.048546594
236	0xbc3f79a7	-0.011686719
237	0x3ab33f9e	0.0013675576
238	0xbd32fa58	-0.043695778
239	0x3afd0537	0.0019303922
240	0x3cc41a34	0.023938276
241	0xbd5a7d0e	-0.053341918
242	0xbcd374ea	-0.025812585
243	0x3c1509cb	0.009096573
244	0xbc1a6995	-0.009424587
245	0x3c0c0138	0.008545212
246	0xbd31ad3d	-0.043378104
247	0xbcbc567a	-0.022990454
248	0x3cf8fdde	0.03039449
249	0xbb964a4f	-0.004586495
250	0xba16c6af	-0.0005751652
251	0x3d4e3bf8	0.05035016
252	0xbd0e5da3	-0.034757268
253	0x3b848da3	0.0040452047
254	0xbca3151b	-0.019907525
255	0x3cc31fd5	0.02381889

sequences.2.bias f4 [32]
0	0xbb8f6094	-0.0043755267
1	0x3a0db5ee	0.0005405833
2	0xbc64473e	-0.013933001
3	0xbbdf7b89	-0.0068201465
4	0xbc6c9196	-0.014439007
5	0x3d680808	0.056648284
6	0x3d62e62a	0.055395283
7	0x3c5a59d8	0.0133270845
8	0xbd39956b	-0.04530851
9	0x3cbac577	0.022799237
10	0x3d479f4a	0.048735894
11	0x3d616d2a	0.055035748
12	0x3c5a838f	0.01333703
13	0xbd4b5eaa	-0.049650826
14	0x3d7ea39b	0.062167745
15	0xbd02e02c	-0.03195207
16	0x3c9ccf9d	0.019141966
17	0x3d0ca39e	0.034335725
18	0xbce8713e	-0.02837431
19	0xbd873f9d	-0.0660393
20	0x3d4cac86	0.04996922
21	0x3d366214	0.04452713
22	0x3d818a51	0.0632521
23	0x3d59e0cb	0.053192895
24	0xbbb32ea7	-0.005468208
25	0x3d738861	0.059456233
26	0xbc6fcdab	-0.014636437
27	0xbd317e9f	-0.043333646
28	0xbd2b4c20	-0.041820645
29	0xbcee2ea9	-0.029074984
30	0x3d5623e1	0.05228031
31	0x3d3dd67f	0.046347138

sequences.4.weight f4 [16, 32, 3, 3]
0	0xbd675c8c	-0.056484744
1	0xbd78477c	-0.060615048
2	0x3cb600da	0.022217203
3	0xbd560985	-0.052255172
4	0x3b907d38	0.0044094585
5	0x3d3aac64	0.04557456
6	0xbcb23344	-0.021752961
7	0xbc85be66	-0.01632614
8	0xbba35bc4	-0.0049853045
9	0xbac786e0	-0.0015222691
10	0xbd123681	-0.03569651
11	0xbcdf9451	-0.027292402
12	0xbcf330eb	-0.029686412
13	0xbc6872de	-0.014187543
14	0xbcc969d0	-0.024586588
15	0x3cb5f2fb	0.022210589
16	0x3ca1b8c5	0.019741425
17	0xbd8da93f	-0.06917047
18	0x3d80617d	0.062685944
19	0x3d20ea39	0.039285872
20	0x3bf71f11	0.007541545
21	0x3d59da9d	0.053187
22	0x3be798cc	0.0070677754
23	0x3c86d520	0.016459048
24	0xbc48776b	-0.012235503
25	0x3d1dbe3b	0.038511496
26	0x3c23eb82	0.01000488
27	0x3d09d9cf	0.033654984
28	0x3cb64d34	0.02225361
29	0xbd9015e2	-0.07035424
30	0xbc829dce	-0.015944388
31	0xbc65963e	-0.014012871
32	0xbbbf3787	-0.005835477
33	0xbd8f5454	-0.06998506
34	0x3bc837f7	0.006110187
35	0xbd2f18dd	-0.04274832
36	0x3cfba1d3	0.030716812
37	0x3d9191f7	0.07107919
38	0xbd6f4543	-0.058415662
39	0x3dd6a870	0.10481346
40	0x3dd14944	0.102190524
41	0x3d7db8c9	0.061943803
42	0x3d08a385	0.03335907
43	0x3d63e8f3	0.05564208
44	0x3c5ed155	0.013599713
45	0xbd414e53	-0.047193836
46	0xbda31ccd	-0.07964478
47	0xbd310e30	-0.04322642
48	0x3cf8c85e	0.03036898
49	0xbd648b62	-0.05579699
50	0xbc10651d	-0.00881317
51	0x3d4a695c	0.049416885
52	0x3d4577de	0.048210017
53	0x3d1d1a45	0.03835513
54	0xbd4f708a	-0.050644435
55	0xbce92db6	-0.02846418
56	0xbcbe2ee0	-0.023215711
57	0xbce2926d	-0.027657712
58	0xbd0c506c	-0.034256384
59	0xbd83e48e	-0.06440078
60	0xbd2e321f	-0.042528268
61	0xbc166aa5	-0.0091806995
62	0x3d06769e	0.032827966
63	0x3a956524	0.001139794
64	0xbd84a086	-0.0647593
65	0x3c7c6e5c	0.015407171
66	0xbca7978c	-0.020458005
67	0xbd7b84e2	-0.061406024
68	0xbd812d7b	-0.06307503
69	0xbb4cab24	-0.0031229937
70	0xbc79a740	-0.015237629
71	0x3d0495e9	0.032369528
72	0xbd2bf538	-0.041981906
73	0x3e1b4a3d	0.15165038
74	0xbd1492fc	-0.036272988
75	0x3c0e6375	0.008690705
76	0x3e09011d	0.13379331
77	0xbd158626	-0.036504887
78	0x3d9a4612	0.07532896
79	0x3e17349f	0.14766167
80	0xbbb8bae8	-0.0056375153
81	0x3c05f65d	0.008176413
82	0x3d9fcc3a	0.07802625
83	0x3d7c4f4c	0.06159906
84	0x3d4e0c7a	0.050304867
85	0xba1fb1bd	-0.0006091854
86	0x3ca1f8ed	0.019772017
87	0xbcc87f4b	-0.02447476
88	0x3d30d29e	0.04316961
89	0x3d11c8d0	0.0355919
90	0x3c2f7422	0.010708841
91	0xbd87c58d	-0.06629477
92	0x3d3943b4	0.045230582
93	0xbdd074ee	-0.101785526
94	0xbc593837	-0.013258032
95	0x3a4e0337	0.00078587554
96	0xbd6e8f7b	-0.058242302
97	0xbd914599	-0.07093353
98	0xbcff2726	-0.031146597
99	0x3cda77c8	0.026668444
100	0x3c37f4c4	0.01122779
101	0x3cc2ae8c	0.023764871
102	0xbdb0e4a4	-0.0863736
103	0xbd9bf3fe	-0.07614897
104	0xbd1621f1	-0.036653463
105	0xbdb7024e	-0.089359865
106	0xbbc01ed7	-0.0058630514
107	0xbd8a5efd	-0.06756399
108	0x3cf42e37	0.029807193
109	0x3d2ba72e	0.04190748
110	0x3d5c9f85	0.053863067
111	0xbbcd94c7	-0.006273839
112	0x3c6f93ca	0.014622638
113	0x3c99deaa	0.018782932
114	0x3d4eeb11	0.050517146
115	0xbd484eb2	-0.048903175
116	0xbca9fb40	-0.020749688
117	0x3d175c48	0.03695324
118	0xbcb65de5	-0.02226157
119	0x3d46576b	0.048423212
120	0x3d0169e0	0.03159511
121	0x3cabd1ec	0.020974122
122	0x3d51fb31	0.051264945
123	0xba1a2e90	-0.0005881572
124	0x3caebb96	0.021329682
125	0x3d809239	0.0627789
126	0xbd9a91bb	-0.07547327
127	0xbd881059	-0.06643743
128	0xbd5c2188	-0.053742915
129	0xbd28cac3	-0.041208994
130	0xbd9b99c0	-0.07597685
131	0xbd75f6e9	-0.060049925
132	0xbd50352c	-0.05083196
133	0xbd3754c7	-0.044758584
134	0xbd3664ef	-0.04452985
135	0x3cffe9db	0.03123944
136	0x3d8cb0ca	0.06869657
137	0x3d1fc817	0.03900918
138	0x3dab5988	0.08366686
139	0x3cb0a21e	0.021561678
140	0x3bb9c4c0	0.0056692064
141	0x3cded292	0.027200017
142	0xbcdba00f	-0.02680972
143	0xbd4c12dd	-0.049822677
144	0x3d1ec597	0.038762655
145	0xbdb82065	-0.08990554
146	0xbd5d7658	-0.05406794
147	0x3c9b37db	0.018947532
148	0xbca2f5a6	-0.019892525
149	0x3d0dfcd0	0.03466493
150	0xbbaebaca	-0.0053323256
151	0x3beb321a	0.0071776034
152	0x3c549251	0.012974338
153	0xbd82c015	-0.06384293
154	0xbd28d755	-0.04122098
155	0xbd3d5a43	-0.04622866
156	0x3cd5750e	0.026056793
157	0x3ccb382f	0.024807064
158	0xbc2452e6	-0.01002953
159	0xbd04a845	-0.032387037
160	0xbc91783a	-0.017757524
161	0xbd64b3ee	-0.055835657
162	0x3d8ac85a	0.06776495
163	0x3be93a94	0.0071175788
164	0xbda9db67	-0.08293801
165	0x3e093644	0.13399607
166	0x3ca89f24	0.020583697
167	0xbd9db309	-0.07700164
168	0x3b5d84ff	0.0033801196
169	0x3d9c28ad	0.07624946
170	0xbc55093a	-0.013002688
171	0xbd1982cc	-0.037478253
172	0x3d42f859	0.047600124
173	0xbcfd0d25	-0.030890057
174	0x3d12ccea	0.035839953
175	0x3df11eb3	0.117734335
176	0x3bcb847d	0.006210862
177	0xbcf7ac7a	-0.03023361
178	0x3cdd6aa1	0.027028384
179	0xbbac6780	-0.0052613616
180	0xbd45048e	-0.048100047
181	0x3b7af11c	0.0038290685
182	0xbc8feb0a	-0.01756813
183	0xbd53d45c	-0.051716194
184	0xbdb1c08d	-0.08679304
185	0xbd189712	-0.037253447
186	0xbd544e75	-0.051832635
187	0xbcb1e1c8	-0.021714106
188	0xbd150d25	-0.03638949
189	0xbcc7ce91	-0.02439049
190	0xbd748d33	-0.05970497
191	0x3cdbfc2f	0.026853649
192	0x3cea4c54	0.02860085
193	0xbb15c00e	-0.002285007
194	0xbd7f91e5	-0.062394995
195	0xbc89eccc	-0.016836546
196	0xbcb8dcac	-0.022566162
197	0xbd87c540	-0.06629419
198	0x3d38f63d	0.045156706
199	0x3be6ffe1	0.007049546
200	0xbd361a94	-0.04445894
201	0xbd811f68	-0.063048184
202	0xbc0206da	-0.007936204
203	0x3a203b36	0.0006112339
204	0xbd3d262e	-0.04617899
205	0xbd8b4496	-0.06800191
206	0xbd3263e4	-0.043552294
207	0xbc1d280a	-0.009592066
208	0xbc05c525	-0.008164679
209	0x3c588b93	0.013216871
210	0x3cc1e148	0.023666993
211	0xbc684ac2	-0.01417798
212	0xbc664422	-0.01405433
213	0x3d6f729b	0.058458906
214	0xbd78d207	-0.060747173
215	0x3c9e3ab7	0.019315107
216	0xbcba0ca7	-0.022711111
217	0xbdadaf34	-0.08480683
218	0xbd8aa107	-0.06768995
219	0xbdf26c42	-0.11837055
220	0x3d986f6f	0.07443129
221	0x3d042be9	0.03226844
222	0x3d9470bf	0.07248067
223	0x3e084cb9	0.13310517
224	0x3d8cb1c6	0.06869845
225	0xbd30b869	-0.043144617
226	0xbce08742	-0.027408246
227	0xbd2c29b6	-0.042031966
228	0xbd902ea3	-0.07040145
229	0xbd91d439	-0.071205564
230	0xbd83117e	-0.06399821
231	0xbd4ba7ce	-0.049720578
232	0x3c9d0980	0.019169569
233	0xbc4d6575	-0.012536396
234	0xbd53773c	-0.051627383
235	0xbcd72812	-0.026264224
236	0xbd73902d	-0.05946367
237	0xbccfddbe	-0.02537429
238	0xba291329	-0.00064496935
239	0x3aa0a019	0.0012254744
240	0x3c9977c3	0.018733865
241	0x3d1a7d17	0.03771695
242	0x3cfca500	0.030840397
243	0x3c4f8dec	0.012668114
244	0x3d2f3024	0.04277052
245	0x3d5a6d13	0.053326678
246	0x3db18961	0.08668781
247	0x3d4c757a	0.049916722
248	0x3d43a9e7	0.047769453
249	0xbba3d030	-0.004999183
250	0x3d27f4f7	0.0410051
251	0x3c9cb841	0.019130828
252	0x3c02eaef	0.007990583
253	0x3d9d063d	0.076672055
254	0xbd60c354	-0.05487378
255	0x3d4b9230	0.049699962

sequences.4.bias f4 [16]
0	0x3c92cbd4	0.017919458
1	0xbd150cf6	-0.036389314
2	0xbd8c8a24	-0.06862286
3	0xbbbbc2b3	-0.005729997
4	0xbd929a11	-0.07158292
5	0xbc340164	-0.01098666
6	0x3bbc1351	0.0057396074
7	0xbd157aae	-0.03649395
8	0xbd82c521	-0.063852556
9	0xbd8556a7	-0.06510668
10	0xbd218caa	-0.03944079
11	0xbd76e659	-0.06027827
12	0x3bcd3f68	0.006263662
13	0xbc6e820b	-0.014557372
14	0xbc426be5	-0.011866544
15	0x3cbd55df	0.023112236
