saved_models/UPSCALE_X4/epoch_89.pth (torch, 101599 bytes, 6 tensors)

sequences.0.weight f4 [64, 1, 5, 5]
00000000: 7e77 36be 7153 87bd 8790 0b3e f2f2 8dbd
00000010: 3fd2 2fbe f7fa 06bd 8ce8 9b3c 5694 623c
00000020: cd49 95bd 9329 e93d 65f9 5d3d 0d24 523e
00000030: 4473 3dbd b5ef 253e 13cf 2dbe fea6 70bc
00000040: a5e4 303e 582f 0f3e d2bc be3d ce99 1fbc
00000050: 9eac cfbd 242c 09be b505 74bd ba5c e53d
00000060: aaae 2c3e 68f3 19be d865 d33c fae1 9fbd
00000070: 39a8 7cbc 8853 dbbd 629e e63d 54e0 4bbe
00000080: 7a60 8ebd f83c 053e f271 1dbe f10d e73c
00000090: 4fe0 123e e45c ea3c c2e2 3bbe fd44 973c
000000a0: b2e4 25be df3e 1dbe 6744 503c d075 1ebe
000000b0: a0e3 4d3e 4636 993d 01dd fa3d 646e 303e
000000c0: 3e8f fabc ee1a 47be b97f c63c 9d0a 1d3e
000000d0: f4d1 483e bae0 03be 372c cebd 7d6d 2abd
000000e0: 0eb5 6c3e 7c12 6a3d a05c 3cbe 2e92 14be
000000f0: f896 1e3e eee6 07be b0e2 e13d 9eab cfbb
00000100: d973 0d3e 5535 053e 7ee0 093e eba5 393e
00000110: 36fa 163d da41 ecbc 016c ddbd 395a 723c
00000120: 2b3f 2fbe c303 2abe ae70 ecbd 7684 593c
00000130: 30e8 1cbe a40d 57bd 00c0 e9bb 5511 963d
00000140: 6f45 4dbd 20cc 0fbd 686a eb3d d793 15bc
00000150: 6626 59be 01c5 543d 93e3 7bbd 357c e6bd
00000160: 44f1 4b3e 1dc1 c1bc fa1e 70bd 0e5b ebbd
00000170: e4bb bfbd 05f6 a13d a5e2 733d 1266 c53d
00000180: 433a 5fbc fe26 13bd fcdd c8bd 6488 b8bc
00000190: d5ee 98bd eb32 8e3d 9d40 bfbd e533 26be
000001a0: 6a89 343d 4b78 903d 75d7 41be 7e12 3cbe
000001b0: 03d2 923c 1088 503d 9292 8a3d 6966 41be
000001c0: e49d bf3d 6f9a 1dbe 1a81 db3d e24c f93d
000001d0: 6052 86bd f7c7 42be d7df 3abe 118a 7dbd
000001e0: fe18 6dbd 40ad b63d 2d68 ae39 ff3e 4d3e
000001f0: 3cef 373e 03f3 d13c e6e2 6abd 2165 b8bd
00000200: 7aa3 eb3b 289c 2cbe 9a06 3b3e 7af8 d63d
00000210: 4575 54bd 2f8a 463e c05a 58be 158d dc3d
00000220: 75d1 e93d 74ca 63bd 1367 aa3d c1ea bd3d
00000230: 7140 ef3d 9d48 253e 75fa 9abd cc10 803d
00000240: 874c 2ebe 0842 0b3e 0370 32be 9568 2d3e
00000250: 042f cbbd eac9 5cbd ad7e 05bd 6273 14be
00000260: 9e35 85bd 9011 653d 20b3 023e e01f 3a3e
00000270: 7134 d1bd ed2c 01be 3e5e 7a3e 852e 8b3d
00000280: 25af 0ebe d5a2 88bd e910 ed3c 69d3 e63d
00000290: d71d 993a 26d3 3abe af79 633d cc36 7d3e
000002a0: c2f6 49bd 2b11 43bc 9208 adbc ceb7 19be
000002b0: 4103 023e c624 463e d5e1 e7bd 1765 b13d
000002c0: 6946 e5bd 749a 23be aa16 293e 4374 eb3c
000002d0: 4185 c6bd 1713 e2bd 4244 dd3b 1b45 ffbc
000002e0: 72c5 113e 1f53 cabd 8e27 cb3d f774 82bd
000002f0: 2551 c0bc c889 b9bc c2f6 e6bd 34a7 423e
00000300: 00ce 5abe c97b e5bd fd5a ecbd be74 0bbe
00000310: 4ef4 32bd e186 673d c013 d2bc 57cb 593e
00000320: f2e3 aabd 5e89 75bd 467d 0bbd 0717 61be
00000330: cd8c ba3c 5356 313e c677 aebc d7fc 43be
00000340: c529 5a3d 92f0 163e b5c4 c63d 1eea 973c
00000350: 3aa8 5c3e 9fd0 833d 8181 f9bd a098 1abe
00000360: c47f bfbd 4aa5 a23d ff15 423e c5ea d1bd
00000370: 675d 4db9 34b0 4dbe d376 24be 83df c6bd
00000380: 88cc 8d3a d223 3abe 937f f63c dbf9 0fbd
00000390: bc98 043e 0ce5 db3d a7b8 12be 6453 50be
000003a0: d581 22be 92cf cfbd 6d38 af3d beeb 203e
000003b0: 67b0 8abd 2b81 a1bd d4d9 1b3e 625f 18bd
000003c0: 3bf8 a9bd 7681 7b3e 1566 813e 0b5e cd3c
000003d0: 388d fe3d e4d5 5f3d e54a 05be 493a 2a3e
000003e0: c918 483d 6c4f ecbd dc2d d3bc d3d2 0b3e
000003f0: 6412 3c3e ff78 39bb 4f71 8e3d 22bf 443d
-0.1781902 -0.06607712 0.13629352 -0.06931104 -0.17170046 -0.032954182 0.019031785 0.013829311
-0.07289467 0.11384883 0.05419292 0.20521565 -0.046252504 0.16204722 -0.16973524 -0.014688252
0.17274721 0.13982904 0.09313358 -0.00974126 -0.10140346 -0.13395745 -0.059575755 0.11199327
0.16863504 -0.15034258 0.025805399 -0.078067735 -0.015420967 -0.10709292 0.11260678 -0.19909793
-0.06951995 0.13011539 -0.15375498 0.02820489 0.1434338 0.028608747 -0.1834822 0.018465513
-0.16200522 -0.15356015 0.012711621 -0.1547463 0.20106363 0.07481055 0.122491844 0.1722961
-0.030585881 -0.19443867 0.024230825 0.1533608 0.19611341 -0.12878695 -0.10067027 -0.041608322
0.23115942 0.057146534 -0.18394709 -0.14508888 0.15487278 -0.13271686 0.11029565 -0.006337597
0.13813724 0.13008626 0.13464543 0.18129699 0.036859713 -0.028839994 -0.10811616 0.014792019
-0.1711394 -0.16602997 -0.115449294 0.01327621 -0.15322948 -0.052503243 -0.007133484 0.073275246
-0.050115045 -0.03510678 0.11494905 -0.009129486 -0.21206054 0.05194569 -0.06149633 -0.11254159
0.19916254 -0.023651654 -0.05862329 -0.11491977 -0.09362009 0.079082526 0.059542317 0.09638609
-0.0136247305 -0.035925858 -0.09807965 -0.022525974 -0.074674286 0.069433056 -0.09338496 -0.16230734
0.04407636 0.07054194 -0.18929847 -0.18366429 0.017922407 0.05091101 0.06766237 -0.18886723
0.09356287 -0.15390943 0.107179835 0.12172867 -0.065586805 -0.19021593 -0.1824945 -0.06189925
-0.057885163 0.089197636 0.00033265483 0.20043562 0.17962354 0.025628572 -0.057345293 -0.09003664
0.007191119 -0.16856444 0.18264237 0.10496612 -0.05186965 0.1938865 -0.21128368 0.10769097
0.11416904 -0.055612996 0.08320441 0.092732914 0.11682213 0.16140981 -0.07567302 0.06253204
-0.1702138 0.13599408 -0.17425542 0.16934426 -0.09921077 -0.053903498 -0.03259151 -0.1449714
-0.06504367 0.055924952 0.12763643 0.18176222 -0.102150805 -0.12614794 0.24450013 0.06795982
-0.13934 -0.06671683 0.028938727 0.11270792 0.0011681867 -0.18244609 0.05553597 0.24727935
-0.049307592 -0.011905949 -0.02112225 -0.15011522 0.12696554 0.19349965 -0.11322371 0.086618595
-0.1119507 -0.15976888 0.16512552 0.028741961 -0.09693385 -0.11038797 0.0067525217 -0.031160882
0.14235476 -0.09879135 0.09919654 -0.063699655 -0.023476193 -0.022648707 -0.11277534 0.19009095
-0.21367645 -0.11205251 -0.11540792 -0.13618752 -0.04369002 0.056525115 -0.025644183 0.21268974
-0.08344258 -0.059945457 -0.034055017 -0.2198144 0.022772217 0.17318086 -0.021297347 -0.1913942
0.05326249 0.14740208 0.09705488 0.018544253 0.21548548 0.06436276 -0.12182904 -0.15097284
-0.09350541 0.07941683 0.18953703 -0.10249857 -0.00019585119 -0.20086747 -0.16060953 -0.097106
0.0010818401 -0.18177727 0.030090129 -0.03515039 0.12948889 0.107370466 -0.14328252 -0.20344311
-0.1586984 -0.10147013 0.08555684 0.15714929 -0.06771927 -0.07885965 0.15219814 -0.03720034
-0.08299299 0.24561104 0.25273195 0.025069257 0.12429279 0.05464734 -0.13016851 0.16623797
0.048851762 -0.11538586 -0.025778703 0.13654642 0.1836639 -0.002830088 0.06955206 0.04803384

sequences.0.bias f4 [64]
00000000: 7f01 13be 41e9 4c3e 2ea4 a0bd af2d 143d
00000010: c79f 013e 4e0d 73be 8768 1bbe 1bdd 483e
00000020: 2d8b 8dbd 6eb5 2fbe aa48 4a3e 0608 673d
00000030: 102d 453e d017 2abe 4206 af3d 5a12 b9bb
00000040: b2c6 803e 75a6 453e dc5a 93bd fe03 813e
00000050: bac8 503c 8eae 3ebe 32d1 4bbe c533 f73c
00000060: 8086 5c3e fde9 1abe 04c6 66be c886 703a
00000070: 74d9 6e3e fc81 093e 7852 a33c ba86 53be
00000080: 3cc9 ff3d 09dc 6abe edd5 623d aac7 4fbc
00000090: 4727 d3bd e4c1 0a3e c021 adbd 71b9 0e3b
000000a0: 8471 3e3e 8a2e 11be baa2 ab3d 0e19 693d
000000b0: 248a 473e 563e f23d fd1c 533e 6a56 413e
000000c0: f7c1 6f3e 7829 593e 1d0c 1a3e 6233 57be
000000d0: 926d 26be d4e6 123d 88da 9c3c 1f7d f13d
000000e0: 27b7 2e3e 5872 43be 7a5c 29bc 3783 693e
000000f0: 3283 40be 958d 6a3e 6752 673e 1e99 62be
-0.1435604 0.20010854 -0.07843815 0.03617638 0.12658606 -0.23735544 -0.15176593 0.19615595
-0.06911311 -0.17159054 0.19754282 0.056404136 0.19255471 -0.16610646 0.085461155 -0.0056479396
0.25151592 0.1930178 -0.071950644 0.25198358 0.012743169 -0.18621275 -0.1990402 0.030176053
0.21535683 -0.15128322 -0.22536474 0.00091753574 0.2332514 0.13428491 0.019936785 -0.20656863
0.12489554 -0.22935499 0.055379797 -0.012681881 -0.10310226 0.13550526 -0.08453703 0.0021778012
0.1859799 -0.1417791 0.08380647 0.05690866 0.1948629 0.11828296 0.20616527 0.1888062
0.23413835 0.21207225 0.15043683 -0.21015695 -0.16252735 0.035864666 0.019147173 0.11791443
0.17062055 -0.19086587 -0.01033699 0.2280396 -0.18800047 0.22905572 0.22590028 -0.22128722

sequences.2.weight f4 [32, 64, 3, 3]
00000000: 073d f23c d007 033d 7273 81bd 0505 a5bd
00000010: fd6b 033e b4df bcbd c855 373d 87b0 ef3d
00000020: 0d71 34bd 8ed3 743d bab5 283d ceec 943c
00000030: 69a3 343d b197 6abc 0257 e4bc 2b89 053c
00000040: 8945 21bd 428e 153c 4cb0 ccbc 23f3 96bd
00000050: 924a 54be 387f 9a3e f67a 04be 8a82 403e
00000060: 737a b03d 1dfc 353d 18e4 a1bd 98b4 c93c
00000070: 59ce 08bd 9a2c c03c 7ed4 3bbd 8488 973c
00000080: 1cdd 873c 3a4b 8ebd 6b81 8bbd ec3c 0e3c
00000090: b643 653d 51ce 0b3a f3a5 d33c 725c 3cbc
000000a0: 077e d3bd d90b 363d 24ae 77bc c3df 163d
000000b0: 3797 893d 4a63 9e3b 0771 753a 382a c9bc
000000c0: 1167 4bbd b3c4 64bc 8dfa acbc dc6b e4bc
000000d0: c31b 24bc 38d1 abbc 2912 b93d 2d61 d5bd
000000e0: 26ea 83bd 7256 cbbc f8f2 7bbd 5669 673d
000000f0: fb1c b1bc a5fb 04bd 08ee 80bc 425f 833c
00000100: aa34 8f3d 9044 d0bd 013a e0bc fe30 593d
00000110: 96aa 72bd fd47 483c e06f 89bd 0a5a 353d
00000120: 65a5 2d3c 89c9 da3c a6f6 d7ba 6b85 ca3c
00000130: 6d83 a1bd 4dff 343d 7625 813c 5d38 76bc
00000140: 858d 6fbb f443 a93c 2f1e 4bbe bab3 cabd
00000150: e341 a6bd e366 0c3c e1ac 5dbd cf24 cdbc
00000160: 387c 78bd d4ec 183d 61bd 8cbc aced 2b3d
00000170: 1d9f 1dbc b563 cc3c 2816 f4bc 37cb 0c3d
00000180: 9fc1 2bbd d058 a03c d0df c93b ddf9 53bc
00000190: 738a 98bd 5316 b6bc 7a39 e73c 9214 be3c
000001a0: 5ca2 963d 918d 99bc dc07 9cbd 9127 963c
000001b0: a237 e2bb a9ce 48be 07f0 a8bd 75e4 b4bc
000001c0: 6de1 adbd 816f 943d c74c 90bc 1da4 6f3d
000001d0: cfa5 fbbc 728c 57bd 74e1 68be d9e5 2a3c
000001e0: 27c2 9cbd d9c3 b03d 749d a63b b4ef 983b
000001f0: 917d ddbd a95e 9c3d ce2d 953d 6bc0 bebd
00000200: fbdf 6fbe 5f21 903c 2abe 743c a37f 293e
00000210: 6f88 05bd 236e 1e3d a904 0ebe b725 59bc
00000220: 833a edbd 8b58 ffbd 56df 7b3e 46a6 c43d
00000230: d4d1 973e e57c 863b ea6e 2bbe 930c dbbd
00000240: 563d 00ba 4454 ba3d 359c 493d a2ba 9a3c
00000250: 794d a13d 0c9c 19bd 1106 cfbd ba90 28bd
00000260: 1104 1a3c 7aaa 8abd be9c ad3c ecb4 51bd
00000270: 753d 1e3d bfdb e03b faf2 cdbc 0672 143c
00000280: 4d74 5ebc 6b35 d9bb 9caa 0dbc 9810 07bc
00000290: e322 aebc 7a28 96bc 6604 333d 9659 11bd
000002a0: 1f1d 803b 63df 8d3d 5db5 813d 3a24 45bd
000002b0: eeb4 44bd 2ff4 bd3d 65d1 6c3e 3c8e 9f3d
000002c0: f30c 473e e724 6c3d b0d4 51be 8d4a 3bbd
000002d0: e085 d43d 4848 a6bd 0751 453d 8611 80bd
000002e0: 3df6 1ebc cdbe 5abc d269 27bb 6a3f b23c
000002f0: 45d4 953d 2c4e 463c a312 e53c ca63 66bd
00000300: 0003 69bd 9f79 3c3d 9d1b aabc 7fba 87bd
00000310: f34a bf3b 003c a8bc 07bf cf39 7ba8 a7bb
00000320: 6373 213c 291b b6bc 0337 9cbd 9d1d 38bd
00000330: cff6 9f3a 4510 c1bc 8211 993c 75dc 61bb
00000340: e1fa 023d 4f22 893c 5008 18bd 74b5 d13c
00000350: c216 61bd aff2 84bd bea1 af3d 0c38 4f3d
00000360: 4147 35bd 2f2b aebd 71ff 9abd 02b0 a63d
00000370: 7079 9b3d dda8 763c e8e4 18bd 8db6 cb3c
00000380: 56eb 1abe f4f4 92bc a26b 68bd a888 07bc
00000390: c2cc 523c 1b6c ecbc de27 8a3b 6150 b9bc
000003a0: fe5a 3a3b f4c4 9abb f1ab 25bc ff70 81bc
000003b0: 6c61 ce3b 8c52 68bb f843 6ebd 4e47 e3bc
000003c0: ea45 403c d3f4 5ebd 1f32 57bc 48c7 08bd
000003d0: baf1 09bd cd72 b7bc e8b7 b7bd 9c25 b7bc
000003e0: 8406 4d3d 3a31 0ebd 7bad 8abc 9ead 99b9
000003f0: 0955 37bd e93f 943b bc71 2e3a 30f9 c03c
0.029570116 0.031989872 -0.063208476 -0.08057598 0.12834163 -0.092223555 0.04475954 0.11703592
-0.044053126 0.059772067 0.041188933 0.018179324 0.044101153 -0.014318393 -0.02787352 0.008150379
-0.039372955 0.009128155 -0.024986409 -0.073705934 -0.20731571 0.30175185 -0.12937531 0.18799797
0.08617105 0.044429887 -0.079048336 0.024622247 -0.033399913 0.023458768 -0.045856945 0.018497713
0.016584925 -0.06947942 -0.06811794 0.008681517 0.055972777 0.0005333173 0.025835967 -0.01149665
-0.10326772 0.044444893 -0.015117202 0.03683449 0.06718295 0.0048336135 0.00093628507 -0.024556264
-0.04965884 -0.013962912 -0.021115566 -0.027883463 -0.010016385 -0.020973787 0.09036667 -0.104189254
-0.06441145 -0.024821494 -0.06151101 0.05649694 -0.021620264 -0.03246655 -0.015738502 0.016036633
0.06992467 -0.10169327 -0.027371408 0.05302524 -0.059244715 0.012224195 -0.067107916 0.04427532
0.010598515 0.026707428 -0.0016476705 0.024721822 -0.078863956 0.044188786 0.015764933 -0.0150280865
-0.0036552858 0.020662285 -0.19835733 -0.09897561 -0.08118036 0.008569452 -0.05411995 -0.025041966
-0.06066534 0.037335232 -0.017180147 0.04197471 -0.009620455 0.024949888 -0.029795721 0.03437349
-0.0419327 0.0195736 0.0061607137 -0.01293799 -0.07448282 -0.022227442 0.02822565 0.023203168
0.07355186 -0.018744262 -0.076186866 0.018329414 -0.0069036046 -0.19610085 -0.082489066 -0.022081593
-0.08490262 0.0724783 -0.017614735 0.05850612 -0.030718712 -0.052624173 -0.22742254 0.0104307765
-0.07654219 0.08631105 0.005084688 0.0046672467 -0.108149655 0.076352425 0.07284127 -0.093140446
-0.23425286 0.017594038 0.014937917 0.16552596 -0.032600816 0.038679253 -0.13868965 -0.013253621
-0.11583426 -0.1246806 0.24596915 0.09602027 0.29652274 0.004104244 -0.16741529 -0.10695758
-0.0004891952 0.09098104 0.049221236 0.018887822 0.07876105 -0.037502334 -0.10108579 -0.041153647
0.009400384 -0.06770797 0.021192905 -0.05119793 0.03863283 0.0068621333 -0.025140274 0.009060388
-0.013577533 -0.0066286824 -0.0086466335 -0.008243702 -0.02125687 -0.018329848 0.043705367 -0.035485826
0.0039097215 0.06927373 0.063334204 -0.04813025 -0.04802411 0.0927509 0.23126753 0.07790801
0.19438533 0.05765238 -0.2049129 -0.045725394 0.10377097 -0.08119255 0.048172977 -0.06253342
-0.0097022625 -0.0133511545 -0.0025545252 0.021758754 0.07315878 0.012103599 0.027962988 -0.05624751
-0.056887627 0.046014424 -0.02076512 -0.06627368 0.005837792 -0.020536423 0.00039624443 -0.00511652
0.0098541705 -0.022229748 -0.0762768 -0.044950116 0.0012204292 -0.023567328 0.018685106 -0.0034463678
0.031977538 0.016739992 -0.037117302 0.025599219 -0.054953344 -0.06491601 0.08575772 0.05059056
-0.044257406 -0.0850433 -0.07568253 0.081390396 0.07591522 0.015054909 -0.037327677 0.02486732
-0.15128836 -0.017939068 -0.05674327 -0.0082723275 0.012866201 -0.028860142 0.0042161783 -0.022621335
0.0028435583 -0.0047231857 -0.010111795 -0.015800951 0.0062982347 -0.0035449592 -0.05817029 -0.027743962
0.011735419 -0.0544327 -0.013134508 -0.033393174 -0.033677794 -0.022393608 -0.08970624 -0.0223568
0.050055042 -0.034714915 -0.016928425 -0.0002931179 -0.04475883 0.0045242202 0.0006654521 0.023556322

sequences.2.bias f4 [32]
00000000: 4435 bc3b 170b f63c 1b2c b4bd 68cb bd3c
00000010: 7bcc bdbd 4a43 523d 7d2d 8a3d 3d44 0e3d
00000020: d5e5 58bd 307d 893c 23d4 ab3d 4f99 753d
00000030: 165e 143b d94b 4bbd e823 a03d 6d65 d7bd
00000040: 6840 5e3d c2c0 1e3d 5c22 d6bc 68cf 7ebd
00000050: af7f 9d3d a2cb 433d 9a96 973d 8c55 a53d
00000060: a419 583c 1f0c a73d e266 5dbc 3156 5dbd
00000070: dfb3 22bc fc8e b63b 5062 673d d4fb b03d
0.0057436544 0.030034585 -0.08797475 0.02316828 -0.09267517 0.051333703 0.067469575 0.034733046
-0.05295356 0.016783327 0.08390071 0.05996066 0.0022639087 -0.04963288 0.078193486 -0.10517392
0.05426064 0.038758047 -0.02613943 -0.062209517 0.07690369 0.04780162 0.07401772 0.080729574
0.013189707 0.08156609 -0.013513299 -0.054037277 -0.00993058 0.0055712443 0.056490242 0.086417824

sequences.4.weight f4 [16, 32, 3, 3]
00000000: 1103 5bbe a431 04bd e20a d43b 51a9 6d3d
00000010: e273 543e 96e7 033e 573b 92bd edce 1fbd
00000020: ea7f af3d e661 c6bc 2b7e 8cbd 2854 54bd
00000030: ede9 84bd ecce 5cbd d0d5 78bd a1a3 1c3d
00000040: c043 343b 2fd5 9dbd 94b3 e23d bdfa eb3d
00000050: c0dc 113c 6449 143e f1a7 133e 44ac 743d
00000060: 26d5 89bd 11f9 823c 1403 34bc 22ca 623d
00000070: ba62 2e3c 4388 98bd b666 e93c da01 4abc
00000080: 52d2 df3c 344d acbd ce1c 2bbc fabf 8dbd
00000090: 45cd 943d b0ab f43d ece4 ecbd add8 253e
000000a0: 89a4 5c3e ca86 eebc 1bd9 59bd 14a7 003d
000000b0: 8cd9 4dbd 857c 8cbc 23e2 09be f2b1 a2bd
000000c0: 1afe ce3b 7f5d 3abe e382 c3bd 6a7f b73d
000000d0: a9f2 0d3d 05d6 2b3d 3fe7 8dbd 4cc1 93bd
000000e0: 7e21 c23b 7cca d3bc e253 8bbd 6d1a 57bd
000000f0: 6f5f 15bd 6e26 8ebd d9c9 8c3c 0675 bfbd
00000100: 7652 10bc 9ae8 f4bb 82de 88bd 88d9 fcbd
00000110: 5900 aabc d19c d73c deb2 2dbd 8485 c83b
00000120: ca88 91bd 573f 483e 7733 88bd 56c6 35bd
00000130: edbc 5e3e 1dd9 26bd 2ae9 013e c56a 053e
00000140: 1290 7b3c 7b04 083e 26a8 1e3e 66d2 3a3d
00000150: 437f d53d 9c65 993d 8e70 8e3b 518b 563d
00000160: ed2f bc3d ef65 47bc 19dd 8fbc 3f36 2fbd
00000170: ce69 af3c a73f 4dbe 35f2 0abd 7312 503d
00000180: 66b0 9abd b3c4 1b3c f4dc dbbc c713 0b3e
00000190: fbeb 973d bc42 fb3b 4bf2 57be c802 00be
000001a0: 1582 2ebd b68e 583d 8cd2 273c f913 7f3c
000001b0: c801 29bb 40e1 1abc eda4 f13c 67c2 80bd
000001c0: b006 e1bd 243a b4bc 7cd1 d03d f60f af3c
000001d0: 03eb b1bc bf98 4b3d b5e4 d4bb da12 923d
000001e0: 754c e83d cc79 d73d bfbf 923d 90b2 e2ba
000001f0: 20ef de3c 2a98 593d f5b5 c5bd d895 babd
00000200: 5587 55bd a914 e8bd 3598 25be b2b2 ecbd
00000210: 64d1 abbd 1874 9dbd 795c 0fbd fb4a be3d
00000220: 423d 1d3e cf08 db3c f913 163e 41d5 e43d
00000230: 7fd3 6fbc de40 4fbc 4342 14bd e87a b9bd
00000240: 9c68 9abb 4ccc 00be 6223 2c3b 9a38 51bc
00000250: 5dee d2bd 9ac5 7c3d d741 e2bc 4466 813c
00000260: b432 da3b e18d e7bd 17d8 bf3d 5ccb 66bd
00000270: 5908 3e3c 0af9 073c 0757 d6bd 7524 28bd
00000280: 0ef6 82bd a012 e7bd ee87 cc3d 3b4a 9cbd
00000290: cca3 eabc 3c52 073e cfcc 843e d39a c2bd
000002a0: 6dd2 45bd 1a90 f93d 3ab2 96bc c998 ad3c
000002b0: 942a e33d 4669 83bd 82c2 e23c 3bd6 373e
000002c0: 8edd a53d 0b62 aabc 6daa de3c 163b 21bd
000002d0: daeb 0abd 5b45 bcba d4ae ba3b 1976 1ebd
000002e0: 50c2 26be 1b2a 8cbd 750a bbbc 2c46 bb3b
000002f0: 4321 ce39 bdbb 90bd b064 953c a714 5e3c
00000300: 32b6 3c3b 41c9 a83c b581 02be 88cf ffbc
00000310: 5245 9abd d843 9ebd ee75 5f3d 9d29 aabc
00000320: 6804 25be de2d d6bd a2eb 7bbd c0f4 cdbb
00000330: a41d cd3c 13f4 6bbd f34f 0fba aef1 4dba
00000340: f2a7 44bd a31d 3c3d cd82 d23b 3798 c1bd
00000350: a59b 9c3c 511b d23d 2b0a bdbc 3b43 853c
00000360: be89 f0bc 5b74 11be a29d 91bd f4c0 61be
00000370: f038 6e3e 4014 093d 9e54 613d 1e19 7f3e
00000380: 78c3 95bc 6a08 acbd 9c39 c9bd fba9 3cbd
00000390: 8247 dabd db87 2ebe 3cdb 5bbd 9c7c 3bbc
000003a0: 8299 343d f358 ae3b 0287 6b3d 5a19 853b
000003b0: 075b 0b3d 482d aabe 59cf d0bd 24ce a3bd
000003c0: 1831 c23c ba63 0a3e 0bf9 b43c 6d50 39bd
000003d0: 128c 823d 0707 73bd d7ea d8bc 6b34 073e
000003e0: abd9 233c 8a74 4f3d be15 0b3e 85bd 86bd
000003f0: 3b61 b73d b7ac f13d 7934 c5bd 8a4c 2d3e
-0.21387888 -0.032273903 0.006471024 0.0580228 0.20747331 0.12881312 -0.071402244 -0.0390157
0.085693195 -0.024216603 -0.06860002 -0.05183807 -0.0648993 -0.053908274 -0.060750782 0.038241986
0.0027506202 -0.07706677 0.11069408 0.11522434 0.008902729 0.14481121 0.14419533 0.059734598
-0.06730108 0.015987905 -0.010987062 0.05536855 0.010643655 -0.07447865 0.02849136 -0.012329543
0.027321968 -0.08413163 -0.010443879 -0.06921382 0.072657146 0.11946809 -0.11567101 0.16195937
0.2154714 -0.029117007 -0.053185564 0.031409338 -0.050256297 -0.01714922 -0.1346517 -0.079440966
0.0063169124 -0.18199728 -0.09546449 0.08959849 0.034655247 0.04195215 -0.06928872 -0.07214603
0.0059244027 -0.025853388 -0.06803109 -0.052515436 -0.036467966 -0.06940924 0.017186092 -0.09348492
-0.008808723 -0.0074740173 -0.06683065 -0.12346178 -0.020752119 0.026319893 -0.04240691 0.006119432
-0.071061686 0.19555412 -0.06650441 -0.0443786 0.21751757 -0.0407344 0.12686601 0.1302901
0.015354173 0.13282959 0.15493831 0.045610808 0.10424664 0.074900836 0.0043469137 0.052378956
0.091888286 -0.012170299 -0.017561482 -0.042776342 0.021412756 -0.20043813 -0.033922393 0.050798845
-0.075531766 0.009507346 -0.026838757 0.13581763 0.074180566 0.0076678675 -0.21088521 -0.12501061
-0.042604525 0.052870475 0.010243069 0.015568727 -0.0025788415 -0.009453118 0.029497588 -0.06287079
-0.10987604 -0.02200038 0.10196206 0.021369915 -0.021718508 0.049706217 -0.0064969906 0.07132502
0.11342708 0.10521278 0.07165479 -0.0017295647 0.027213633 0.05312363 -0.09653846 -0.09110612
-0.052131016 -0.113320656 -0.16171344 -0.11557521 -0.083895475 -0.07688159 -0.0350003 0.09291645
0.15355399 0.026737599 0.14656056 0.111734875 -0.014637827 -0.012649743 -0.036196005 -0.09056646
-0.0047121774 -0.12577933 0.0026266207 -0.0127698425 -0.102993704 0.061711885 -0.027619286 0.015795834
0.0066588763 -0.11306358 0.09367388 -0.056346282 0.01159867 0.008299122 -0.10465818 -0.041050393
-0.063945875 -0.11282849 0.09986864 -0.07631346 -0.028642558 0.13214964 0.25937507 -0.095021866
-0.04829638 0.12185688 -0.018395532 0.021191018 0.110921055 -0.06416564 0.02768064 0.17952816
0.08098899 -0.020798704 0.027180875 -0.03936299 -0.03391633 -0.0014363931 0.0056971107 -0.038686845
-0.16285062 -0.068439685 -0.022832135 0.0057151522 0.00039316164 -0.07067058 0.018236488 0.013554729
0.002879512 0.020603778 -0.12744792 -0.031226888 -0.07532753 -0.07727784 0.054555826 -0.020771796
-0.16114962 -0.10457967 -0.061504014 -0.00628528 0.025038548 -0.057605814 -0.00054669305 -0.00078561425
-0.048011728 0.0459267 0.006424284 -0.09452861 0.019117186 0.102591164 -0.023076138 0.01626741
-0.029362556 -0.14204542 -0.07110144 -0.22046262 0.23263907 0.033466578 0.055012338 0.24911925
-0.018281683 -0.08400042 -0.09825441 -0.046060544 -0.1065817 -0.17044012 -0.053675875 -0.011443283
0.04409171 0.005320662 0.0575018 0.00406186 0.034022357 -0.33237672 -0.101957984 -0.079983026
0.02370505 0.13514605 0.02209141 -0.045242716 0.063743725 -0.059332874 -0.026479168 0.1320359
0.010000627 0.05064825 0.13582513 -0.06579117 0.08954092 0.11800521 -0.09629149 0.16923729

sequences.4.bias f4 [16]
00000000: 75b0 4b3c d27f ffbc dc5a 81bd fb73 053c
00000010: 1874 8cbd 94dd a9bc 76cd 9dbb e2e7 02bd
00000020: 04a5 9fbd e516 7bbd d5f6 4ebd 5118 64bd
00000030: 77dc 8f3b c495 47bc 7f2d 1cbc ba97 453c
0.012432207 -0.03118888 -0.06316158 0.008145328 -0.068580806 -0.02073554 -0.0048157526 -0.031959422
-0.07795146 -0.06130113 -0.050528366 -0.055687252 0.004390295 -0.012181703 -0.0095323315 0.0120601
