saved_models/UPSCALE_X4/epoch_95.pth (torch, 101599 bytes, 6 tensors)

sequences.0.weight f4 [64, 1, 5, 5]
00000000: 3f89 36be 4a6c 87bd d298 0b3e 2328 8ebd
00000010: 66d9 2fbe 1e40 07bd 83ee 9b3c 7344 643c
00000020: 5f9e 95bd 9701 e93d 796c 5d3d 0442 523e
00000030: 7fa8 3cbd 8e1c 263e e200 2ebe fe97 71bc
00000040: 6acd 303e 9e68 0f3e e8d8 be3d 51ae 22bc
00000050: 9f90 cfbd 4958 09be 3e9f 74bd e837 e53d
00000060: bca1 2c3e d8f4 19be 0c71 d43c 22ad 9fbd
00000070: 53f3 7bbc 1d46 dbbd c39c e63d 2110 4cbe
00000080: 7ac4 8ebd 3246 053e a886 1dbe 11de e63c
00000090: 5af9 123e 7a46 ea3c fb21 3cbe 1e62 983c
000000a0: b506 26be 9153 1dbe 373a 503c ae7f 1ebe
000000b0: 891a 4e3e 502c 993d dc21 fb3d 4092 303e
000000c0: 1973 fabc cf25 47be 3021 c63c 01e7 1c3e
000000d0: 62ee 483e f9eb 03be 445e cdbd b571 2abd
000000e0: ff1b 6d3e 0b3d 6c3d d3dc 3cbe 8770 14be
000000f0: 72c6 1e3e 55de 07be f42b e33d 50e9 cfbb
00000100: 85c9 0d3e 9142 053e 893b 0a3e 275b 3a3e
00000110: 014d 163d e6e0 eabc 2861 ddbd a6a8 713c
00000120: a136 2fbe fef6 29be 3a09 ecbd 0727 5b3c
00000130: 7dfb 1cbe bcfd 56bd ccc7 e7bb 2cfe 953d
00000140: 3d03 4dbd fc13 11bd d59b eb3d feef 19bc
00000150: 367f 59be 30a1 543d 14e0 7cbd 9823 e7bd
00000160: 9033 4c3e 74d6 c3bc 51c6 70bd 0ad6 ebbd
00000170: 737d c0bd f124 a23d bcd3 723d dac9 c43d
00000180: e6af 5dbc b786 13bd a543 c9bd 4a9e babc
00000190: 6df9 98bd b569 8e3d fb28 bfbd 283b 26be
000001a0: a47a 343d 73ba 903d 74e4 41be 2150 3cbe
000001b0: 905e 923c 69c4 503d c4b1 8a3d af90 41be
000001c0: 2286 bf3d c0a7 1dbe b2ad db3d ef7b f93d
000001d0: b03e 86bd a2f6 42be 31f3 3abe f233 7dbd
000001e0: f3bd 6dbd 3e92 b63d 93a9 c339 af6d 4d3e
000001f0: 6505 383e 0c95 d23c 1afe 6abd d06b b8bd
00000200: cc72 ee3b 52a6 2cbe d623 3b3e 5b15 d73d
00000210: aa05 54bd 57b1 463e 8290 58be e88a dc3d
00000220: 0dfa e93d a0a1 63bd 3be3 aa3d 7ab7 bd3d
00000230: d842 ef3d 365b 253e 75f1 9abd 7616 803d
00000240: 2677 2ebe e940 0b3e 5d72 32be ef46 2d3e
00000250: 2629 cbbd 47de 5cbd 5d3e 04bd ff6d 14be
00000260: 6705 85bd d57b 653d 00c2 023e 0d92 3a3e
00000270: 7b2d d1bd 444b 01be 93b4 7a3e c4e9 8a3d
00000280: 4488 0ebe 079f 88bd 2cd2 ef3c faac e73d
00000290: 769d 943a 3de6 3abe a800 643d 36d1 7d3e
000002a0: 1767 4abd 229f 43bc 4960 acbc 22b3 19be
000002b0: 07ff 013e 1636 463e b1de e7bd 0a9b b13d
000002c0: a204 e5bd 5c86 23be a247 293e 4a05 ec3c
000002d0: 157d c6bd 1c1c e2bd d121 db3b 1784 febc
000002e0: 0bfb 113e 7d7b cabd a07b cb3d 8910 83bd
000002f0: 38a8 c0bc 8205 b8bc 50fd e6bd 6ce1 423e
00000300: 390f 5bbe ff98 e5bd b642 ecbd 3d78 0bbe
00000310: 1e2c 33bd 5a25 683d 1ae2 d1bc 2de3 593e
00000320: 6776 abbd dd58 76bd 45c1 0bbd e795 61be
00000330: 476f b83c 1c50 313e f999 afbc 5c69 44be
00000340: aadb 583d 7cc4 163e cea5 c63d fe78 963c
00000350: bff8 5c3e 598a 833d d053 fabd 7ba1 1abe
00000360: 5843 c0bd cb1e a33d d44a 423e 4e14 d2bd
00000370: 3a9a 0137 9fb2 4dbe d393 24be 9dae c6bd
00000380: be6c 9a3a 8ad6 39be b76d f83c 696d 0fbd
00000390: b5e0 043e 1534 dc3d 958f 12be 305b 50be
000003a0: 5fd2 22be 27d7 cfbd 8159 af3d 2c0a 213e
000003b0: d8b1 8abd dc7a a1bd ee0c 1c3e fcb6 18bd
000003c0: 9852 aabd 02c9 7b3e 0fb8 813e ca03 cf3c
000003d0: 0bc9 fe3d 3e57 603d 8b36 05be f649 2a3e
000003e0: 4a8c 483d 48c9 ebbd 2984 cebc be42 0d3e
000003f0: 6a4d 3d3e be4e 27bb bb84 8e3d 664a 453d
-0.17825793 -0.066124514 0.13632515 -0.06941249 -0.17172775 -0.03302013 0.01903463 0.013932335
-0.073055975 0.11377256 0.054058526 0.20532995 -0.046059128 0.1622183 -0.16992524 -0.01474571
0.17265859 0.14004752 0.09318715 -0.009929256 -0.10135006 -0.13412584 -0.059722178 0.11192304
0.16858572 -0.15034807 0.025932811 -0.07796694 -0.015377837 -0.107067324 0.11260369 -0.19928028
-0.06971069 0.13015059 -0.15383399 0.028182061 0.14352933 0.028598059 -0.18372338 0.018601473
-0.16213496 -0.1536391 0.012709192 -0.15478393 0.2012731 0.07479155 0.122623175 0.1724329
-0.030572461 -0.19448017 0.024185747 0.15322496 0.19622186 -0.12882985 -0.10027745 -0.041612346
0.23155211 0.057675403 -0.18443613 -0.14496051 0.15505388 -0.13268407 0.11092368 -0.0063449517
0.13846405 0.13013674 0.13499273 0.18198834 0.03669453 -0.028671693 -0.10809547 0.014749682
-0.17110683 -0.16598126 -0.11525197 0.013376004 -0.1533031 -0.052488074 -0.007073378 0.0732387
-0.050051916 -0.03541945 0.11504332 -0.0093955975 -0.21239933 0.051911533 -0.061737135 -0.11286086
0.19941545 -0.02390597 -0.05878288 -0.11515434 -0.093989275 0.07917202 0.059283957 0.09608813
-0.013530707 -0.036017146 -0.09827355 -0.022780556 -0.07469449 0.06953756 -0.09333988 -0.16233504
0.04406227 0.07066812 -0.18934804 -0.18389942 0.017867357 0.05096856 0.06772187 -0.18902849
0.09351756 -0.15396023 0.10726489 0.121818416 -0.065549254 -0.19039395 -0.18256833 -0.061817117
-0.058042478 0.08914612 0.0003731964 0.20061372 0.17970808 0.025705837 -0.057371236 -0.090049386
0.0072768684 -0.16860321 0.18275389 0.1050212 -0.051763214 0.19403587 -0.21148875 0.10768682
0.114246465 -0.05557406 0.08344122 0.09263511 0.11682671 0.16148075 -0.075655855 0.06254284
-0.17037639 0.1359898 -0.17426439 0.1692159 -0.09919958 -0.053922918 -0.032286037 -0.14495085
-0.06495171 0.0560263 0.12769318 0.18219776 -0.10213753 -0.12626368 0.24482946 0.067828685
-0.13919169 -0.06670957 0.029275022 0.113122895 0.0011338431 -0.18251891 0.05566469 0.24786839
-0.04941472 -0.011939796 -0.021042006 -0.1500974 0.12694941 0.1935657 -0.11321772 0.086721495
-0.11182524 -0.15969223 0.16531232 0.028811116 -0.09691826 -0.11040518 0.006687381 -0.031068845
0.14255922 -0.09886835 0.09935689 -0.06399638 -0.023517713 -0.022463564 -0.11278784 0.19031304
-0.21392526 -0.11210822 -0.115361616 -0.13620086 -0.043743245 0.056676246 -0.025620509 0.21278067
-0.08372193 -0.06014334 -0.034119863 -0.2202984 0.022513999 0.17315716 -0.021435725 -0.19180816
0.052943863 0.1472339 0.096995935 0.01836824 0.21579264 0.06422872 -0.12223017 -0.15100662
-0.09387845 0.07964858 0.18973857 -0.10257779 7.724908e-06 -0.2008767 -0.16072015 -0.097012736
0.0011781675 -0.18148246 0.030325754 -0.03501645 0.12976344 0.10752121 -0.14312585 -0.20347285
-0.15900563 -0.10148459 0.085619934 0.15726537 -0.06772202 -0.07884762 0.15239307 -0.037283882
-0.08316535 0.24588397 0.25335738 0.025270361 0.1244069 0.0547707 -0.13009088 0.16629776
0.048961915 -0.11513001 -0.025209503 0.13794991 0.18486562 -0.0025529112 0.0695891 0.048166655

sequences.0.bias f4 [64]
00000000: d516 13be f90a 4d3e 4daf a0bd 3b24 143d
00000010: 8fb0 013e ca42 73be e395 1bbe 37fa 483e
00000020: 95e8 8dbd 6cc4 2fbe 512e 4a3e 04b7 673d
00000030: 5280 453e e41b 2abe e696 af3d 76a1 c2bb
00000040: 33eb 803e 5a4e 463e d24e 93bd dd2b 813e
00000050: 28ea 4f3c 7ff3 3ebe ea0e 4cbe e7cc f73c
00000060: 78f1 5c3e 4c5a 1bbe 7af1 66be 22a8 1b3a
00000070: 3e5e 6e3e 5682 093e be71 a33c 60c2 53be
00000080: c92f 003e 8726 6bbe e553 663d 4126 53bc
00000090: 02de d2bd a2a2 0a3e 3f62 acbd 1cd3 fc3a
000000a0: 877c 3e3e ff5e 11be 079e ab3d 456c 6a3d
000000b0: 8ea8 473e 501f f33d 245b 533e afaa 413e
000000c0: 1233 703e 4eca 593e e179 1a3e 1779 57be
000000d0: 1591 26be ea85 123d 5987 9b3c 5bf1 f13d
000000e0: 8c0a 2f3e ebd0 43be d916 29bc 85ca 693e
000000f0: 63cc 40be 4bbe 6a3e 2485 673e aef7 62be
-0.14364178 0.20023717 -0.07845936 0.036167365 0.12665008 -0.23755947 -0.15193896 0.196267
-0.06929127 -0.17164773 0.19744231 0.05657102 0.19287232 -0.16612202 0.085737035 -0.005939658
0.25179443 0.19365826 -0.07192768 0.25228778 0.012690105 -0.18647574 -0.19927564 0.030249072
0.21576488 -0.15171164 -0.22553053 0.00059378345 0.23278138 0.13428625 0.019951697 -0.20679617
0.12518229 -0.22963916 0.05623235 -0.012887538 -0.10296251 0.13538602 -0.084171765 0.001928899
0.18602191 -0.14196394 0.08379751 0.05723216 0.19497892 0.11871207 0.20640236 0.18912767
0.23456982 0.2126858 0.15085556 -0.21042286 -0.16266282 0.03577224 0.018985437 0.11813613
0.17093867 -0.19122665 -0.010320389 0.22831161 -0.18827967 0.22924154 0.22609383 -0.22164795

sequences.2.weight f4 [32, 64, 3, 3]
00000000: 0884 f23c b842 0a3d 02fd 80bd cf45 a5bd
00000010: 5f42 043e fd64 bbbd 6fd2 3f3d eac4 f23d
00000020: e2bc 34bd e868 753d 89a3 2a3d f1d2 903c
00000030: 73ba 373d dda7 6dbc ea35 e7bc 4e42 eb3b
00000040: 7473 1dbd f9fb 233c fe24 c2bc 87fe 97bd
00000050: d9da 52be 996a 9a3e 59d5 03be b96e 413e
00000060: 73d7 b03d b5e7 343d f943 a3bd 55b6 c53c
00000070: 1530 08bd 7717 bf3c b42a 3cbd 5bb9 983c
00000080: 263f 853c 921b 8ebd f291 8cbd 969c 0a3c
00000090: 5455 683d 537e e9b9 3f55 d33c a43e 38bc
000000a0: c7bb d5bd f20a 383d 89c1 77bc 5ea8 183d
000000b0: bd10 8b3d 0f86 893b 851d d53a 968f cbbc
000000c0: ed57 4ebd a2f3 5dbc fe9c b1bc 332b e2bc
000000d0: 250f 18bc 49b2 b1bc 0395 bc3d f9e2 d3bd
000000e0: 15a1 87bd ccdb cfbc 9479 80bd c247 693d
000000f0: 5cdc aebc 5f6e 03bd 84d8 83bc afb0 803c
00000100: a34b 903d adee d0bd 6d7d dabc 4508 593d
00000110: ec50 72bd 757f 3c3c 658f 8abd 9416 353d
00000120: 60a4 3a3c bc71 dd3c 667f 97ba c5d4 ca3c
00000130: 0c9e a1bd f2c5 363d 45e7 7f3c e224 79bc
00000140: 7369 75bb 0d53 a93c 1712 4bbe be4a cbbd
00000150: ddf7 a5bd c0e0 0a3c 9fa0 5bbd cea7 cdbc
00000160: 71a3 77bd 1c2b 153d bcb7 8bbc 4d92 2c3d
00000170: 43fc 18bc 215f cc3c b08c f4bc 9610 0d3d
00000180: 004e 2cbd cdb9 9e3c 2823 c53b f9b2 4bbc
00000190: a870 98bd 42ca b8bc a8b9 e33c fa55 b83c
000001a0: 4edc 953d 48df 9dbc 6949 9dbd 5f62 903c
000001b0: 41b4 c4bb 4334 49be 6e37 abbd 6dcc b6bc
000001c0: 8045 acbd 4039 923d 4fbe 92bc 4604 6f3d
000001d0: a5da ffbc 939c 57bd 3385 69be 0306 293c
000001e0: ccb4 9abd 3714 b03d 8b0d a63b ec95 a53b
000001f0: fb03 dfbd 8603 9d3d dd6b 953d f080 c0bd
00000200: 4a6c 70be 3a6e 8d3c 6901 803c 9d4d 2b3e
00000210: f3e0 00bd e6df 213d 7c00 0ebe 9ebc 52bc
00000220: f6fc eebd dd98 00be d226 7b3e a7f3 c03d
00000230: b5e3 973e 0304 833b ceca 2bbe 9bf4 dbbd
00000240: 3a29 95ba bf97 bb3d 83e8 493d 86f2 9c3c
00000250: 865f a03d 1e50 17bd 6a9a cebd b396 25bd
00000260: 905c 2b3c 505a 8bbd f6df b03c 965b 50bd
00000270: be23 203d a38e ea3b 2142 cdbc b402 123c
00000280: 82b4 5dbc caa7 d2bb 211d 17bc d92b 01bc
00000290: 041f a9bc 9904 97bc 6344 353d c6c9 10bd
000002a0: 7d3f 403b a103 8e3d da63 823d af46 42bd
000002b0: aeec 45bd 0b8e c13d 4485 6e3e ae26 a03d
000002c0: 36e4 483e 3ca6 6e3d 9a5e 52be 01e1 39bd
000002d0: 7c2d d53d c55d a6bd 6698 413d a293 81bd
000002e0: 50dc 29bc 412e 5cbc 20be 3ebb 9a99 b23c
000002f0: 4508 953d 9474 2e3c 8590 e63c 8af7 66bd
00000300: 2444 6cbd d577 3d3d e700 b6bc c8d3 88bd
00000310: 1525 db3b b2f9 aabc 7942 7f3a cd40 b5bb
00000320: 558b 313c 4f2b afbc da31 9cbd a764 36bd
00000330: 7319 a039 94ce c3bc de76 9c3c efc4 7dbb
00000340: 1401 033d 75ea 853c 73aa 1abd 93a4 d23c
00000350: b865 63bd 7019 85bd be49 af3d 6295 4e3d
00000360: 221d 34bd 09e5 adbd 8666 9abd d1a2 a63d
00000370: 3e50 9f3d 1335 6e3c ffa1 1bbd 74ea c33c
00000380: b42e 1abe a92a 95bc 4aff 68bd 3744 07bc
00000390: 17e6 4e3c f543 edbc a4b4 8a3b be4b babc
000003a0: eda9 413b 1894 8ebb 37b8 26bc a37b 81bc
000003b0: 3d53 cd3b 4e2f 6abb b4ed 6ebd 91b0 eabc
000003c0: f249 463c b23f 5bbd 2619 50bc 774f 09bd
000003d0: dfec 09bd d884 bbbc 696c b7bd 8156 acbc
000003e0: e418 483d 80c9 11bd ca41 89bc e773 67ba
000003f0: dac5 38bd c0a3 943b 1900 913a 2321 c03c
0.029603973 0.033755034 -0.062982574 -0.080699556 0.12915944 -0.09150121 0.046831544 0.118539646
-0.044125445 0.0599145 0.041659866 0.01767871 0.044855546 -0.014505354 -0.02822395 0.007179535
-0.038440183 0.010008805 -0.02369928 -0.07421594 -0.20591296 0.30159453 -0.12874354 0.18889894
0.08634844 0.044166286 -0.07971949 0.024134794 -0.03324898 0.023326619 -0.045939162 0.018643072
0.016265463 -0.06938852 -0.06863774 0.008460185 0.056722 -0.00044535342 0.025797484 -0.011245403
-0.10436206 0.044932313 -0.015121826 0.037269942 0.06790302 0.0041968892 0.0016259408 -0.02484874
-0.05037682 -0.013546856 -0.021681305 -0.02760849 -0.0092809545 -0.021691458 0.09208109 -0.10346026
-0.06622521 -0.025373362 -0.06273189 0.0569532 -0.02134531 -0.03208768 -0.016094454 0.01570925
0.070456766 -0.10201774 -0.026671136 0.052986402 -0.059159204 0.0115049975 -0.067656316 0.044210985
0.011391729 0.027031772 -0.0011558353 0.02475966 -0.07891473 0.04462237 0.015619104 -0.015206547
-0.0037446886 0.020669485 -0.1983112 -0.09926365 -0.08103917 0.008476436 -0.053619977 -0.02510443
-0.060458604 0.036418065 -0.017055385 0.04213171 -0.009337488 0.024947705 -0.029852241 0.034439646
-0.042066574 0.019375706 0.006016154 -0.012432807 -0.074433625 -0.022557382 0.027798489 0.022501934
0.073174104 -0.019271508 -0.076800175 0.017625032 -0.0060029333 -0.19648843 -0.08360182 -0.022314275
-0.084116936 0.07139826 -0.017913012 0.058353685 -0.031232188 -0.052639555 -0.22804718 0.010316375
-0.075540155 0.08597606 0.0050675324 0.0050532725 -0.10889431 0.07666688 0.07295964 -0.09399593
-0.23478809 0.017264474 0.015625672 0.16728826 -0.03146453 0.039520167 -0.13867372 -0.012862353
-0.11669342 -0.12558313 0.24526528 0.09421473 0.29665914 0.003998281 -0.16776583 -0.10740014
-0.0011380084 0.09159803 0.049294006 0.019158613 0.0783072 -0.03694164 -0.10088046 -0.04042692
0.01045908 -0.06804335 0.021591168 -0.050868593 0.039096586 0.007158117 -0.025055947 0.008911777
-0.013531806 -0.0064286934 -0.0092232535 -0.007883989 -0.020644672 -0.01843481 0.04425467 -0.035348676
0.0029334717 0.06934286 0.063667014 -0.04743069 -0.04832142 0.09450921 0.23293024 0.078198776
0.19618306 0.058264002 -0.205439 -0.045380596 0.10409066 -0.08123354 0.04726448 -0.06326987
-0.010367468 -0.013438762 -0.0029105023 0.021801759 0.07276968 0.010647912 0.028145084 -0.056388415
-0.05768217 0.04625686 -0.022217227 -0.06681019 0.00668777 -0.020871017 0.0009737383 -0.0055314065
0.010836442 -0.021382956 -0.07626696 -0.044529583 0.0003053654 -0.023902215 0.019099649 -0.0038722118
0.03198345 0.01634715 -0.03776021 0.02571324 -0.05551693 -0.064989924 0.08558987 0.05043543
-0.043973096 -0.084909506 -0.07539086 0.081365235 0.07778977 0.014539021 -0.03799629 0.023915507
-0.15056878 -0.018208819 -0.056884088 -0.00825601 0.0126281 -0.028963069 0.00423296 -0.022741195
0.0029550747 -0.0043511502 -0.010175756 -0.015806025 0.0062660263 -0.0035733762 -0.05833216 -0.028648647
0.012102591 -0.05352754 -0.012701308 -0.03352305 -0.033673164 -0.022890493 -0.089562245 -0.021037342
0.048851863 -0.035592556 -0.016755003 -0.00088292215 -0.04511056 0.004536122 0.0011062651 0.0234533

sequences.2.bias f4 [32]
00000000: 3f6a c93b 4e11 f63c 277b b4bd b310 c13c
00000010: 7ff7 bdbd a635 523d 59c0 893d 52bc 0f3d
00000020: 6a59 58bd 5b76 893c 0c8f ac3d 998e 763d
00000030: ccf9 003b 8c4d 4abd 1ec8 a03d 4f35 d8bd
00000040: 7d9e 5e3d 2016 1f3d 8138 d3bc 6a67 7fbd
00000050: 2ad2 9d3d c9ac 433d c077 973d 64b2 a53d
00000060: 9ba8 593c e6f2 a63d ac79 56bc 8f6f 5dbd
00000070: d4b4 20bc 1e6e be3b 39f5 663d 0f7b b13d
0.0061466987 0.030037548 -0.08812552 0.023567533 -0.09275722 0.051320694 0.067261405 0.035091706
-0.052819647 0.01678007 0.084257215 0.060194585 0.001968014 -0.04939036 0.07850669 -0.10557043
0.054350365 0.03883946 -0.02578378 -0.062354483 0.07706101 0.047772203 0.073958874 0.08090666
0.013284828 0.08151798 -0.013090532 -0.05406147 -0.009808738 0.005811467 0.056386206 0.0866605

sequences.4.weight f4 [16, 32, 3, 3]
00000000: 3e08 5cbe 2eeb 00bd 9c3e b63b 7f60 6c3d
00000010: 6658 563e 9175 043e 4fed 92bd 4204 1fbd
00000020: d291 b03d ee29 c5bc 9d9e 8cbd 7f2c 55bd
00000030: 8b45 85bd 73f0 5cbd dd6c 7abd 2b67 1d3d
00000040: 65a1 303b ded9 9dbd 69a3 e23d cdff eb3d
00000050: 565f 123c 97ae 143e 0821 143e 4f80 753d
00000060: 92c4 89bd d1fd 813c 5307 33bc f58d 633d
00000070: b85d 393c 6a5a 98bd c43b f13c 1f05 48bc
00000080: b5ea de3c 1a22 acbd 98a6 27bc adbf 8fbd
00000090: 8d30 953d a84b f53d fc6d edbd 0819 263e
000000a0: 00e6 5c3e b1fe f2bc 1eb0 59bd ef6a ff3c
000000b0: 76fc 4dbd def8 84bc 6817 0abe 7a15 a3bd
000000c0: bac5 e13b 7df3 3abe 137b c4bd a38c b83d
000000d0: bed2 0d3d b12c 2b3d 4156 8fbd c0e1 96bd
000000e0: 4f2e c73b 3fa2 d3bc ede1 8dbd 3105 58bd
000000f0: 5de8 12bd 0882 90bd 5b39 883c 59be c2bd
00000100: 2671 d8bb ec0a 0fbc fa21 86bd 6ac4 fcbd
00000110: 2b6e a5bc 13e9 e13c bb1c 2dbd 7845 cc3b
00000120: 0e67 92bd 0c7c 483e c0ba 88bd 987f 34bd
00000130: 1989 5e3e 7fbf 26bd d80d 023e 4f9c 043e
00000140: d739 7f3c 4183 0a3e 3006 203e 28d0 3b3d
00000150: 8f8e d63d 3990 9c3d fad1 913b ffd1 593d
00000160: 5128 bf3d 2b4c 45bc 0c1b 87bc af71 2cbd
00000170: 6937 aa3c 9f12 4dbe 2090 08bd 97f7 4d3d
00000180: a269 9bbd 5cf6 363c aadf e1bc e667 0c3e
00000190: d67f 993d 1abb e53b 447b 58be 694c ffbd
000001a0: 8abc 2dbd d598 5d3d 54c7 2e3c 6f29 803c
000001b0: 328d 3cbb de86 22bc 8886 ef3c 5da4 7dbd
000001c0: 2734 e3bd 01fe b5bc b82e d13d 27a9 af3c
000001d0: f8af b5bc 8504 4d3d 5c8b dcbb 73aa 913d
000001e0: d2ec e83d afab d73d ad36 903d 0705 0bbb
000001f0: 761b df3c c0e0 563d 21ee c5bd f665 babd
00000200: 5614 54bd 1659 e8bd a2b0 25be 1678 ecbd
00000210: a03a acbd 8f7c 9dbd efdf 0dbd 0ea7 be3d
00000220: 937d 1d3e 5563 da3c 743a 163e 5357 e53d
00000230: 6536 73bc e897 4fbc bd0b 15bd 0f51 b9bd
00000240: 5c4a a9bb 5d83 00be 2894 543b 3810 54bc
00000250: eaac d3bd c40e 7f3d e7dd e9bc 9f2a 7c3c
00000260: 8b01 c93b 11fd e5bd 7fa9 c43d 5b86 68bd
00000270: eecc 553c 3108 263c 169f d6bd ada1 25bd
00000280: 6611 82bd 5f00 e7bd 347b cc3d c55b 9dbd
00000290: ea90 ddbc b4b6 053e edc8 853e bf3f c3bd
000002a0: 1848 49bd 2c00 f93d 97e7 9abc e804 b93c
000002b0: 69e8 e33d 1c38 84bd bb94 d33c 8e23 373e
000002c0: 8c17 a73d 67b8 a6bc adcd d93c 5f3d 23bd
000002d0: e3f7 0abd 0860 b4ba 3758 c73b 05d5 1abd
000002e0: 73dd 27be 08e5 8bbd 7330 bebc 9dfa c33b
000002f0: a737 c63a 2c8a 92bd 7cc7 9f3c c174 3b3c
00000300: f765 dc3a f65a b23c feed 03be 2c80 f8bc
00000310: 52e6 98bd 4eb2 9bbd 1165 603d c595 afbc
00000320: 3acb 26be d15e d6bd 1b8e 7fbd fd27 f2bb
00000330: 6635 d53c 54ca 6abd 61ae 0fba ea4c 88ba
00000340: a37d 46bd cc33 3b3d 89a3 c63b 652f c2bd
00000350: 2b77 9b3c 0b00 d13d a829 bbbc 243e 823c
00000360: f99f eabc d8b0 10be cf52 91bd c762 62be
00000370: 0e2d 6f3e 7855 0e3d e2b7 613d cff1 7d3e
00000380: 6213 a1bc d198 acbd 9e0f cabd b29c 3cbd
00000390: 3ba5 dabd ff62 2fbe e9bc 59bd a77e 40bc
000003a0: 46f4 323d d8e5 aa3b fa6b 703d 9835 a13b
000003b0: 0b44 0d3d 47e3 aabe d57b cdbd 3cb6 a2bd
000003c0: de5b c53c a883 0a3e 51b8 b13c 1ad7 3fbd
000003d0: 1980 833d c004 78bd 9c3e e9bc 79a2 083e
000003e0: 1a11 173c d100 543d 054b 0a3e 9455 85bd
000003f0: 9677 b93d bfd1 f13d 10d5 c5bd d2aa 2d3e
-0.21487519 -0.031474285 0.005561663 0.057709213 0.20932159 0.12935473 -0.07174169 -0.03882242
0.08621563 -0.024067845 -0.068661906 -0.052044388 -0.06507405 -0.053940248 -0.061138976 0.038428467
0.0026951667 -0.077075705 0.11066324 0.115233995 0.008933863 0.14519726 0.14465725 0.059936818
-0.06726946 0.0158681 -0.010927039 0.055555303 0.011313848 -0.0743912 0.029447444 -0.012208252
0.027211526 -0.08404942 -0.01023259 -0.07018981 0.07284651 0.11977321 -0.115932435 0.16220486
0.21572113 -0.029662462 -0.053146474 0.03117892 -0.050289594 -0.01623195 -0.13485491 -0.07963081
0.006890026 -0.18256946 -0.09593787 0.09011199 0.034624808 0.041790668 -0.069988735 -0.07367277
0.0060785185 -0.0258342 -0.069278575 -0.052739326 -0.03586613 -0.070560515 0.016628912 -0.09508962
-0.006605285 -0.008730631 -0.06549449 -0.123421505 -0.020194134 0.027576959 -0.042263728 0.0062338673
-0.07148562 0.1957857 -0.06676245 -0.044066995 0.21731986 -0.04070997 0.12700593 0.12950252
0.015577755 0.13526632 0.1562736 0.04585281 0.1047641 0.07644696 0.00445008 0.053178784
0.093338616 -0.012042086 -0.01649239 -0.042100605 0.020778375 -0.20026635 -0.033340573 0.05028495
-0.07588507 0.011167135 -0.027572472 0.13711509 0.07495086 0.0070108296 -0.21140772 -0.12465746
-0.042416133 0.05410083 0.010667641 0.015644757 -0.0028770682 -0.00991985 0.029238954 -0.061924327
-0.11093932 -0.022215845 0.10213989 0.021442963 -0.022178635 0.05005314 -0.00673048 0.07112589
0.11373295 0.10530793 0.070416786 -0.0021212713 0.027234774 0.052460432 -0.0966456 -0.09101479
-0.051777206 -0.11345117 -0.16180661 -0.11546342 -0.08409619 -0.07689773 -0.034637388 0.09309207
0.15379934 0.026658693 0.14670736 0.111982964 -0.014844512 -0.012670495 -0.036388148 -0.09048664
-0.005166335 -0.12550111 0.003243694 -0.01294332 -0.10335715 0.06226994 -0.028548194 0.015391021
0.006134217 -0.11229909 0.09602641 -0.056768756 0.013049347 0.010133789 -0.10479562 -0.04043739
-0.06350975 -0.11279368 0.09984437 -0.07683519 -0.02704664 0.13057977 0.26129857 -0.09533643
-0.04914102 0.12158236 -0.018909259 0.022585347 0.11128313 -0.064560145 0.025827756 0.17884657
0.08158788 -0.020351602 0.026587332 -0.03985345 -0.03392781 -0.001376153 0.006083514 -0.037800808
-0.1639307 -0.068307936 -0.023216462 0.005980803 0.0015122787 -0.071552604 0.019504301 0.0114414105
0.0016815056 0.02177189 -0.12883756 -0.030334555 -0.07465805 -0.07602368 0.054783884 -0.02143372
-0.16288462 -0.104673035 -0.06239138 -0.007390021 0.026026439 -0.05732186 -0.00054810016 -0.0010398899
-0.04845966 0.045703694 0.0060619754 -0.09481696 0.018977722 0.10205086 -0.022847012 0.015898772
-0.028640734 -0.1412996 -0.070958726 -0.22107993 0.23357031 0.034749478 0.055107005 0.24799274
-0.019662563 -0.08427585 -0.0986626 -0.046047874 -0.106760465 -0.17127608 -0.053158674 -0.011748946
0.04368999 0.005215388 0.058696724 0.004919719 0.03448872 -0.33376524 -0.10033385 -0.07944915
0.024091657 0.13526785 0.021694334 -0.046835996 0.06420917 -0.060551405 -0.028472237 0.13343228
0.009220386 0.05175859 0.1350518 -0.06510463 0.09056012 0.11807584 -0.09659779 0.16959694

sequences.4.bias f4 [16]
00000000: 1fec 4a3c f558 febc 4b6a 81bd 49e3 043c
00000010: 4973 8cbd a879 a9bc aaed 9abb 7275 02bd
00000020: 73d1 9fbd a440 7bbd 634c 4fbd f1b3 63bd
00000030: a68e 963b 00e6 48bc afa9 1bbc 5e1c 473c
0.012385397 -0.031048277 -0.06319102 0.00811083 -0.068579264 -0.020687893 -0.004728039 -0.031850286
-0.07803621 -0.061340943 -0.050609957 -0.055591527 0.0045946417 -0.0122618675 -0.009500905 0.012152759
