saved_models/UPSCALE_X4/epoch_47.pth (torch, 101599 bytes, 6 tensors)

sequences.0.weight f4 [64, 1, 5, 5]
000000 da 1d 36 be f5 7d 87 bd 67 78 09 3e 88 31 88 bd
       -0.17784825 -0.06615821 0.13424836 -0.06650072
000010 0d 9d 30 be 22 5a fb bc 00 19 91 3c 19 3b 49 3c
       -0.1724741 -0.030682627 0.017712116 0.012282156
000020 d8 ea 8d bd fe 10 ed 3d 2d bb 68 3d 4e 11 4e 3e
       -0.069295585 0.11575507 0.05681913 0.20123789
000030 0b c9 45 bd 90 99 22 3e 8d 2c 29 be 5c 6d 30 bc
       -0.048287433 0.15878892 -0.16520901 -0.010768261
000040 34 53 31 3e 44 dd 08 3e cd 1f bd 3d 8c 6d a6 bb
       0.17316896 0.13365656 0.09234581 -0.005078977
000050 95 5a d1 bd 4b 53 05 be 20 6c 6a bd 29 61 e8 3d
       -0.10222355 -0.13020055 -0.057232022 0.11346657
000060 9f 36 2c 3e 4d 48 1a be 65 7f ae 3c d6 2f a4 bd
       0.16817711 -0.15066643 0.02130098 -0.080169365
000070 ab 8e 8a bc b8 d3 dd bd 7f d4 e6 3d 5a f1 48 be
       -0.016913733 -0.10831398 0.11270999 -0.19623318
000080 af 98 87 bd b6 a9 02 3e 8a 44 1d be d3 df ea 3c
       -0.06620919 0.12760052 -0.15358177 0.02867118
000090 9a 0b 10 3e 88 f7 ee 3c 6c fd 35 be 71 52 7d 3c
       0.14066926 0.029170766 -0.17772454 0.01546155
0000a0 21 7d 23 be 87 96 19 be ad 1e 72 3c 3f c4 1c be
       -0.15965702 -0.14998828 0.0147778215 -0.15309237
0000b0 18 28 49 3e 02 58 9f 3d 50 3e f9 3d ff 9e 2e 3e
       0.19644201 0.07780458 0.12170088 0.1705284
0000c0 10 52 f8 bc ae b6 43 be 6d d4 e4 3c b7 25 21 3e
       -0.030312568 -0.19112656 0.027933324 0.15737043
0000d0 58 bc 46 3e 3a 14 01 be da ee d3 bd 48 35 28 bd
       0.19407785 -0.12605372 -0.10348292 -0.041066438
0000e0 4b 0c 62 3e 29 52 38 3d bd e6 2c be f1 40 13 be
       0.22075002 0.04500023 -0.16884895 -0.14380242
0000f0 4c 07 1b 3e bb d6 05 be 79 7b c6 3d e2 f2 7c bb
       0.15139502 -0.13070194 0.09691519 -0.0038596918
000100 f7 de 07 3e 4e 25 03 3e 48 c1 fc 3d b1 60 25 3e
       0.13268648 0.128072 0.12341553 0.16150166
000110 bb 56 1b 3d d5 15 f8 bc dd 3a e4 bd 42 ea 5d 3c
       0.03792451 -0.030283848 -0.1114404 0.013544621
000120 c4 db 2f be 60 d1 2c be 2e 65 f8 bd 7e cc 61 3c
       -0.17173678 -0.16876745 -0.121286735 0.013781665
000130 db e7 16 be fd e2 5b bd 5a 98 08 bc d9 1d 98 3d
       -0.14736883 -0.05368327 -0.008337105 0.07427568
000140 58 a6 5a bd ca ba 01 bd 14 37 de 3d f7 37 90 bb
       -0.053381294 -0.031672277 0.10850349 -0.004401203
000150 24 b9 4f be 95 07 52 3d 60 59 67 bd a2 15 d8 bd
       -0.2028547 0.051276762 -0.05648172 -0.10551001
000160 dc 8e 44 3e fd 01 95 bc 21 92 61 bd 2a 62 dc bd
       0.19195122 -0.018189425 -0.055071 -0.10760911
000170 3f 9a af bd 47 de 99 3d 32 13 84 3d 3d 55 d0 3d
       -0.08574342 0.07513099 0.06448974 0.10172508
000180 91 96 67 bc 7d a8 08 bd 0d 10 bb bd 65 81 5c bc
       -0.014135019 -0.033363808 -0.09133921 -0.013458584
000190 60 e4 98 bd 05 2f 89 3d e6 d3 c0 bd c9 03 27 be
       -0.07465434 0.066984214 -0.094154164 -0.16310038
0001a0 d1 c2 34 3d 69 dd 8b 3d 42 ea 3e be 5a df 36 be
       0.044131104 0.0682934 -0.1864405 -0.1785864
0001b0 6c ab 93 3c 77 1c 4a 3d c7 ae 87 3d 26 51 3d be
       0.018026076 0.049343552 0.06625133 -0.18487987
0001c0 fc c1 c1 3d 8a a1 1d be df a3 d5 3d f2 80 f4 3d
       0.09460828 -0.15393654 0.104316466 0.11938657
0001d0 a2 6c 87 bd 7f ee 3d be 85 78 38 be 56 45 84 bd
       -0.06612517 -0.1854801 -0.18014725 -0.06458537
0001e0 88 0e 61 bd 4c fb b8 3d 04 f4 83 38 64 c2 48 3e
       -0.0549455 0.09032306 6.292018e-05 0.19605404
0001f0 f9 df 35 3e 0c 1b b7 3c 94 2d 71 bd 95 2f bb bd
       0.1776122 0.022351764 -0.058881357 -0.09139935
000200 19 59 a8 3b 93 0e 2e be f7 92 38 3e a3 16 cf 3d
       0.0051375744 -0.16997747 0.18024813 0.101117395
000210 89 64 65 bd c2 dd 42 3e d9 2d 54 be 91 de db 3d
       -0.05600408 0.19029906 -0.20720614 0.107358105
000220 86 12 df 3d f5 9c 73 bd bd e8 9d 3d 5d 42 c3 3d
       0.10892205 -0.059475858 0.07710407 0.09534142
000230 95 f2 ee 3d 1d 53 22 3e 1c 8f 9e bd d1 4e 7d 3d
       0.116673626 0.15852018 -0.0774214 0.061842743
000240 48 b9 2a be 1b df 09 3e 36 ae 33 be ad 55 2d 3e
       -0.16672242 0.13464014 -0.17546925 0.16927214
000250 83 23 ce bd bb 90 61 bd 72 67 1b bd 4a df 14 be
       -0.10065367 -0.055069666 -0.03794045 -0.14538303
000260 49 ed 88 bd 38 ec 60 3d f8 4c 03 3e ee 0c 30 3e
       -0.066858836 0.054912776 0.1282233 0.17192432
000270 04 21 d4 bd b5 18 00 be 85 3e 71 3e c7 90 8e 3d
       -0.1035786 -0.12509425 0.23559006 0.06961208
000280 6c 29 12 be 08 5a 85 bd 2c 4f a5 3c 61 b1 d1 3d
       -0.14273614 -0.06511313 0.020179354 0.102389105
000290 ec 09 b4 3a d1 b1 39 be 48 bc 4e 3d 1b 4b 6c 3e
       0.0013735867 -0.18134238 0.050472528 0.23075525
0002a0 c4 b1 47 bd ee 34 31 bc 63 03 cf bc e8 6e 1b be
       -0.048753515 -0.010815842 -0.02527017 -0.15179026
0002b0 46 b8 02 3e ca 8a 44 3e bf ca e8 bd e1 09 af 3d
       0.12765607 0.19193569 -0.11366796 0.08546806
0002c0 85 9e e9 bd bb 33 25 be 75 47 26 3e fd 48 d4 3c
       -0.11407188 -0.16133015 0.16238196 0.02591371
0002d0 40 e8 c8 bd 2b 5e e2 bd f2 18 08 3c fe 9d 05 bd
       -0.09809923 -0.11053117 0.008306729 -0.032621376
0002e0 aa 65 0d 3e b4 cd c6 bd f1 95 c6 3d 28 30 63 bd
       0.13808313 -0.097072035 0.09696568 -0.055465847
0002f0 4b 16 b6 bc 09 0a dd bc 43 2d e8 bd 7d 66 3e 3e
       -0.022227427 -0.026982324 -0.11336758 0.18593784
000300 11 d3 53 be 91 d2 e0 bd a5 4c ef bd c9 4e 09 be
       -0.20685984 -0.10977662 -0.11684541 -0.1340896
000310 2d 88 30 bd cd 6b 5a 3d 28 b8 da bc 6f c3 58 3e
       -0.043098617 0.053325463 -0.02669914 0.21168302
000320 b9 93 9a bd 34 1e 63 bd 10 63 0a bd 54 14 59 be
       -0.07547707 -0.055448726 -0.03378588 -0.21199161
000330 e2 d0 da 3c 50 2f 32 3e e4 19 7b bc 30 2b 3b be
       0.026710931 0.17400861 -0.015325997 -0.18278193
000340 ad 15 68 3d 9c 08 16 3e 11 4e c3 3d 6a ba 9b 3c
       0.056661297 0.14651722 0.09536374 0.019009788
000350 bf 98 4c 3e 1a 89 81 3d 84 8d e5 bd cb 26 1a be
       0.19980143 0.06324978 -0.112086326 -0.15053861
000360 9b d6 ab bd 8c 0d 93 3d f0 6c 39 3e 3e 60 d3 bd
       -0.08390542 0.07180318 0.18107963 -0.10321091
000370 99 53 e9 bb 38 3d 4b be d8 e3 20 be 31 b5 ca bd
       -0.0071205613 -0.19847572 -0.15711915 -0.09897841
000380 d9 5a 9d bb 75 6e 3d be ca 56 e4 3c 98 7d 0d bd
       -0.0048020897 -0.18499167 0.027873415 -0.034543604
000390 da fd 01 3e 9b 15 d9 3d 1c 6c 14 be 39 fe 4d be
       0.12694493 0.10599824 -0.14494365 -0.2011651
0003a0 3a dc 17 be db 2e cc bd 66 7b b0 3d c5 77 1d 3e
       -0.14830104 -0.099698745 0.086172864 0.1537772
0003b0 cf 85 88 bd d7 f6 a1 bd 15 d9 14 3e 71 ae 14 bd
       -0.06666147 -0.07908409 0.14535935 -0.036299173
0003c0 59 61 a0 bd 82 8b 70 3e 35 80 6f 3e 49 37 a1 3c
       -0.078310676 0.23490718 0.23388751 0.019679682
0003d0 36 94 ff 3d fa c3 51 3d 63 4c 06 be 5d 46 2a 3e
       0.12479441 0.05121229 -0.13115077 0.16628404
0003e0 be 71 42 3d d1 41 f4 bd d2 d2 90 3b 62 7f ee 3d
       0.047471754 -0.11926616 0.004419663 0.1164539
0003f0 88 05 2c 3e 46 a9 28 3c 46 12 c2 3d c1 9e a8 3d
       0.16798985 0.010294264 0.09476142 0.08233405

sequences.0.bias f4 [64]
000000 78 9e 0d be 1b ba 47 3e a4 f4 96 bd c3 ef 0e 3d
       -0.13829982 0.19504587 -0.0737088 0.034896623
000010 3f ab fe 3d 55 03 6c be 46 8e 14 be b4 6c 44 3e
       0.12435006 -0.23048146 -0.14507398 0.19182092
000020 85 de 7b bd 57 7a 29 be 02 cf 44 3e 4b 92 50 3d
       -0.061491508 -0.16550575 0.19219592 0.050920766
000030 e9 5a 39 3e 5b 77 23 be 8d c5 93 3d 7e d2 8f bc
       0.18101086 -0.15963499 0.07215414 -0.017556425
000040 1d ad 76 3e 58 97 2b 3e be 2f 91 bd ec a1 78 3e
       0.24089475 0.16756952 -0.07089184 0.24280518
000050 3f ac 90 3c 8f 40 3a be ed 06 43 be e2 3d e5 3c
       0.017660258 -0.1818869 -0.1904561 0.02798361
000060 c5 2f 4c 3e 27 da ee bd a3 cf 60 be 71 e4 4e 3c
       0.19940098 -0.11662703 -0.21954207 0.012627707
000070 61 bf 5f 3e 56 c6 05 3e 1a 3e a1 3c 39 d0 4b be
       0.21850349 0.1306394 0.019682933 -0.1990365
000080 b4 ee ed 3d af be 61 be eb ee c8 3c a0 6e 17 bc
       0.11617795 -0.22045396 0.024527987 -0.009242684
000090 97 fd d9 bd 15 3a 0c 3e 65 fc cf bd 55 c4 20 3c
       -0.106440715 0.13694032 -0.10155562 0.009812434
0000a0 dc 46 3c 3e c7 98 09 be 1f c5 ad 3d ba c9 4e 3d
       0.18386406 -0.13437186 0.084848635 0.05048535
0000b0 e8 8e 43 3e dc 34 d7 3d a2 0f 4c 3e b8 d3 35 3e
       0.19097483 0.10508129 0.19927838 0.17756546
0000c0 31 8d 4d 3e 29 ab 39 3e 6a 73 0e 3e 55 ae 4e be
       0.20073391 0.18131699 0.13911214 -0.2018369
0000d0 0d 0f 21 be 76 81 12 3d db 73 bb 3c 07 0e da 3d
       -0.15728398 0.035767995 0.022882393 0.10647207
0000e0 cf 6c 24 3e d8 b4 19 be ae b9 2d bc 4e 19 60 3e
       0.16057132 -0.15010393 -0.0106033515 0.21884653
0000f0 d4 84 38 be b6 e2 62 3e f6 9a 5f 3e 04 d8 56 be
       -0.1801942 0.22156796 0.21836457 -0.20980841

sequences.2.weight f4 [32, 64, 3, 3]
000000 b8 cd 1c 3d 65 85 50 bc 6b 89 54 bd 39 b2 95 bd
       0.038282126 -0.012727116 -0.051888864 -0.07309384
000010 60 49 bf 3d 84 cb d6 bd 59 d3 7f bd c9 d5 5a 3d
       0.09340167 -0.10488036 -0.062457416 0.053426538
000020 54 1c 27 bd 5f 9b 86 3d ec a6 04 3d e4 a9 89 3c
       -0.0407985 0.065726034 0.03238575 0.016804643
000030 1a 7a e1 3c ee 96 19 3c 30 80 d4 3a 05 ef 16 3d
       0.027524043 0.009374363 0.0016212519 0.03684904
000040 e0 67 56 bd aa b0 04 bd 11 9b 86 bd 8d c9 83 3c
       -0.052345157 -0.032395042 -0.06572545 0.016087318
000050 37 27 73 be e5 20 9e 3e e7 51 29 be 3b 2f 08 3e
       -0.23745428 0.30884472 -0.1653515 0.13299267
000060 05 aa 85 3d 33 d5 8f 3d c6 ea d1 3b 5a c1 3b 3d
       0.06526569 0.070230864 0.006406161 0.04583869
000070 3d c3 06 bd 5f 69 9a 3c 89 82 18 bd 0e bf a6 3c
       -0.032901037 0.018849073 -0.037233863 0.020354774
000080 9b 3a ac 3c d0 1d 89 bd b0 66 54 bd e4 f2 05 3c
       0.021024039 -0.066951394 -0.051855743 0.008175585
000090 91 10 6b 3c c1 cb 83 3c 62 da c5 3c 9e 8b 3c bb
       0.014347211 0.016088368 0.024151985 -0.0028769742
0000a0 8a 10 6b bd 10 15 40 3d 6d 46 e0 bc ac 05 da 3a
       -0.05738882 0.046895087 -0.027377332 0.001663377
0000b0 30 72 17 3d f3 55 cf 3c 5b 33 f3 bc fc de c0 bc
       0.036974132 0.025309538 -0.029687574 -0.023543827
0000c0 83 2e d8 bb f9 e9 9c bc e2 a5 02 bc 2f 36 e7 bc
       -0.0065973415 -0.019154536 -0.00797412 -0.028224079
0000d0 eb d5 1a bc a3 8c 15 bb 27 c9 24 3d 14 ad de bd
       -0.009450416 -0.0022819422 0.040230896 -0.10872856
0000e0 76 9a 4b bc cc 1e 42 bc 17 49 14 bd da 97 8e 3c
       -0.012426963 -0.011848163 -0.036202516 0.017406393
0000f0 9f eb 00 bd a2 9f ab bc 40 58 43 bc 81 6a 0f 3c
       -0.031474706 -0.020950142 -0.011922896 0.00875342
000100 d4 1a c3 3c 6e 9b 86 bd ca 8d 22 bd 30 9b 8a 3d
       0.023816504 -0.065726146 -0.039686 0.06767881
000110 5a 8e 37 bd 0d 0f 83 3c 5a f8 81 bd 49 d7 07 3d
       -0.04481349 0.015998388 -0.063461974 0.033164296
000120 85 c7 7d ba 07 f1 ec 3c 09 ca 5b bc bb 29 d5 3c
       -0.0009680915 0.028923525 -0.013414868 0.026020875
000130 a1 76 97 bd 58 90 0f 3d ee 56 d1 3c c6 20 92 bb
       -0.073956735 0.035049766 0.025554147 -0.0044594733
000140 ce 25 8e 3b 50 00 92 3c da e8 31 be 25 ad 92 bd
       0.0043380028 0.017822415 -0.17373982 -0.07161931
000150 5f 2e 9f bd 88 6f 72 3c c2 a3 6e bd 86 08 43 bd
       -0.077725165 0.014797099 -0.05826164 -0.04761555
000160 6b fb bb bd aa cb e3 3c b5 99 94 bc 38 0f 25 3d
       -0.091788135 0.027807076 -0.0181397 0.040297717
000170 3d e7 73 bc 00 14 bc 3c 65 23 f3 bc 7f 5b ff 3c
       -0.0148866745 0.022958755 -0.029679963 0.031171558
000180 54 85 15 bd 9c 56 dc 3c 75 3d 3c 3c 3e ce 03 bc
       -0.036504105 0.026896767 0.011489262 -0.008044777
000190 18 64 55 bd 7d c7 d0 3a 80 05 01 3d 32 ca c8 3c
       -0.05209741 0.0015928593 0.031499386 0.024510477
0001a0 94 8d 75 3d fe f8 64 3b 66 cd 41 bd 82 5e 1e 3d
       0.059949473 0.003493845 -0.047315024 0.03866435
0001b0 e9 72 22 3d 55 65 bb bd f0 65 e9 3b 3a d6 f4 3c
       0.039660368 -0.09150187 0.0071227476 0.029887307
0001c0 0b 6c b2 bd 96 bd dd 3d f6 fc a7 bc f8 54 12 3d
       -0.08712014 0.10827176 -0.020506363 0.035725564
0001d0 52 4a bf bd 6e f4 01 bd 20 b2 48 be eb 99 d7 3c
       -0.09340347 -0.031727247 -0.195992 0.026318511
0001e0 2e 6c c3 bd 87 f2 c6 3d db 77 7a 3b b9 da 63 bc
       -0.09542118 0.09714227 0.0038218412 -0.013907128
0001f0 fa 59 c1 bd 55 64 3f 3d dd 93 c3 3d 54 85 12 bd
       -0.0944099 0.046726543 0.09549687 -0.035771683
000200 32 10 24 be 0b b7 68 3c b7 64 13 bd b2 2a ce 3d
       -0.16021803 0.014203797 -0.03598472 0.10066737
000210 8b 93 b0 bd 28 73 bc 3c f6 e2 e9 bd 6c a6 55 bc
       -0.086218916 0.02300413 -0.114202425 -0.013040166
000220 20 4c cc bb 2e df 2f bd 08 89 16 3e f9 37 1d 3d
       -0.0062346607 -0.04293745 0.14700711 0.038383458
000230 b4 1e de 3d 3e d2 33 3d da 12 56 bd a6 52 3d 3c
       0.108457 0.043901674 -0.052264072 0.011555349
000240 08 7d 94 3c c6 5e 44 3d 13 2b 4b 3d 90 cb 8e b9
       0.018126026 0.047941945 0.049601626 -0.00027236016
000250 75 bf b5 3d 07 bb 20 bd cc 90 ad bd 11 55 2b bd
       0.08874408 -0.039240863 -0.084748834 -0.041829173
000260 83 6f 62 bc 06 77 59 bd 74 7b eb 3c 4b 7b 2c bd
       -0.013820532 -0.053092025 0.02874539 -0.04210977
000270 1d 67 48 3c 21 a5 70 bc ce e6 22 bd f4 69 a8 3c
       0.012231615 -0.014687807 -0.039770894 0.020558335
000280 81 a3 71 bb 6e f1 d5 3a 18 d2 58 bc 8f 05 14 bd
       -0.0036871138 0.0016322562 -0.013233684 -0.036138114
000290 98 2d 0d bd 49 1c d6 bb e5 2f 0c 3d 12 bf 9b bc
       -0.03446731 -0.0065341336 0.034225363 -0.019012008
0002a0 6b bc 43 3c 2e 0a 2b 3d 1e 95 3d 3d cb ac 50 bc
       0.011946778 0.041757755 0.046284787 -0.01273651
0002b0 e8 e7 1c 3d e3 45 29 3d 49 85 a0 3d 1c 8a a4 3c
       0.0383071 0.041326415 0.07837922 0.020085387
0002c0 c2 b1 a4 3d 1a 2f 83 3d e9 f6 a7 bd 91 b9 13 3d
       0.08041717 0.06405468 -0.08201391 0.03606564
0002d0 d8 b7 bd 3d 37 71 a4 bd bb b4 5c 3d 1d 46 0f bd
       0.09263581 -0.080294065 0.053883296 -0.034978975
0002e0 cb 6f 9f 3c b4 b4 55 bc c2 44 16 bc 16 e6 51 3c
       0.019462487 -0.013043571 -0.009171667 0.012811204
0002f0 64 85 81 3d 45 bd 11 3d e8 a7 1f bc a2 d4 4a bd
       0.0632427 0.035580892 -0.009744622 -0.04951919
000300 63 aa 47 bd 38 99 d8 3c 69 aa f8 3c 3c ca 3f bd
       -0.048746478 0.026440248 0.030354695 -0.046823725
000310 0d b2 e6 bc 8e df bd bc f5 e5 28 bc 68 15 c6 3a
       -0.028161073 -0.023177888 -0.010308732 0.0015112581
000320 7e 07 d1 bc ec e5 5c bd 12 a7 99 bd 2b ea 26 bd
       -0.025516268 -0.053930208 -0.07502569 -0.040750664
000330 3c c3 b7 3c df c6 55 bc c3 50 a8 3c 14 3d c8 3b
       0.022431962 -0.013047903 0.020546323 0.0061107967
000340 c4 6d f3 3c 25 51 8f 3c 89 cf 19 bc 32 44 f0 3c
       0.029715426 0.017494747 -0.009387859 0.029329393
000350 25 2d 20 bd 72 07 7f bd 60 b8 9a 3d 84 41 24 3d
       -0.039105553 -0.06226296 0.07554698 0.040101543
000360 16 62 0e 3c a0 93 4b bd 8f 49 7f bd 4e 0e 8f 3d
       0.008690378 -0.049701333 -0.06232601 0.0698515
000370 2b a4 fe bb 45 d5 dd 3c a6 d9 e5 bb 53 ae 96 3d
       -0.007771035 0.027079234 -0.007014471 0.073574685
000380 23 74 0a be eb f9 5d bc 66 6c 5b bd 45 e0 f3 bb
       -0.13520865 -0.013548355 -0.053570174 -0.0074425065
000390 f4 1f a5 3c 96 27 d5 bc 85 9d b4 3b a9 bc a7 bc
       0.020156838 -0.026019853 0.005511942 -0.020475702
0003a0 ae 51 f5 ba 93 3c 62 bc 3f 39 25 bc 01 99 db bc
       -0.0018716359 -0.013808387 -0.010084449 -0.026806356
0003b0 a4 7f f8 bb 3f 61 14 bc 73 f3 66 bd 7a 51 80 bb
       -0.0075835753 -0.009056388 -0.056384515 -0.0039159628
0003c0 74 bf be 3c e8 95 6b bd 45 5a b5 bc d1 c5 7c bc
       0.023284651 -0.05751601 -0.02213777 -0.0154280225
0003d0 c3 5e b8 bc 19 75 1c bc 16 1c 92 bd 87 e6 34 bd
       -0.022506123 -0.009549403 -0.07134263 -0.04416516
0003e0 b7 12 8f 3d 1d 4f 6a bc ff bf 03 bd 2e 83 5b bc
       0.069859914 -0.014301089 -0.032165524 -0.013397975
0003f0 bb 6a 25 bd cf f6 25 3b 58 02 34 bc 8d 06 bb 3c
       -0.04038499 0.0025324111 -0.010986887 0.022830272

sequences.2.bias f4 [32]
000000 09 eb 71 bb 89 03 f1 3c 0c 44 8b bd a1 ae 59 3c
       -0.0036913774 0.029420631 -0.06800088 0.013286264
000010 68 75 8b bd 30 04 5f 3d fc d2 91 3d 90 92 e6 3c
       -0.06809503 0.054447353 0.0712032 0.028146058
000020 2f bd 79 bd ff b1 9a 3c 32 fa 92 3d 39 4c 6c 3d
       -0.060971435 0.018883703 0.07176627 0.05768988
000030 15 a6 38 3c 36 f8 5c bd 0b 9e 8f 3d 64 a1 a2 bd
       0.011270066 -0.05394765 0.07012566 -0.07940939
000040 a1 8e 2b 3d d3 00 1c 3d 85 01 1b bd ef 11 80 bd
       0.04188407 0.038086724 -0.037843246 -0.062534206
000050 14 ea 87 3d f6 69 46 3d 47 90 9a 3d 6b 7d a3 3d
       0.06636444 0.048440896 0.0754705 0.07982906
000060 7f 04 eb 3b 31 4b b4 3d c1 ee 7f bc 2f ab 54 bd
       0.007172167 0.08803404 -0.015620888 -0.051921066
000070 fd d2 9d bc c4 cc 1f bc c0 32 67 3d 4b 31 a2 3d
       -0.019265646 -0.00975341 0.056444883 0.07919558

sequences.4.weight f4 [16, 32, 3, 3]
000000 79 52 3c be 22 1e 60 bd 89 72 d2 3d 24 da be bc
       -0.18390836 -0.054716237 0.10275752 -0.023297377
000010 7e ca 7e 3d c0 4a d0 3d d2 d8 c1 3c f0 19 1f 3d
       0.06220483 0.101705074 0.023662958 0.038843095
000020 83 fe 48 3d f0 93 e9 bc 84 e6 89 bd 3a ec 45 bd
       0.049070846 -0.028512925 -0.067334205 -0.048320986
000030 65 79 81 bd 1a 09 5b bd 7f 39 54 bd 64 09 dd 3c
       -0.06321982 -0.053475477 -0.051812645 0.026982017
000040 41 0d 80 3b 64 48 9b bd 24 ef dc 3d b6 a3 df 3d
       0.00390783 -0.07582167 0.107878 0.10919897
000050 c0 d7 45 3c b0 8e 08 3e 9a 92 00 3e 71 c1 68 3d
       0.012075365 0.13335681 0.12555924 0.056825105
000060 59 73 8a bd da 46 80 3c 4c 15 74 bc 09 08 49 3d
       -0.06760282 0.015658785 -0.014897656 0.04907993
000070 c0 3b 1f bb 43 f9 9b bd 34 e2 2c 3b 45 a9 86 bc
       -0.0024297088 -0.07615902 0.0026379945 -0.016438136
000080 5a 44 c4 3c 52 b9 a6 bd 5e f6 42 bc 99 e2 35 bd
       0.023958374 -0.08140816 -0.011899559 -0.044405553
000090 68 81 7a 3d eb bf cf 3d 45 9b d0 bd 85 12 20 3e
       0.061158568 0.10144027 -0.10185865 0.15632065
0000a0 c4 e9 50 3e 9d 72 54 3b 82 bb 64 bd 0e 4f 0f 3d
       0.20401675 0.0032416948 -0.055842884 0.0349875
0000b0 8c b5 40 bd 9d 5a 03 bd 61 87 06 be 1f f9 8d bd
       -0.047048137 -0.032068837 -0.1313758 -0.06932282
0000c0 27 e9 33 bb e5 d5 20 be 7a b2 a4 bd 60 12 a8 3d
       -0.0027452202 -0.15706594 -0.08041854 0.0820663
0000d0 6c 5c 27 3d 8f 21 32 3d 20 94 8f bd d7 f3 49 bd
       0.040859625 0.043489035 -0.070106745 -0.04930481
0000e0 41 c0 01 bc 7c ef 18 bd f0 83 31 bd 89 6f 42 bd
       -0.007919372 -0.037337765 -0.043338716 -0.04746965
0000f0 87 09 58 bd 70 bb 06 bd 34 0f 2c 3d cb d2 2d bd
       -0.05274346 -0.032893598 0.042006686 -0.042437356
000100 a7 5f 3e bd b2 d9 f0 3c fe 45 a3 bd 4b d8 eb bd
       -0.04647794 0.02940068 -0.07972334 -0.11515864
000110 86 58 14 bd 59 15 95 3b 85 e1 2c bd cb 37 5a 3c
       -0.036217235 0.004549664 -0.04220726 0.013318966
000120 04 e1 65 bd 8e f6 49 3e bb 12 72 bd e8 47 44 bd
       -0.056122795 0.1972296 -0.059099894 -0.047920138
000130 fc 9e 58 3e e5 95 34 bd e7 65 e8 3d a7 98 1d 3e
       0.21154398 -0.044088263 0.11347561 0.15390263
000140 f7 d5 02 3c 9a 7a 0f 3d 6f 45 cb 3d 83 f3 37 3d
       0.0079855835 0.03502903 0.09925353 0.044909965
000150 10 bd 97 3d 54 c3 f1 3c 08 5d 7f 3c 8f 82 28 3d
       0.07409108 0.029512085 0.015586145 0.041140135
000160 5d c7 98 3d 3e f1 99 3c 5c 2e cd bc af c2 4e bd
       0.074599005 0.018791791 -0.02504652 -0.050478633
000170 53 91 34 3d 45 05 43 be de 34 38 bd 7d 6b 58 3d
       0.044083904 -0.19044979 -0.044972293 0.052836884
000180 78 dc 95 bd a4 36 12 bd 92 ac 36 bc ad b9 c5 3d
       -0.07317442 -0.03569664 -0.011149542 0.096545555
000190 df 07 71 3d 3b cd f9 3c 71 5a 39 be 86 09 01 be
       0.058845397 0.03049337 -0.18100907 -0.12601289
0001a0 d9 4f 23 bd d1 3d 37 bc f4 4c b4 bc 2f d1 14 bc
       -0.03987107 -0.011184172 -0.02200935 -0.009083076
0001b0 1a 56 b3 3b e3 48 4b 3c 41 72 23 3d 6e 05 a8 bd
       0.0054729106 0.012407514 0.039903883 -0.08204161
0001c0 ca 22 98 bd 1d d7 5b bc a9 24 b5 3d f6 9e 29 3c
       -0.074285105 -0.013417986 0.08844883 0.010352841
0001d0 d6 67 f5 ba d9 80 3f 3d f3 20 82 3c db 7c 9e 3d
       -0.0018722962 0.046753738 0.015884852 0.07738658
0001e0 c2 15 b8 3d 7c d6 cd 3d e0 f8 d4 3d f4 1f 03 bc
       0.08988525 0.10050675 0.10399032 -0.008003224
0001f0 02 2a a1 3c 25 7f 74 3d 04 78 bb bd 91 c2 c2 bd
       0.019673351 0.059691567 -0.091537505 -0.09509767
000200 dd df 76 bd c0 f5 c7 bd 62 7e 19 be c3 ac df bd
       -0.060272086 -0.0976367 -0.14989617 -0.109216236
000210 88 0b 87 bd a5 d1 8b bd 11 de 1e bd e1 d8 ac 3d
       -0.06593996 -0.06827096 -0.038785998 0.08439804
000220 88 8d 0f 3e c4 72 09 3d 27 bb 13 3e c0 46 d3 3d
       0.14018834 0.033556715 0.14426862 0.10316229
000230 10 bf bf ba a8 80 28 bc fc 52 11 bd 38 73 bb bd
       -0.0014629085 -0.01028458 -0.03547953 -0.091528356
000240 9a 84 8a 3c 87 97 fa bd 1a 83 a7 bc 92 5f ff 3b
       0.016908932 -0.12235933 -0.020448256 0.0077933753
000250 ca ce 90 bd 0b 94 36 3d dc 9d 84 3c b7 4a 12 3d
       -0.07070692 0.04457478 0.016188554 0.035715785
000260 15 d2 f4 3c ce c9 e1 bd 64 78 d2 bc 75 38 14 bd
       0.029885331 -0.11024819 -0.025692172 -0.036186654
000270 f4 bb 3b 3b f0 6c 1e bd b6 91 a1 bd 1d dd 24 bd
       0.0028645964 -0.03867811 -0.0788912 -0.040249933
000280 dc 61 7e bd 3f 97 ba bd 26 91 dd 3d f8 a4 61 bd
       -0.062105045 -0.09110879 0.108187005 -0.055088967
000290 40 e8 9d bd bb 96 37 3e 8b 96 41 3e 06 d8 bf bd
       -0.07710314 0.17928593 0.18905084 -0.09367375
0002a0 b8 60 cd bc 2d 05 02 3e f5 b5 72 bb 36 ab c8 bc
       -0.025070533 0.12697287 -0.0037034724 -0.024495702
0002b0 f4 de b0 3d 2a da 59 bd 26 d8 a2 3d c0 20 52 3e
       0.08636275 -0.053186573 0.07951383 0.20520306
0002c0 0c 7e 84 3d b2 d7 2c bd b8 05 eb 3c 2b c5 01 bd
       0.06469354 -0.04219789 0.02868925 -0.031682175
0002d0 44 15 fc bc a5 21 af 3a ff 02 22 3c c5 7a 42 bd
       -0.030771859 0.0013361467 0.00988841 -0.047480363
0002e0 c5 b1 05 be 2b be 6b bd 95 4a 4f bc e0 45 90 ba
       -0.13056095 -0.057554405 -0.012652059 -0.0011007152
0002f0 4f bf c3 bc 8a e0 54 bd 50 bc 87 bd e7 fd 2a 3d
       -0.023894934 -0.05197195 -0.06627715 0.041746046
000300 88 c2 1a 3d 69 50 ba bc a3 28 90 bd 51 1d 1b bd
       0.037783176 -0.02274342 -0.07039001 -0.037869755
000310 8a 7d 55 bd f9 e6 8b bd 93 28 9e 3d f4 c2 bf 3b
       -0.052121677 -0.06831164 0.07722583 0.0058520976
000320 61 42 c8 bd bb 51 bd bd 91 fc d2 bc 80 17 7a 3c
       -0.09778286 -0.092441045 -0.025755199 0.015264392
000330 65 25 1f 3c 0c 8d 78 bd 09 52 2c bc dd 25 bd 3b
       0.009713505 -0.060681388 -0.010517606 0.005772336
000340 45 48 07 bd 2d db 54 3d 6c 28 7c 3c 28 8d a1 bd
       -0.033027906 0.051966835 0.015390497 -0.078882515
000350 47 bc 89 3c ae 91 ec 3d 6a b8 12 bd d5 c9 f4 3c
       0.01681341 0.11551224 -0.035820402 0.029881397
000360 8f 99 7e bd 77 38 3a be 82 9f b0 bd 9c c6 4d be
       -0.062158164 -0.18185602 -0.08624174 -0.20095295
000370 2d 0d 4c 3e 17 5f cc bb 0a 45 84 3d a5 ff 93 3e
       0.19926901 -0.0062369215 0.06458481 0.2890598
000380 97 6f 13 3d c6 84 8c bd 82 77 a6 bd 77 56 2c bd
       0.035995092 -0.06861262 -0.08128263 -0.042074647
000390 ae 13 d3 bd 38 46 18 be 83 cc 8a bd aa 80 f8 bb
       -0.10306488 -0.14870536 -0.06777289 -0.0075836973
0003a0 72 32 4a 3d 51 b0 48 3c 13 d7 dc bc f6 3c 95 bd
       0.049364515 0.012249068 -0.026958024 -0.07287018
0003b0 a6 c4 10 bd 3b 74 d3 bd 9d ed 8d bd 0c 54 48 bd
       -0.03534379 -0.103249036 -0.06930087 -0.04890828
0003c0 c1 07 81 3d 9a 95 dd 3d b4 7e 95 3d 6b 0e 95 bc
       0.06300307 0.1081955 0.07299557 -0.018195352
0003d0 13 be 1c 3d 75 61 a7 3b 14 a6 8d 3d 53 ff b1 3d
       0.038267206 0.0051080533 0.069164425 0.08691277
0003e0 c6 a0 b1 3d d6 ff a8 3c 5b 6d 16 3e 6a 39 01 bd
       0.08673243 0.020629805 0.14690153 -0.031548895
0003f0 a9 b4 6a 3d 50 08 00 3e 79 70 93 bd da 8d 0e 3e
       0.057301197 0.12503171 -0.07199187 0.139213

sequences.4.bias f4 [16]
000000 bf b8 f2 3b 9d 22 13 bd 41 63 8a bd bb f9 02 3c
       0.0074072774 -0.03592168 -0.067572124 0.007994111
000010 90 12 92 bd 6a 76 ca bc 03 d1 aa bb b8 cc 16 bd
       -0.07132447 -0.024714667 -0.0052129044 -0.03681633
000020 0f f0 97 bd bc 28 6c bd 58 9b 30 bd ff 8c 6c bd
       -0.074188344 -0.057656035 -0.043116897 -0.05775165
000030 dc 75 75 ba 00 88 76 bc e4 8e 30 bc 8b 13 24 3c
       -0.0009363571 -0.015047073 -0.010776255 0.010014425
