saved_models/UPSCALE_X4/epoch_90.pth (torch, 101599 bytes, 6 tensors)

sequences.0.weight f4 [64, 1, 5, 5]
0	0xbe3678f8	-0.17819583
1	0xbd8754af	-0.06607949
2	0x3e0b9313	0.13630323
3	0xbd8df89c	-0.06932184
4	0xbe2fd34b	-0.17170446
5	0xbd070054	-0.032959297
6	0x3c9bf2ca	0.01903667
7	0x3c62ed90	0.013850585
8	0xbd955368	-0.07291299
9	0x3de9250f	0.113840215
10	0x3d5de998	0.05417785
11	0x3e5229ad	0.2052371
12	0xbd3d4c8d	-0.046215583
13	0x3e25f808	0.16207898
14	0xbe2dd5c1	-0.16976072
15	0xbc70c878	-0.014696233
16	0x3e30e1cd	0.17273636
17	0x3e0f3925	0.13986643
18	0x3dbec281	0.093144424
19	0xbc200851	-0.009767608
20	0xbdcfa821	-0.1013949
21	0xbe093267	-0.13398133
22	0xbd741a33	-0.059595298
23	0x3de5574d	0.11198292
24	0x3e2cacb4	0.16862756
25	0xbe19f550	-0.15034986
26	0x3cd38089	0.025818126
27	0xbd9fdda0	-0.078059435
28	0xbc7ca0e3	-0.015419218
29	0xbddb520f	-0.10709011
30	0x3de69aea	0.11260016
31	0xbe4be8a1	-0.1991296
32	0xbd8e71f0	-0.069553256
33	0x3e053d2c	0.13011616
34	0xbe1d75b8	-0.15376937
35	0x3ce6f941	0.028195025
36	0x3e12e31d	0.1434445
37	0x3cea4d44	0.028601296
38	0xbe3bed04	-0.18352133
39	0x3c976fbd	0.018485898
40	0xbe25eac0	-0.16202831
41	0xbe1d42ea	-0.15357557
42	0x3c50264c	0.012704443
43	0xbe1e783d	-0.15475555
44	0x3e4debc0	0.20109463
45	0x3d993284	0.07480338
46	0x3dfae5ae	0.12250839
47	0x3e3072e0	0.17231321
48	0xbcfa8c81	-0.030584576
49	0xbe471c52	-0.19444397
50	0x3cc68199	0.024231719
51	0x3e1d06c3	0.1533461
52	0x3e48d85b	0.19613783
53	0xbe03e15c	-0.12878937
54	0xbdce0aa8	-0.10060626
55	0xbd2a660e	-0.041601233
56	0x3e6cc594	0.23122245
57	0x3d6a6cb7	0.057232585
58	0xbe3c6eb1	-0.184016
59	0xbe148ace	-0.14506075
60	0x3e1ea088	0.15490925
61	0xbe07e41f	-0.13270615
62	0x3de219cd	0.11040077
63	0xbbcf7433	-0.0063309907
64	0x3e0d8377	0.13819681
65	0x3e053aa2	0.13010648
66	0x3e09f134	0.13470918
67	0x3e39c554	0.18141681
68	0x3d16eee0	0.036848903
69	0xbcebe81e	-0.028797206
70	0xbddd6509	-0.108102866
71	0x3c725895	0.014791627
72	0xbe2f3c1b	-0.17112772
73	0xbe2a0064	-0.16601712
74	0xbdec5c3e	-0.11541031
75	0x3c59b07f	0.013286709
76	0xbe1ceb25	-0.15324076
77	0xbd570b3c	-0.05250095
78	0xbbe98177	-0.007126029
79	0x3d9609c6	0.07326083
80	0xbd4d3897	-0.050102796
81	0xbd0ff6e5	-0.035147566
82	0x3deb73df	0.1149671
83	0xbc1632b4	-0.009167362
84	0xbe59350e	-0.21211645
85	0x3d54c01c	0.051941022
86	0xbd7c0548	-0.061528474
87	0xbde6938e	-0.112586126
88	0x3e4bfae4	0.19919926
89	0xbcc21d41	-0.02369559
90	0xbd7037b8	-0.058646888
91	0xbdeb6b61	-0.1149509
92	0xbdbfd745	-0.09367231
93	0x3da1fbc6	0.0790935
94	0x3d73b099	0.05949459
95	0x3dc54d7c	0.096339196
96	0xbc5efe27	-0.013610399
97	0xbd13378c	-0.035941646
98	0xbdc8ef9c	-0.09811327
99	0xbcb8ea23	-0.022572583
100	0xbd98f249	-0.07468087
101	0x3d8e3855	0.06944338
102	0xbdbf4013	-0.09338393
103	0xbe263659	-0.1623167
104	0x3d34841c	0.0440713
105	0x3d9080b9	0.07055802
106	0xbe41da49	-0.18930925
107	0xbe3c1c7f	-0.18370245
108	0x3c92bca4	0.017912216
109	0x3d508fbe	0.050918333
110	0x3d8a95f3	0.06766882
111	0xbe416d31	-0.1888931
112	0x3dbf98be	0.09355305
113	0xbe1d9cca	-0.15391842
114	0x3ddb87a3	0.1071923
115	0x3df9536e	0.12174116
116	0xbd865044	-0.06558278
117	0xbe42cfa4	-0.19024521
118	0xbe3ae305	-0.18250664
119	0xbd7d7d8f	-0.06188732
120	0xbd6d3188	-0.057908565
121	0x3db6a857	0.08918827
122	0x39b013b6	0.00033584022
123	0x3e4d45a9	0.20046104
124	0x3e37f264	0.17963558
125	0x3cd219a2	0.025646988
126	0xbd6adf16	-0.057341658
127	0xbdb861cc	-0.09003028
128	0x3bec53fe	0.007212161
129	0xbe2c9c1c	-0.16856426
130	0x3e3b0ca9	0.18266548
131	0x3dd700a2	0.104981676
132	0xbd545bb5	-0.05184527
133	0x3e4691f2	0.19391611
134	0xbe5861aa	-0.21131006
135	0x3ddc8ec9	0.107694216
136	0x3de9da0a	0.11418541
137	0xbd63bde1	-0.055601005
138	0x3daa7b8a	0.083243445
139	0x3dbde34d	0.0927187
140	0x3def414b	0.116823755
141	0x3e254bb9	0.16142167
142	0xbd9af7a9	-0.07566769
143	0x3d8011ec	0.06253418
144	0xbe2e5363	-0.17023997
145	0x3e0b4172	0.13599184
146	0xbe3270d1	-0.17425849
147	0x3e2d6387	0.16932498
148	0xbdcb2e76	-0.09920971
149	0xbd5ccd2b	-0.0539066
150	0xbd054b55	-0.032542545
151	0xbe147295	-0.14496835
152	0xbd852dca	-0.06502874
153	0x3d651ec6	0.05593755
154	0x3e02b413	0.12764005
155	0x3e3a3257	0.18183266
156	0xbdd13235	-0.10214654
157	0xbe013059	-0.126161
158	0x3e7a6b7c	0.24455065
159	0x3d8b22b3	0.06793728
160	0xbe0ea820	-0.13931322
161	0xbd889ff6	-0.06671135
162	0x3ced8888	0.028995767
163	0x3de6f45d	0.11277077
164	0x3a97e648	0.0011589015
165	0xbe3ad428	-0.18244994
166	0x3d6392d9	0.055559967
167	0x3e7d4eb3	0.24737053
168	0xbd4a0bc3	-0.049327623
169	0xbc433eb5	-0.011916806
170	0xbcace58f	-0.021105556
171	0xbe19b767	-0.15011369
172	0x3e020167	0.12695847
173	0x3e462568	0.19350207
174	0xbde7e3f8	-0.113227785
175	0x3db16948	0.08662659
176	0xbde53f55	-0.1119372
177	0xbe23998a	-0.15976539
178	0x3e291cbe	0.1651487
179	0x3ceb888c	0.028751634
180	0xbdc68734	-0.09693757
181	0xbde216c7	-0.11039501
182	0x3bdcab44	0.0067342836
183	0xbcff31bf	-0.03115165
184	0x3e11cd31	0.1423843
185	0xbdca5bce	-0.098807916
186	0x3dcb3162	0.099215284
187	0xbd829176	-0.06375401
188	0xbcc0697e	-0.023487803
189	0xbcb954a0	-0.02262336
190	0xbde6facf	-0.11278307
191	0x3e42ae2c	0.19011754
192	0xbe5ada3d	-0.21372314
193	0xbde5825f	-0.11206507
194	0xbdec5881	-0.11540318
195	0xbe0b76e4	-0.13619572
196	0xbd330195	-0.04370268
197	0x3d6795ec	0.05653946
198	0xbcd21153	-0.025643026
199	0x3e59ce8b	0.21270196
200	0xbdaaeffb	-0.08346554
201	0xbd7596c0	-0.05995822
202	0xbd0b78d2	-0.03405077
203	0xbe612731	-0.21987607
204	0x3cba4d33	0.02274189
205	0x3e3159b6	0.17319378
206	0xbcae826f	-0.02130243
207	0xbe4407d4	-0.19143611
208	0x3d5a0a9a	0.053232767
209	0x3e16ee31	0.147393
210	0x3dc6c858	0.09706181
211	0x3c97d40a	0.018533725
212	0x3e5cb993	0.21555166
213	0x3d83ce2b	0.06435808
214	0xbdf99a15	-0.12187592
215	0xbe1a96e5	-0.15096624
216	0xbdbf96ac	-0.0935491
217	0x3da2bc1c	0.07946035
218	0x3e421ed5	0.18957074
219	0xbdd1effb	-0.10250851
220	0xb92ded0a	-0.0001658687
221	0xbe4db102	-0.20087054
222	0xbe247b6c	-0.16062707
223	0xbdc6d93d	-0.09709404
224	0x3a8f2036	0.0010919634
225	0xbe3a1a2f	-0.18174051
226	0x3cf6bac3	0.030118352
227	0xbd0feb73	-0.03513665
228	0x3e04a0a9	0.12951912
229	0x3ddbea98	0.107381046
230	0xbe12b085	-0.1432515
231	0xbe5052fa	-0.20344153
232	0xbe228c5c	-0.15873855
233	0xbdcfd082	-0.101471916
234	0x3daf3c27	0.08556395
235	0x3e20f088	0.15716755
236	0xbd8aadec	-0.06771454
237	0xbda17b83	-0.07884886
238	0x3e1be2a4	0.15223175
239	0xbd18695f	-0.037209865
240	0xbdaa028e	-0.083012685
241	0x3e7b8ef7	0.24566256
242	0x3e8173b7	0.25283596
243	0x3ccda2e2	0.025102083
244	0x3dfe96a2	0.12431075
245	0x3d5feb86	0.054667972
246	0xbe05474c	-0.13015479
247	0x3e2a3be6	0.16624412
248	0x3d482288	0.048861057
249	0xbdec3dac	-0.115352005
250	0xbcd2892d	-0.025700176
251	0x3e0c0888	0.1367513
252	0x3e3c3f45	0.1838351
253	0xbb377009	-0.0027990362
254	0x3d8e6fbb	0.06954905
255	0x3d44c9bc	0.04804395

sequences.0.bias f4 [64]
0	0xbe1303de	-0.14356944
1	0x3e4ced14	0.20012313
2	0xbda0a0fa	-0.07843204
3	0x3d142744	0.03617026
4	0x3e01a13c	0.12659162
5	0xbe7314d5	-0.23738416
6	0xbe1b70a5	-0.15179689
7	0x3e48dfba	0.19616595
8	0xbd8d9ac3	-0.06914284
9	0xbe2fb8fe	-0.17160413
10	0x3e4a4607	0.19753276
11	0x3d671c08	0.056423217
12	0x3e453615	0.19258912
13	0xbe2a1b6a	-0.1661202
14	0x3daf1960	0.08549762
15	0xbbbacec7	-0.0057009193
16	0x3e80cbd5	0.25155511
17	0x3e45c6c3	0.19314103
18	0xbd93542a	-0.071937874
19	0x3e8109ae	0.25202698
20	0x3c501912	0.01270129
21	0xbe3eb683	-0.1862431
22	0xbe4bda55	-0.19907506
23	0x3cf73c79	0.030180203
24	0x3e5c9543	0.21541314
25	0xbe1b072c	-0.15139455
26	0xbe66cd6c	-0.225393
27	0x3a6634a7	0.00087816495
28	0x3e6ec909	0.23318876
29	0x3e09829c	0.1342873
30	0x3ca34ec6	0.019935023
31	0xbe538fed	-0.20660372
32	0x3dffdf9b	0.12493821
33	0xbe6ae651	-0.22939421
34	0x3d63905b	0.05555759
35	0xbc508358	-0.012726627
36	0xbdd31ed2	-0.10308613
37	0x3e0abc60	0.13548422
38	0xbdad0029	-0.08447296
39	0x3b0cb586	0.00214705
40	0x3e3e7294	0.18598396
41	0xbe1135f8	-0.14180744
42	0x3dab9efc	0.08379933
43	0x3d696eb3	0.056990337
44	0x3e478eba	0.1948804
45	0x3df26455	0.11835543
46	0x3e532590	0.20619798
47	0x3e416171	0.18884827
48	0x3e6fd9ef	0.23422979
49	0x3e594d55	0.21220906
50	0x3e1a1fa6	0.15051135
51	0xbe573c16	-0.21019015
52	0xbe2671f0	-0.16254401
53	0x3d12d23f	0.035845038
54	0x3c9cb0c8	0.019127265
55	0x3df19234	0.11795464
56	0x3e2ec25a	0.17066327
57	0xbe438b34	-0.1909607
58	0xbc2936cf	-0.010328009
59	0x3e698e4a	0.22808185
60	0xbe408c0b	-0.18803422
61	0x3e6a9437	0.22908102
62	0x3e675943	0.22592644
63	0xbe62a55b	-0.2213339

sequences.2.weight f4 [32, 64, 3, 3]
0	0x3cf1d731	0.029521557
1	0x3d0419de	0.03225123
2	0xbd817227	-0.06320601
3	0xbda510b4	-0.080598265
4	0x3e03947d	0.12849613
5	0xbdbc967b	-0.09208389
6	0x3d38bc90	0.045101702
7	0x3df03f4e	0.117308244
8	0xbd345422	-0.044025548
9	0x3d74ee4a	0.059797563
10	0x3d290ffc	0.04127501
11	0x3c949bda	0.018140722
12	0x3d350a34	0.044199184
13	0xbc6b5115	-0.014362593
14	0xbce4c4c7	-0.027925862
15	0x3c02fc3d	0.007994709
16	0xbd20a338	-0.039218158
17	0x3c183cb1	0.009291814
18	0xbccb3f45	-0.024810443
19	0xbd974216	-0.07385652
20	0xbe5410b5	-0.20709498
21	0x3e9a78b4	0.30170214
22	0xbe046bd3	-0.12931757
23	0x3e40abb0	0.18815494
24	0x3db0839e	0.08618854
25	0x3d35a7ba	0.04434941
26	0xbda21c34	-0.079155356
27	0x3cc9041c	0.024538092
28	0xbd08b4f8	-0.03337571
29	0x3cbfe546	0.023424756
30	0xbd3bef27	-0.04588237
31	0x3c97b070	0.01851675
32	0x3c873e45	0.016509185
33	0xbd8e47d7	-0.06947296
34	0xbd8bacb4	-0.0682005
35	0x3c0d4330	0.008621976
36	0x3d65eee5	0.05613603
37	0x39cca566	0.00039033144
38	0x3cd37f81	0.025817635
39	0xbc3b457f	-0.011430143
40	0xbdd3d9d8	-0.10344285
41	0x3d3650ea	0.04451076
42	0xbc774855	-0.015092929
43	0x3d172923	0.036904465
44	0x3d89c6fa	0.06727405
45	0x3b9a2072	0.004703575
46	0x3a850419	0.0010148316
47	0xbcc9f487	-0.024652733
48	0xbd4bf1e0	-0.049791217
49	0xbc63f37e	-0.0139130335
50	0xbcae11dc	-0.02124875
51	0xbce42a10	-0.027852088
52	0xbc2293f3	-0.009922969
53	0xbcad1f2e	-0.021133032
54	0x3db988c7	0.09059291
55	0xbdd515f7	-0.1040458
56	0xbd848b30	-0.064718604
57	0xbccc3ba8	-0.02493079
58	0xbd7c7cec	-0.061642572
59	0x3d67d278	0.056597203
60	0xbcb11bcc	-0.0216197
61	0xbd04970d	-0.032370616
62	0xbc81807d	-0.015808338
63	0x3c8323eb	0.016008338
64	0x3d8f6d9f	0.070033304
65	0xbdd05fc0	-0.10174513
66	0xbcdf4c9e	-0.027258214
67	0x3d592194	0.05301054
68	0xbd729c4b	-0.059231084
69	0x3c466869	0.012109854
70	0xbd89a46b	-0.06720813
71	0x3d354daa	0.04426352
72	0x3c2f5ecd	0.010703755
73	0x3cdb1394	0.026742734
74	0xbad0e695	-0.001593786
75	0x3cca68db	0.024708202
76	0xbda19077	-0.078888826
77	0x3d352614	0.044225767
78	0x3c80cdfc	0.015723221
79	0xbc76e540	-0.015069306
80	0xbb71d839	-0.003690256
81	0x3ca916bd	0.020640725
82	0xbe4b1ad4	-0.19834453
83	0xbdcad1a4	-0.09903267
84	0xbda639bf	-0.08116483
85	0x3c0c85ff	0.008576869
86	0xbd5d48cb	-0.0540245
87	0xbccd03ec	-0.025026284
88	0xbd7825a4	-0.060582772
89	0x3d186b0e	0.03721147
90	0xbc8c833f	-0.017152427
91	0x3d2c14c2	0.042011984
92	0xbc1c9cc8	-0.009558864
93	0x3ccc7c77	0.024961693
94	0xbcf40506	-0.029787552
95	0x3d0cec65	0.03440513
96	0xbd2bc648	-0.041937143
97	0x3ca0445a	0.019563843
98	0x3bc9f48f	0.006163187
99	0xbc531f87	-0.012885935
100	0xbd989584	-0.07450393
101	0xbcb6b777	-0.02230428
102	0x3ce6b5c5	0.028162846
103	0x3cbd3aca	0.023099322
104	0x3d9681fa	0.0734901
105	0xbc9a731f	-0.018853722
106	0xbd9c446a	-0.076302364
107	0x3c94ffe1	0.018188419
108	0xbbddb272	-0.006765657
109	0xbe48dee5	-0.19616278
110	0xbda93f49	-0.08264024
111	0xbcb54920	-0.022129595
112	0xbdad92e9	-0.084752865
113	0x3d9422d7	0.07233208
114	0xbc90b85e	-0.017666038
115	0x3d6fd096	0.058548532
116	0xbcfbd1ef	-0.030739753
117	0xbd5794e6	-0.052632235
118	0xbe68feaa	-0.22753397
119	0x3c2a2ecd	0.010387135
120	0xbd9c695a	-0.07637282
121	0x3db0a9c1	0.08626128
122	0x3ba605ac	0.005066594
123	0x3b9baa06	0.004750493
124	0xbdddb8f2	-0.10826291
125	0x3d9c707e	0.07638644
126	0x3d952a32	0.07283439
127	0xbdbf2c6d	-0.093346454
128	0xbe6ff5ed	-0.23433657
129	0x3c900deb	0.017584762
130	0x3c76bd7a	0.015059823
131	0x3e29dda8	0.16588461
132	0xbd04b7a5	-0.0324017
133	0x3d1ee333	0.038790893
134	0xbe0dfaef	-0.13865255
135	0xbc589574	-0.013219226
136	0xbded89c8	-0.11598545
137	0xbdff9d77	-0.12481206
138	0x3e7bc93a	0.2458848
139	0x3dc42a2d	0.09578357
140	0x3e97df89	0.2966273
141	0x3b83a7cd	0.004017806
142	0xbe2b891b	-0.1675152
143	0xbddb3d5a	-0.10705061
144	0xba0f804e	-0.0005474136
145	0x3dba9a15	0.0911142
146	0x3d49c0ba	0.049256064
147	0x3c9b5356	0.018960636
148	0x3da12231	0.078678496
149	0xbd1943ea	-0.037418284
150	0xbdcee7f1	-0.10102833
151	0xbd281ed6	-0.041045032
152	0x3c1d0033	0.009582567
153	0xbd8acc4e	-0.06777249
154	0x3cae1266	0.021249007
155	0xbd517bdd	-0.051143516
156	0x3d1ea4fa	0.038731553
157	0x3be32d97	0.006932925
158	0xbccda773	-0.02510426
159	0x3c142179	0.009041184
160	0xbc5e21b8	-0.013557844
161	0xbbd753f8	-0.006571289
162	0xbc0ebfde	-0.008712737
163	0xbc05da51	-0.0081697265
164	0xbcad37aa	-0.021144707
165	0xbc964f13	-0.018348252
166	0x3d3357f4	0.04378505
167	0xbd1144df	-0.03546607
168	0x3b794583	0.0038035817
169	0x3d8df2dc	0.069310874
170	0x3d81dba8	0.06340724
171	0xbd44c821	-0.04804242
172	0xbd44fadf	-0.04809081
173	0x3dbe8d8e	0.09304343
174	0x3e6d26c5	0.2315932
175	0x3d9fb9d0	0.07799113
176	0x3e476009	0.19470228
177	0x3d6c7f87	0.057738807
178	0xbe51f221	-0.20502521
179	0xbd3b0f9d	-0.045669187
180	0x3dd49fbf	0.10382032
181	0xbda64432	-0.08118476
182	0x3d44c3ce	0.048038296
183	0xbd805e48	-0.06267983
184	0xbc20b653	-0.0098090945
185	0xbc5b069c	-0.013368275
186	0xbb2caaef	-0.0026347002
187	0x3cb249e6	0.021763753
188	0x3d95ac3c	0.07308242
189	0x3c430063	0.011901948
190	0x3ce553d6	0.027994078
191	0xbd667c8b	-0.056271117
192	0xbd69663e	-0.05698227
193	0x3d3c917e	0.04603719
194	0xbcac1701	-0.021007063
195	0xbd87d582	-0.0663252
196	0x3bc39148	0.0059682466
197	0xbca8a1c5	-0.02058495
198	0x39f914f0	0.0004750858
199	0xbbaa856c	-0.0052038934
200	0x3c23db21	0.010000975
201	0xbcb52fd2	-0.022117529
202	0xbd9c48ff	-0.076311104
203	0xbd38057b	-0.0449271
204	0x3a8bda51	0.0010669922
205	0xbcc19df9	-0.023634898
206	0x3c997456	0.018732231
207	0xbb654319	-0.003498262
208	0x3d03025d	0.031984676
209	0x3c888594	0.016665258
210	0xbd18814a	-0.037232675
211	0x3cd1c7e5	0.025608012
212	0xbd618c81	-0.055065636
213	0xbd84fae4	-0.06493166
214	0x3daf9396	0.08573072
215	0x3d4f0bd8	0.050548404
216	0xbd3542a9	-0.044253025
217	0xbdae2fc1	-0.08505202
218	0xbd9acd83	-0.075587295
219	0x3da6aa12	0.08137907
220	0x3d9c18da	0.076219276
221	0x3c760ecd	0.015018177
222	0xbd194fcd	-0.03742962
223	0x3cca443f	0.024690745
224	0xbe1ac380	-0.1511364
225	0xbc935eeb	-0.017989596
226	0xbd688fcc	-0.05677776
227	0xbc07cb51	-0.0082882205
228	0x3c5209d2	0.012819724
229	0xbcecaaaa	-0.028889973
230	0x3b899107	0.004198197
231	0xbcb99384	-0.022653349
232	0x3b3a4e0b	0.0028427865
233	0xbb99b088	-0.0046902336
234	0xbc261686	-0.010137206
235	0xbc814c09	-0.015783327
236	0x3bcde43c	0.006283311
237	0xbb68c831	-0.0035519714
238	0xbd6e4cda	-0.05817876
239	0xbce49f9e	-0.027908143
240	0x3c40c4ae	0.011765642
241	0xbd5e55f4	-0.05428119
242	0xbc564f0f	-0.0130803725
243	0xbd0905e0	-0.03345287
244	0xbd09da54	-0.03365548
245	0xbcb80ba6	-0.022466492
246	0xbdb7a06c	-0.08966145
247	0xbcb4e765	-0.022082994
248	0x3d4c5c40	0.049892664
249	0xbd0ea6d2	-0.03482706
250	0xbc89b875	-0.016811589
251	0xb9bc1803	-0.00035876044
252	0xbd3781fd	-0.0448017
253	0x3b94d8d1	0.004542448
254	0x3a4511f7	0.00075176306
255	0x3cc0f864	0.023555942

sequences.2.bias f4 [32]
0	0x3bbedf80	0.005824983
1	0x3cf5ee9b	0.030021003
2	0xbdb43331	-0.087988265
3	0x3cbe3fca	0.023223776
4	0xbdbdc523	-0.092661165
5	0x3d524057	0.05133089
6	0x3d8a1b45	0.067434825
7	0x3d0e9116	0.034806333
8	0xbd58c434	-0.05292149
9	0x3c89727c	0.016778223
10	0x3dabdd53	0.083918236
11	0x3d75aa59	0.05997691
12	0x3b116dc4	0.002219067
13	0xbd4b2b50	-0.049601853
14	0x3da03b5f	0.07823824
15	0xbdd7805f	-0.10522532
16	0x3d5e559e	0.05428087
17	0x3d1ecee4	0.038771525
18	0xbcd5e243	-0.026108867
19	0xbd7eafef	-0.062179502
20	0x3d9d9fa4	0.07696465
21	0x3d43cb91	0.047801558
22	0x3d979268	0.07400972
23	0x3da56206	0.08075337
24	0x3c589dd8	0.013221227
25	0x3da70640	0.08155489
26	0xbc5c62c5	-0.013451283
27	0xbd5d5b53	-0.05404217
28	0xbc21cfa3	-0.009876165
29	0x3bb77000	0.0055980682
30	0x3d6739a8	0.05645147
31	0x3db113d3	0.08646359

sequences.4.weight f4 [16, 32, 3, 3]
0	0xbe5b378e	-0.21407911
1	0xbd03c66f	-0.032171663
2	0x3bcd5730	0.006266497
3	0x3d6de4d0	0.05807954
4	0x3e54db83	0.20786862
5	0x3e040e8d	0.12896176
6	0xbd924ec5	-0.0714393
7	0xbd1fcda5	-0.039014477
8	0x3daf9fd2	0.08575405
9	0xbcc63998	-0.024197385
10	0xbd8c83a2	-0.068610445
11	0xbd547630	-0.051870525
12	0xbd84fb04	-0.0649319
13	0xbd5cd71c	-0.05391608
14	0xbd79187e	-0.060814373
15	0x3d1cbdfe	0.03826713
16	0x3b339857	0.0027404034
17	0xbd9dd7a8	-0.07707149
18	0x3de2b2e3	0.11069276
19	0x3debfbf1	0.115226634
20	0x3c11f363	0.008908126
21	0x3e145a5e	0.14487597
22	0x3e13bb3e	0.14426896
23	0x3d74d029	0.05976883
24	0xbd89cf69	-0.067290135
25	0x3c82d7f2	0.015972111
26	0xbc33c7af	-0.010972901
27	0x3d62e5d8	0.055394977
28	0x3c30235d	0.010750619
29	0xbd9882fc	-0.07446858
30	0x3cea96df	0.028636394
31	0xbc49a99d	-0.012308505
32	0x3cdfab07	0.027303232
33	0xbdac464f	-0.08411848
34	0xbc2a8d7b	-0.010409708
35	0xbd8e113d	-0.06936882
36	0x3d94dee0	0.072690725
37	0x3df4c54a	0.119516924
38	0xbdecfa51	-0.115711816
39	0x3e25e3ae	0.16200134
40	0x3e5caf95	0.21551354
41	0xbcef3697	-0.029200835
42	0xbd59cd94	-0.05317457
43	0x3d008202	0.031373985
44	0xbd4ddd4a	-0.050259866
45	0xbc8b5fea	-0.017013509
46	0xbe09e9f2	-0.1346815
47	0xbda2c03e	-0.079468235
48	0x3bd1f670	0.0064075515
49	0xbe3a7430	-0.18208385
50	0xbdc3a6d6	-0.09553306
51	0x3db7aa9b	0.08968087
52	0x3d0def22	0.034651883
53	0x3d2bbdb4	0.041928962
54	0xbd8e22c1	-0.069402225
55	0xbd943ea7	-0.072385125
56	0x3bc31928	0.0059539266
57	0xbcd3d145	-0.025856623
58	0xbd8bbbb9	-0.06822915
59	0xbd573c94	-0.052548006
60	0xbd14fd94	-0.036374643
61	0xbd8e84ca	-0.06958921
62	0x3c8c154e	0.017100003
63	0xbdbff8d6	-0.093736336
64	0xbc0a83a2	-0.008454235
65	0xbbfb690d	-0.007672435
66	0xbd887243	-0.06662419
67	0xbdfcd476	-0.12345211
68	0xbca94c89	-0.020666378
69	0x3cd94187	0.026520504
70	0xbd2da270	-0.04239124
71	0x3bc91b25	0.006137269
72	0xbd91a92a	-0.071123436
73	0x3e484858	0.19558847
74	0xbd884852	-0.06654419
75	0xbd35935c	-0.044329986
76	0x3e5eb45f	0.21748494
77	0xbd26d978	-0.040734738
78	0x3e01edf8	0.12688434
79	0x3e054965	0.13016279
80	0x3c7c1875	0.01538669
81	0x3e0870b1	0.13324238
82	0x3e1edc06	0.1551362
83	0x3d3af441	0.045643095
84	0x3dd5be5f	0.10436701
85	0x3d99e934	0.07515183
86	0x3b8f4a80	0.0043728948
87	0x3d57122d	0.05250757
88	0x3dbc9e84	0.09209922
89	0xbc472603	-0.012155059
90	0xbc8e8694	-0.017398156
91	0xbd2ec5ed	-0.042669225
92	0x3cae96db	0.021312168
93	0xbe4d3ab6	-0.20041928
94	0xbd0a8f4f	-0.033828076
95	0x3d4fbd68	0.05071774
96	0xbd9acd9c	-0.07558748
97	0x3c200d72	0.009768831
98	0xbcdcd111	-0.02695516
99	0x3e0b48ee	0.13602039
100	0x3d982b39	0.07430119
101	0x3bf7d1a8	0.007562835
102	0xbe580aca	-0.21097866
103	0xbdffeae7	-0.12495976
104	0xbd2e6aee	-0.042582445
105	0x3d595d2e	0.05306738
106	0x3c2907d3	0.010316807
107	0x3c7f69de	0.015589206
108	0xbb2bf1ee	-0.002623673
109	0xbc1c17b2	-0.009527134
110	0x3cf149fe	0.029454228
111	0xbd807067	-0.06271439
112	0xbde15b7c	-0.110037774
113	0xbcb47eff	-0.022033213
114	0x3dd0e417	0.10199755
115	0x3caf2ded	0.021384204
116	0xbcb28717	-0.021792931
117	0x3d4bd0b1	0.04975957
118	0xbbd6678b	-0.006543105
119	0x3d91ffcf	0.0712887
120	0x3de863fd	0.11347196
121	0x3dd77d3b	0.10521933
122	0x3d9256af	0.0714544
123	0xbaeab44c	-0.0017906516
124	0x3cdefb55	0.027219454
125	0x3d593256	0.05302652
126	0xbdc5bd83	-0.09655287
127	0xbdba8e82	-0.091092125
128	0xbd554c8a	-0.052074946
129	0xbde81d15	-0.11333672
130	0xbe259b8c	-0.16172618
131	0xbdeca7da	-0.11555453
132	0xbdabdfdb	-0.083923064
133	0xbd9d746b	-0.076882206
134	0xbd0f1d32	-0.034939952
135	0x3dbe5b0c	0.092947096
136	0x3e1d4788	0.15359318
137	0x3cdaf043	0.026725894
138	0x3e161b69	0.14658894
139	0x3de4eaea	0.11177619
140	0xbc70511f	-0.014667778
141	0xbc4f3b27	-0.01264838
142	0xbd145fed	-0.036224294
143	0xbdb9725f	-0.09055018
144	0xbb9cde83	-0.0047872677
145	0xbe00c188	-0.12573826
146	0x3b3295d0	0.002724994
147	0xbc51a741	-0.012796224
148	0xbdd30a42	-0.10304691
149	0x3d7d234c	0.06180124
150	0xbce381c6	-0.027771842
151	0x3c80e159	0.015732454
152	0x3bd762a3	0.0065730377
153	0xbde75d5d	-0.112971045
154	0x3dc098df	0.09404158
155	0xbd673e74	-0.056456044
156	0x3c432c0d	0.011912358
157	0x3c0e0f0e	0.0086705815
158	0xbdd64be3	-0.10463693
159	0xbd279e62	-0.04092253
160	0xbd82c984	-0.06386092
161	0xbde710b8	-0.11282486
162	0x3dcc87f3	0.09986868
163	0xbd9c74dc	-0.07639477
164	0xbce88cfd	-0.028387541
165	0x3e0711e5	0.1319042
166	0x3e84f467	0.25967714
167	0xbdc2b4bd	-0.09507129
168	0xbd46610b	-0.04843239
169	0x3df977cf	0.12181055
170	0xbc976340	-0.018479943
171	0x3caf8b80	0.021428823
172	0x3de34f2d	0.11099086
173	0xbd83863d	-0.06422088
174	0x3ce048d2	0.027378473
175	0x3e37b715	0.17940934
176	0x3da60ad9	0.08107538
177	0xbca9d6e2	-0.020732347
178	0x3cddded3	0.02708379
179	0xbd219752	-0.03945095
180	0xbd0afe16	-0.03393372
181	0xbabc99ec	-0.0014389134
182	0x3bbc590a	0.005747919
183	0xbd1dd8ae	-0.03853672
184	0xbe26ec32	-0.16301039
185	0xbd8c1cdf	-0.06841444
186	0xbcbb9dff	-0.022902487
187	0x3bbc8464	0.005753087
188	0x3a14d463	0.00056774
189	0xbd913845	-0.07090811
190	0x3c96e4fc	0.018419735
191	0x3c5853de	0.013203589
192	0x3b2eebfa	0.0026690946
193	0x3caaada6	0.020834755
194	0xbe02ad29	-0.12761368
195	0xbcfec945	-0.031101832
196	0xbd99fc05	-0.07518772
197	0xbd9dc98d	-0.077044584
198	0x3d5f747a	0.05455444
199	0xbcab4cbd	-0.020910615
200	0xbe255249	-0.1614467
201	0xbdd61856	-0.104538605
202	0xbd7c4ff8	-0.0615997
203	0xbbd2fdf3	-0.0064389645
204	0x3cce230f	0.025163202
205	0xbd6bedcc	-0.057599828
206	0xba17d3a8	-0.0005791732
207	0xba5a9d9f	-0.00083395274
208	0xbd44f5aa	-0.048085846
209	0x3d3bf562	0.045888312
210	0x3bd0bcae	0.0063701486
211	0xbdc1b009	-0.09457404
212	0x3c9c7134	0.019096948
213	0x3dd1edfd	0.10250471
214	0xbcbcbb5a	-0.023038555
215	0x3c84c9dc	0.016209535
216	0xbcef9382	-0.029245142
217	0xbe11550a	-0.14192596
218	0xbd91913c	-0.071077794
219	0xbe61d745	-0.22054775
220	0x3e6e6151	0.23279311
221	0x3d09ee35	0.033674438
222	0x3d61682e	0.055030994
223	0x3e7eea46	0.24894056
224	0xbc978ec2	-0.01850069
225	0xbdac2315	-0.08405129
226	0xbdc95e29	-0.09832413
227	0xbd3cac80	-0.046062946
228	0xbdda567d	-0.106610276
229	0xbe2ea9f8	-0.17057025
230	0xbd5b875c	-0.053595886
231	0xbc3c6157	-0.011497817
232	0x3d345698	0.044027895
233	0x3badbd09	0.0053020758
234	0x3d6c1faf	0.057647403
235	0x3b883392	0.0041565383
236	0x3d0b7768	0.03404942
237	0xbeaa41a7	-0.33253214
238	0xbdd01d72	-0.10161866
239	0xbda380dc	-0.07983562
240	0x3cc2f36a	0.02379771
241	0x3e0a6fd7	0.13519226
242	0x3cb494c3	0.022043591
243	0xbd3a791d	-0.04552566
244	0x3d82c6eb	0.06385597
245	0xbd73bede	-0.059508197
246	0xbcdc40f3	-0.026886439
247	0x3e077008	0.1322633
248	0x3c218be2	0.009860011
249	0x3d5008de	0.050789706
250	0x3e0af659	0.13570537
251	0xbd868bd7	-0.06569641
252	0x3db7b48c	0.089699835
253	0x3df1b0c9	0.11801297
254	0xbdc54fdf	-0.09634375
255	0x3e2d5ae0	0.16929197

sequences.4.bias f4 [16]
0	0x3c4b895c	0.012422886
1	0xbcff541f	-0.031168042
2	0xbd815f90	-0.06317055
3	0x3c055c19	0.008139634
4	0xbd8c77ed	-0.068588115
5	0xbca9db11	-0.020734342
6	0xbb9d78f5	-0.004805679
7	0xbd02ccbc	-0.03193353
8	0xbd9fafb6	-0.07797186
9	0xbd7b1e5d	-0.061308254
10	0xbd4f0301	-0.050539974
11	0xbd640535	-0.05566903
12	0x3b90d761	0.0044202064
13	0xbc47bf46	-0.012191599
14	0xbc1c0ff1	-0.009525285
15	0x3c45d4b3	0.012074637
