saved_models/UPSCALE_X4/epoch_25.pth (torch, 101599 bytes, 6 tensors)

sequences.0.weight f4 [64, 1, 5, 5]
-0.17796934 -0.06623053 0.1322693 -0.065045595 -0.1710932 -0.02939302 0.016711015 0.011174907
-0.06828653 0.1177631 0.05666339 0.19572292 -0.049382318 0.15543073 -0.1609909 -0.0077013276
0.17105584 0.12900005 0.09054085 -0.001458582 -0.10157764 -0.12927315 -0.056513652 0.11202915
0.16950561 -0.15119794 0.019787291 -0.080550864 -0.017136041 -0.108535685 0.113381535 -0.19293708
-0.06360068 0.1273769 -0.15361018 0.02841743 0.14009254 0.03036312 -0.17315961 0.014397305
-0.15898907 -0.14702784 0.01692207 -0.15088715 0.19310802 0.07946562 0.12327201 0.17087345
-0.029457878 -0.19144139 0.030728243 0.1572145 0.19379924 -0.12506148 -0.10582177 -0.04038569
0.21098119 0.04121666 -0.15991862 -0.14491859 0.1502156 -0.12876754 0.08980806 -0.003932233
0.12810662 0.12946829 0.11929119 0.15152676 0.036983155 -0.02701659 -0.111626394 0.012599758
-0.17220958 -0.17014726 -0.12312994 0.016043149 -0.14186673 -0.05310474 -0.0066089025 0.07575676
-0.05350147 -0.027461927 0.10491492 -0.0010071272 -0.1952054 0.049789257 -0.052657392 -0.10188798
0.18561326 -0.015539233 -0.054012418 -0.099675566 -0.078519374 0.07299303 0.06625703 0.10322725
-0.013205766 -0.031141806 -0.090700865 -0.010192411 -0.07455797 0.066792145 -0.09421227 -0.16314405
0.044277713 0.0678722 -0.18446329 -0.17612883 0.018261915 0.048352577 0.06592927 -0.1814988
0.09705023 -0.15201733 0.10329043 0.11788674 -0.065739274 -0.1828354 -0.17821813 -0.06654935
-0.054774866 0.09130879 0.0014021372 0.19624205 0.17701517 0.021540778 -0.06052443 -0.09045333
0.0063452325 -0.16841698 0.17966954 0.09805167 -0.057534575 0.1884334 -0.20400159 0.108254686
0.10441681 -0.062012866 0.07298814 0.097816326 0.11719737 0.15629527 -0.07740971 0.061101735
-0.16342847 0.13474531 -0.17603573 0.1690344 -0.10043281 -0.05365059 -0.037692282 -0.14350513
-0.06575553 0.05544089 0.13288955 0.16847967 -0.10200559 -0.123148106 0.22983652 0.07170707
-0.14386787 -0.062224247 0.015570072 0.09543977 0.0036481866 -0.17990218 0.04592444 0.21934304
-0.049253646 -0.0079402765 -0.028442215 -0.15459897 0.1272917 0.1919782 -0.11270958 0.085221104
-0.11371025 -0.16160153 0.16272835 0.026344301 -0.09769861 -0.10845874 0.009126132 -0.032357518
0.1370402 -0.096644916 0.09693905 -0.050510183 -0.021078119 -0.029096015 -0.11452198 0.18471348
-0.20261717 -0.107367575 -0.11843346 -0.13335703 -0.041713756 0.054160412 -0.02658415 0.21160758
-0.07386546 -0.056108113 -0.031937152 -0.2093924 0.027885366 0.17081757 -0.01546546 -0.17526741
0.05695255 0.14317712 0.08760778 0.010233562 0.18392316 0.058785986 -0.11008185 -0.1517606
-0.08138829 0.06710004 0.17616765 -0.1027812 -0.011689229 -0.20036551 -0.15710652 -0.09789452
-0.00817255 -0.18136998 0.031042002 -0.031044481 0.1298637 0.11130667 -0.14207458 -0.1928128
-0.13944112 -0.097369514 0.09021247 0.15094884 -0.06560135 -0.0817496 0.13893452 -0.032856926
-0.076672256 0.21950328 0.2121954 0.014681456 0.1264466 0.051879156 -0.13377981 0.16263233
0.046064895 -0.11701335 0.05852188 0.12934536 0.16343406 0.022226762 0.12953159 0.11872701
00000000: 983d 36be dfa3 87bd 9a71 073e a036 85bd
00000010: 0e33 2fbe a1c9 f0bc 8ae5 883c f516 373c
00000020: cfd9 8bbd c82d f13d df17 683d 976b 483e
00000030: 1d45 4abd 3c29 1f3e ccda 24be 6b5b fcbb
00000040: 4329 2f3e 9718 043e 7b6d b93d e42d bfba
00000050: f007 d0bd 2e60 04be dc7a 67bd 8a6f e53d
00000060: e192 2d3e a2d3 1abe f518 a23c daf7 a4bd
00000070: e260 8cbc f547 debd 9434 e83d 4c91 45be
00000080: 1341 82bd 176f 023e fd4b 1dbe accb e83c
00000090: 6b74 0f3e 14bc f83c c150 31be ade2 6b3c
000000a0: 08ce 22be 778e 16be 27a0 8a3c 2982 1abe
000000b0: 1cbe 453e dfbe a23d 0976 fc3d 73f9 2e3e
000000c0: a651 f1bc 3609 44be ccb9 fb3c d6fc 203e
000000d0: 4f73 463e 1e10 00be 16b9 d8bd 776b 25bd
000000e0: 740b 583e cdd2 283d b5c1 23be 8a65 14be
000000f0: 1ed2 193e a3db 03be 4aed b73d f6d9 80bb
00000100: 622e 033e 5693 043e f04e f43d d529 1b3e
00000110: a67b 173d e551 ddbc 619c e4bd 376f 4e3c
00000120: b557 30be 153b 2ebe 8d2b fcbd ec6c 833c
00000130: 8345 11be 5b84 59bd 7e8f d8bb 5c26 9b3d
00000140: 5b24 5bbd d6f7 e0bc a2dd d63d 9501 84ba
00000150: ede3 47be d2ef 4b3d 47af 57bd a5aa d0bd
00000160: 6711 3e3e 4498 7ebc 203c 5dbd b422 ccbd
00000170: c4ce a0bd 5f7d 953d c4b1 873d cf68 d33d
00000180: ff5c 58bc 1a1d ffbc 60c1 b9bd 12fe 26bc
00000190: d9b1 98bd 52ca 883d 5df2 c0bd 3c0f 27be
000001a0: 8c5c 353d 9400 8b3d f2e3 3cbe 1e5b 34be
000001b0: 039a 953c 5a0d 463d ed05 873d d2da 39be
000001c0: 45c2 c63d 6eaa 1bbe ef89 d33d 9a6e f13d
000001d0: 50a2 86bd 3439 3bbe d07e 36be 074b 88bd
000001e0: 9c5b 60bd 1a00 bb3d ebc7 b73a adf3 483e
000001f0: 7743 353e 4976 b03c 77e8 77bd 983f b9bd
00000200: abeb cf3b 8075 2cbe 4bfb 373e 50cf c83d
00000210: 60a9 6bbd aff4 403e cbe5 50be a2b4 dd3d
00000220: 7bd8 d53d 3401 7ebd ce7a 953d ed53 c83d
00000230: 2d05 f03d de0b 203e fb88 9ebd d045 7a3d
00000240: cb59 27be adfa 093e b642 34be 5b17 2d3e
00000250: b8af cdbd b9c0 5bbd 3963 1abd 02f3 12be
00000260: d6aa 86bd fd15 633d 3314 083e ef85 2c3e
00000270: 4fe8 d0bd 1335 fcbd 445a 6b3e 28db 923d
00000280: 1952 13be dade 7ebd 9e19 7f3c ed75 c33d
00000290: 6a16 6f3b 4738 38be 441b 3c3d 769b 603e
000002a0: 31be 49bd ef17 02bc a6ff e8bc 314f 1ebe
000002b0: c158 023e ef95 443e 48d4 e6bd 6788 ae3d
000002c0: ebe0 e8bd df7a 25be 43a2 263e 01d0 d73c
000002d0: 3516 c8bd 9e1f debd c685 153c 5189 04bd
000002e0: 4454 0c3e c5ed c5bd fb87 c63d c4e3 4ebd
000002f0: 05ac acbc c45a eebc 808a eabd 8825 3d3e
00000300: e07a 4fbe 88e3 dbbd 3e8d f2bd bf8e 08be
00000310: 0bdc 2abd 4fd7 5d3d 01c7 d9bc a8af 583e
00000320: c646 97bd 9fd1 65bd 88d0 02bd f66a 56be
00000330: da6f e43c cdea 2e3e d762 7dbc 4d79 33be
00000340: 1447 693d 069d 123e b56b b33d acaa 273c
00000350: 5a56 3c3e 93c9 703d 9872 e1bd 2167 1bbe
00000360: e7ae a6bd bf6b 893d 4b65 343e f37e d2bd
00000370: 2e84 3fbc 9e2c 4dbe 88e0 20be ec7c c8bd
00000380: 29e6 05bc 0db9 39be cc4b fe3c ff50 febc
00000390: fdfa 043e c0f4 e33d 007c 11be b870 45be
000003a0: a7c9 0ebe ab69 c7bd 51c1 b83d 5592 1a3e
000003b0: 005a 86bd 566c a7bd da44 0e3e fc94 06bd
000003c0: 5806 9dbd 78c5 603e c049 593e 7d8a 703c
000003d0: 387b 013e 3d7f 543d 93fd 08be 1789 263e
000003e0: 8bae 3c3d b2a4 efbd a4b4 6f3d 1c73 043e
000003f0: 425b 273e e614 b63c eea3 043e 2627 f33d

sequences.0.bias f4 [64]
-0.13058637 0.18908866 -0.06355828 0.03240921 0.119444095 -0.22067024 -0.13334543 0.18539128
-0.055463515 -0.15175028 0.1690299 0.04746661 0.17317756 -0.14836973 0.0500997 -0.01821298
0.22932176 0.1445202 -0.06815444 0.23409837 0.019397048 -0.17643134 -0.18270178 0.025964739
0.18664713 -0.085416265 -0.21189034 0.011617704 0.20291616 0.12010822 0.017996218 -0.1926231
0.10875979 -0.21194972 0.015683213 -0.011177524 -0.0899734 0.13169087 -0.08637539 0.016387776
0.18132998 -0.11956233 0.0823692 0.049783688 0.18523043 0.0904669 0.1891926 0.16664247
0.17650902 0.1585535 0.12985949 -0.19437945 -0.15069208 0.024974033 0.021812752 0.09415095
0.1521439 -0.11783105 -0.009013144 0.20917079 -0.17431256 0.2143836 0.21003225 -0.19982931
00000000: 6fb8 05be 75a0 413e d82a 82bd 85bf 043d
00000010: 1b9f f43d 61f7 61be b48b 08be 36d7 3d3e
00000020: b62d 63bd 6d64 1bbe 2d16 2d3e 596c 423d
00000030: 7555 313e 3cee 17be 5835 4d3d 6333 95bc
00000040: 53d3 6a3e 1afd 133e 8e94 8bbd 7cb7 6f3e
00000050: 8fe6 9e3c 6baa 34be 2d16 3bbe 01b4 d43c
00000060: 6d20 3f3e b9ee aebd c8f9 58be 2f58 3e3c
00000070: 41c9 4f3e 4cfb f53d ce6c 933c fd3e 45be
00000080: 74bd de3d 5909 59be 157a 803c ef21 37bc
00000090: f943 b8bd f9d9 063e 95e5 b0bd a83f 863c
000000a0: 91ae 393e 18dd f4bd 2fb1 a83d fbe9 4b3d
000000b0: 0cad 3d3e b646 b93d b4bb 413e 53a4 2a3e
000000c0: c8be 343e d95b 223e e3f9 043e 680b 47be
000000d0: 064f 1abe 5896 cc3c a8b0 b23c 37d2 c03d
000000e0: 9ccb 1b3e 6851 f1bd deab 13bc de30 563e
000000f0: fe7e 32be 6087 5b3e b212 573e 0ea0 4cbe

sequences.2.weight f4 [32, 64, 3, 3]
0.037054706 -0.022754319 -0.028154813 -0.046982013 0.082259126 -0.059335437 -0.048147395 0.06904973
-0.027805693 0.056945935 0.041688938 0.0030361032 0.0324369 0.031665027 0.009625464 0.037893604
-0.041531306 -0.033195477 -0.061149888 0.04987713 -0.22589706 0.24792397 -0.16945599 0.10325734
0.020306569 0.03436481 0.03792365 0.05757052 -0.02825606 0.007943267 -0.025756225 0.025487423
0.020602899 -0.059851617 -0.049827684 0.0027993175 0.0035803074 0.015248342 0.014331861 0.0020480393
-0.03842356 0.042365022 -0.02462734 -0.00018550732 0.029666768 0.029275918 -0.050220564 -0.029083049
0.015474805 -0.015318423 -0.013067743 -0.02498005 -0.0074884435 0.012825334 0.027309671 -0.08966754
0.005262231 -0.006134383 -0.032104697 0.009252955 -0.03937163 0.0018003553 -0.009619661 0.0062523982
0.0010812539 -0.033126794 -0.03334232 0.06932323 -0.029604895 0.023489013 -0.06670254 0.025822679
0.00017990942 0.03212501 -0.015195669 0.027451932 -0.07079057 0.03173087 0.02580606 -0.0029600295
0.0020401757 0.021510331 -0.13418871 -0.03684404 -0.06705298 0.014302768 -0.04860948 -0.04787703
-0.076991655 0.026671965 -0.019375682 0.04118987 -0.016971037 0.021139165 -0.02820749 0.030711954
-0.036175936 0.029884523 0.013025598 -0.004821362 -0.03554189 0.0061497656 0.030783162 0.02236434
0.043099754 0.004388821 -0.039193604 0.038037546 0.0845559 -0.0017502605 0.024970451 0.05225836
-0.05419033 0.08646494 -0.023206295 0.032912023 -0.11002187 -0.0009050585 -0.15923303 0.03437052
-0.095141836 0.101298966 -0.024121128 -0.021299306 -0.08292427 0.025703141 0.08357039 -0.032901157
-0.11375483 0.012628591 -0.042209633 0.109366626 -0.10551335 0.028018361 -0.070514105 -0.039805442
0.0019702201 -0.049330924 0.08207919 -0.0057301275 0.011618193 0.02341014 -0.02034969 0.039896436
0.017792745 0.024608219 0.03993344 0.0078393435 0.0827644 -0.027560512 -0.07949901 -0.042744327
-0.013426614 -0.052601203 0.034921285 -0.032471105 0.0036889312 -0.020709405 -0.04191239 0.020114066
-0.0027985866 0.003384921 -0.01996908 -0.045733567 -0.0276925 -0.000990111 0.026878629 -0.0042294473
0.012315959 0.02613786 0.04820737 -0.008351889 0.061908454 0.0357495 0.015579941 0.018198673
0.034818027 0.05931234 -0.028870627 0.029048186 0.09084241 -0.06610225 0.039652053 -0.025262741
0.027384069 -0.018963307 -0.017471826 0.022156429 0.055276748 0.03226092 -0.038052455 -0.040653713
-0.04972074 0.011294644 0.04565054 -0.039780833 -0.040264077 -0.009822632 -0.015750272 -0.0033160965
-0.027781548 -0.06694222 -0.0762698 -0.03827809 0.020818353 -0.01168418 0.016588239 0.015146324
0.030789685 0.009645178 0.005450159 0.03030915 -0.036329944 -0.054368827 0.07053265 0.036287334
0.031133512 -0.029598363 -0.031107794 0.056299444 -0.026223874 0.037388906 -0.014272932 0.072107084
-0.112424575 -0.012285332 -0.05263789 -0.008442201 0.024451798 -0.025837522 0.004546183 -0.01623325
-0.0036751842 -0.01707833 -0.012879697 -0.03345817 -0.015527498 -0.003788344 -0.049146254 0.0029197377
0.036580317 -0.046941187 -0.021184359 0.005914963 -0.0025283478 -0.0050248615 -0.046066824 -0.03423047
0.06626699 0.0056115706 -0.024796057 -0.018310716 -0.040971074 0.0013960066 -0.019484097 0.023227688
00000000: adc6 173d 4467 babc eca4 e6bc 3670 40bd
00000010: 7977 a83d b709 73bd 3436 45bd f269 8d3d
00000020: c4c8 e3bc 2440 693d 05c2 2a3d 5cf9 463b
00000030: 8edc 043d 30b3 013d 1fb4 1d3c 5336 1b3d
00000040: bb1c 2abd fbf7 07bd 4e78 7abd f64b 4c3d
00000050: 8f51 67be c8df 7d3e df85 2dbe 9678 d33d
00000060: f659 a63c 1dc2 0c3d d455 1b3d 11cf 6b3d
00000070: 4179 e7bc 7a24 023c b8fe d2bc 00cb d03c
00000080: 69c7 a83c f826 75bd 1d18 4cbd c174 373b
00000090: 97a3 6a3b 2fd4 793c 2fd0 6a3c 6638 063b
000000a0: 0662 1dbd f286 2d3d 46bf c9bc be84 42b9
000000b0: b907 f33c 0dd4 ef3c 14b4 4dbd 933f eebc
000000c0: 098a 7d3c 1ffa 7abc 161a 56bc f6a2 ccbc
000000d0: 9e61 f5bb 5a21 523c 88b8 df3c 9da3 b7bd
000000e0: cb6e ac3b ef02 c9bb 3780 03bd b599 173c
000000f0: 2544 21bd e6f9 eb3a c89b 1dbc ebe0 cc3b
00000100: dcb8 8d3a f6af 07bd f591 08bd 56f9 8d3d
00000110: f785 f2bc 086c c03c 579b 88bd 158a d33c
00000120: 11a6 3c39 8495 033d 41f7 78bc e0e2 e03c
00000130: a5fa 90bd 3bf8 013d 3b67 d33c 0efd 41bb
00000140: 78b4 053b 6f36 b03c c468 09be c7e9 16bd
00000150: 1353 89bd 2856 6a3c bc1a 47bd b41a 44bd
00000160: cdad 9dbd 2a7f da3c c0b9 9ebc b6b6 283d
00000170: d806 8bbc 0b2c ad3c 6513 e7bc a397 fb3c
00000180: 382d 14bd 63d0 f43c 5169 553c 84fc 9dbb
00000190: 5f94 11bd f983 c93b f82c fc3c 6c35 b73c
000001a0: 5e89 303d 19d0 8f3b 7989 20bd 42cd 1b3d
000001b0: a52b ad3d ff68 e5ba d58e cc3c dd0c 563d
000001c0: aef6 5dbd 8814 b13d 211b bebc c2ce 063d
000001d0: 2553 e1bd 7341 6dba fc0d 23be 1ac8 0c3d
000001e0: b9d9 c2bd d575 cf3d ac99 c5bc e27b aebc
000001f0: 33d4 a9bd 658f d23c f426 ab3d 5dc3 06bd
00000200: 4bf8 e8bd 26e8 4e3c 02e4 2cbd 9cfb df3d
00000210: 6217 d8bd c386 e53c b369 90bd 080b 23bd
00000220: cf1e 013b 390f 4abd 2219 a83d cbc3 bbbb
00000230: 3c5a 3e3c 9fc6 bf3c 65b4 a6bc 726a 233d
00000240: 17c2 913c 2d97 c93c 3f91 233d 9770 003c
00000250: 6280 a93d 95c6 e1bc 61d0 a2bd ad14 2fbd
00000260: 4dfb 5bbc 5c74 57bd 9f09 0f3d 6c00 05bd
00000270: ffc1 713b c5a6 a9bc 54ac 2bbd 41c6 a43c
00000280: 7e68 37bb 8dd5 5d3b 3296 a3bc 1f53 3bbd
00000290: 62db e2bc 9dc6 81ba 9230 dc3c 2d97 8abb
000002a0: e0c8 493c 111f d63c 1775 453d 5dd6 08bc
000002b0: b893 7d3d 116e 123d 0243 7f3c 6215 953c
000002c0: 599d 0e3d 7ff1 723d 1882 ecbc 76f6 ed3c
000002d0: 960b ba3d 9e60 87bd 316a 223d cff3 cebc
000002e0: 8e54 e03c f058 9bbc 1321 8fbc 6681 b53c
000002f0: df69 623d 0724 043d e4dc 1bbd 8284 26bd
00000300: faa7 4bbd 2c0d 393c 10fc 3a3d 3af1 22bd
00000310: f2eb 24bd 1bef 20bc b706 81bc de52 59bb
00000320: 2196 e3bc 0119 89bd 5733 9cbd 7dc9 1cbd
00000330: 408b aa3c 016f 3fbc 0fe4 873c 4a28 783c
00000340: a63a fc3c cf06 1e3c 3f97 b23b e54a f83c
00000350: b5ce 14bd d9b1 5ebd 6c73 903d 07a2 143d
00000360: b50b ff3c 4478 f2bc c6d5 febc 3f9a 663d
00000370: 73d3 d6bc 1c25 193d 04d9 69bc e1ac 933d
00000380: db3e e6bd 6b48 49bc d49a 57bd 2851 0abc
00000390: 234f c83c 36a9 d3bc 26f8 943b 98fb 84bc
000003a0: 5cdb 70bb dbe7 8bbc 5d05 53bc 6f0b 09bd
000003b0: 0c67 7ebc de45 78bb 954d 49bd 1259 3f3b
000003c0: 3ed5 153d 6745 40bd d28a adbc 4ed2 c13b
000003d0: a3b2 25bb 98a7 a4bb 91b0 3cbd 4035 0cbd
000003e0: fdb6 873d 44e1 b73b 1a21 cbbc 5b00 96bc
000003f0: 49d1 27bd 35fa b63a 1d9d 9fbc fe47 be3c

sequences.2.bias f4 [32]
-0.0031877353 0.024959797 -0.054179754 0.009241063 -0.047919177 0.053483695 0.06907114 0.027327076
-0.06403051 0.017196162 0.06431728 0.05421375 0.009604199 -0.05051766 0.067279436 -0.06691022
0.03249643 0.03550935 -0.039350852 -0.06382779 0.06057731 0.048478454 0.0732862 0.07537206
0.0028660647 0.08227848 -0.01280373 -0.04944317 -0.030561706 -0.018097406 0.051382173 0.07389982
00000000: 53e9 50bb 7d78 cc3c 97eb 5dbd d467 173c
00000010: e646 44bd b811 5b3d 2b75 8d3d 08dd df3c
00000020: 6e22 83bd f7de 8c3c c7b8 833d 3d0f 5e3d
00000030: ee5a 1d3c 9beb 4ebd cdc9 893d 3a08 89bd
00000040: fa1a 053d 4172 113d 5c2e 21bd 25b8 82bd
00000050: ea1f 783d 5891 463d 1317 963d ab5c 9a3d
00000060: 96d4 3b3b 9f81 a83d bcc6 51bc ec84 4abd
00000070: 8b5c fabc 0341 94bc 1d76 523d ca58 973d

sequences.4.weight f4 [16, 32, 3, 3]
-0.1344839 -0.044900835 0.0988394 -0.031853113 0.014767487 0.06620295 0.018644562 0.02727181
-0.009865613 -0.02957409 -0.067562155 -0.043509413 -0.0617482 -0.051125873 -0.045097783 0.016720155
0.0010985266 -0.07690919 0.10301792 0.10006545 0.015311282 0.117171794 0.10201295 0.052451074
-0.053161394 0.025130367 -0.00795402 0.041256625 -0.0007485163 -0.07343828 -0.017937027 -0.022111623
0.014391032 -0.07698529 -0.0075031905 -0.038437705 0.056383826 0.0864245 -0.08739926 0.15260904
0.18298607 0.030034922 -0.039868165 0.04413097 -0.0317504 -0.041115135 -0.12665282 -0.05909036
0.0007362694 -0.13743252 -0.0623375 0.075390466 0.043060098 0.0468945 -0.06887838 -0.047699958
-0.009514182 -0.039898913 -0.042714275 -0.050102923 -0.056916945 -0.027675511 0.04292936 -0.031935774
-0.047610465 0.036762152 -0.0747175 -0.098865144 -0.04339557 0.005062875 -0.034413997 0.024285946
-0.03948501 0.20321845 -0.06212093 -0.02875666 0.20316692 -0.050415166 0.107752524 0.16237783
-0.005256754 0.03156799 0.10097715 0.06177775 0.07169033 0.018634502 0.024796013 0.036699325
0.07541201 0.036613733 -0.018032823 -0.049862724 0.0560262 -0.17886509 -0.029519588 0.04554919
-0.073156364 -0.047571354 -0.008133669 0.071983255 0.034768146 0.024989402 -0.16239922 -0.114368334
-0.028344944 -0.056696057 -0.04943347 -0.038243216 0.009922071 0.026319573 0.038959812 -0.07143482
-0.04908347 -0.014350638 0.076672934 -0.007912672 0.00036249665 0.05021535 0.019989075 0.07690369
0.07577328 0.085113436 0.1003339 -0.01841954 0.009453035 0.051594563 -0.088301204 -0.093633346
-0.06351207 -0.08840171 -0.1396996 -0.10525932 -0.056860883 -0.060125176 -0.039697457 0.075876206
0.12663059 0.03812306 0.13835669 0.091148004 0.008757888 0.0012359205 -0.030197654 -0.08096073
0.022016166 -0.12118076 -0.029325087 0.0148456935 -0.048085947 0.043009304 0.019454978 0.032119673
0.032571863 -0.066591114 -0.03201794 -0.02221694 0.040581755 0.003424699 -0.017206792 -0.016289541
-0.024343215 -0.060261164 0.11486515 -0.047633454 -0.088830166 0.20375317 0.13919158 -0.09091184
-0.014911932 0.11411609 -0.006413362 -0.03230656 0.07099301 -0.042516213 0.081935756 0.20726164
0.061138295 -0.042580698 0.025368867 -0.028141122 -0.038501415 -0.002218813 0.00790681 -0.045029435
-0.11524098 -0.043299843 -0.0205354 -0.008572684 -0.029918874 -0.038373742 -0.06688564 0.043038514
0.033238716 -0.016141292 -0.054178797 -0.026329735 -0.039722998 -0.06294916 0.077320844 0.007384395
-0.06360117 -0.09212981 -0.012050131 0.023230657 -0.009019129 -0.06887001 -0.02600393 -0.0010295362
-0.024034316 0.048109088 0.013158008 -0.064224325 0.007074684 0.10771521 -0.043980297 0.032235116
-0.06555305 -0.1825168 -0.084739186 -0.18405595 0.1912198 -0.01656077 0.07815434 0.29667398
0.06021299 -0.06524417 -0.07491084 -0.04239021 -0.10247877 -0.13472164 -0.07159437 -0.018738199
0.040756308 0.009080885 -0.034803167 -0.041599877 -0.035603315 -0.031384557 -0.016509995 -0.011994312
0.07349766 0.09794061 0.05829208 -0.02720129 0.0596749 0.028784117 0.06738423 0.078515135
0.076757774 -0.013919856 0.10276606 -0.015309498 0.04905914 0.12527344 -0.04931418 0.11200821
00000000: 26b6 09be f0e9 37bd 506c ca3d 6978 02bd
00000010: 54f3 713c 6a95 873d 7bbc 983c 2269 df3c
00000020: 61a3 21bc 5d45 f2bc 075e 8abd ed36 32bd
00000030: aeeb 7cbd 5d69 51bd 74b8 38bd b5f8 883c
00000040: 70fc 8f3a 9182 9dbd 0ffb d23d 1def cc3d
00000050: 2cdc 7a3c c4f7 ef3d 2aec d03d f0d6 563d
00000060: c3bf 59bd 33de cd3c 9451 02bc b5fc 283d
00000070: 1438 44ba cf66 96bd acf0 92bc 6f23 b5bc
00000080: 5dc8 6b3c 77aa 9dbd 53dd f5bb db70 1dbd
00000090: baf2 663d 54ff b03d 62fe b2bd 8b45 1c3e
000000a0: b360 3b3e cc0b f63c cd4c 23bd adc2 343d
000000b0: b50c 02bd 5868 28bd 47b1 01be bc08 72bd
000000c0: 3402 413a 1cbb 0cbe 9b55 7fbd 5166 9a3d
000000d0: c95f 303d 7214 403d 1c10 8dbd 0861 43bd
000000e0: 5fe1 1bbc 0b6d 23bd 2af5 2ebd b938 4dbd
000000f0: be21 69bd c1b7 e2bc b2d6 2f3d 16cf 02bd
00000100: 3103 43bd e993 163d 7d05 99bd cf79 cabd
00000110: 8ebf 31bd 79e6 a53b b1f5 0cbd 52f3 c63c
00000120: 09bb 21bd 7f18 503e 8472 7ebd 1693 ebbc
00000130: fd0a 503e 2280 4ebd 5bad dc3d 6046 263e
00000140: d940 acbb 704d 013d 1ccd ce3d aa0a 7d3d
00000150: 61d2 923d 62a7 983c 0221 cb3c 0852 163d
00000160: 9d71 9a3d 48f8 153d 92b9 93bc db3c 4cbd
00000170: bb7b 653d 6928 37be 10d3 f1bc ca91 3a3d
00000180: 01d3 95bd 2eda 42bd 1543 05bc f56b 933d
00000190: 0b69 0e3d 93b6 cc3c fb4b 26be f239 eabd
000001a0: a833 e8bc 203a 68bd c07a 4abd eba4 1cbd
000001b0: 2f90 223c 259c d73c 5394 1f3d 6b4c 92bd
000001c0: c00b 49bd f01e 6bbc b306 9d3d 27a4 01bc
000001d0: 7a0d be39 9cae 4d3d 21c0 a33c af7f 9d3d
000001e0: 052f 9b3d f44f ae3d dc7b cd3d 93e4 96bc
000001f0: e7e0 1a3c d254 533d 43d7 b4bd d7c2 bfbd
00000200: 9e12 82bd f50b b5bd 690d 0fbe 3392 d7bd
00000210: f5e6 68bd d145 76bd cd99 22bd fc64 9b3d
00000220: 73ab 013e ed26 1c3d 60ad 0d3e ceab ba3d
00000230: 3f7d 0f3c 9cfe a13a 1261 f7bc bdce a5bd
00000240: 3f5b b43c 9e2d f8bd 2a3b f0bc 5a3b 733c
00000250: c5f5 44bd 862a 303d 0c60 9f3c eb8f 033d
00000260: 136a 053d ec60 88bd 3e25 03bd 4d00 b6bc
00000270: 0e39 263d ea70 603b 42f5 8cbc a571 85bc
00000280: 6c6b c7bc 69d4 76bd 6b3e eb3d 4c1b 43bd
00000290: 97ec b5bd aca4 503e 3d88 0e3e fd2f babd
000002a0: 2d51 74bc b2b5 e93d 2e27 d2bb e253 04bd
000002b0: c964 913d 7b25 2ebd efcd a73d 653c 543e
000002c0: 266c 7a3d 1969 2ebd 5fd2 cf3c 3688 e6bc
000002d0: a9b3 1dbd 8169 11bb 918b 013c c970 38bd
000002e0: 7703 ecbd 2d5b 31bd db39 a8bc 7174 0cbc
000002f0: 6d18 f5bc c92d 1dbd 57fb 88bd 2749 303d
00000300: 5225 083d be3a 84bc 96ea 5dbd 75b1 d7bc
00000310: 95b4 22bd 7deb 80bd 645a 9e3d ccf8 f13b
00000320: 5541 82bd 8eae bcbd ea6d 45bc 384e be3c
00000330: f8c4 13bc b80b 8dbd 3206 d5bc 81f1 86ba
00000340: 9de3 c4bc 090e 453d b094 573c 0b88 83bd
00000350: c0d2 e73b cb99 dc3d af24 34bd f808 043d
00000360: ad40 86bd afe5 3abe bd8b adbd 2a79 3cbe
00000370: 20cf 433e 74aa 87bc 620f a03d a7e5 973e
00000380: e5a1 763d bc9e 85bd db6a 99bd 5ba1 2dbd
00000390: 64e0 d1bd 78f4 09be 12a0 92bd da80 99bc
000003a0: 16f0 263d fec7 143c c48d 0ebd a264 2abd
000003b0: c8d4 11bd 188d 00bd f83f 87bc ca83 44bc
000003c0: f185 963d 1695 c83d adc3 6e3d 3dd5 debc
000003d0: ab6d 743d abcc eb3c be00 8a3d 8bcc a03d
000003e0: 2e33 9d3d 1c10 64bc 0377 d23d b0d4 7abc
000003f0: 3df2 483d ae47 003e aafd 49bd 8f64 e53d

sequences.4.bias f4 [16]
0.0056802826 -0.03731748 -0.06776057 -0.00043457164 -0.07171445 -0.022751061 -0.004988558 -0.039462358
-0.071097456 -0.05796285 -0.040430155 -0.06311876 0.0019283526 -0.013619213 -0.009368553 0.009002697
00000000: aa21 ba3b 37da 18bd 0ec6 8abd 38d7 e3b9
00000010: 07df 92bd 6f60 babc 0f77 a3bb 48a3 21bd
00000020: 8b9b 91bd 746a 6dbd 179a 25bd 6944 81bd
00000030: c7c0 fc3a 1f23 5fbc 8f7e 19bc 0c80 133c
