saved_models/UPSCALE_X5/epoch_5.pth (torch, 111967 bytes, 6 tensors)

sequences.0.weight f4 [64, 1, 5, 5]
00000000: 0ba9 40be 98b9 01bd 898c 413e c748 0cbe
00000010: ccd2 39be 6f2d 41be 8f63 053e 21fa 473e
00000020: ff70 03bc cdf3 9f3c b02a 2c3d cb7e a93c
00000030: 62cb 18be 03c1 3a3e 24e5 dfbc c9fe ffbd
00000040: 94da 34bd a406 b53c 7966 503e 5962 cc3d
00000050: b9e1 f3bd ab85 9fbd a0bc 10be 50c2 a63d
00000060: 91fd 8ebd 0b31 edbd ca77 313e 911d 33bc
00000070: b5c2 3a3d d612 39be d819 a03c 9758 0f3e
00000080: a32b d3bd b4a8 4cba 4b66 0abe f8df 84b9
00000090: f1ad adbd 54d4 6ebd ca10 01be e5b9 f6bd
000000a0: 8933 1a3c d308 543c a752 4f3e 7a66 63bd
000000b0: b411 4a3e 88c2 863d b9bb ce3d 0a1a 9d3d
000000c0: 47b5 813d 03bf 473e 9b8f 393e 4d94 5d3c
000000d0: ca32 4a3e b1fa 543c 418a b73d fe51 f43d
000000e0: f164 3bbe 1f64 09be b770 f13d 148d b53d
000000f0: 68b1 2a3d cc89 c6bd 8002 143d b4a5 573e
00000100: 0a62 eabd 8a2d b83d 1b02 b03c 8816 ecbd
00000110: 7ee8 3cbe 5617 2b3e b561 d939 8ec7 373d
00000120: 2880 093e d9e4 dcbd e3c2 843d cf45 cbbd
00000130: 1011 d9bd fcd8 503e 8e69 86bc 47fd 1ebe
00000140: 7377 a5bd 908a a3bc 2858 aabd 5d75 02be
00000150: cd3e ac3c 0800 883c 56eb a73a 4b76 f83d
00000160: 4505 2e3e 4a02 123e d92b 2ebe 7bae 5a3e
00000170: ae88 e53d 0e19 56bd 1fc7 003e c352 5b3d
00000180: d0b0 f0bd bacc 043e 1f0d e0bd 73d1 2dbe
00000190: a0a5 423c 091e 3ebd 3d96 fbbd 86dc d33d
000001a0: 2190 9fbc 429c 173e a87d 2ebe 7f33 39bc
000001b0: 5399 823c fc6a 53bb b258 8a3d c403 2bbe
000001c0: a410 5ebd ac14 6a3e ffdf 3d3e a071 1d3e
000001d0: 6cbd 29be 6f2d 0ebd dbff bb3d 9a76 173c
000001e0: 4a74 a23d a173 0d3c 88eb b6ba ecae 20bc
000001f0: 2b82 04bc 5457 8f3d e810 3a3e ffa6 acbd
00000200: f04c 3e3e cc93 b1bb b64e 373e 7633 4b3e
00000210: 0299 c7bd 2f8d 4b3e 16ba fcbd ac04 083e
00000220: 08f0 5b3e acbf 63bb 34e1 0dbe 59e0 323e
00000230: da5a 90bd e51a e03d 5d1b 083b cf7a f73d
00000240: 22e1 143e ac63 6bbd c578 17be ee89 613e
00000250: 86bf 433e 5cdf 3a3e 780d 21be 0905 ac3b
00000260: 1334 fb3d b231 1dbe faaa f13c a5e6 863d
00000270: 2da4 efbd 6c1a 55be ac42 223e 6c4b cd3d
00000280: 98ea 8abd c365 1b3e e680 45bc 646d 9abc
00000290: 7874 a33d 502f 87bd 97d0 2e3e 5c93 383e
000002a0: 1dd2 59be 6454 22be 2d02 0bbe 3030 04be
000002b0: 62ae 293e 5cc2 05be aac2 fabd a407 9bbd
000002c0: 04df 33bd 9e67 f0bd aec6 f5bc 05bc b1bb
000002d0: 8d7d 6c3d fb18 2f3e d03b 5cbe a42c 85bb
000002e0: 2056 513c 8da4 3ebe 1833 4d3e 8488 993d
000002f0: 0c82 40be 020f 903d f8c3 2ebd ae1b 8fbd
00000300: 2bc1 abbc cb6d 3a3e c1d1 093d 7a41 7abb
00000310: 42da d93d 01e6 4b3c 4dda b03d da99 463d
00000320: c578 973d 5bec 48be 4b4d 52be 62d6 0abe
00000330: 59fa 693d 6368 46be 9d1d 8d3d 7b78 dcbd
00000340: 678b 123e 163e fabd d96d 213e ef0f 1d3e
00000350: 15f9 83be c5bb 0c3c 3823 7a3c d44d 193e
00000360: 0dc8 423e 297d 22be 0ee6 4e3e d5ef bcbd
00000370: f194 b73d 7e5d ce3d f092 213e 58e6 7dbd
00000380: 7919 d63c 88c1 13be c7f7 5ebd 3ef6 48be
00000390: 5b91 fe3d 2c1d 253e 5ae1 2f3e 9645 aa3d
000003a0: ed78 1c3e 9b46 77bd 5c9e 1fbe 9b5a 8cbd
000003b0: 0eab c33d da7d 123e b728 84bd e075 a73d
000003c0: 9153 903d 28e6 35be 4d7b eabd f584 1b3e
000003d0: 954b a83d 97b0 52be 95ae 3f3d 14b2 223e
000003e0: 6d33 bb3d 875b dd3d bf8d 17bd e6b9 563e
000003f0: f152 803d 7f6a 4d3e 66dd 193e ddd5 2e3e
-0.18814485 -0.031671137 0.18901266 -0.13699637 -0.18146819 -0.18864988 0.1302626 0.1952901
-0.008022546 0.019525433 0.042032897 0.020690342 -0.14921334 0.1823769 -0.027330942 -0.12499768
-0.044153765 0.022097893 0.2035159 0.09979696 -0.119082876 -0.07789167 -0.14134455 0.08142531
-0.06981958 -0.1158162 0.17330852 -0.010932342 0.045595843 -0.18073592 0.019543573 0.13998638
-0.103110574 -0.0007807121 -0.13515584 -0.00025343872 -0.08480442 -0.05830796 -0.12604061 -0.12047175
0.009411701 0.012941557 0.20246373 -0.05551765 0.19733316 0.06580073 0.10094399 0.07670982
0.06333404 0.19506459 0.18121187 0.013524127 0.19745937 0.012999223 0.08961917 0.11929701
-0.18300225 -0.134171 0.11789077 0.08864799 0.041673094 -0.096942514 0.036135197 0.21059304
-0.11444481 0.08993061 0.021485379 -0.11527735 -0.18448064 0.1670812 0.00041462263 0.044868045
0.13427794 -0.10785837 0.06482484 -0.09925424 -0.105989575 0.20395273 -0.016407754 -0.15526305
-0.08079424 -0.019963533 -0.08317596 -0.12740083 0.02102604 0.016601577 0.0012811224 0.121319376
0.16994198 0.14258686 -0.17008914 0.21355622 0.1120771 -0.052269988 0.12575959 0.053545725
-0.11752474 0.12968722 -0.10940003 -0.1697443 0.011880308 -0.046415363 -0.12284515 0.10344796
-0.019477906 0.14805701 -0.17040122 -0.0113037815 0.015942251 -0.0032259813 0.067551985 -0.16700655
-0.05421509 0.22859448 0.18542479 0.15375376 -0.16576165 -0.034711298 0.0917966 0.009244585
0.07932337 0.008633525 -0.0013955692 -0.00980733 -0.008087675 0.069990784 0.18170512 -0.084302895
0.18584037 -0.00541923 0.1790112 0.1984385 -0.09745981 0.19878076 -0.123401806 0.13283032
0.21478283 -0.0034751697 -0.1385544 0.17468394 -0.070485786 0.1094263 0.0020768263 0.12083971
0.14539006 -0.0574681 -0.14792164 0.22025272 0.19116029 0.18249267 -0.15727794 0.0052496237
0.12265792 -0.15350989 0.029500473 0.06586961 -0.11701236 -0.2081086 0.15845746 0.10024151
-0.067830265 0.15175538 -0.012054658 -0.01885099 0.07981199 -0.06600821 0.17071758 0.18024963
-0.21271558 -0.15852505 -0.13575049 -0.12909007 0.16570428 -0.13062423 -0.122441605 -0.07569817
-0.043913856 -0.117385134 -0.030001964 -0.005424025 0.057736922 0.17099373 -0.21507192 -0.0040641595
0.012776881 -0.18617459 0.20039022 0.074967414 -0.18799609 0.070341125 -0.04266736 -0.06987701
-0.020966133 0.18205945 0.033647303 -0.0038186 0.106373325 0.012444974 0.086353876 0.048486568
0.07396082 -0.19621412 -0.20537297 -0.13558343 0.057123516 -0.19375758 0.06890414 -0.10765167
0.1431099 -0.12218873 0.1576456 0.1533811 -0.25775972 0.00858969 0.015267186 0.14971095
0.19021626 -0.15868057 0.20204946 -0.09225432 0.08963955 0.10076426 0.15778708 -0.06198725
0.026135193 -0.14429295 -0.054435518 -0.19625184 0.12430068 0.1612441 0.17175809 0.08314054
0.15280505 -0.06037007 -0.15587753 -0.06853219 0.095541105 0.14305821 -0.06453078 0.0817678
0.07047189 -0.17763579 -0.11449299 0.15187438 0.08217541 -0.20575176 0.046797354 0.15888244
0.09140668 0.10808473 -0.037000414 0.20969352 0.0626582 0.20060156 0.15025863 0.1707377

sequences.0.bias f4 [64]
00000000: 762e 163e 53ae ecbd 513b 48be 3880 d4bd
00000010: f657 3bbe 2e0b 553e 9abe 033e 5827 c43d
00000020: 2df8 b03d 0faa 88bd b96e 183d c956 9b3d
00000030: c24d c5bc dc1a 7e3c 37ab 0abe a2e1 11bb
00000040: f5a3 3c3e 46da 09be 08ed dc3c 077a ef3d
00000050: f966 8dbd df5a 44be 3b80 52be 6ac3 103e
00000060: 1366 ce3d a53c 213d 51aa 213e c948 363e
00000070: 6f06 3d3e 7494 8dbc 6f8c 21be e584 e73b
00000080: fe57 33be 129e 30be 3de8 3dbe 47d7 563d
00000090: a647 93bc 4fd3 c83c 4439 1dbe c4ca 3239
000000a0: deca 4ebe 6095 bbbd 6527 f33d e5e6 c73d
000000b0: 5ed5 45be a8a2 303e 314f eb3d 5cc4 0d3e
000000c0: 0d04 06bd 7b83 4d3d 9d89 403e 5414 823d
000000d0: 3575 ef3d 2d31 013d 6c1b 25be 7eb4 b13d
000000e0: cd47 45be 5ddc e73d 2506 c43d a1d1 55be
000000f0: be17 3e3e bf60 37be 7562 273e 230f 15bd
0.14666161 -0.11556687 -0.19553877 -0.10376018 -0.18295273 0.20805046 0.12865677 0.09577817
0.08641086 -0.06673061 0.03721497 0.07584912 -0.02408493 0.015509333 -0.13541876 -0.0022259732
0.1842192 -0.13462171 0.026968494 0.11693197 -0.06904406 -0.1917529 -0.20556729 0.14137045
0.10078063 0.039364476 0.15787627 0.17801203 0.18459485 -0.017282702 -0.15776227 0.007065403
-0.17514035 -0.17247799 -0.18545623 0.0524514 -0.0179785 0.024514822 -0.15353876 0.00017050939
-0.20194575 -0.091593504 0.11872748 0.097608365 -0.19319674 0.17249548 0.11489714 0.13844436
-0.032718707 0.050174218 0.18802495 0.063515335 0.11692277 0.03154104 -0.16123742 0.08677004
-0.19265671 0.11321328 0.095714845 -0.20880748 0.18563744 -0.17908 0.16346152 -0.03639139

sequences.2.weight f4 [32, 64, 3, 3]
00000000: eef6 86bd 9fde 413d 3d2e df3c 7645 6e3c
00000010: 287d d3ba faf3 45bc 390b 03bd 481f b23c
00000020: e803 66bc 9e45 533d ecb0 a13c cab9 5d3c
00000030: 0257 1a3d d56a 0dbd 84f1 31bc a44f d23c
00000040: d260 a0bc 021b f3bb 24f9 b73c b539 48bd
00000050: fc64 a23c cfb4 5cbd 36f6 96bc c4a4 e53c
00000060: db21 8cbc 9834 0ebd b70e 153c 9c4f a3bb
00000070: 5709 ecbc 1aa0 983c caaa 19bd 3ed1 c13c
00000080: ab50 533c b074 113c f4d9 93bc 863e 9dbb
00000090: 6565 673c 6e78 2a3c e28a 68bc 7bc9 57bd
000000a0: ba21 1bbd e9c7 fdbc b86e 1abd 6fef ab3c
000000b0: b0f6 473d 8054 3dbc 164e 143c 6caf a23c
000000c0: 6ad9 bbbc bf75 87bc 0722 a6bb 82e5 e4bb
000000d0: bf79 363d 38f8 c6bc 3fea a53b d6e9 053c
000000e0: 5f4b 57bc 21de d9b9 73b7 8a3d 7d7b 20bc
000000f0: e0d1 743c b651 e73c 2410 b83c 4614 cb3b
00000100: 0d87 12bc 10d7 d5bc 14e8 e8bc f3c0 343d
00000110: 7279 bdbc b9c7 2cbd 0d3c 0b3d 1080 163b
00000120: a6f6 51bc e181 1f3d 58bc 593a 390b 763a
00000130: 8370 e03c b569 013d d576 8cbd 679e 983b
00000140: cbbc 163c dda0 14bc 7cbd 77bc a922 8cbc
00000150: 4cd8 5e3c 0f72 3cbd 188c 353c 3e10 9d3c
00000160: d60b 7a3c 9d18 4abd a588 c13c dc2e 3dbd
00000170: b5d5 a3bc 0232 493d db97 b63c 7985 4ebd
00000180: 500e 15ba 7810 b8bc 0d70 a4bd 79f4 b2bb
00000190: 996b 0b3c 8e1b 2ebd 135e 2bbd e23a be3c
000001a0: 9abc 493c 6186 e83c 54de 0dbd 6107 1bbc
000001b0: 9819 623c 0b94 45bd 7678 083c 4a9e d73c
000001c0: 2d02 10bd f9eb abbc 9760 743b ef00 8f3c
000001d0: a117 f0bc c120 9d3c 4c8b 813b b527 ad3a
000001e0: 9476 a2bd 3881 573d d17b c53d c027 dabc
000001f0: de68 b1bd 1bdc 4d3d 4e9e 6a3d 507f 9a3a
00000200: f822 92bb 45bb 903c df21 3c3c e5ea b43c
00000210: e7ba fe3b 0208 12bc 3f20 ce3c f859 0c3b
00000220: e92c 863d 7701 203d ccb9 37bc 55a7 42bd
00000230: d3f0 48bd fb50 cc3c 9300 093c b468 f0bc
00000240: 12a5 afbc 2b69 a53b 0179 5f3c 9653 4bbc
00000250: a204 d73c a7cc 15ba 1327 90bb 80b8 c8ba
00000260: 30d5 62bd 7570 a53c dd62 3abc 6f9c 6ebc
00000270: 6615 083c 117d 70bc c80d b93b 737f 1d3b
00000280: fc9e 7abc e3fd b03c e156 543c 0192 803b
00000290: dcbe f43c 4acd 63ba 6911 113d a640 64bc
000002a0: 0f95 923b 5adc 253d cedb 05bb 0837 c83c
000002b0: e17c 553d fb34 073d 736c 253c 8399 933c
000002c0: d52a 493d 24fa b43c a69d 093d e4cd 34bd
000002d0: 0e0f bbbc 6497 473d d208 47bb b8e0 e1bc
000002e0: b3ce 82bc ab74 0bbc 3949 80bc de07 553d
000002f0: 5f58 cbbb c8dd 183c 63ef f53b 990b a73c
00000300: 5a2d 003c 9dfb 98bd cc5f 583c 22a7 753c
00000310: fe7c 02bd 33ab 1e3c b6c4 873c dde8 583b
00000320: 9954 e53c 110c c6bc 2d16 263b 931d c43c
00000330: dbd6 76bc a750 48bc 33db aabc 7c27 08bc
00000340: 8e0f 8c3c 07c5 50bb e91b 403c c811 063d
00000350: 65cf 0b3d 83f6 30bd 18f5 23bd 84ea b839
00000360: a481 f3bb 565b fbbc d8e2 d3bc 7020 193d
00000370: 5ff3 2d3d b96b 6f3c 8fce 2b3d e329 07bd
00000380: 55ca ed3b f27a 9a3c 6445 4d3b 4622 b6bc
00000390: 5760 223d 5725 0e3d 0271 a6bb ad8f d23c
000003a0: 403b f63a aa3e 76bd 315b 523d 4bfe 903d
000003b0: 0746 333d 9416 9ebb 1d4e abbb 746e 4dbd
000003c0: 68a6 283d c59e c0bb 5eee 13bd df43 ca3c
000003d0: 3a48 7fbc fcb2 e3bc b7aa 81ba bad8 4e3d
000003e0: 3bad 283c 0697 2ebd 81b8 c73c 204a 9ebb
000003f0: 6ed1 5db9 4a5c 9b3c eb2d 18bd 19b3 c73c
-0.06590067 0.04733145 0.027243728 0.014542928 -0.0016135322 -0.012082094 -0.031993125 0.021743432
-0.014039017 0.051580064 0.019737683 0.013533065 0.037680633 -0.03452571 -0.0108608045 0.025672741
-0.019577418 -0.007418991 0.022457667 -0.04888316 0.019823544 -0.05388337 -0.01842795 0.028032668
-0.017105987 -0.034718126 0.009097747 -0.0049838554 -0.028813047 0.01863103 -0.037516393 0.023659345
0.012897651 0.008877918 -0.018048264 -0.004798713 0.014123295 0.010404689 -0.0141932685 -0.05268238
-0.03787396 -0.030979114 -0.037703246 0.020988194 0.048819244 -0.011555791 0.00905182 0.019859038
-0.02293082 -0.016535638 -0.0050699743 -0.0069853673 0.0445497 -0.024288282 0.0050633247 0.008173427
-0.013140528 -0.00041554964 0.067732714 -0.009795067 0.014942616 0.028237205 0.022468634 0.006197485
-0.008943331 -0.026103526 -0.028430976 0.044129323 -0.023129199 -0.042182658 0.033992816 0.0022964515
-0.012815153 0.03894222 0.00083059585 0.00093858276 0.0273974 0.03159495 -0.06858603 0.004657555
0.009200285 -0.009071556 -0.01512086 -0.017106371 0.013601374 -0.046007212 0.011080764 0.019172784
0.015261611 -0.04933988 0.023624728 -0.046187267 -0.019999364 0.049119957 0.022289207 -0.05042026
-0.00056860317 -0.02246879 -0.080291845 -0.0054612723 0.00850954 -0.042506747 -0.041837763 0.023221437
0.0123130325 0.02838439 -0.034635857 -0.0094622085 0.013800047 -0.048236888 0.008329501 0.026320595
-0.035158325 -0.020986544 0.0037289017 0.0174565 -0.029308142 0.019180657 0.003953373 0.0013210686
-0.07932773 0.052613467 0.09642757 -0.026630282 -0.0866258 0.050258737 0.057279877 0.001178721
-0.004459735 0.017667422 0.011482685 0.022084663 0.0077737453 -0.008913042 0.02516186 0.002141593
0.06551535 0.039063897 -0.011213731 -0.04752286 -0.049057793 0.024940958 0.008361953 -0.029346801
-0.021441016 0.0050479374 0.013639689 -0.012410065 0.026247326 -0.00057143945 -0.0043991893 -0.0015313774
-0.055379093 0.020195225 -0.01137611 -0.014563664 0.008305883 -0.014678256 0.005647395 0.0024032264
-0.015296694 0.021605438 0.012960167 0.003923655 0.029876165 -0.0008689953 0.035416994 -0.013931429
0.0044733356 0.040493347 -0.0020425203 0.024440303 0.052121047 0.03300951 0.010096657 0.018017536
0.049113113 0.022091933 0.03359761 -0.044141665 -0.022834327 0.04872836 -0.0030370248 -0.027572975
-0.015967702 -0.0085117025 -0.015659915 0.052009456 -0.006205603 0.0093302205 0.0075053438 0.020391272
0.007823313 -0.074698664 0.0132064335 0.014993461 -0.031857483 0.009684372 0.016573291 0.0033097782
0.02799444 -0.024175676 0.0025342808 0.023939883 -0.015065874 -0.01222626 -0.020856475 -0.008310195
0.01709726 -0.0031855719 0.011725404 0.0327318 0.034133334 -0.043203842 -0.04002866 0.00035269943
-0.007431226 -0.0306832 -0.025865003 0.03738445 0.042468425 0.014613085 0.041945037 -0.03299893
0.007256786 0.018857453 0.0031321878 -0.02223314 0.039642658 0.03470358 -0.0050793895 0.025703276
0.0018785968 -0.060118355 0.0513565 0.070797525 0.043767955 -0.004824469 -0.0052278177 -0.050154164
0.041174322 -0.005878302 -0.036115997 0.024690567 -0.015581185 -0.027795307 -0.0009892796 0.050499655
0.010295208 -0.042624496 0.02437997 -0.0048306137 -0.00021154221 0.018964905 -0.037153166 0.024377393

sequences.2.bias f4 [32]
00000000: 5d14 4e3c 03e4 05bc a0a8 363c 375c 5bbd
00000010: ac9d 663b 6670 6cbc bae4 3f3d 421a 4c3d
00000020: f285 e23b ec87 393d 74d7 b13d a1ad d83c
00000030: db64 a5bc 63bd 693c fa2a 38bb d105 673d
00000040: 4677 99bc faf3 abbd f0b4 623c f4d1 82bd
00000050: feea 983c a9c1 bbbc 27c7 2fbd 9358 7f3d
00000060: 563f d63c 141e 863c 320f 153c 4120 d33c
00000070: fa95 d83c 3b05 aa3d 20e6 0d3c c4b8 b5bc
0.012578097 -0.008172038 0.011148602 -0.05355474 0.0035189195 -0.014431095 0.04684899 0.04982973
0.00691294 0.04529564 0.086836725 0.02644998 -0.020189693 0.014266345 -0.0028101788 0.05640203
-0.018733632 -0.08396144 0.013837084 -0.06387702 0.01866674 -0.022919493 -0.042914536 0.06234033
0.026153248 0.016371764 0.009097861 0.025772216 0.026438702 0.08301779 0.008660823 -0.02218283

sequences.4.weight f4 [25, 32, 3, 3]
00000000: 2363 6cbd 6b03 bdbc 2758 d6bb ff7b 9ebd
00000010: 434c e4bc 9d21 193d 100c d7bc 72d8 d73c
00000020: 691a 023d dd98 74bc a78e b3bd 934f 78bd
00000030: 58e3 14bd 3a5a 76bd b7d7 55bd cc56 15bc
00000040: c730 e53a 0913 873b 7838 d9bd fae6 44bd
00000050: 5e83 7dbc 6de5 9fbd bf63 bfbd 1e20 94bd
00000060: 4821 19bd 8310 fe3c 4be4 38bd 6eca 62bd
00000070: d5f0 5d3c 412b ea3c 3f43 8d3e 57f8 9d3e
00000080: bcbf 43bd a204 173d 409b 5b3d c929 03bd
00000090: 45e9 d8bc 4ea5 ffbb d380 323d 921e 1cbd
000000a0: b688 81bd f382 533c 769e 3b3d 5fcc bf3a
000000b0: e267 4b3d 8b20 c9bc 47b4 223d 819d e23c
000000c0: 9961 323a 1fb4 fe3d cace 663d c1ca 043d
000000d0: 8162 b13c 86c9 a4bd 7051 01bd 7058 d6bd
000000e0: 2378 b53c 4b80 35bd 2dd3 ddbc bc00 a8bd
000000f0: 2584 283d 4157 9f3c cd89 9f3c 3419 16bd
00000100: 3124 f73c b2f2 803c 0039 bebc d0d7 43bd
00000110: 8553 89bd 483c 0d3b f479 1bbd 4e2c 3f3d
00000120: 7870 4ebc 780b 4c3d 41b5 9fbd f61b 0dbd
00000130: 1c85 7c3d 6011 64bd 3da2 dbbc e57e 35bd
00000140: 2fe9 553d 09f9 bfbc 0a2b 863b 34ad 683d
00000150: ed62 00bd efac 5dbd 9f7e 833c ce07 1f3c
00000160: 11e6 d3b9 17e8 f13b e58d 2abd 8ace 9cbd
00000170: 00c4 0a3d 90cf 813c e462 35bd 45a7 86bd
00000180: 7ac6 79bd 2052 93bc 36c4 243d dd86 d2bc
00000190: 23f9 03be fde4 20bd 2e38 9dbd b59f 17be
000001a0: ffae 15be b065 6bbd fd82 cbbc 93c6 64bd
000001b0: 78f1 013d f660 abbd 1172 99bd 56b7 b7b9
000001c0: f6c2 0cbd c2d0 9cbd 437d c7bd f758 013c
000001d0: 2f6e d73a ce75 59bd bb5a 0fbc 2476 f7bd
000001e0: b08c 94ba d75c 9e3c 5dd1 b3bd 970a cf3d
000001f0: 9880 bb3d 8d43 923c 779c 493d bcc1 e13c
00000200: f7d6 023c 6219 2cbd 9157 3cbc 8c02 5b3d
00000210: f2c1 42bd e01f 13bd e998 fabc e888 c2bc
00000220: 9b4c 0bbd 07da 563c f060 56bc d4a9 a5bd
00000230: a7b3 92bd d33d 473d c7b2 843c c830 debc
00000240: 8bcb a4bd 2900 56bd 7371 75bd 7525 8dbd
00000250: b21c a6bd 086b 6dbd 18b4 053c 0e4a f4bd
00000260: d5dc 08bd ac57 053d 9ed9 823d 2f73 e1bb
00000270: b33d 9e3d bd66 a13d 0796 45bd 8db3 9b3c
00000280: e6d4 51bc 8ac0 1c3d c101 c0bd 5d11 32be
00000290: 6927 27bd 0680 5f3b d41f f4bd cfa5 e0bc
000002a0: 1353 663b d4c1 0ebd e6b1 983d 578a d73c
000002b0: 7199 b93d 685c 32bc b58b a93d a86d b13b
000002c0: f0b8 993d 1eb6 c83b e6d7 bc3d d571 633c
000002d0: 9735 6ebd db6e 643c f232 ea3c 6703 c8bd
000002e0: fbdd 85bd bc2c f43c 9e18 8cbd fb5f b3bd
000002f0: 7f49 3bbd 232c a73b a9fd e93c b222 dabc
00000300: 25d3 a03d 574f 243d 7571 903d 718e 893c
00000310: 9ac9 233d c121 563c f7a3 24bd 4f5f 813c
00000320: 7752 3b3b 441b 593d 0d0d ee3d 86c9 293d
00000330: cb64 1cbd ace6 873c ff53 b53d c503 38bd
00000340: 0a94 71bd 3dcf 67bd 2ee9 a5bd 59e2 a0bd
00000350: d142 9fbd 6759 623c 30cc 18bd 8b0e 33bc
00000360: 8244 93bd 34a3 f3bd 90e9 553d 8275 3ebd
00000370: b38f a63d 7bcf a53d 59fd 14bd 384d eb3c
00000380: ff96 863c b4da f93c 98ae 923d 236f 0bbd
00000390: a343 1fbc 7dee 733d 55f2 9b3d 04eb eebc
000003a0: e40f 6e3c b664 023d 5a93 403c 3636 1abc
000003b0: 5373 b1bc b402 a33d c58b 53bb 18b8 8abd
000003c0: 7171 dabc 9b5c 80bc 5fc5 a83c 7143 99bd
000003d0: 5878 babd 711d 143c 5807 8bbd 6480 8bbd
000003e0: dc19 06bd 53fd 0c3d 0b1a 29bd 5dac e33c
000003f0: 6623 94bc efb5 943d 9de4 243d ad03 e0bb
-0.05771173 -0.023072919 -0.0065412703 -0.07738494 -0.027868396 0.03738557 -0.026250869 0.026348326
0.031763468 -0.014929024 -0.08767443 -0.060622763 -0.036349624 -0.06014464 -0.052207675 -0.009114932
0.001748585 0.004122142 -0.10606474 -0.04807184 -0.015473215 -0.07807431 -0.09345197 -0.07232688
-0.037385255 0.031013733 -0.045139592 -0.055368833 0.013546188 0.028585078 0.27590367 0.3085353
-0.047790274 0.036869653 0.053614855 -0.03202227 -0.02647842 -0.0078016883 0.043579888 -0.03811509
-0.06324904 0.012909639 0.045805417 0.0014633051 0.049659617 -0.02455165 0.039722707 0.027662994
0.00068047043 0.12436699 0.056349553 0.032419924 0.021653416 -0.0804625 -0.031571805 -0.10466087
0.022152012 -0.044311803 -0.027078236 -0.08203265 0.041141648 0.019450786 0.019474888 -0.03664513
0.030168625 0.015740726 -0.02322054 -0.047813237 -0.06705383 0.0021550823 -0.0379581 0.04667311
-0.012600057 0.049815625 -0.07798243 -0.034450494 0.06165038 -0.055680633 -0.02681076 -0.04431047
0.052224334 -0.023434179 0.004094486 0.056805804 -0.031344343 -0.05412 0.016051589 0.009706451
-0.0004041647 0.0073824036 -0.041639227 -0.07656582 0.033878326 0.015846044 -0.044283763 -0.06574873
-0.060980298 -0.017983496 0.040226184 -0.025699073 -0.12888007 -0.03928088 -0.07676731 -0.14807017
-0.14617537 -0.057470024 -0.024842734 -0.055853438 0.031724423 -0.08368103 -0.074924596 -0.00035041076
-0.034365617 -0.07657005 -0.09740689 0.007894746 0.0016436036 -0.053090863 -0.008749659 -0.120830804
-0.0011333432 0.019331379 -0.08780167 0.10109442 0.09155387 0.017854476 0.049221482 0.0275582
0.007985822 -0.042016394 -0.011495487 0.053469226 -0.047548242 -0.03591907 -0.030590491 -0.023746923
-0.034008604 0.013113505 -0.013084635 -0.08089033 -0.07163172 0.048642945 0.016198529 -0.02712287
-0.08046635 -0.052246246 -0.059922647 -0.0689191 -0.08110942 -0.0579634 0.0081606135 -0.11928187
-0.033413727 0.032554314 0.063891634 -0.006880186 0.07726612 0.07880924 -0.04823878 0.019006515
-0.012807107 0.038269557 -0.093753345 -0.17389436 -0.04080907 0.0034103408 -0.11920133 -0.027422814
0.003514473 -0.034852818 0.074558064 0.026311083 0.0906247 -0.010886289 0.082786 0.0054146834
0.07505977 0.0061252257 0.09220867 0.01388212 -0.058156576 0.013942446 0.028588746 -0.09766274
-0.0653648 0.029806487 -0.06840633 -0.08758541 -0.04572439 0.005101697 0.028563337 -0.026627872
0.078527726 0.040114727 0.0705289 0.016791554 0.039987184 0.013069571 -0.04019543 0.015792517
0.0028583088 0.05300452 0.11623583 0.041451953 -0.03818206 0.016589485 0.088539116 -0.04492547
-0.05897907 -0.056594122 -0.08101116 -0.078556724 -0.07776416 0.0138152605 -0.037304103 -0.01092876
-0.07190801 -0.11896363 0.052224696 -0.046498783 0.08132877 0.080962144 -0.036374424 0.028723344
0.016429422 0.030499794 0.07162207 -0.034041535 -0.009720716 0.059553612 0.076145805 -0.029164799
0.014530156 0.031834327 0.011753881 -0.009412339 -0.021661436 0.079595 -0.0032279354 -0.06773394
-0.026665421 -0.015669158 0.020601926 -0.074835666 -0.09104985 0.0090402225 -0.0678851 -0.06811598
-0.032739505 0.034421276 -0.041284602 0.02779215 -0.018083286 0.072612636 0.040257085 -0.0068363757

sequences.4.bias f4 [25]
00000000: 3c5d 77bc f528 8ebc 5799 b7bc 8ec1 6bbc
00000010: 38d5 83bd a17b 0fbd ba4a bdba fd61 cbbc
00000020: 1dc5 6ebd a0e8 98bd f74d 89bd c99f a2bc
00000030: dfab 36bd 0ff8 38bd 03e2 8dbd 9223 aabd
00000040: 45a9 a03c e8be 78bd 7967 67bd 26b9 05bd
00000050: 0973 3ebc 8cf1 60bc bcb8 98bd c093 bbbd
00000060: cced 853c
-0.015097912 -0.017353514 -0.022411985 -0.014389409 -0.064371526 -0.03503001 -0.0014441826 -0.024826998
-0.05829345 -0.07466245 -0.06704324 -0.019851582 -0.044597503 -0.045158442 -0.06927874 -0.08307566
0.019611964 -0.060728937 -0.056495164 -0.032647274 -0.011624106 -0.013729464 -0.0745711 -0.091590405
0.016348742
