saved_models/UPSCALE_X5/epoch_38.pth (torch, 111967 bytes, 6 tensors)

sequences.0.weight f4 [64, 1, 5, 5]
-0.19028337 -0.03953569 0.19717436 -0.13820162 -0.18699345 -0.1988137 0.14673318 0.22405036
-0.02040436 0.019236952 0.038985766 0.01063234 -0.20059805 0.21106903 -0.02741763 -0.13851571
-0.07339014 0.023714477 0.23718995 0.101327635 -0.13048644 -0.089895956 -0.14961302 0.09344772
-0.077180244 -0.1151742 0.1882155 0.0027728432 0.049718343 -0.17641605 0.019412175 0.16657464
-0.101581454 0.0027275349 -0.13130192 -0.009197147 -0.093318075 -0.06738415 -0.1421948 -0.1286812
0.0076239402 0.024943536 0.2270775 -0.050079416 0.20446584 0.0576516 0.105010875 0.07261663
0.06707785 0.18732657 0.1757024 0.014420302 0.19898538 0.014506323 0.09027691 0.12125761
-0.18409672 -0.13183281 0.12557146 0.09298497 0.03697522 -0.09855689 0.05148899 0.22314869
-0.11920196 0.09168781 0.027583167 -0.1157921 -0.18746722 0.1676953 0.0069524664 0.047203533
0.13730207 -0.105487004 0.068363704 -0.0972096 -0.10205362 0.21227884 -0.014368968 -0.15835744
-0.0830904 -0.023710158 -0.08748186 -0.13538307 0.018506266 0.014549915 0.0057956767 0.14801162
0.19058612 0.14541498 -0.17025867 0.22515905 0.13074677 -0.04855765 0.12863758 0.06206837
-0.11137944 0.13432738 -0.1100439 -0.16785009 0.0016210063 -0.044086587 -0.12381363 0.11353862
-0.015287054 0.14121783 -0.17554806 -0.012370032 0.02765696 -0.0028225596 0.05744306 -0.18257913
-0.050098576 0.25537834 0.18287545 0.1520887 -0.17537406 -0.03293729 0.10429046 0.003455201
0.08451402 0.010363969 -0.0011760895 -0.0061327615 -0.009071599 0.07116651 0.20093451 -0.054623697
0.20094934 -0.008045127 0.20722237 0.2587119 -0.029958311 0.24824522 -0.10185181 0.18200798
0.29955965 0.08960053 -0.06757916 0.22033039 -0.04641822 0.16606903 0.07506777 0.17912912
0.1722427 -0.057119325 -0.13178854 0.25331968 0.21228385 0.1795878 -0.15467058 0.00042722956
0.1207947 -0.16360255 0.023206571 0.06560527 -0.13050418 -0.2284502 0.15664373 0.09582181
-0.06553704 0.15667105 -0.010516786 -0.019331995 0.07983235 -0.063789375 0.1788801 0.19340211
-0.2248742 -0.15833986 -0.13823584 -0.13360986 0.16607973 -0.13594046 -0.1203833 -0.07425265
-0.040641785 -0.117846765 -0.041823737 -0.004312625 0.05328918 0.17701614 -0.25156555 -0.0176302
-0.010017233 -0.18263449 0.24199896 0.071109526 -0.21172631 0.08093354 -0.04332592 -0.06283537
-0.02119207 0.21400228 0.043958392 -0.018627288 0.11447679 0.007115369 0.088672675 0.037266348
0.057325236 -0.19245018 -0.20038123 -0.11343742 0.06094347 -0.24444203 0.06485944 -0.12698366
0.1570713 -0.13140345 0.1505186 0.23533724 -0.379934 0.001782691 0.025336957 0.14001009
0.23949294 -0.17959088 0.26995575 -0.08708886 0.037343327 0.080316216 0.16960745 -0.047293074
0.024941202 -0.1507434 -0.056520607 -0.19982253 0.12462492 0.16133586 0.16690706 0.08513723
0.16191815 -0.059851725 -0.16003242 -0.074136674 0.10039578 0.14960915 -0.07146089 0.076129064
0.06637896 -0.18603109 -0.1214229 0.15527938 0.0762712 -0.20867229 0.045163304 0.16106845
0.091459006 0.100697905 -0.045294013 0.20210482 0.061469093 0.16221803 0.1302348 0.19875334
00000000: a5d9 42be 2df0 21bd 13e8 493e ba84 0dbe
00000010: 367b 3fbe d295 4bbe 3941 163e 756d 653e
00000020: 0b27 a7bc d096 9d3c 8aaf 1f3d 4433 2e3c
00000030: 9369 4dbe 7b22 583e f09a e0bc 10d7 0dbe
00000040: 924d 96bd dd44 c23c ece1 723e dd84 cf3d
00000050: 3d9e 05be 5f1b b8bd 2834 19be 8561 bf3d
00000060: ad10 9ebd 73e0 ebbd 90bb 403e 97b8 353b
00000070: 76a5 4b3d 69a6 34be 4806 9f3c 8b92 2a3e
00000080: f009 d0bd 71c0 323b 0374 06be a1af 16bc
00000090: 8c1d bfbd b400 8abd 839b 11be 01c5 03be
000000a0: 3fd2 f93b 6356 cc3c 0187 683e 1320 4dbd
000000b0: 7e5f 513e 1624 6c3d f10f d73d 07b8 943d
000000c0: 1d60 893d 89d2 3f3e 54eb 333e 2143 6c3c
000000d0: d3c2 4b3e eeab 6d3c 1ae3 b83d e955 f83d
000000e0: da83 3cbe 2eff 06be ce95 003e e76e be3d
000000f0: 5473 173d 32d8 c9bd 1fe6 523d 1781 643e
00000100: 2820 f4bd d2c6 bb3d 18f6 e13c 6924 edbd
00000110: 68f7 3fbe 51b8 2b3e 84d1 e33b 7e58 413d
00000120: ea98 0c3e 9209 d8bd 4502 8c3d d415 c7bd
00000130: 7d01 d1bd a05f 593e d26b 6bbc 7428 22be
00000140: 4d2b aabd ce3b c2bc b029 b3bd dca1 0abe
00000150: 749a 973c c462 6e3c a9e9 bd3b 5c90 173e
00000160: 0229 433e aae7 143e 4a58 2ebe 1890 663e
00000170: 7be2 053e 63e4 46bd 92b9 033e 673b 7e3d
00000180: e71a e4bd 1e8d 093e b25e e1bd e5e0 2bbe
00000190: f277 d43a 2394 34bd 0092 fdbd f086 e83d
000001a0: 8d76 7abc 689b 103e dfc2 33be adab 4abc
000001b0: d990 e23c b1fa 38bb 6a49 6b3d 06f6 3abe
000001c0: 2a34 4dbd f3c0 823e b443 3b3e 24bd 1b3e
000001d0: 4295 33be 40e9 06bd 3d96 d53d a770 623b
000001e0: b015 ad3d a3cd 293c 0427 9aba 55f5 c8bb
000001f0: 0ba1 14bc bfbf 913d c7c1 4d3e 19bd 5fbd
00000200: aac5 4d3e b5cf 03bc 1a32 543e e375 843e
00000210: 226b f5bc ff33 7e3e af97 d0bd 4d60 3a3e
00000220: e25f 993e 7c80 b73d f166 8abd 4a9e 613e
00000230: 0821 3ebd 000e 2a3e 22bd 993d a06d 373e
00000240: 6460 303e f4f5 69bd 93f3 06be 1eb3 813e
00000250: f060 593e dde5 373e f761 1ebe c8fd df39
00000260: 3663 f73d 6d87 27be b51b be3c 0e5c 863d
00000270: e3a2 05be d9ee 69be 3767 203e 3a3e c43d
00000280: 4938 86bd 606e 203e 994e 2cbc 225e 9ebc
00000290: 257f a33d 01a4 82bd 582c 373e 340b 463e
000002a0: 6c45 66be d823 22be b28d 0dbe 06d1 08be
000002b0: ce10 2a3e fa33 0bbe 858b f6bd c611 98bd
000002c0: 0078 26bd a559 f1bd 5e4f 2bbd ec50 8dbb
000002d0: c145 5a3d b843 353e 33cd 80be 366d 90bc
000002e0: 521f 24bc 8904 3bbe 93ce 773e dfa1 913d
000002f0: c8ce 58be 7cc0 a53d 8576 31bd d5af 80bd
00000300: fe9a adbc 6a23 5b3e b70d 343d 4198 98bc
00000310: cf72 ea3d 0b28 e93b 059a b53d 99a4 183d
00000320: decd 6a3d a911 45be bd30 4dbe e151 e8bd
00000330: dc9f 793d 034f 7abe 07d5 843d 0108 02be
00000340: 4dd7 203e a08e 06be 8c21 1a3e 3ffc 703e
00000350: b686 c2be 2fa9 e93a 738f cf3c ce5e 0f3e
00000360: a33d 753e ace6 37be a437 8a3e a55b b2bd
00000370: 51f5 183d d47c a43d 93ad 2d3e 62b6 41bd
00000380: 7e51 cc3c 7a5c 1abe 2782 67bd 479e 4cbe
00000390: 5a3b ff3d 3a35 253e afe9 2a3e 6e5c ae3d
000003a0: dfcd 253e 1527 75bd 8adf 23be f8d4 97bd
000003b0: 4d9c cd3d 2433 193e 165a 92bd 8ee9 9b3d
000003c0: b1f1 873d ef7e 3ebe 92ac f8bd 8f01 1f3e
000003d0: 1334 9c3d 30ae 55be 28fd 383d 21ef 243e
000003e0: dc4e bb3d b43a ce3d 3786 39bd 91f4 4e3e
000003f0: 04c7 7b3d 7c1c 263e 455c 053e ff85 4b3e

sequences.0.bias f4 [64]
0.18652377 -0.1571685 -0.21418299 -0.12204907 -0.2151516 0.23838773 0.14997895 0.12515825
0.11885481 -0.07981444 0.061816588 0.092951424 -0.003962324 0.03872039 -0.1494456 -0.010747024
0.20648302 -0.16785224 0.04569589 0.13325095 -0.10388153 -0.21578315 -0.23323314 0.17077142
0.12507324 0.05669636 0.17862351 0.20034206 0.2026235 -0.044342384 -0.18020634 0.019099222
-0.20274849 -0.19523288 -0.17293598 0.047280673 -0.026305532 0.024653291 -0.14646731 -0.028095225
-0.2222743 -0.12241399 0.14266531 0.1863074 -0.2180361 0.18528286 0.1096424 0.16487417
-0.0430265 0.095047414 0.22088674 0.090700924 0.13679144 0.03200255 -0.18653768 0.09580101
-0.22106124 0.12268137 0.1185095 -0.23068964 0.20343153 -0.19818832 0.19152 -0.036749452
00000000: 1600 3f3e c7f0 20be c952 5bbe ddf4 f9bd
00000010: b350 5cbe ea1b 743e 1594 193e 7c29 003e
00000020: 276a f33d c175 a3bd 6433 7d3d 515d be3d
00000030: 62d6 81bb 4699 1e3d 4408 19be 4914 30bc
00000040: 4970 533e 75e1 2bbe 9d2b 3b3d f072 083e
00000050: d7bf d4bd 42f6 5cbe abd4 6ebe b4de 2e3e
00000060: 3313 003e 713a 683d 15e9 363e 7826 4d3e
00000070: 897c 4f3e 5ca0 35bd 0388 38be f975 9c3c
00000080: 4d9d 4fbe 21eb 47be 2116 31be 61a9 413d
00000090: b37e d7bc b3f5 c93c 87fb 15be f527 e6bc
000000a0: e09b 63be 30b4 fabd db16 123e 5ec7 3e3e
000000b0: db44 5fbe caba 3d3e 328c e03d c6d4 283e
000000c0: 8e3c 30bd 38a8 c23d 2230 623e 68c1 b93d
000000d0: 0e13 0c3e 1b15 033d bc03 3fbe 5233 c43d
000000e0: e15d 62be 5f40 fb3d 1cb5 f23d e839 6cbe
000000f0: 5b50 503e e1f1 4abe d21d 443e 9886 16bd

sequences.2.weight f4 [32, 64, 3, 3]
-0.1889068 0.011584416 -0.02211087 -0.04483097 -0.0038998427 -0.09977935 -0.11721284 -0.14054714
-0.015805736 0.097273275 0.009336888 0.041906096 0.12270695 0.039645236 -0.017979631 0.06607402
0.027089357 -0.028172277 0.019312816 -0.059231523 0.02696099 -0.082302585 -0.0037003104 0.030301651
-0.0037181694 -0.020916928 0.013142953 -0.014106512 -0.059141442 0.044919983 -0.040586468 0.0056648217
-0.0026086478 0.032434285 -0.07428905 -0.010298213 -0.0562991 0.037477735 -0.0075709345 -0.12699838
-0.031242358 -0.01776068 -0.12869185 0.062857315 0.06720079 -0.010806219 0.005312857 0.016879728
-0.020896412 -0.021949908 -0.00953776 -0.0044701514 0.042000655 -0.028173832 0.027732965 -0.03489138
-0.0104745785 0.019279549 0.059103873 0.0036325837 0.05500183 -0.0032123327 -0.016808141 0.020220637
-0.007152 -0.04127671 -0.023136502 0.038457822 -0.033284802 -0.025993917 0.047011394 -0.03220429
-0.0032969844 0.08667797 -0.039991073 -0.0061579226 0.06826037 -0.0051630316 -0.11399128 0.088139385
-0.029695164 -0.0038930194 -0.011486873 -0.031502634 0.012758348 -0.08028519 0.014709177 0.009628998
0.018190084 -0.04719917 0.07167904 -0.061979946 0.0018849901 0.08184203 -0.0006490381 -0.033982083
0.042857666 -0.036069844 -0.08521485 -0.0033489864 0.00047853077 -0.051299598 -0.046311244 0.011018972
0.011545362 0.028197674 -0.03026419 -0.012694605 0.03439885 -0.04210064 0.005258121 0.045679837
-0.058008954 -0.011709698 0.014091108 0.034457173 -0.021126559 0.0014983356 0.007962921 -0.012582366
-0.16808158 0.18375136 0.11954786 -0.062965475 -0.08473199 0.023874167 0.062661424 -0.013509929
0.0033921308 0.019504042 0.0176024 0.029031795 0.0038360169 -0.009428411 0.025095101 0.053947024
0.07136153 0.049358383 0.039997086 -0.07283414 -0.06943894 0.0061080256 0.03551621 -0.032375917
-0.019166622 -0.019601298 -0.030261597 -0.012994388 0.005633806 0.011472829 -0.047563095 -0.019307923
-0.1087345 0.020546492 -0.00566887 -0.010274747 0.0012422585 -0.011024512 0.013382528 0.001986528
-0.0092708245 0.024855308 0.048813753 -0.0056349807 0.050213367 0.034813125 0.037991326 -0.030222874
0.017478375 0.045587108 0.01685813 0.04642219 0.056680765 0.029852543 0.035057608 0.03569812
0.05885982 0.05054942 0.045294307 -0.051791996 -0.049148757 0.041246388 0.005041014 -0.08465693
0.020444307 -0.009167806 0.0027853397 0.07772409 0.03432661 -0.012411727 -0.051124863 0.015354227
-0.037221808 -0.107413925 0.023035659 0.03210278 -0.07086129 0.014013424 0.012920932 0.005647964
0.03005432 -0.02950125 0.0072673736 0.026074441 -0.014603436 -0.0041163014 -0.013012929 0.028955616
0.014703062 -0.025313025 0.018378692 0.09305204 0.010378124 -0.012527419 -0.035346687 -0.02384323
0.03384414 -0.0360348 -0.025332814 0.0469927 0.055331387 0.0072839484 0.026561236 -0.014311237
0.02114158 0.07389624 0.020186322 -0.009795242 0.09271149 0.023632474 -0.0072436174 0.09552982
-0.01082786 -0.055938493 0.051838852 0.102911845 0.035151027 0.026296016 0.024546366 -0.053674527
0.038271688 0.0024894765 -0.055518877 0.008296143 0.0069235936 -0.020498257 -0.02395511 0.10638108
-0.008592288 -0.05644903 0.06564895 -0.06378113 -0.013535294 0.011417409 -0.054031264 0.037133772
00000000: c970 41be 90cc 3d3c db21 b5bc aea0 37bd
00000010: 8194 7fbb 1e59 ccbd 490d f0bd 97eb 0fbe
00000020: 087b 81bc 3637 c73d bff9 183c baa5 2b3d
00000030: c84d fb3d 0b63 223d 054a 93bc d151 873d
00000040: 80ea dd3c 8cc9 e6bc e935 9e3c c19c 72bd
00000050: 4bdd dc3c 428e a8bd e880 72bb 2b3b f83c
00000060: 88ac 73bb fa59 abbc 8a55 573c 001f 67bc
00000070: 4c3e 72bd 04fe 373d ff3d 26bd f89f b93b
00000080: d9f5 2abb d0d9 043d dc24 98bd d6b9 28bc
00000090: e399 66bd 4182 193d 9a15 f8bb dd0b 02be
000000a0: f9ef ffbc d87e 91bc ccc7 03be 56bb 803d
000000b0: 91a0 893d 910c 31bc 7a17 ae3b 5b47 8a3c
000000c0: f42e abbc 4bd0 b3bc 4444 1cbc 597a 92bb
000000d0: e108 2c3d cfcc e6bc 3e30 e33c 44ea 0ebd
000000e0: 919d 2bbc 25f0 9d3c e716 723d a410 6e3b
000000f0: 9949 613d 0086 52bb 3ab1 89bc c0a5 a53c
00000100: 535b eabb c411 29bd c388 bdbc f385 1d3d
00000110: a555 08bd 32f1 d4bc 058f 403d a5e8 03bd
00000120: 3812 58bb 3884 b13d aecd 23bd 66c8 c9bb
00000130: 18cc 8b3d a62e a9bb 4374 e9bd 6c82 b43d
00000140: 4643 f3bc 0722 7fbb 7033 3cbc e808 01bd
00000150: 6408 513c 906c a4bd c3fe 703c f2c2 1d3c
00000160: 5f03 953c eb53 41bd 76cc 923d afde 7dbd
00000170: c611 f73a cb9c a73d 3624 2aba cc30 0bbd
00000180: 858b 2f3d f9bd 13bd 2085 aebd ab7a 5bbb
00000190: 50e3 fa39 871f 52bd dcb0 3dbd eb88 343c
000001a0: c228 3d3c cffe e63c 9bec f7bc 08fd 4fbc
000001b0: cfe5 0c3d b871 2cbd 514c ac3b c81a 3b3d
000001c0: cc9a 6dbd 08da 3fbc 64de 663c f722 0d3d
000001d0: 9b11 adbc cd63 c43a e976 023c 4526 4ebc
000001e0: 941d 2cbe 5129 3c3e 82d5 f43d 0bf4 80bd
000001f0: f787 adbd c293 c33c a254 803d c058 5dbc
00000200: 834e 5e3b f1c6 9f3c e932 903c 16d4 ed3c
00000210: af65 7b3b 9f79 1abc 3e94 cd3c 8ef7 5c3d
00000220: fe25 923d 042c 4a3d fcd3 233d 112a 95bd
00000230: 0136 8ebd d525 c83b 7279 113d 9c9c 04bd
00000240: 5203 9dbc e792 a0bc 2be7 f7bc 6ae6 54bc
00000250: ca9b b83b 88f8 3b3c 85d1 42bd a62b 9ebc
00000260: 32b0 debd 1e51 a83c eec1 b9bb 6a57 28bc
00000270: 47d3 a23a 28a0 34bc 6442 5b3c 6930 023b
00000280: a8e4 17bc 5c9d cb3c eef0 473d a5a5 b8bb
00000290: 88ac 4d3d 3598 0e3d cb9c 1b3d f695 f7bc
000002a0: cf2e 8f3c 8cb9 3a3d 101a 8a3c 3225 3e3d
000002b0: 172a 683d 528d f43c 9198 0f3d 3138 123d
000002c0: ff16 713d e90c 4f3d 8686 393d d823 54bd
000002d0: 3550 49bd f9f1 283d 172f a53b 9d60 adbd
000002e0: d27a a73c 9134 16bc 3f8a 363b cf2d 9f3d
000002f0: 0f9a 0c3d 8e5a 4bbc 4e68 51bd 4c90 7b3c
00000300: e575 18bd d5fb dbbd 47b5 bc3c 347e 033d
00000310: b91f 91bd 8f98 653c 51b2 533c 8e12 b93b
00000320: 7a34 f63c 9bac f1bc 2623 ee3b 119a d53c
00000330: 4043 6fbc 0ae2 86bb 2e34 55bc 5434 ed3c
00000340: 1de5 703c 435d cfbc e98e 963c 1192 be3d
00000350: 0209 2a3c ce3f 4dbc b0c7 10bd e152 c3bc
00000360: 27a0 0a3d 3a99 13bd c386 cfbc 6b7b 403d
00000370: 2aa3 623d 30ae ee3b f396 d93c ae79 6abc
00000380: 1b31 ad3c e956 973d c95d a53c 397c 20bc
00000390: 86df bd3d e498 c13c de5b edbb 23a5 c33d
000003a0: 5667 31bc c31f 65bd fa54 543d 72c3 d23d
000003b0: 86fa 0f3d be6a d73c 7615 c93c d2d9 5bbd
000003c0: c6c2 1c3d 7c26 233b c367 63bd 8cec 073c
000003d0: 50df e23b f6eb a7bc 823d c4bc 53de d93d
000003e0: abc6 0cbc 1937 67bd f572 863d ae9f 82bd
000003f0: 23c3 5dbc 1610 3b3c e34f 5dbd 9519 183d

sequences.2.bias f4 [32]
0.010568986 -0.017115407 0.006023902 -0.066583656 -0.004867355 -0.030506046 0.049713593 0.045402195
0.0070490716 0.046306852 0.1235545 0.010356871 -0.02057354 0.040460724 -0.0030525108 0.052577015
-0.019049516 -0.12142833 0.006247886 -0.076981805 0.023964776 -0.045674328 -0.048511114 0.078393094
-0.004481941 0.015163605 0.0062141377 0.07006095 0.033423282 0.116606876 0.018163374 -0.031587623
00000000: 8a29 2d3c 9c35 8cbc 2764 c53b 035d 88bd
00000010: 557e 9fbb d1e7 f9bc 7ba0 4b3d a7f7 393d
00000020: e6fb e63b 41ac 3d3d 240a fd3d deaf 293c
00000030: d789 a8bc 25ba 253d a20c 48bb ff5a 573d
00000040: bb0d 9cbc 6baf f8bd 11bb cc3b a3a8 9dbd
00000050: c751 c43c 0115 3bbd 97b3 46bd 8f8c a03d
00000060: 3fdd 92bb c570 783c f79f cb3b 1e7c 8f3d
00000070: dae6 083d 96cf ee3d 5bcb 943c 0662 01bd

sequences.4.weight f4 [25, 32, 3, 3]
-0.08402763 0.105844766 -0.025062868 -0.12187313 0.013124693 -0.0423349 -0.07364516 0.057509657
0.0026272228 0.033072013 -0.15053917 -0.075847 0.0037132485 -0.12906592 -0.07834917 0.024261924
-0.0031000373 -0.0013391741 -0.13176285 -0.05469717 -0.0034080322 -0.0992488 -0.10407338 -0.06153187
-0.054027654 0.021101285 -0.029153451 -0.16284743 -0.018185325 -0.024580555 0.29361495 0.35406792
-0.08977634 0.025937852 -0.0061340854 -0.026939493 -0.10388197 -0.04256458 0.041389048 -0.06813006
-0.06337207 0.046081964 0.029999923 0.027397057 0.025750594 -0.04205227 0.042262353 0.019322556
0.0146464715 0.1647924 0.029470062 -0.0015315335 -0.0005037808 -0.09170128 -0.014488471 -0.15102592
0.011721618 -0.0037999176 -0.022246985 -0.07202084 0.018473806 0.025822433 0.03033295 -0.06485494
0.078709446 0.04508931 -0.09534955 -0.12366596 -0.0806844 0.06859236 0.0004370933 0.05344768
0.0053851553 0.05853161 -0.07943184 -0.0061402535 0.10605801 -0.08486634 -0.06245588 -0.02718005
0.031860698 -0.010793366 0.0041031674 0.016873743 -0.0069602546 -0.05700563 -0.03584052 -0.016556012
-0.036306657 -0.013568286 -0.065295145 -0.101987034 0.014361211 -0.02921174 -0.085870616 -0.094372764
-0.034843422 -0.005261935 0.038998216 -0.025230492 -0.19588573 -0.06777581 -0.074841715 -0.16685212
-0.17797188 0.038406014 -0.01754061 -0.055596285 -0.016408425 -0.13149576 -0.043427777 0.12077608
-0.04381143 -0.028132439 -0.13151897 -0.067746505 -0.0048298105 -0.11800438 -0.024593934 -0.08952263
-0.0012856103 -0.042733263 -0.07142218 0.09001102 0.10234316 -0.010974764 0.06200643 0.03203925
-0.00019031928 -0.032749366 -0.02286131 0.047886804 -0.029742317 -0.036171604 -0.029435737 -0.041307
-0.017082082 0.02329914 -0.0020449767 -0.0903187 -0.06141649 0.036177143 0.006395331 -0.020381643
-0.10763545 -0.09383576 -0.021429943 -0.0969689 -0.13147543 -0.038960192 0.012797856 -0.13035548
0.010743589 0.031576127 0.08943617 -0.047949564 0.09938912 0.1365391 -0.09542224 0.0018120452
0.0022163938 0.012653398 -0.09059616 -0.28172916 -0.07877953 0.03343229 -0.19644791 0.09587484
0.063519284 0.023711352 0.07514823 0.022144713 0.08031185 -0.013590877 0.08808747 0.0063352655
0.076361805 -0.012087394 0.08102477 0.01797473 -0.029566722 0.014018385 0.043224555 -0.08993439
-0.08921712 0.054339014 -0.07527313 -0.08705795 -0.03747293 0.012416669 0.042822253 -0.0412817
0.098756954 0.07174086 0.08435757 -0.019362926 0.025161456 0.016957827 -0.011582691 0.06317217
0.036082946 0.04205137 0.20790282 0.05509562 0.04509582 0.056076575 0.078490995 -0.03633391
-0.07316462 -0.057020195 -0.08729581 -0.09819567 -0.07511001 0.0344052 -0.035540376 -0.0134187
-0.15483631 -0.23130727 0.07508074 0.012212898 0.09919367 0.13752303 -0.030488947 -0.026777472
-0.02337443 -0.018674131 0.078945115 -0.03284938 -0.027485326 0.063478775 0.08814918 -0.005714095
0.030689757 0.019641796 0.053799987 0.0019068482 -0.039936878 0.11791377 -0.0075099254 -0.08764554
0.011476657 -0.020649245 0.0008303837 -0.0819139 -0.1408683 0.08667429 -0.1150646 -0.16190383
0.043187022 0.077371985 -0.00987311 0.056358427 -0.013099277 0.0980536 -0.007897606 0.024478462
00000000: ae16 acbd 24c5 d83d a550 cdbc 9f98 f9bd
00000010: f408 573c 5c67 2dbd 46d3 96bd 3f8f 6b3d
00000020: 7c2d 2c3b 8576 073d f126 1abe ac55 9bbd
00000030: f959 733b db29 04be 8875 a0bd f1c0 c63c
00000040: ff29 4bbb 3a87 afba d7ec 06be 240a 60bd
00000050: 4b59 5fbb f442 cbbd 6d24 d5bd d808 7cbd
00000060: 1a4c 5dbd 9adc ac3c 38d3 eebc 7ac1 26be
00000070: 64f9 94bc 295d c9bc b354 963e 6448 b53e
00000080: a8dc b7bd 9e7b d43c 7000 c9bb 36b0 dcbc
00000090: 12c0 d4bd 3258 2ebd 9087 293d c687 8bbd
000000a0: 37c9 81bd 71c0 3c3d 66c2 f53c cb6f e03c
000000b0: e9f2 d23c 003f 2cbd 4a1b 2d3d 564a 9e3c
000000c0: c1f7 6f3c 57bf 283e 336b f13c bdbd c8ba
000000d0: 2810 04ba e1cd bbbd 0d61 6dbc 8aa6 1abe
000000e0: 070c 403c 0a08 79bb 4f3f b6bc aa7f 93bd
000000f0: 6156 973c 9189 d33c cf7c f83c abd2 84bd
00000100: 6b32 a13d 91af 383d a046 c3bd 9444 fdbd
00000110: dd3d a5bd 277a 8c3d ab29 e539 f4eb 5a3d
00000120: f575 b03b d7be 6f3d 29ad a2bd 2e34 c9bb
00000130: f134 d93d 67ce adbd bdd1 7fbd b2a8 debc
00000140: 5d80 023d a8d6 30bc dd73 863b ce3a 8a3c
00000150: d912 e4bb bc7e 69bd 82cd 12bd 79a0 87bc
00000160: 4ab6 14bd 844d 5ebc 76b9 85bd 94de d0bd
00000170: 494b 6b3c 754d efbc efdc afbd 8246 c1bd
00000180: fab7 0ebd 4f6c acbb 98bc 1f3d 2db0 cebc
00000190: 4596 48be 0bce 8abd 9d46 99bd 48db 2abe
000001a0: 433e 36be a04f 1d3d 53b1 8fbc eeb8 63bd
000001b0: f66a 86bc d3a6 06be 53e1 31bd 7359 f73d
000001c0: 9d73 33bd 0076 e6bc e9ac 06be aebe 8abd
000001d0: 6343 9ebb 48ac f1bd 3879 c9bc a457 b7bd
000001e0: ec81 a8ba 1309 2fbd cb45 92bd b357 b83d
000001f0: 4a99 d13d 7fcf 33bc 74fa 7d3d 973b 033d
00000200: 7190 47b9 3324 06bd a447 bbbc f424 443d
00000210: 29a6 f3bc ad28 14bd 3723 f1bc 8731 29bd
00000220: b9ef 8bbc d7dd be3c 0405 06bb 03f9 b8bd
00000230: db8f 7bbd 7c2e 143d ed8f d13b 67f7 a6bc
00000240: fa6f dcbd f72c c0bd d98d afbc a197 c6bd
00000250: 7fa1 06be b994 1fbd 19ae 513c e87b 05be
00000260: e105 303c f855 013d 502a b73d c366 44bd
00000270: 868c cb3d e8d0 0b3e bc6c c3bd 2682 ed3a
00000280: eb40 113b 3350 4f3c 7b8a b9bd ce3e 90be
00000290: 2a57 a1bd 4cf0 083d a429 49be 075a c43d
000002a0: 6616 823d 4f3e c23c 51e7 993d d468 b53c
000002b0: 8a7a a43d 45ac 5ebc 3467 b43d 0f98 cf3b
000002c0: 9463 9c3d 340a 46bc 51f0 a53d be3f 933c
000002d0: e935 f2bc 5ead 653c 3b0c 313d 852f b8bd
000002e0: 77b7 b6bd 9692 5e3d cc28 9abd 704b b2bd
000002f0: 377d 19bd 496f 4b3c 6366 2f3d 0017 29bd
00000300: 1641 ca3d dfec 923d a9c3 ac3d 009f 9ebc
00000310: 661f ce3c 24eb 8a3c 54c5 3dbc 6960 813d
00000320: b6cb 133d 0f3e 2c3d 7ae4 543e f2ab 613d
00000330: 65b6 383d 8db0 653d e3bf a03d ded2 14bd
00000340: 55d7 95bd 028e 69bd 25c8 b2bd d01a c9bd
00000350: 47d3 99bd 78ec 0c3d c992 11bd 1bda 5bbc
00000360: 698d 1ebe d0db 6cbe eec3 993d 9b18 483c
00000370: 0d26 cb3d d6d2 0c3e f5c3 f9bc 6e5c dbbc
00000380: bc7b bfbc 7efa 98bc faad a13d 128d 06bd
00000390: e828 e1bc 2901 823d 8f87 b43d 4e3d bbbb
000003a0: 1669 fb3c d5e7 a03c 605d 5c3d 35ef f93a
000003b0: da94 23bd c67c f13d d215 f6bb 817f b3bd
000003c0: 9708 3c3c 9b28 a9bc 1bae 593a 7ac2 a7bd
000003d0: c83f 10be 4a82 b13d fda6 ebbd 1eca 25be
000003e0: e0e4 303d 3475 9e3d d3c2 21bc 18d8 663d
000003f0: 5a9e 56bc 53d0 c83d f664 01bc 0e87 c83c

sequences.4.bias f4 [25]
-0.015906144 -0.023633474 -0.023022098 -0.015517687 -0.06410427 -0.034870937 -0.006499228 -0.024323165
-0.05777191 -0.07408128 -0.049414724 -0.015991462 -0.0478323 -0.043055233 -0.062039323 -0.066955976
0.024093315 -0.048874456 -0.041995995 -0.031192401 -0.011587005 -0.01240023 -0.059554745 -0.08478302
0.019908834
00000000: 9a4d 82bc fd9a c1bc d798 bcbc e63d 7ebc
00000010: 1949 83bd d4d4 0ebd 7af7 d4bb 6041 c7bc
00000020: 3da2 6cbd edb7 97bd 1867 4abd 8700 83bc
00000030: cdeb 43bd af5a 30bd f21c 7ebd 3720 89bd
00000040: 585f c53c 9530 48bd fe03 2cbd 3587 ffbc
00000050: 6cd7 3dbc 562a 4bbc adef 73bd b8a2 adbd
00000060: da17 a33c
