saved_models/UPSCALE_X5/epoch_95.pth (torch, 111967 bytes, 6 tensors)

sequences.0.weight f4 [64, 1, 5, 5]
00000000: 3aa2 33be bc2e 43bd 4b20 4f3e fb3e 15be
00000010: a0cb 31be 4556 53be 3a54 173e 931e 823e
00000020: 1561 fbbc 3c2f 983c 9213 263d 5329 cc3b
00000030: 9c97 84be a0e7 603e 27c3 ebbc 61cd 1abe
00000040: eff5 9ebd 8964 7e3c 0c3c 903e c9a2 d33d
00000050: e517 04be 9d5f d3bd 8860 30be 4e0d a23d
00000060: 0846 b7bd 9890 e6bd 346d 483e 71fc d13b
00000070: 0a9f 5b3d c0c1 32be ea50 943c 53ed 463e
00000080: 63e4 cbbd 2554 843c 9bb7 ffbd 893e 41bc
00000090: 69a9 bebd 64a4 a5bd 30d6 23be ab8a 03be
000000a0: 5e39 663c 9530 0f3d 37eb 823e a12f 4abd
000000b0: 5791 5a3e 2306 773d 3db5 d33d 916d 933d
000000c0: a497 8b3d 3242 403e ab0b 373e 4770 a53c
000000d0: 15dc 513e bebe 973c 5e1d c03d 9794 053e
000000e0: fdc5 3abe 8138 03be afea 043e 9512 c33d
000000f0: e67a 243d a795 ccbd ea41 7a3d 72bd 6c3e
00000100: 32e1 f8bd 272b c93d b331 0b3d c6f8 e9bd
00000110: 68ed 43be b2dd 2e3e 8a6e 1f3c c0f2 473d
00000120: 31a7 0e3e f483 d7bd 5199 943d 56c1 bfbd
00000130: 39dc cfbd dac6 5e3e 6203 74bc 2bed 27be
00000140: 3b0f a9bd 1f56 f9bc 7363 b6bd e582 15be
00000150: c340 4c3c 2505 3d3c be78 433b ff61 2a3e
00000160: 9b7a 493e d689 123e 3dc3 2ebe 58ce 673e
00000170: 6ee8 0e3e aa9a 61bd 6a8d 043e 3ca2 8e3d
00000180: da88 e6bd 6457 093e 3603 eabd 1af4 2bbe
00000190: 7666 5dbc b084 42bd 750d febd baa7 f53d
000001a0: 47d1 23bc 8154 0a3e db41 39be d7a7 3fbc
000001b0: 9de2 093d e659 5bbb dc71 5e3d 179f 4cbe
000001c0: a4da 43bd 71b5 8f3e 4fca 383e 7a67 1e3e
000001d0: a9d1 38be 8a65 12bd b272 e73d 0826 e339
000001e0: 547a a53d 4987 793c 5133 e039 6e09 7bbb
000001f0: c5aa 1ebc 432d 233d 6613 343e 37e9 8bbd
00000200: 9baa 3b3e 209c 22bd cd95 533e 3157 8f3e
00000210: fd79 143c f15e 913e 0467 e8bd 8aaa 493e
00000220: 1334 b73e 8845 283e cd7f e0bb c3e6 683e
00000230: be3e 44bd e791 413e cb95 0b3e d1ce 693e
00000240: 17a4 293e 10d9 7ebd 868a 0ebe 6e7e 893e
00000250: 1114 593e 63a2 1f3e 6dad 19be 6b33 b6ba
00000260: 1d8a f93d a025 2dbe d38c 8a3c 9276 843d
00000270: 59f0 07be a1fd 7dbe 7903 233e 0544 ac3d
00000280: ef1e 91bd b2d5 293e 2cae b4bc 45ae c4bc
00000290: 8b52 a03d 3edc 99bd 51c7 393e 70f9 583e
000002a0: 6716 77be cbdf 23be 0e0a 11be b055 19be
000002b0: 878d 263e f448 0fbe df00 eabd 1d4d 50bd
000002c0: d5f5 eebc 8a02 e1bd c1c1 2bbd ec1f bcba
000002d0: 7be2 833d 5462 453e 1029 8cbe 118e 98bc
000002e0: f634 1bbb c934 3dbe 0c7d 8a3e 4608 8a3d
000002f0: c64d 68be b120 aa3d c07a 39bd cf42 7abd
00000300: 6d01 a7bc 5fbe 6e3e 9d5d 3e3d 5792 4ebc
00000310: 959c f53d b1f2 a039 8a5f a43d a399 013d
00000320: c107 a33d e2b5 38be a87d 51be b00a 0abe
00000330: ab16 943d 6f48 87be 8df9 853d 7666 1bbe
00000340: 20fe 293e cc19 19be efdf f73d 2329 a13e
00000350: 538f fcbe aea8 2ebb e718 5e3c 8640 e53d
00000360: 9a34 943e f569 6cbe d55d 913e f13d f2bd
00000370: 2732 e83c 8c5d 8c3d 674f 2f3e 01c9 6ebd
00000380: 7a19 ab3c 7bfc 19be 7793 6dbd f982 50be
00000390: 348b 033e dca8 263e c5ac 283e fb9f b03d
000003a0: 2efe 2c3e 0587 7bbd f8c4 1fbe cef7 98bd
000003b0: 0ea2 da3d 2759 2b3e 793f 97bd b0f1 9d3d
000003c0: 8ba4 8c3d 5889 46be ac3c 03be 7fdc 1f3e
000003d0: 6835 9e3d efe4 55be 7a93 383d 4fe4 2c3e
000003e0: 2649 c53d f786 c33d e0ab 1fbd d49c 513e
000003f0: 57bd 5a3d da93 1b3e 8b4c 023e 1c86 4f3e
-0.17542353 -0.04765199 0.20227163 -0.14574806 -0.17362833 -0.20638378 0.14778224 0.2541395
-0.03068594 0.01857721 0.040546007 0.006230512 -0.2589692 0.21963358 -0.02877958 -0.15117408
-0.07761752 0.015526899 0.28170812 0.10333783 -0.1289974 -0.10320971 -0.17224324 0.07912694
-0.08948904 -0.11258048 0.19572908 0.006408267 0.05361847 -0.17456722 0.01810499 0.1942647
-0.09955671 0.016153404 -0.12486192 -0.011794695 -0.09309656 -0.08087996 -0.15999675 -0.12845866
0.014051763 0.03495844 0.2557008 -0.04936183 0.21344505 0.060308587 0.10337303 0.071986325
0.068160325 0.18775252 0.17875545 0.02019514 0.20494111 0.01852357 0.09380601 0.13044964
-0.18239589 -0.12814523 0.1298015 0.095250286 0.040156268 -0.099894814 0.061098017 0.23119143
-0.121523276 0.09822684 0.033982944 -0.11424403 -0.19133532 0.17076758 0.009730944 0.04881549
0.13930966 -0.10523215 0.07255805 -0.09363048 -0.10149426 0.21755543 -0.014893385 -0.16399066
-0.08254858 -0.030436574 -0.08905687 -0.14600714 0.012466612 0.011536871 0.0029826607 0.16638945
0.19675677 0.14310393 -0.17066665 0.22637308 0.13955852 -0.05507914 0.1294457 0.069645375
-0.11256571 0.13412243 -0.11426394 -0.16792336 -0.013513198 -0.047489822 -0.124049105 0.11994882
-0.009998626 0.13508798 -0.18091528 -0.011697731 0.03366338 -0.0033470332 0.054307804 -0.19982563
-0.047815934 0.28068116 0.18045925 0.1546916 -0.18048729 -0.035741366 0.11301173 0.0004332515
0.08079973 0.015230008 0.00042762843 -0.003830518 -0.009684269 0.039838087 0.17585525 -0.068315916
0.183268 -0.039699674 0.20662613 0.2799621 0.009062287 0.28392747 -0.11347774 0.19693962
0.35781917 0.16432774 -0.0068511725 0.22744279 -0.047911398 0.18903314 0.1363136 0.228328
0.16566502 -0.062218726 -0.1392003 0.2685427 0.21199061 0.1558929 -0.15007563 -0.0013900822
0.12184546 -0.16908884 0.016912853 0.06467928 -0.13275279 -0.24803783 0.15919293 0.08411411
-0.07085978 0.16585425 -0.022055708 -0.02400888 0.07828244 -0.07512711 0.1814244 0.21188903
-0.2412964 -0.16003339 -0.14163992 -0.14974093 0.16264926 -0.13992673 -0.114259474 -0.05085479
-0.029169956 -0.109868124 -0.041932825 -0.0014352775 0.06439682 0.1927579 -0.27375078 -0.01862243
-0.002368269 -0.18477167 0.27048528 0.06739859 -0.22685918 0.08307017 -0.04528308 -0.06109887
-0.020386422 0.23314808 0.046475995 -0.012608132 0.11992756 0.00030698397 0.08026035 0.03164066
0.07960463 -0.18038133 -0.2045809 -0.1348064 0.07230886 -0.2642245 0.06541739 -0.15175804
0.16600847 -0.14951247 0.12103259 0.31476697 -0.49328098 -0.0026650834 0.013555742 0.111939475
0.28946382 -0.23087294 0.283919 -0.11828221 0.028344227 0.0685378 0.17120133 -0.05829716
0.020886172 -0.1503772 -0.05800196 -0.20362462 0.1284607 0.16275352 0.16472156 0.08624264
0.16893837 -0.06140806 -0.15602481 -0.0746914 0.10675441 0.16733228 -0.07385153 0.07712114
0.068673216 -0.1938833 -0.12816113 0.15611456 0.0772503 -0.20888112 0.04506252 0.16883968
0.096330926 0.09547227 -0.038982272 0.20469981 0.053403225 0.1519312 0.12724511 0.20266002

sequences.0.bias f4 [64]
00000000: 432a 5a3e f91f 27be 74be 60be 76c9 05be
00000010: ff20 71be c474 903e 8f0a 253e e178 123e
00000020: db3f 033e cf02 adbd d476 8f3d bf6e c33d
00000030: 750b 59bc 48f6 2d3d 7e4a 21be f88f 5ebc
00000040: 33f2 5d3e 2d70 67be 7727 3c3d 4699 133e
00000050: d876 18be 0758 66be b13e 8cbe 8e99 3e3e
00000060: a56f 053e 6711 873d 067c 493e ca38 593e
00000070: 2002 5e3e cd7e 3abd a21d 54be 64d7 bd3c
00000080: 3eea 5cbe 103c 4cbe 9122 2cbe c709 513d
00000090: 76b7 01bd 40cd f73c be8b 0ebe e6ca f9bc
000000a0: 7ebc 6bbe da37 1dbe f6ca 1a3e a4f0 6b3e
000000b0: 7843 6bbe 22ba 3a3e 0157 043e 41f1 2f3e
000000c0: d51e 2dbd 108a f93d ed5e 853e 1943 e23d
000000d0: 94af 163e 0f22 b93c 9cc9 45be 917c c93d
000000e0: 08df 8bbe 6a36 fa3d e4ed 023e ca81 74be
000000f0: 6509 563e dfd8 50be 5a84 4e3e cc5f 07bd
0.21305184 -0.1632079 -0.21947652 -0.13065132 -0.23547743 0.28214085 0.16117309 0.14303924
0.12817328 -0.08447801 0.070050865 0.095426075 -0.0132473605 0.0424712 -0.15751073 -0.0135841295
0.21674423 -0.22601385 0.045936074 0.14413938 -0.14889085 -0.22494517 -0.2739158 0.18613264
0.1303087 0.06595116 0.19676217 0.2121307 0.21680498 -0.045531083 -0.20714429 0.023173995
-0.21573731 -0.19944787 -0.16810061 0.051034715 -0.031669103 0.030249238 -0.13920495 -0.030492257
-0.23021123 -0.15353337 0.15116486 0.23041016 -0.22974956 0.18235067 0.12923814 0.17181875
-0.04226573 0.121845365 0.26048985 0.11047954 0.14715415 0.022599248 -0.19315189 0.09838212
-0.27318597 0.1221741 0.1278606 -0.23877636 0.20902021 -0.2039523 0.20167676 -0.033050343

sequences.2.weight f4 [32, 64, 3, 3]
00000000: 05a5 9dbe 5921 c63d d62f 28bd bde3 d5bd
00000010: 9c68 013e 7b26 94bd cd44 b0bd 7ed1 11be
00000020: 4787 b5bc 39b8 163e 8bac cdbd ff99 463d
00000030: 99e8 4d3e f25d bc3c 7209 033d 3007 673c
00000040: f119 e13d b97e 1cbe cd9c 373d 2be8 88bd
00000050: cffb 113d 0383 03be 55c0 86bb 310a 013d
00000060: 647c 2cbd ceea 95bb 7f1f e13c ff7a 073e
00000070: aaaa 92bd c241 7c3d 99c5 5b3d 6f05 7bba
00000080: 7a91 493b 1ccf af3d 5573 7abd 42f6 193d
00000090: 0747 f1bd 5424 173d 1faf 123d 81aa 6dbe
000000a0: 2c64 6abd c870 a83c a18e 32be 2a2e ee3c
000000b0: eafe da3d 310f 84bc fd1b d83b f05d 1e3c
000000c0: bc88 85bc 28a8 6cbc bc8c 2bbc 85a2 9eb9
000000d0: d1e6 593d c484 edbc 0dc6 0d3e b2dc 8ebd
000000e0: 4bc8 0fbc d613 8d3d b619 cf3d df31 a3bc
000000f0: 26b6 b63c e34d 553d 7f3d a7bc 1784 82bb
00000100: 210c d9bb ff33 84bd 6513 3a3c 6a16 593d
00000110: 35f6 90bd fa98 97bc dfdc cc3d 0651 8abd
00000120: dea3 41bd 6d09 163e 28b3 dcbd 702a a5bd
00000130: d12f 5b3e 3e0e dcbd 57be 50be cf29 173e
00000140: 32f9 ebbd 332c c1bc 89d1 1eb9 fc20 06bc
00000150: 02a2 033d e059 92bd 2a8a d63c c35d 553d
00000160: 8724 d93c d4d8 d8bc ea66 ed3d 2f71 febd
00000170: d4cb 413d 02bb 3e3e 734b 57bd 908a 20bc
00000180: 9ed1 f63d 74e3 e5bb 2df9 d3bd afcb 0ebc
00000190: 4a3a 943b f4b0 61bd f1a5 41bd 24ee 7c3c
000001a0: fe88 363c 2bbf e33c 472a b7bc 94f1 02bc
000001b0: 4b6b a33d 6088 ddbc e3c6 d33d 5c19 5f3e
000001c0: 5079 2cbe 89b1 cabb 913b 333e c2c9 babc
000001d0: a401 703d 220e c1bc 3c98 55bc 3c15 6abd
000001e0: e603 c2be d454 613e 38b0 053e 7487 8abe
000001f0: a5d1 84bd ac8d 973c 1a6f bb3d 8b66 20bd
00000200: 0126 983c 1817 313d 3e47 083b 44b2 293d
00000210: 8b2e 563b b3e6 22bc 8f89 1c3c f3a6 423d
00000220: 0ab2 793d feeb ef3d 005c f33d 44de cdbd
00000230: c921 4fbd c0e6 823d 027a a53d 3d54 9fbd
00000240: 7107 e8bd 3adc 803d 9bed a93d d7d0 b6bb
00000250: 6de9 f13d af98 c63c 0ec6 ad3c 7330 9f3c
00000260: d18f 75be 2757 b53c 0c4c 1dbc f9a0 9cbb
00000270: 851a d9bb 9f14 b1bc d527 fc3b d075 57ba
00000280: 75f8 9cbc cba6 b63c 7ad5 763d 5539 943c
00000290: 84c4 223d 6319 8f3d da2c bf3b 8b94 fd3b
000002a0: f155 b43c fb05 23bb a41e 3c3d 61ed 723b
000002b0: 5b45 6b3d cd6f d83a 79ff 5abc 8b0b 7e3d
000002c0: 7ec0 973d c8a0 303d bee4 783d 5ded 88bd
000002d0: 27ae 1ebe be49 423d 38e2 49ba 5197 2ebe
000002e0: bcf0 7a3c 844f 3fbe 7ac4 7fbd fdb7 ce3d
000002f0: 87a4 a3bd 01df b43d f8bc a5bd 77ec 343b
00000300: a9fe 593d 9619 70bd 5ed7 ff3c 85ad d93c
00000310: 6f7c 55bd 94d2 a83d 83cc 833c 8d12 e43b
00000320: b137 073d b6d4 0ebd 6404 173b 8abe ae3c
00000330: 6511 9bbc fdf3 4cbc fa3e 96bc c07a 8c3d
00000340: 1fae 353d 4807 2abd 2d24 89bc d847 133e
00000350: 2c67 88bb 640b 27bd bd2d 3f3b 0507 28bd
00000360: 720e 813b 1e3c 20bc f863 173c 0fd6 773d
00000370: f5ab c6bb f6da 913d f3d2 8f3c a818 95bd
00000380: 40bb 373d 9441 a53d e44a 1c3d 4887 f3bc
00000390: 73d3 5a3e 4db7 973c 91c6 77bd 1cb0 593e
000003a0: cf7e 98bc 6638 31bd ddb6 97bc 9631 da3d
000003b0: 0883 3cbd d788 d03b 84c3 ee3d a726 8fbd
000003c0: 8d6b 443c 7d09 533d 674d d6bd 188c 1fbc
000003d0: 0e62 3d3d 3c68 debd db2b 1dbe 123c 7a3e
000003e0: 96aa 62bd bb12 66be f85a 593e f12a adbd
000003f0: fb08 9cbc 9b5a be3c e29b adbd e390 843c
-0.30789962 0.09674329 -0.041061245 -0.10443828 0.12637562 -0.07233902 -0.08606873 -0.14240071
-0.022159232 0.14718713 -0.100426756 0.048486706 0.2010826 0.022994015 0.03199143 0.014100835
0.10991276 -0.15282716 0.04482727 -0.066849075 0.035640534 -0.12842946 -0.0041122832 0.03150386
-0.042110816 -0.00457511 0.027480839 0.13230513 -0.07161458 0.06158615 0.05365524 -0.00095757
0.0030756877 0.08584425 -0.061145145 0.037588365 -0.117811255 0.03689988 0.03581154 -0.23209573
-0.057224438 0.02056159 -0.17437221 0.029074747 0.10693152 -0.016120525 0.0065951333 0.009665951
-0.016300552 -0.014444388 -0.010470565 -0.00030257195 0.05319864 -0.028993972 0.13845082 -0.06975688
-0.008775781 0.06888549 0.10112326 -0.019921241 0.022303652 0.05207623 -0.020415066 -0.0039830315
-0.0066237603 -0.0645523 0.011357163 0.05299989 -0.0707821 -0.018505562 0.10003065 -0.06753735
-0.047275417 0.14652033 -0.10776359 -0.08064735 0.2140496 -0.10744904 -0.20385109 0.14762042
-0.115221396 -0.023580646 -0.00015146112 -0.008186575 0.032136925 -0.071460485 0.026188929 0.05209137
0.026506675 -0.02647058 0.11591895 -0.12423932 0.047313526 0.18626025 -0.05256219 -0.009798661
0.120517 -0.00701564 -0.10350261 -0.008715554 0.00452355 -0.055100396 -0.047277395 0.0154376365
0.01114106 0.027801117 -0.022359027 -0.007992167 0.07979449 -0.027042568 0.10340669 0.21787018
-0.16843152 -0.0061857146 0.17503192 -0.022801284 0.058595315 -0.02356631 -0.013036784 -0.057149157
-0.378936 0.22005016 0.13055503 -0.27056468 -0.06485299 0.018500172 0.0915205 -0.039160293
0.01857281 0.043234915 0.0020794417 0.041429773 0.003268155 -0.009942698 0.009554281 0.047522496
0.060960807 0.11714934 0.11882782 -0.100521594 -0.05056933 0.06391668 0.08079912 -0.07779739
-0.11329544 0.06292005 0.08297273 -0.005579095 0.118121006 0.024242727 0.021212604 0.019432282
-0.23980643 0.022136284 -0.0096006505 -0.0047799316 -0.006625476 -0.021616278 0.007695178 -0.00082191546
-0.019161442 0.02229633 0.06026218 0.018093744 0.039738193 0.06987264 0.005834204 0.007738655
0.022013636 -0.002487539 0.04592766 0.0037067758 0.05743919 0.0016512811 -0.0133665735 0.062022727
0.07409762 0.043122083 0.06076502 -0.066858985 -0.15496121 0.047433607 -0.0007701251 -0.1704991
0.015316185 -0.18682677 -0.062443234 0.10093687 -0.079903655 0.08831597 -0.080926836 0.0027606764
0.05322138 -0.05861815 0.031230625 0.026571998 -0.052120622 0.082432896 0.01608873 0.0069602192
0.033012096 -0.034870826 0.0023043389 0.02133109 -0.018929193 -0.012509343 -0.018340576 0.0685935
0.044355508 -0.04151085 -0.016740883 0.14382875 -0.0041626897 -0.040782347 0.002917155 -0.04102232
0.0039384896 -0.009779958 0.009240143 0.060506877 -0.0060629793 0.071218416 0.017556643 -0.072800934
0.04485631 0.08069149 0.03815736 -0.029727593 0.21369724 0.018520022 -0.060492102 0.21258587
-0.018615155 -0.043266676 -0.018519813 0.10653989 -0.0460234 0.006363969 0.116583854 -0.06989794
0.011988533 0.05152272 -0.10463982 -0.009737991 0.04623609 -0.10859725 -0.15348761 0.24436978
-0.055338465 -0.22468083 0.21226108 -0.08455456 -0.019047251 0.023236563 -0.08476998 0.016182369

sequences.2.bias f4 [32]
00000000: f7cb ba3c 2172 f2bc 2bc3 6a3b 4b5a 86bd
00000010: 2135 45bb 2eec ebbc 16a6 473d a8ce 593d
00000020: c739 06bc f85d 3b3d 0ecd 253e 52de d6ba
00000030: 93d4 e8bc 0da4 6f3d 8d9c 58ba decb 533d
00000040: 763a 23bd 42f3 29be 67f2 dd3b c439 b2bd
00000050: 6929 cc3c 834f 79bd aaba 4bbd 646b 9f3d
00000060: e2f9 b9bc dab9 a53c 7b69 e63b 8537 053e
00000070: 21ba 153d c45d 1f3e 8050 5a3c 6e82 43bd
0.022802336 -0.029595437 0.0035821896 -0.06560191 -0.0030091482 -0.028799143 0.048742376 0.0531756
-0.008192486 0.045743912 0.16191503 -0.0016393161 -0.028421676 0.05850606 -0.0008263074 0.051708095
-0.039850675 -0.16596702 0.0067732814 -0.08702424 0.02492209 -0.060866844 -0.049738564 0.07784155
-0.022702161 0.020230222 0.007031617 0.1300946 0.03655446 0.15563112 0.013324857 -0.04773181

sequences.4.weight f4 [25, 32, 3, 3]
00000000: 69b8 2cbd 16be 243e be51 cfbd bc13 35be
00000010: 9f2b 4f3e d362 30be 273b c43c 4bc2 5a3c
00000020: be96 1a3c 4d0c 573d e1a3 2ebe cf47 c8bd
00000030: 772e 073d c0aa 0bbe 9b41 c8bd 7288 9d3c
00000040: 153d cabb 2187 0abc 2d9b dfbd b41e 50bd
00000050: e89c 963b a1c4 ccbd f8cf edbd 8ac9 81bd
00000060: a797 79bd fe27 f03b 9a39 fdbc ed68 71be
00000070: 08a1 2b3c b078 71bc aa1a 8b3e fd08 a63e
00000080: da91 c2bd 7b2c 323d 2c39 ffbc a8d6 5ebb
00000090: b3a3 07be 9ffd e1bc 11ca 903d ca59 afbd
000000a0: 4276 90bd 410a 943d 8757 623c 0ca3 633d
000000b0: 6eea 253c 668c 13bd 3815 1a3d f4c0 e63c
000000c0: 68db 203d ec3c 2c3e 4725 903b 6176 67bc
000000d0: 2918 61bc 1fd2 7fbd 8ade a1bc a57e 4bbe
000000e0: 56c0 fe3b 006d 7fbc cc7a 02bd ad28 92bd
000000f0: 875f b5bc 2d8a d43c aab8 233c 8666 8e3b
00000100: 1221 eb3d dde2 fa3c b836 42be 9955 4ebe
00000110: 9727 40bd 5f17 b23d 510b 483d ec46 1c3d
00000120: dbbf d33d 70dc 373a 7f38 06bd 0a04 d03b
00000130: 5e49 e03d b5c6 46bd 6d48 64bd 3ecf d8bc
00000140: 58f3 b03c 308a e8bd 13dd 66bd 2c7c 8cbd
00000150: 29b7 f5bc e9b4 9dbd 38df d0bd 0b8c c5bd
00000160: 8737 afbd 7f44 00bd f719 86bd cf21 e3bd
00000170: 0671 143c 309d 29bd bb3a cfbd 07bb cfbd
00000180: 06ba 83bc 87c0 70ba 9028 373d f970 52bd
00000190: 6bd1 63be 1d02 75bd d08a c9bd 0241 09be
000001a0: 4fa8 37be 54ce 5c3d 2ec5 0cbc 579d 22bd
000001b0: a017 d7bd 8c7e 5abe e323 123d bec1 673e
000001c0: 8473 8e3d 6850 f03c 8ce1 81bd c8cc 47bd
000001d0: 21a2 aa3a faa0 24be 98fb f63b e205 1bbd
000001e0: 1db1 af3c dee7 9cbd 2344 68bd 3a3a 6b3d
000001f0: 5c17 c63d 4c7b 293b d720 b53d 2994 843d
00000200: d4e5 cebc a58a e8bc 16ec 62bc 8ca1 9e3c
00000210: d341 41bc ee0d e1bc 627d 70bd 4a5a 29bd
00000220: 2410 57bc 0649 ca3c f1ee 9cbb f93b f2bd
00000230: 5e50 31bd 08c5 c43c 24f9 f5b9 28b6 8ebb
00000240: 44ad ffbd 6073 eabd 5edf 243c 875f dcbd
00000250: c8d4 11be c03e a4bc f1fb 983c 8990 f9bd
00000260: f68e 203d 8730 ff3c 3896 c63d f365 65bd
00000270: 0107 cd3d 6c8b 203e 33c9 c9bd 34ed 07bb
00000280: 9f23 b13b 22f8 cf3b 36f7 93bd cd89 b8be
00000290: 7894 383a 4bed d53d f601 cdbd 907d 2d3e
000002a0: 2652 be3d f23a cf3b 876c 2d3d a729 133d
000002b0: c7dd a03d 5d58 3dbc b360 f33d e50a 813c
000002c0: b9d7 953d 9af1 e83a b702 8b3d 4eef 933c
000002d0: 6732 bebc 911d 5b3c 013c 503d 89ed b0bd
000002e0: 2d2b e3bd 8f0c a63d e142 a1bd 71e0 99bd
000002f0: 98e2 9cbc 5a92 b73c c76c 793d b82d 5dbd
00000300: 94e1 c23d dd11 a63d 40ee a83d 6661 1cbd
00000310: ed76 6e3c 2638 bc3b 3192 87bd 6668 d03d
00000320: 119b 01bd 9384 e1bd 004e ba3e f1c7 26bb
00000330: acce fe3b 3635 533d afb6 893c f72b bbbc
00000340: 4376 c0bd 373d 2fbd 7545 b3bd 73a7 e2bd
00000350: be6b 75bd 7beb 123d 2e6d 4abd efa5 19bc
00000360: b921 38be 89b5 7ebe 9f16 a23d fca9 b43c
00000370: cbab c63d fb1e dd3d 5055 bebc 30f9 ebbc
00000380: eaec c0bc 295e 943c 4b19 113e 6064 a3bc
00000390: 614d 6fbd e36a c13d ae3b 8e3d 3cda bbbc
000003a0: 4cef 4bbc 08b1 60bc 27b0 bb3d de0b 18bb
000003b0: 3b41 b5bc 0abc 093e 3b50 3a3b 5c5c 76bd
000003c0: 6a0f 523c 42a5 73bb 56a6 ef3b 8256 cbbd
000003d0: 8264 23be feb0 9a3d a99e 13be fd4f 4fbe
000003e0: bcaf 813d 8668 993d 64cf 933c c3c9 393d
000003f0: 6637 c93c fdce c23d d99d eebc c511 683d
-0.042168055 0.16088137 -0.10123013 -0.1768331 0.20231484 -0.17225198 0.023953987 0.013351987
0.009435354 0.052501965 -0.17054702 -0.097793214 0.033003297 -0.13639355 -0.09778138 0.019230101
-0.0061718323 -0.008455069 -0.10918269 -0.05081053 0.0045963414 -0.099984415 -0.116119325 -0.06337269
-0.060935643 0.007328986 -0.030911256 -0.23575182 0.010475405 -0.014738247 0.2716878 0.32428733
-0.09500475 0.04349945 -0.031155191 -0.0034002457 -0.1324604 -0.027586756 0.07069791 -0.08562048
-0.07053806 0.07228518 0.013814813 0.055575415 0.010126693 -0.036022566 0.037617892 0.02816818
0.039271742 0.16820115 0.004398975 -0.014127345 -0.01373867 -0.062456246 -0.019759435 -0.1987253
0.007774393 -0.0155899525 -0.03185539 -0.071366645 -0.022140278 0.025944794 0.009992758 0.004345718
0.11480917 0.030625755 -0.18966186 -0.2014984 -0.046912756 0.08695864 0.048838917 0.038153574
0.10339328 0.0007013744 -0.032768723 0.0063481377 0.10951494 -0.048529346 -0.055733133 -0.026466008
0.02160041 -0.11354482 -0.056363177 -0.068596214 -0.029994564 -0.077005215 -0.101988256 -0.09645852
-0.08555513 -0.031315323 -0.06547921 -0.11090433 0.00906015 -0.04140967 -0.10118624 -0.101430945
-0.016079914 -0.0009183962 0.044716418 -0.05137727 -0.22247855 -0.05981647 -0.098409295 -0.13403705
-0.17935298 0.053907707 -0.008591933 -0.039700832 -0.10502553 -0.21337336 0.035678755 0.226325
0.069556266 0.029335216 -0.06341848 -0.04877928 0.0013018289 -0.16077033 0.0075373165 -0.037847407
0.021446759 -0.07661413 -0.056705605 0.057428576 0.09672424 0.0025860844 0.08844154 0.06473572
-0.025256075 -0.028386423 -0.013850233 0.01936414 -0.011795479 -0.027472463 -0.058713324 -0.041345872
-0.013126407 0.024693023 -0.004789226 -0.11827845 -0.043289535 0.024019733 -0.00046915666 -0.004355211
-0.1248422 -0.11447787 0.0100630205 -0.10760408 -0.14241326 -0.020049453 0.018674823 -0.12185771
0.03919884 0.03115107 0.09696621 -0.05600543 0.100111015 0.15678185 -0.09852829 -0.002074075
0.0054058577 0.0063467184 -0.07224886 -0.36042634 0.00070411665 0.10445651 -0.1001014 0.1694243
0.09293012 0.0063241655 0.042339828 0.035928395 0.07854801 -0.011556712 0.11883678 0.015752265
0.073165365 0.0017772198 0.06787627 0.018058445 -0.023217393 0.013373748 0.050838474 -0.08639056
-0.110922195 0.08107864 -0.07874084 -0.07513512 -0.019151017 0.022408653 0.060894754 -0.05399868
0.09515682 0.08108876 0.082485676 -0.038178824 0.014554721 0.005743998 -0.06619681 0.101761624
-0.031642023 -0.11011615 0.36387634 -0.0025448764 0.007776102 0.051564418 0.016810743 -0.022848113
-0.09397557 -0.04278299 -0.08753482 -0.11067095 -0.059917204 0.035869103 -0.049420528 -0.009377941
-0.17981614 -0.24873938 0.07914471 0.022053711 0.09700736 0.10796925 -0.02323404 -0.028805345
-0.02355047 0.018111305 0.14169805 -0.019945323 -0.058423404 0.09444215 0.06944977 -0.02293121
-0.01244719 -0.013714083 0.09164458 -0.0023200433 -0.02212583 0.13450637 0.0028429169 -0.060146675
0.012821058 -0.0037177359 0.00731353 -0.099286094 -0.1595631 0.0755329 -0.14415993 -0.20245357
0.06332347 0.074906394 0.018043227 0.04535843 0.024562549 0.09512136 -0.029128002 0.05665757

sequences.4.bias f4 [25]
00000000: 8d44 69bc d8d4 94bc 079c 9bbc 20ed 90bc
00000010: d704 78bd 242f d6bc ea85 19bc 32b4 eabc
00000020: 2526 71bd d036 8ebd 049f 2cbd 8735 54bc
00000030: 3e2c 6cbd 8663 54bd 852a 87bd 556c 7abd
00000040: 6594 b43c fd5a 71bd 2658 49bd 7327 16bd
00000050: e6a2 11bc 215a 05bc 1edf 6bbd 5391 aebd
00000060: 2292 833c
-0.014237535 -0.018167898 -0.018995298 -0.017691195 -0.06055149 -0.026145525 -0.0093703065 -0.028650377
-0.058874268 -0.069440484 -0.042143837 -0.012952215 -0.05765938 -0.051852725 -0.06599907 -0.06113847
0.022043416 -0.058924664 -0.04915633 -0.036658715 -0.008888936 -0.008139164 -0.057585828 -0.08523812
0.016060892
