saved_models/UPSCALE_X5/epoch_60.pth (torch, 111967 bytes, 6 tensors)

sequences.0.weight f4 [64, 1, 5, 5]
000000 22 06 3a be 8a ca 34 bd 14 72 4e 3e 0e 6f 0e be
       -0.18166402 -0.04413847 0.20160705 -0.13909552
000010 20 12 38 be c8 ce 4c be 8f 13 1a 3e aa 26 77 3e
       -0.17975664 -0.20000756 0.15046524 0.24135843
000020 f1 b8 bf bc 4c 96 93 3c a7 c1 1c 3d c3 3c e1 3a
       -0.023403617 0.018016003 0.03827062 0.0017184246
000030 7c 7a 6c be 3c c4 5e 3e 47 57 e8 bc 78 8f 0f be
       -0.23093599 0.21754545 -0.02836193 -0.14019573
000040 54 a4 9e bd a2 82 c5 3c 4e 10 88 3e 3f 9a da 3d
       -0.07746187 0.024110142 0.2657494 0.10673951
000050 83 8c 06 be 08 77 cd bd fb a2 28 be 40 7c b0 3d
       -0.13139538 -0.10032469 -0.16468422 0.08617449
000060 c6 85 b5 bd 9b 4a ef bd 41 b2 45 3e 56 86 89 3b
       -0.08863406 -0.11684152 0.1930628 0.0041969223
000070 49 fa 4d 3d c7 44 36 be 22 9f aa 3c 11 24 3d 3e
       0.05028752 -0.17799674 0.020827834 0.1847079
000080 7f 63 c7 bd 99 60 1c 3c c2 57 00 be 54 04 46 bc
       -0.09735774 0.009544515 -0.12533477 -0.012085993
000090 ce 49 bd bd e6 a8 9d bd f9 f8 1e be b2 6d 04 be
       -0.09242593 -0.076982304 -0.15524663 -0.1293247
0000a0 4c 43 3c 3c ff 26 13 3d 86 7b 78 3e eb de 48 bd
       0.011490654 0.03592586 0.2426587 -0.049040716
0000b0 16 33 57 3e c7 69 65 3d 3f 8f d7 3d 99 19 93 3d
       0.21015581 0.05600908 0.10525369 0.07182617
0000c0 37 c3 84 3d 5f b5 3f 3e b2 07 36 3e 72 ef 91 3c
       0.06482547 0.18721531 0.17776373 0.017814372
0000d0 df 49 4f 3e 9d a5 8d 3c 29 e2 bf 3d f3 10 00 3e
       0.20243023 0.017290885 0.093693085 0.12506466
0000e0 c2 6a 3c be 12 3d 05 be 79 a4 03 3e ac 3f c2 3d
       -0.184001 -0.13011578 0.1285571 0.09484801
0000f0 b2 84 1b 3d ab c8 cb bd 40 07 6a 3d a3 cf 68 3e
       0.037968345 -0.09950384 0.05713582 0.22735457
000100 73 f1 f4 bd b3 c0 c1 3d 19 39 f9 3c 57 7b ec bd
       -0.11960115 0.094605826 0.030422734 -0.11546963
000110 89 85 42 be 79 de 2c 3e a9 d8 05 3c f3 2c 43 3d
       -0.18996252 0.16881742 0.008169332 0.04765029
000120 d9 7d 0c 3e 53 b5 d8 bd f0 f5 90 3d 61 65 c1 bd
       0.13719882 -0.1058146 0.07078159 -0.094431646
000130 94 0f cc bd a9 63 5d 3e 27 53 6d bc a0 e8 23 be
       -0.09963909 0.21620049 -0.014485157 -0.16006708
000140 56 f5 aa bd 5f 88 d5 bc c4 4b b5 bd 39 ba 0f be
       -0.08347575 -0.026066003 -0.08852342 -0.14035882
000150 e6 79 83 3c 41 b6 58 3c 57 7c dd 3b 58 78 23 3e
       0.016049337 0.0132270465 0.006759207 0.15963876
000160 81 1b 47 3e 46 ac 14 3e 18 d7 2f be 6b 64 67 3e
       0.19444086 0.14518842 -0.17171896 0.225969
000170 43 62 0a 3e 81 4d 54 bd 14 de 03 3e ed 2f 88 3d
       0.13514046 -0.051831726 0.12877685 0.06649766
000180 f3 e0 e0 bd 23 39 0a 3e 77 6f e6 bd 8b 57 2a be
       -0.10980406 0.13498358 -0.11251729 -0.16634957
000190 fe 0f d6 bb 1d 9b 3a bd a4 71 fe bd 71 6f f0 3d
       -0.006532668 -0.045558084 -0.12424019 0.11740006
0001a0 9d 5e 54 bc 31 bb 0c 3e 84 8e 37 be 07 5f 48 bc
       -0.012962011 0.13743283 -0.17925459 -0.0122296875
0001b0 51 69 05 3d ec 42 3f bb 6f 02 65 3d d6 fc 44 be
       0.03257114 -0.0029184176 0.055910524 -0.19237074
0001c0 70 2b 47 bd 88 53 8a 3e 36 be 39 3e 3f df 1d 3e
       -0.04862541 0.27016854 0.18138966 0.15417193
0001d0 ae 0a 38 be 60 69 0b bd d6 7e df 3d b2 ea 3d 3a
       -0.17972824 -0.03403604 0.10912864 0.000724475
0001e0 11 07 af 3d 22 b9 68 3c eb e8 5b 39 fa 47 9a bb
       0.0854627 0.014204295 0.00020972236 -0.0047082873
0001f0 2d df 2b bc ae 27 56 3d c3 86 43 3e 52 d5 70 bd
       -0.010490221 0.052283935 0.19094376 -0.058797188
000200 7a 2d 40 3e 92 f4 11 bd 4b 8e 54 3e a2 22 8d 3e
       0.18767348 -0.03563363 0.20757405 0.27565485
000210 e5 2b 37 bb 7e 43 88 3e c8 34 e6 bd 0b 18 44 3e
       -0.0027949747 0.26613992 -0.11240536 0.19149797
000220 c1 94 ab 3e 5d c6 09 3e 84 89 0f bd 4d ee 66 3e
       0.33511928 0.13454576 -0.035043254 0.22551842
000230 5d 5e 37 bd 26 35 3d 3e 0e 33 e1 3d 31 58 51 3e
       -0.044767726 0.18477306 0.10996066 0.20443799
000240 97 ec 2c 3e 06 0a 76 bd 02 2d 08 be 7d fb 85 3e
       0.16887127 -0.060068153 -0.13298419 0.26168433
000250 76 87 56 3e 6f d3 25 3e 0a 25 1c be 41 23 24 3a
       0.20950112 0.16193937 -0.15248504 0.0006261357
000260 b0 53 f9 3d ea 98 2b be b7 2f 8e 3c a9 50 85 3d
       0.12174165 -0.16757551 0.017356737 0.06509525
000270 34 04 08 be 89 cc 75 be 76 48 20 3e df 41 b5 3d
       -0.13282853 -0.24003805 0.15652642 0.088504545
000280 fe b8 89 bd 9a 13 25 3e 16 ac 6c bc 49 5a ba bc
       -0.067247376 0.16120759 -0.014445325 -0.02274813
000290 fb d3 a0 3d 44 c5 8c bd a6 00 3b 3e 63 03 50 3e
       0.07852932 -0.06873563 0.18261966 0.20313792
0002a0 94 71 6f be 7c d9 23 be 52 74 11 be a8 29 11 be
       -0.2338317 -0.16000932 -0.14204529 -0.14176047
0002b0 35 0c 28 3e f6 6a 0e be 3c 6c ee bd 2d e1 77 bd
       0.16410907 -0.1390799 -0.11641738 -0.06051748
0002c0 bb 3d 0c bd d0 b5 e8 bd 28 fd 22 bd c6 8b 1b bb
       -0.03423856 -0.11362803 -0.03979221 -0.0023734435
0002d0 b3 2f 78 3d ab aa 3f 3e dc a7 86 be 2b 5b 9a bc
       0.060592365 0.18717448 -0.26299942 -0.0188423
0002e0 76 dc c1 bb 26 78 3a be 9f 0e 84 3e 6c fb 86 3d
       -0.0059161736 -0.18209895 0.25792405 0.06590924
0002f0 34 cc 60 be 02 c1 a7 3d 5d 95 3e bd 9b 77 78 bd
       -0.21952897 0.0819111 -0.046529163 -0.06066094
000300 dc 3b b8 bc 71 07 66 3e d6 fc 37 3d a4 60 83 bc
       -0.02248948 0.22463776 0.044918858 -0.016037293
000310 e9 eb ee 3d 67 f2 2e 3b 0d 2f af 3d 80 38 0f 3d
       0.1166609 0.0026694776 0.08553896 0.034965992
000320 a1 5e 8c 3d 76 33 44 be d8 0d 4b be 6f 6d ef bd
       0.068539865 -0.19160256 -0.198295 -0.11690795
000330 0d 4d 75 3d e5 83 81 be 5e 7f 80 3d b0 01 0f be
       0.059887934 -0.2529594 0.06274293 -0.13965487
000340 f9 b7 2b 3e 85 1b 0f be 94 99 12 3e bd 4c 8b 3e
       0.16769399 -0.13975342 0.14316398 0.27206984
000350 1a 69 e0 be 0d 1c 70 3b fc 53 a0 3c 6f b5 03 3e
       -0.43830186 0.0036637813 0.019571297 0.1286218
000360 c1 28 88 3e 18 0e 55 be 8f 3a 91 3e c5 1c d1 bd
       0.26593593 -0.20806158 0.2836499 -0.102105655
000370 60 9b ed 3c dc 74 a2 3d 1d 46 29 3e 78 20 2b bd
       0.029004753 0.079324454 0.16530652 -0.04177901
000380 0e 00 d0 3c 0e 0c 19 be 69 7b 67 bd 51 dd 4e be
       0.025390651 -0.14946005 -0.056514177 -0.20201613
000390 99 d8 01 3e 04 72 28 3e e9 78 29 3e cf 6c b0 3d
       0.12680282 0.16449744 0.1655003 0.086145036
0003a0 0e 3c 2a 3e 00 7f 76 bd 23 91 20 be e5 f2 96 bd
       0.16624472 -0.06017971 -0.15680365 -0.07370547
0003b0 87 0c d8 3d 47 fd 21 3e 6f 53 93 bd 39 d4 9d 3d
       0.105492644 0.15819274 -0.07193648 0.07706494
0003c0 a6 4c 84 3d 76 ac 44 be 34 55 01 be 90 13 1d 3e
       0.06459932 -0.19206414 -0.12630159 0.15339494
0003d0 c7 15 99 3d 05 4d 56 be bd df 37 3d 4d 06 29 3e
       0.07474857 -0.20927818 0.044891108 0.1650631
0003e0 b4 40 c0 3d 9d 92 ca 3d 6e 5f 30 bd 9f 00 50 3e
       0.09387341 0.098912455 -0.04305976 0.20312737
0003f0 c2 31 67 3d f8 ff 1e 3e 64 14 04 3e 4c ae 4d 3e
       0.056443937 0.15527332 0.12898403 0.2008602

sequences.0.bias f4 [64]
000000 ab 6e 50 3e a1 f0 24 be 25 8a 5f be 48 a2 01 be
       0.20354716 -0.16107418 -0.21830042 -0.12659562
000010 3a d1 68 be 39 f8 84 3e 4e 04 22 3e 57 25 0b 3e
       -0.22736064 0.2597063 0.15821955 0.13588463
000020 37 5d 02 3e 4d 8d aa bd 51 22 8c 3d 9a 0f c2 3d
       0.12730871 -0.08327732 0.06842483 0.09475632
000030 9a d6 01 bc 2d fd 2a 3d 39 ad 1c be 67 a7 4e bc
       -0.0079247 0.041745353 -0.15300454 -0.012613154
000040 f2 d3 59 3e 7f e9 50 be 6e a1 42 3d 1f 0f 0f 3e
       0.21272257 -0.20401572 0.047517233 0.13970612
000050 8e 9a 09 be 82 db 62 be 4e 78 83 be 4d 0c 38 3e
       -0.13437864 -0.22154048 -0.25677723 0.17973442
000060 cc 27 03 3e ab 28 7c 3d aa 0c 42 3e 59 07 54 3e
       0.1280815 0.06156222 0.18950143 0.20705928
000070 29 62 57 3e dd 69 3a bd c8 41 4a be de d9 9d 3c
       0.21033539 -0.045511115 -0.19751656 0.019268926
000080 ea 95 57 be 43 df 4a be c9 48 2e be 15 ef 48 3d
       -0.21053281 -0.1981173 -0.17019953 0.04905613
000090 3b 66 fc bc f9 33 eb 3c 91 4b 11 be 0e 58 f8 bc
       -0.030810466 0.028711306 -0.14188983 -0.030315425
0000a0 74 a4 68 be 85 2a 13 be bc 8a 17 3e 31 eb 58 3e
       -0.22718984 -0.14371689 0.14799017 0.21183468
0000b0 7e fc 65 be 4c 81 3f 3e 0d cf f8 3d 72 83 2d 3e
       -0.224596 0.18701667 0.12148867 0.16944674
0000c0 69 67 2d bd 12 fc e9 3d d2 6b 78 3e 47 21 d5 3d
       -0.042334948 0.11425032 0.2425988 0.10406738
0000d0 6c 6c 13 3e bb 3d e2 3c 2e 2a 43 be 34 4c c7 3d
       0.14396828 0.027617326 -0.19059059 0.097313315
0000e0 b0 1f 82 be be ea fa 3d 0d fd fd 3d e6 56 71 be
       -0.254148 0.12251805 0.12401781 -0.23568305
0000f0 d7 51 53 3e 53 9d 4e be 2a 7e 49 3e 98 f1 08 bd
       0.20636688 -0.20177202 0.19677034 -0.033433527

sequences.2.weight f4 [32, 64, 3, 3]
000000 30 28 8f be 29 a6 43 3d ee 9c 61 bd 26 99 a8 bd
       -0.27960348 0.047765885 -0.0550813 -0.08232336
000010 a1 8a 21 3d b9 58 f9 bd 59 7d de bd d5 ab 24 be
       0.039438847 -0.12175126 -0.10863752 -0.16081174
000020 48 3a 62 bc 8e 2f 0d 3e 56 cd 51 bd ca 91 2d 3d
       -0.013807841 0.13787672 -0.051221214 0.042375363
000030 63 ba 41 3e 5c 61 07 3d f5 0f 5d 3b 5a f3 3f 3d
       0.18918757 0.033051834 0.0033731435 0.046862938
000040 ab 8a 4d 3d ca 60 c1 bd 63 08 01 3d aa db 7b bd
       0.050181072 -0.09442289 0.03150214 -0.061488785
000050 7f c8 16 3d fc 19 d8 bd 49 8a c5 3b 08 4d 21 3d
       0.0368123 -0.10551831 0.0060284478 0.039380103
000060 eb 6f ac bc c5 2c ce bb d6 0c 9f 3c 33 e0 5e 3d
       -0.02104946 -0.006291958 0.0194153 0.05441303
000070 ad ae d2 bd 85 c3 87 3d 24 90 91 3c 4e 59 f1 bc
       -0.10287223 0.06629089 0.017768927 -0.02946153
000080 ba 4b 51 b9 f5 b6 8b 3d 15 03 d7 bd c3 1c cd 3c
       -0.00019960004 0.06822006 -0.10498635 0.025038129
000090 98 4c d8 bd 3c 51 86 3d b0 d8 93 3c c5 ba 50 be
       -0.10561484 0.06558463 0.01804766 -0.20383747
0000a0 d1 5d af bc 43 aa 60 3b 5a 87 38 be 79 86 90 3d
       -0.02140704 0.0034281171 -0.18020383 0.070568986
0000b0 58 07 b5 3d c7 bd 59 bc 04 0a 99 3b a3 47 4c 3c
       0.08839291 -0.013289875 0.0046703834 0.012468251
0000c0 93 17 8e bc 2d f8 95 bc 38 97 23 bc db 42 f7 ba
       -0.017345225 -0.018306816 -0.009984784 -0.0018864529
0000d0 58 22 3e 3d 29 c6 f1 bc da 60 b1 3d 22 85 95 bd
       0.04641947 -0.029513435 0.08661051 -0.07300784
0000e0 6a f6 32 bc 72 37 64 3d 10 4f 85 3d f8 4d 0a bb
       -0.0109230075 0.05571694 0.065092206 -0.0021103602
0000f0 e7 70 82 3d 14 ec cb 3b a1 36 c3 bc a9 93 88 3c
       0.06369191 0.006223211 -0.02382976 0.016671972
000100 da 96 26 bc ed 89 7f bd a7 c3 8c ba a0 ad 33 3d
       -0.010167802 -0.062387396 -0.0010739461 0.043866754
000110 61 bb 6f bd 86 df 0d bc db d7 93 3d 30 5b 6f bd
       -0.058528308 -0.008659249 0.072189055 -0.058436573
000120 c3 68 c7 bb f2 c9 07 3e 6b 8a b3 bd 49 03 fb bc
       -0.0060854866 0.1326063 -0.087666355 -0.030641215
000130 79 3e 13 3e af 11 72 bd 79 e3 2a be 15 5d 11 3e
       0.143793 -0.059098896 -0.16688336 0.14195664
000140 cd b8 9e bd e3 67 61 bb 59 04 0b bc 5a 6a ca bc
       -0.07750092 -0.0034394197 -0.008484923 -0.024708916
000150 a7 0f d0 3c 8c ca a8 bd 30 59 ae 3c ac 96 1a 3d
       0.025398089 -0.08241758 0.021282762 0.03774135
000160 01 0b 01 3d 2b 54 28 bd c0 6e c4 3d 02 11 dc bd
       0.031504635 -0.041095894 0.095914364 -0.107454315
000170 d0 27 0d 3d 9e be 11 3e f3 2f 1b bd 72 a0 17 bc
       0.034461796 0.14232871 -0.037887525 -0.009254562
000180 10 0e db 3d 29 08 2c bd df 0f b4 bd 71 45 c2 bb
       0.106960416 -0.04199997 -0.0879209 -0.005928688
000190 a1 15 49 3a ae a9 5c bd df 49 3b bd a5 84 4d 3c
       0.00076707645 -0.053872757 -0.045724746 0.012543832
0001a0 b8 c6 4a 3c 58 2c ed 3c 61 9c d8 bc 7a f3 1c bc
       0.01237648 0.028951809 -0.026441755 -0.009579534
0001b0 b9 d6 89 3d 5d c1 12 bd d9 1c 68 3d 7d af be 3d
       0.06730408 -0.035828937 0.056668136 0.093108155
0001c0 4c da e3 bd 69 e0 bd 3a 11 dd c0 3d 19 39 0e 3d
       -0.11125621 0.0014486435 0.09417165 0.03472242
0001d0 4b 32 d0 3c f2 df 23 bd 12 33 c4 3c ff 6b 01 bd
       0.025414607 -0.040008493 0.023950133 -0.031597134
0001e0 82 07 9f be b5 56 6d 3e 4f 27 03 3e 09 52 55 be
       -0.31060416 0.23177607 0.12807964 -0.20832075
0001f0 37 92 1b bd 80 92 89 3b ef 52 99 3d ee 37 fd bc
       -0.03798124 0.0041983724 0.074865215 -0.030910458
000200 3e c3 83 3c 9c ae fc 3c ed a7 34 3c 86 75 19 3d
       0.01608431 0.030844979 0.011026365 0.037465595
000210 19 73 0f 3c be 9f 35 bc 3e c3 ca 3c 9b c9 93 3d
       0.008755469 -0.011085449 0.024751302 0.072161876
000220 21 2a a0 3d 9d ac a2 3d f8 b2 c1 3d d6 41 bd bd
       0.078205355 0.079430796 0.09457964 -0.09241073
000230 ed c0 81 bd cf 47 60 3d 5e 9a 57 3d d7 8a 46 bd
       -0.06335626 0.054755982 0.05263745 -0.04847225
000240 08 6d 7a bd 4d a2 3e 3c bd 72 ce bb fd 64 2a bc
       -0.061139137 0.011635375 -0.006300299 -0.010400054
000250 bc 1f 42 3d f4 b4 49 3c 18 4d 31 3c 01 8b 8a bc
       0.047393546 0.012311209 0.010821603 -0.016911985
000260 08 e3 37 be d8 a8 a2 3c 39 74 e0 bb d9 82 f3 bb
       -0.179577 0.019855902 -0.0068497923 -0.0074313697
000270 9f 09 a1 bb 58 89 87 bc 90 3d 2b 3c 6d 9d c2 3a
       -0.004914477 -0.016544983 0.010451689 0.0014847942
000280 bd ac 4f bc 7a ae bd 3c ce de 98 3d 9b 63 ea 3b
       -0.012675461 0.023154486 0.074643716 0.007152987
000290 30 99 13 3d ac 05 70 3d f1 14 00 3d d4 f4 3c bc
       0.036034763 0.05859916 0.03126997 -0.011532981
0002a0 fa 8a 33 3c d9 dc ef 3b 4b 71 18 3d 4a eb f8 3c
       0.010958428 0.0073200283 0.03721742 0.030385632
0002b0 2d f3 81 3d 5d c9 75 3c 94 15 ac 3c 72 eb 85 3d
       0.0634521 0.015001622 0.021006383 0.06539048
0002c0 4d c6 90 3d a7 0e 5d 3d 95 34 81 3d 3c 7e 73 bd
       0.07069073 0.05396905 0.06308857 -0.05944656
0002d0 99 93 bb bd 89 fc a8 3d 32 58 2e 3c 6c 0a ff bd
       -0.091590114 0.08251292 0.010641145 -0.1245316
0002e0 29 5b 14 3d 06 3e d3 bd 9a 28 9d 3c 0e 46 08 3e
       0.03621975 -0.103145644 0.0191844 0.13307974
0002f0 8b 58 d7 bc 78 aa 26 3d ec df c2 bd 42 71 82 3c
       -0.026287338 0.040689915 -0.09515366 0.015923146
000300 5b c7 9a 3c 36 d2 c8 bd e7 97 fe 3c 77 8c 71 3d
       0.018893888 -0.098057196 0.031078292 0.05897185
000310 f5 c6 73 bd 39 92 5f 3d 7f cc 68 3c c3 b3 f4 3b
       -0.059515912 0.05458281 0.014208912 0.0074677183
000320 6e 9e 06 3d 2c 2c 06 bd 15 c5 ba 3b ea 1c c6 3c
       0.032865934 -0.03275697 0.0056997635 0.02418371
000330 8a 66 6e bc ac e0 a6 bb fe 48 5a bc b7 9b 67 3d
       -0.014550814 -0.005092701 -0.013323067 0.056544986
000340 6f 5a 1b 3d 9b a5 f5 bc a1 dd 62 bc 22 b8 04 3e
       0.03792804 -0.029986193 -0.013846786 0.12960866
000350 c8 4c 4d 3b 65 56 5b bd 84 97 89 bc 0e 54 e7 bc
       0.0031326283 -0.05354919 -0.016795881 -0.028238323
000360 a6 48 b1 3c 4f 29 56 bc 3d 30 20 bb 0f a1 f9 3c
       0.021641087 -0.013071372 -0.0024442815 0.030472307
000370 c0 99 1a 3d db 80 27 3d fc e0 14 bc d9 45 41 bd
       0.037744284 0.04089437 -0.009086844 -0.047185753
000380 10 ee 53 3d c1 d3 e6 3d 41 ef e9 3c 9d 51 36 bb
       0.051740706 0.112708576 0.028556468 -0.0027819641
000390 fd eb 2a 3e 56 49 d4 3b 99 14 bc bc 13 14 2e 3e
       0.16691585 0.006478469 -0.02295904 0.16999845
0003a0 fb f8 07 bd ca 4b 47 bd ff 3a a9 3c 4c 2f f2 3d
       -0.03319643 -0.048656262 0.020658014 0.118254274
0003b0 de 98 37 bb 0a 9d 0f 3d 00 43 8d 3d 8c 90 94 bd
       -0.00280147 0.035061873 0.06897545 -0.07254133
0003c0 73 a4 7a 3c 32 73 bd 3c 3e 69 ab bd e4 86 e3 bc
       0.015297997 0.023126218 -0.08369683 -0.027774282
0003d0 02 dc 5d 3d 85 24 9b bd e3 bc ce bd 79 86 5c 3e
       0.054164894 -0.07575325 -0.10094621 0.21535672
0003e0 8b 7b 4f bd 7f 62 0c be ec 5d 38 3e c6 af c9 bd
       -0.05065493 -0.13709448 0.18004578 -0.09847979
0003f0 b8 2f 9b bc 43 1a ab 3c 4e f3 a1 bd a1 7c 08 3d
       -0.018943653 0.020886546 -0.07907735 0.03332198

sequences.2.bias f4 [32]
000000 9a 6d 7c 3c 94 5e b1 bc eb a2 f9 3b 10 6a 85 bd
       0.01540699 -0.021651544 0.0076182983 -0.065143704
000010 ac d9 49 bb cf fc e9 bc 42 c4 4f 3d a8 a3 4b 3d
       -0.0030799909 -0.028562931 0.050724275 0.04971662
000020 83 3e 15 3b 2d fa 42 3d 27 61 13 3e 9e a5 d9 3a
       0.0022772856 0.047601867 0.1439253 0.0016605144
000030 d1 5d cf bc e0 ec 51 3d ac 46 10 bb dd 3c 5d 3d
       -0.02531329 0.051251292 -0.002201478 0.054013122
000040 4d 71 24 bd d2 52 15 be e8 b9 bc 3b 55 f2 a9 bd
       -0.040147115 -0.14582375 0.0057594664 -0.08298174
000050 93 6a d5 3c a0 50 63 bd a8 d8 41 bd 7b 4c a4 3d
       0.026051795 -0.055496812 -0.04732576 0.080224
000060 05 86 80 bc f5 63 92 3c db 56 e0 3b ac 3b d5 3d
       -0.015688905 0.017869929 0.0068462915 0.10411772
000070 b4 96 16 3d d3 74 0b 3e 93 bb 53 3c 31 83 18 bd
       0.036764815 0.13618784 0.012923139 -0.03723449

sequences.4.weight f4 [25, 32, 3, 3]
000000 75 0f 3b bd fb c5 1c 3e fa 8c b8 bd 13 9e 20 be
       -0.045669038 0.15309899 -0.09011264 -0.156853
000010 1c 18 dc 3d d0 6e 13 be 1d 55 bf 3a b7 4e 34 3d
       0.10746786 -0.1439774 0.0014597509 0.04402038
000020 7e b4 5a bc 71 40 41 3d e3 c5 28 be 13 10 b3 bd
       -0.013348697 0.047180597 -0.16481738 -0.087433
000030 69 e5 b2 3c 0a 58 0c be 1b 82 b3 bd 7f 3f 95 3c
       0.021837907 -0.13705459 -0.0876505 0.018218754
000040 0d f6 a6 bb ee 97 f3 bb 3b df f2 bd 59 f2 4f bd
       -0.0050952495 -0.007433883 -0.11858984 -0.05076823
000050 49 ee 29 3c ea ac c3 bd 26 e2 d8 bd 13 f5 58 bd
       0.010371753 -0.09554465 -0.105900094 -0.052968096
000060 01 75 75 bd 72 2e 19 3c 95 b0 db bc 0d e7 4f be
       -0.059926037 0.009349452 -0.0268176 -0.20302983
000070 bd 2b a2 bb 68 5a a7 bc 31 77 8f 3e 16 43 ab 3e
       -0.0049490617 -0.020428851 0.28020623 0.3344962
000080 0a ec c5 bd d4 50 0d 3d ae 75 b5 bc 76 f9 8b bc
       -0.096641615 0.03450091 -0.02215084 -0.017086726
000090 06 f2 e8 bd 26 9e 2a bd 94 8e 77 3d 71 5e a4 bd
       -0.11374287 -0.04165473 0.060438707 -0.08025826
0000a0 6b 7d 89 bd 90 b6 6a 3d 2a b9 b0 3c 74 f0 0b 3d
       -0.06713375 0.05730301 0.021572668 0.03416486
0000b0 bc c8 43 3c 3c 84 17 bd 0c 3f 33 3d 8f c3 c4 3c
       0.011949714 -0.036991343 0.043761298 0.02401903
0000c0 6d 45 ba 3c af eb 27 3e f8 24 81 3c b9 89 c8 bb
       0.022738183 0.163985 0.015764698 -0.0061199334
0000d0 d1 34 16 bb 32 a5 9e bd 86 9a c4 bc 77 8b 3a be
       -0.0022919665 -0.07746352 -0.023999464 -0.18217264
0000e0 56 16 61 3b a2 3c ee bb c6 96 dc bc b1 c0 89 bd
       0.0034345589 -0.0072704116 -0.026927363 -0.06726206
0000f0 47 44 a4 bb 05 95 be 3c a7 b9 d3 3c 61 49 e8 bc
       -0.005013022 0.023264417 0.025845362 -0.028355302
000100 f5 a7 9c 3d d1 23 0e 3d 48 ac 2f be 53 8e 4d be
       0.07649223 0.034702126 -0.17155564 -0.20073824
000110 ce d5 5d bd da 8a d8 3d c3 a1 1a 3d 32 03 6b 3d
       -0.05415898 0.10573359 0.037751924 0.057376094
000120 c2 f1 74 3d 3d 11 10 3d 25 8b 5e bd c3 4c 01 3c
       0.05980087 0.03517269 -0.054331917 0.007891837
000130 46 31 e2 3d af 5c 92 bd 8b 2c 81 bd 4f 68 cf bc
       0.110445544 -0.07146584 -0.06307324 -0.025318293
000140 4d 71 f8 3c 6a 35 9e bd 68 32 19 bd 78 7b c1 bc
       0.030327464 -0.07725032 -0.037401587 -0.023618445
000150 0d e2 27 bc 78 bd 85 bd 78 93 8b bd 4f cc 84 bd
       -0.010246766 -0.06530279 -0.06815237 -0.06484281
000160 e3 37 90 bd 3e b2 33 bc 42 cb 82 bd d8 56 d8 bd
       -0.070419095 -0.010967789 -0.063864246 -0.10563439
000170 f6 de 63 3c 59 01 21 bd e4 27 c6 bd 6e 30 cb bd
       0.0139081385 -0.039307926 -0.09675577 -0.099213466
000180 8b d9 bf bc e2 c7 16 bb 33 8e 37 3d 1f a9 25 bd
       -0.023419162 -0.0023007323 0.044813346 -0.04044449
000190 0e 09 57 be 40 20 8d bd 66 86 af bd 9d 16 17 be
       -0.20999548 -0.06890917 -0.08570556 -0.1475472
0001a0 79 d7 37 be 88 61 4f 3d b5 6b 1e bc 9e 93 41 bd
       -0.1795329 0.050630122 -0.009669234 -0.04725992
0001b0 63 1b cf bd d4 26 45 be 00 c9 04 3c 32 15 73 3e
       -0.101126455 -0.19253093 0.008104563 0.23738554
0001c0 6a 8c 25 3d 1e e6 2d 3d dc 97 a1 bd cc f4 55 bd
       0.040417112 0.042455785 -0.07890293 -0.05223541
0001d0 23 e7 b0 ba 57 4d 0f be 2e 4b 6b bc ab ee 6d bd
       -0.0013496618 -0.13994347 -0.014361186 -0.05808894
0001e0 22 81 67 3c 3f b5 70 bd 3d 35 82 bd 36 90 8e 3d
       0.014129909 -0.0587666 -0.06357811 0.069611
0001f0 4e c9 cb 3d 08 61 09 bc 7d d0 a1 3d cc cb 3f 3d
       0.09950505 -0.00838495 0.07901094 0.046825215
000200 b3 2c fe bb e1 42 f1 bc 21 41 c8 bc c1 d7 10 3d
       -0.0077567934 -0.029450836 -0.024445118 0.03536201
000210 fa bb d5 bc 23 57 fe bc d9 9a 29 bd d6 4e 33 bd
       -0.02609061 -0.03104741 -0.04140744 -0.043776356
000220 88 be 0a bc 99 61 b8 3c 6a 6f 62 ba b7 c6 c9 bd
       -0.008468278 0.022507476 -0.0008637818 -0.09852355
000230 e5 bb 62 bd 51 ba 92 3c 20 c7 e3 ba b4 ad 79 bc
       -0.05535497 0.017911108 -0.001737807 -0.015239168
000240 75 0c f4 bd ab f1 da bd 0d fe da bb 30 54 cc bd
       -0.119164385 -0.10690626 -0.0066831172 -0.09976995
000250 a8 3f 0a be 2b e6 cb bc 77 4d 95 3c 3b fd fd bd
       -0.13500845 -0.024890026 0.018225415 -0.124018155
000260 d7 18 e9 3c 50 75 01 3d 79 a4 c2 3d 9f 1d 5f bd
       0.028454227 0.03160602 0.09504027 -0.05447161
000270 d6 af d2 3d 36 7e 1a 3e bd 39 cc bd cb 15 d4 ba
       0.10287444 0.15087208 -0.0997195 -0.0016180811
000280 bf 2e 9f 3b ad 77 fc 3b c6 bd 8b bd 90 6d b1 be
       0.0048578675 0.007704696 -0.06823306 -0.34653902
000290 c6 37 a1 bc 6a 9b bb 3d d4 6d 10 be 0b 52 27 3e
       -0.019679915 0.09160502 -0.14104396 0.1633989
0002a0 05 d1 9b 3d 8a 63 f0 3b 22 5b 62 3d f8 57 f1 3c
       0.07608227 0.0073360847 0.055262692 0.029460892
0002b0 fe 7a 8e 3d aa 14 5a bc b0 e0 d9 3d 31 a3 5d 3b
       0.06957053 -0.013310591 0.10638559 0.0033819193
0002c0 44 8b 9c 3d d7 bb d3 bb a7 bc 94 3d c7 73 82 3c
       0.0764375 -0.0064616012 0.07262545 0.015924348
0002d0 bf c8 a9 bc a1 4b 93 3c 0c 0b 58 3d e8 7d b4 bd
       -0.020725606 0.017980399 0.05274491 -0.08813077
0002e0 33 0f c6 bd 0e e8 92 3d 11 6a 9d bd 6b 30 a5 bd
       -0.09670868 0.07173167 -0.07686246 -0.080658756
0002f0 0b 07 cc bc f3 f9 5a 3c ce 7c 45 3d 6b fe 51 bd
       -0.024905702 0.013365257 0.048214726 -0.051268023
000300 fe 1b d1 3d 16 6a a1 3d d0 af ab 3d 63 e9 0b bd
       0.10210417 0.078815624 0.08383143 -0.03415812
000310 26 0e 88 3c 97 e5 25 3c 8d e4 3e bc dd 4b d6 3d
       0.016608309 0.010125539 -0.01165117 0.104636885
000320 2e 43 9d 3c d9 0b 74 bc 93 31 a4 3e 2b b0 7f 3c
       0.019197073 -0.014895403 0.32069072 0.015605967
000330 36 d6 63 3d 1c cf 89 3d e9 ee 21 3d b8 84 fe bc
       0.05562421 0.06728956 0.039534483 -0.031069145
000340 45 15 a6 bd 51 f4 5e bd ea c9 b8 bd 5c db d1 bd
       -0.081095256 -0.054432217 -0.09022887 -0.102469176
000350 87 74 93 bd 36 7f 1a 3d 1e 9b 1f bd 56 23 41 bc
       -0.0719996 0.037718974 -0.03896629 -0.01178821
000360 81 34 31 be 3d 80 7b be 77 4c 9d 3d e7 d6 94 3c
       -0.17305185 -0.24560638 0.076806 0.01816888
000370 c2 92 ca 3d 71 99 f4 3d 3b 99 ed bc ea 85 f9 bc
       0.09891273 0.11943329 -0.02900373 -0.030459363
000380 78 5a eb bc 7c 65 c9 bb fa 9f f1 3d 18 a3 a5 bb
       -0.028729662 -0.006146131 0.11798091 -0.0050548427
000390 48 d5 4d bc cc bd b0 3d fe b3 b7 3d f9 75 30 ba
       -0.012563057 0.08629951 0.08969878 -0.00067314465
0003a0 da bf e8 3c 18 b9 dd 3b ed 76 93 3d 97 73 14 3b
       0.028411794 0.0067664497 0.07200418 0.0022651905
0003b0 7f 77 ec bc 86 44 05 3e 41 54 99 bb a7 4e 8d bd
       -0.028865574 0.13014421 -0.0046792333 -0.06899767
0003c0 6d 54 8e 3c 90 50 4a bc 1f 11 23 3c af b2 c2 bd
       0.017374242 -0.012348309 0.009952812 -0.095067374
0003d0 ab f7 18 be 0a 7d b0 3d 24 23 0e be 98 d4 3e be
       -0.14938228 0.08617599 -0.13880593 -0.18635786
0003e0 0e c1 63 3d 78 2f a1 3d ea 2c 00 3c 76 54 58 3d
       0.055604033 0.07870382 0.007823208 0.052814923
0003f0 95 d5 e9 3b 40 9a cd 3d 40 9a bb bc 8e cd 27 3d
       0.0071360567 0.100391865 -0.0229007 0.040967517

sequences.4.bias f4 [25]
000000 d3 95 90 bc fa c4 b6 bc 62 ce b9 bc 2d d3 90 bc
       -0.017649567 -0.022310723 -0.022681419 -0.017678821
000010 75 df 7a bd cc 88 06 bd 23 81 21 bc 55 58 e5 bc
       -0.06124826 -0.032845303 -0.009857449 -0.027996222
000020 97 aa 6e bd 63 89 8f bd b5 37 3e bd b1 59 80 bc
       -0.058268156 -0.07008626 -0.046439845 -0.015667768
000030 93 bb 5d bd 2b b8 42 bd c9 d5 82 bd cd 02 87 bd
       -0.054133963 -0.047538918 -0.063884325 -0.06592331
000040 d5 10 b3 3c a0 e8 62 bd 6a b0 36 bd 18 65 04 bd
       0.021858612 -0.05539763 -0.044601835 -0.032322973
000050 75 cc 3c bc e4 39 3a bc 28 7c 69 bd b3 33 ab bd
       -0.011523356 -0.011366341 -0.05700317 -0.0835947
000060 3d 89 9d 3c
       0.01923048
