saved_models/UPSCALE_X3/epoch_56.pth (torch, 93471 bytes, 6 tensors)

sequences.0.weight f4 [64, 1, 5, 5]
0	0x3de32b0d	0.11092196
1	0x3e17c307	0.14820491
2	0xbc4b32e7	-0.012402273
3	0x3ce98f4b	0.02851071
4	0xbda7d869	-0.08195574
5	0x3d7a9693	0.061178755
6	0x3d6df155	0.05809148
7	0x3e3d3ab0	0.18479419
8	0x3e53a681	0.20668985
9	0xbddde020	-0.10833764
10	0x3dc77d33	0.09740677
11	0xbeb28a2c	-0.34871042
12	0xbf16b5a1	-0.58870894
13	0xbdb3749e	-0.08762477
14	0xbd40650e	-0.046971373
15	0x3d7d9ae8	0.06191531
16	0x3c841590	0.016123563
17	0x3eb56d20	0.35434818
18	0xbe13d954	-0.14438373
19	0xbe3d8227	-0.1850668
20	0xbc55fd7c	-0.013060924
21	0x3d2cfe72	0.042234845
22	0x3e229be9	0.15879788
23	0xbe0a400c	-0.13500994
24	0x3e3acd34	0.18242341
25	0x3d2b21af	0.04178017
26	0x3e1c3fce	0.15258715
27	0xbe386448	-0.18007004
28	0x3e30ac2a	0.17253175
29	0x3e33426f	0.17505811
30	0xbd9a0cf5	-0.075220026
31	0xbe1b96e4	-0.15194279
32	0xbdff48f8	-0.124650896
33	0xbb0f734b	-0.0021888788
34	0xbdf0b459	-0.117531486
35	0xbddee9bb	-0.10884424
36	0xbdf6ef28	-0.12057334
37	0xbdf6bcd1	-0.120477326
38	0xbcfa84a8	-0.030580834
39	0x3db9fddb	0.09081622
40	0x3e36a5a9	0.17836632
41	0x3e6a3a93	0.22873907
42	0xbe8126a5	-0.25224796
43	0x3de570ac	0.11203131
44	0xbd50d748	-0.05098656
45	0x3e407a23	0.18796591
46	0x3bae4f0a	0.005319481
47	0xbe3b9800	-0.18319702
48	0x3dbe2f1c	0.09286329
49	0xbdaa942c	-0.08329043
50	0x3d71ac62	0.059002288
51	0xbe4ba233	-0.19886093
52	0xbd6364d7	-0.05551609
53	0xbda82b8e	-0.082114324
54	0x3c7532e1	0.014965744
55	0x3daf315a	0.08554335
56	0xbd09baed	-0.033625532
57	0xbe7eb0e6	-0.24872169
58	0xbcc5be31	-0.024138542
59	0xbe1c13ff	-0.15242003
60	0xbd8c3d49	-0.06847627
61	0xbe5ace5d	-0.21367784
62	0xbe390920	-0.18069887
63	0x3d096870	0.033546865
64	0x3d38259c	0.044957742
65	0x3de88190	0.11352837
66	0xbea8b2c6	-0.32948893
67	0xbe109dd8	-0.14122713
68	0xbdb245a1	-0.08704687
69	0xbe8d2966	-0.27570647
70	0x3d4005e7	0.04688063
71	0x3d79102d	0.060806442
72	0xbdade013	-0.084900044
73	0xbd93a8fd	-0.07209966
74	0x3da19e45	0.07891516
75	0x3c388b83	0.011263731
76	0x3d3910d7	0.045182075
77	0x3e41a853	0.18911867
78	0x3d9e2b22	0.07723071
79	0xbd72a3bc	-0.05923818
80	0xbe56fbbd	-0.20994468
81	0xbe9396ec	-0.28826082
82	0xbe076f35	-0.13226016
83	0x3e53c978	0.20682323
84	0x3e386a08	0.18009198
85	0xbe8b93fd	-0.27261344
86	0x3d168207	0.036745097
87	0x3de3440a	0.11096962
88	0xbbcab861	-0.0061865305
89	0xbe74541a	-0.23860207
90	0xbdd5322e	-0.10409962
91	0xbd095964	-0.033532515
92	0x3dfa519e	0.122225985
93	0x3e20ce5a	0.15703717
94	0xbdfb507d	-0.12271211
95	0x3cb14aae	0.021642055
96	0x3b8e6449	0.004345451
97	0x3db435db	0.087993346
98	0xbd0fec14	-0.03513725
99	0x3e214520	0.15749025
100	0x3cf25a17	0.029583974
101	0x3d4959b3	0.04915781
102	0xbe27993c	-0.16367048
103	0x3deef4a2	0.11667754
104	0xbc621723	-0.013799462
105	0x3d8dee4a	0.06930216
106	0xbd270b98	-0.04078254
107	0xbe69989c	-0.22812122
108	0xbe72b80a	-0.23703018
109	0x3c5a671e	0.013330249
110	0xbdb01d03	-0.085992835
111	0xbedb09ab	-0.42780814
112	0xbf745035	-0.95434886
113	0xbf249fb5	-0.64306194
114	0xbeb0ccf7	-0.34531376
115	0xbdcffa61	-0.10155178
116	0xbc805e19	-0.01566987
117	0xbeb57cfb	-0.35446915
118	0xbec55edb	-0.3854893
119	0x3afe560f	0.001940431
120	0x3da5ee3e	0.08102082
121	0xbd1568df	-0.036476966
122	0xbdbf125f	-0.09329676
123	0xbc92a3b0	-0.017900318
124	0x3e160fc6	0.14654455
125	0xbdb280a7	-0.08715945
126	0x3e64478c	0.22292918
127	0xbdefc1d1	-0.117068894
128	0xbdd7039e	-0.10498737
129	0xbd22feb5	-0.03979369
130	0xbe549cdf	-0.20762967
131	0x3e196c77	0.14982782
132	0xbe97282b	-0.29522833
133	0x3de5b398	0.112158954
134	0x3b08f96d	0.0020900622
135	0xbd8586b0	-0.0651983
136	0x3e45db8e	0.19322035
137	0xbedbcf93	-0.42931804
138	0x3e37dbfd	0.17955013
139	0x3e2d82f3	0.16944484
140	0x3e07b824	0.13253838
141	0xbe2bdd5c	-0.1678366
142	0x3e0ca054	0.13733035
143	0xbd74e09c	-0.059784517
144	0xbe1b1a84	-0.15146834
145	0x3e1c2ac7	0.15250693
146	0x3df3ebb4	0.11910191
147	0xbc1562da	-0.009117806
148	0xbe1fad98	-0.15593565
149	0x3e0c3d07	0.13695155
150	0xbe1010a2	-0.14068845
151	0xbdb089df	-0.08620047
152	0x3e0ba716	0.13637957
153	0xbce6cae1	-0.028172912
154	0xbddb56aa	-0.10709889
155	0xbd5e7578	-0.054311246
156	0xbdf1485a	-0.11781378
157	0x3e768197	0.24072872
158	0x3df9cadc	0.121968955
159	0xbda3c5ec	-0.07996735
160	0x3e0f14dd	0.13972802
161	0x3e90df9c	0.282956
162	0xbe0b74a9	-0.13618721
163	0x3c439581	0.0119375
164	0x3e2f6df9	0.17131795
165	0xbe4a4b02	-0.19755176
166	0x3ded69e6	0.11592464
167	0x3e6495b5	0.22322734
168	0xbcfe2967	-0.031025602
169	0x3e11d92a	0.14242998
170	0x3e5a8861	0.21341087
171	0xbe172957	-0.14761864
172	0xbe6358f7	-0.22201906
173	0xbe257928	-0.16159499
174	0xbe2024c3	-0.15639023
175	0x3d21cc8f	0.039501723
176	0xbb6a5d78	-0.0035761278
177	0xbd735a5c	-0.059412345
178	0x3e40a3ff	0.1881256
179	0x3def96a0	0.11698651
180	0xbe052a7d	-0.13004489
181	0x3e297c35	0.16551287
182	0xbe56f525	-0.20991953
183	0xbd170490	-0.036869586
184	0xbe171810	-0.14755273
185	0xbe367d7e	-0.17821309
186	0x3e1c1452	0.15242127
187	0xbd3a12ff	-0.045428272
188	0x3d171a4f	0.036890324
189	0xbe47f507	-0.19527064
190	0x3e031c7e	0.12803838
191	0xbe0c80f2	-0.13721064
192	0xbc977873	-0.018490052
193	0xbe4b4dcc	-0.19853896
194	0xbe32728e	-0.17426512
195	0x3e09291e	0.13394591
196	0xbddc5379	-0.10758109
197	0xbdd69830	-0.10478246
198	0x3dd19cfb	0.1023502
199	0x3d522ecd	0.051314164
200	0xbe064b9e	-0.13114783
201	0xbe00b9fc	-0.12570947
202	0x3d81261d	0.06306098
203	0x3d9f2e34	0.077724844
204	0x3dfe9762	0.12431218
205	0x3d95d7b7	0.07316535
206	0x3ddfbe41	0.1092496
207	0xbe32674b	-0.17422216
208	0x3e800b69	0.25008705
209	0xbe2db6f0	-0.16964316
210	0xbd9636ef	-0.073346965
211	0xbe425148	-0.18976319
212	0xbe4aff86	-0.19824037
213	0xbe329952	-0.174413
214	0x3d277b8c	0.040889308
215	0x3d926315	0.07147805
216	0x3ea1c1c8	0.31593156
217	0xbda42844	-0.080154926
218	0xbe281c84	-0.16417128
219	0x3b87305c	0.004125638
220	0x3e337a41	0.17527105
221	0x3e444de1	0.19170333
222	0x3c4b2e69	0.012401202
223	0xbdcc1267	-0.099644475
224	0x3b242e3b	0.002505197
225	0x3b4371f3	0.0029822558
226	0x3e153b25	0.14573343
227	0xbddaa35f	-0.10675692
228	0xbd111f08	-0.035429984
229	0x3e660ebf	0.22466563
230	0xbd5abf7e	-0.053405277
231	0x3e6a985a	0.2290968
232	0x3eac4a24	0.33650315
233	0xbe78d039	-0.2429818
234	0xbd900846	-0.07032828
235	0x3e84b493	0.25919017
236	0xbc5eaa66	-0.013590431
237	0xbb29ea87	-0.0025927143
238	0xbddd191d	-0.107958056
239	0xbe2081b3	-0.15674476
240	0x3ccc1aa7	0.024915053
241	0x3e5668ae	0.2093837
242	0xbe510caa	-0.20414987
243	0x3e3eb6bd	0.18624397
244	0xbe151df7	-0.14562212
245	0xbe317385	-0.17329223
246	0x3d00a656	0.03140863
247	0xbce553b0	-0.027994007
248	0xbe63646f	-0.22206281
249	0xbdc34362	-0.095343366
250	0x3d40b2a7	0.047045376
251	0x3e020fd6	0.12701353
252	0xbd9df1ae	-0.07712112
253	0xbd8c5f54	-0.0685412
254	0xbe2945be	-0.16530511
255	0x3ca3abf1	0.019979449

sequences.0.bias f4 [64]
0	0x3d1ce22e	0.03830164
1	0x3e06f5a9	0.1317965
2	0x3e4bafdd	0.19891305
3	0x3d3f085d	0.046638835
4	0xba6ba550	-0.0008989172
5	0x3dae4425	0.08509091
6	0xbd9a366d	-0.07529912
7	0x3eb9f701	0.36321262
8	0x3e257be3	0.1616054
9	0x3bd548c2	0.0065089175
10	0xbd7fec51	-0.06248123
11	0x3dca746f	0.09885489
12	0x3d8363ee	0.064155445
13	0x3e212661	0.15737297
14	0xbdc5bf0c	-0.0965558
15	0xbbfbbd5a	-0.0076824846
16	0x3eb5646d	0.3542818
17	0x3ec92094	0.39282668
18	0x3dad5e02	0.08465196
19	0x3dbc220e	0.09186183
20	0xbb8e0108	-0.004333619
21	0x3e50cf36	0.20391545
22	0xbe9ab6ef	-0.30217692
23	0xbebac053	-0.36474857
24	0x3e77b9b7	0.24191938
25	0xbdb81ed0	-0.08990252
26	0xbec3baac	-0.38228357
27	0x3e5ead6d	0.21745844
28	0xbe796909	-0.24356474
29	0xbdf36308	-0.11884123
30	0x3c007c6f	0.007842167
31	0xbe76cb6b	-0.24101035
32	0xbd635c1e	-0.05550777
33	0x3e26d6b7	0.16292845
34	0x3dd102f3	0.10205641
35	0x3d80cac7	0.06288677
36	0x3e5ae92c	0.2137801
37	0xbda05681	-0.07828999
38	0x3a05125f	0.0005076285
39	0x3e64445a	0.22291699
40	0xbe90a994	-0.28254378
41	0xbe0893af	-0.13337587
42	0xbe79289e	-0.243319
43	0xbdd1fb05	-0.10252956
44	0xbe86cff9	-0.26330546
45	0x3d4b82c5	0.04968526
46	0xbe076f3e	-0.1322603
47	0x3e8947e6	0.26812667
48	0xbec5d3e2	-0.38638216
49	0x3e81ae79	0.25328425
50	0xbeb70063	-0.35742483
51	0x3ea307e5	0.3184196
52	0x3d897c46	0.067131564
53	0x3e49fea5	0.19726045
54	0x3bb159e1	0.0054123257
55	0x3e446eda	0.19182912
56	0xbd96c5a3	-0.07361915
57	0xbeb4ae38	-0.35289168
58	0xbe0f3059	-0.13983287
59	0xbd43b45b	-0.047779422
60	0xbe6cf3d1	-0.23139884
61	0x3db52e6d	0.08846746
62	0x3e3e6db8	0.18596542
63	0x3d757119	0.05992231

sequences.2.weight f4 [32, 64, 3, 3]
0	0xbd61446b	-0.05499689
1	0x3e51b323	0.20478491
2	0x3ce97251	0.028496893
3	0x3ce8b501	0.028406622
4	0xbe3d8852	-0.18509033
5	0x3d148d48	0.03626755
6	0x3d5a5122	0.05330003
7	0xbd97a290	-0.07404053
8	0xbd7ee6c6	-0.0622318
9	0x3d84ac39	0.06478161
10	0xbd1cfea1	-0.03832877
11	0x3c6d2922	0.014475139
12	0x3c795972	0.015219079
13	0xbc58b280	-0.0132261515
14	0x3d6ff001	0.058578495
15	0x3cbf7d5b	0.023375204
16	0x3cf5989b	0.029979995
17	0xb947daaa	-0.00019059578
18	0xbd4b6e55	-0.049665768
19	0xbaacc5f1	-0.001318155
20	0xbcdc560b	-0.026896497
21	0x3d35c947	0.044381406
22	0x3c4c1ecc	0.012458514
23	0xbcd206e0	-0.025638044
24	0xbc8ee0f5	-0.017441252
25	0xbcd8db64	-0.026471801
26	0x3b184ed5	0.0023240347
27	0x3d21c5b0	0.03949517
28	0xbd537cd1	-0.051632706
29	0xbd173cfc	-0.036923394
30	0x3c652fa2	0.013988407
31	0xbc85bf86	-0.016326677
32	0xbc14d3b9	-0.009083682
33	0x3c53537a	0.01289832
34	0xbd87aa04	-0.06624225
35	0x3d0c206d	0.03421061
36	0x3b7c2e53	0.003847976
37	0xbcf61c70	-0.030042857
38	0x3bfe9dae	0.0077702617
39	0x3c1c47ba	0.009538585
40	0xbd7c0d47	-0.0615361
41	0x3bb9ec8e	0.0056739515
42	0x3c47f74d	0.012204957
43	0xbc20c7e4	-0.009813283
44	0xba5a6a8b	-0.0008331916
45	0xbd2f5cc4	-0.042813078
46	0x3e480fbe	0.19537255
47	0xbcddce71	-0.027075978
48	0x3d27905a	0.04090915
49	0xbe0dea80	-0.13858986
50	0x3e066947	0.13126098
51	0x3d42bb9b	0.047542196
52	0xbd9fc81a	-0.07801838
53	0xbb8067eb	-0.003918638
54	0xbb90c708	-0.0044182576
55	0x3d93d64c	0.07218608
56	0xbd8ddf56	-0.069273636
57	0xbd6fcf78	-0.058547467
58	0xbe2a6b05	-0.16642387
59	0x3cda5548	0.026651993
60	0x3d4afb54	0.04955609
61	0xbaed88e8	-0.0018122466
62	0x3cee376e	0.029079165
63	0x3c46071a	0.012086654
64	0x3c83e2da	0.016099382
65	0xbd90470c	-0.07044801
66	0x3c5072ce	0.012722684
67	0xbb4f1eb7	-0.0031604
68	0x3b8e80a5	0.0043488317
69	0x3c87c925	0.016575405
70	0xbe0d5281	-0.13801004
71	0x3d4910fd	0.049088467
72	0xbc7b01c7	-0.015320248
73	0x3c63df0f	0.013908162
74	0x3e6de518	0.23231924
75	0xbe40bfb4	-0.18823129
76	0xbd5105d1	-0.051030938
77	0xbd7e0bfb	-0.062023144
78	0x3dd94dc8	0.10610539
79	0xbc302895	-0.010751863
80	0x3da8540e	0.08219157
81	0xbca31e4d	-0.01991191
82	0xbbf3369f	-0.007422283
83	0x3d8a4937	0.06752246
84	0x3d6d58c4	0.05794598
85	0x3acb3b57	0.0015505356
86	0xbcd04161	-0.0254218
87	0xbdb554a4	-0.088540345
88	0x3d3b0258	0.045656532
89	0xbc5bd56b	-0.013417582
90	0xbda5817c	-0.08081338
91	0xbd878240	-0.0661664
92	0x3ce7df94	0.028304853
93	0x3cc5e762	0.024158183
94	0x3dafe030	0.08587682
95	0x3cbe3f3a	0.023223508
96	0x3b9b89f1	0.0047466685
97	0x3ca8a17d	0.020584816
98	0xbc41bb94	-0.011824507
99	0x3c960460	0.018312633
100	0xbd3902ef	-0.045168813
101	0x3d305933	0.043053817
102	0x3e66bf25	0.22533853
103	0x3d3cd264	0.04609908
104	0xbd35d54c	-0.04439287
105	0x3e1e3e2e	0.15453407
106	0x3bb8a619	0.0056350348
107	0xbd5a40d2	-0.053284474
108	0xbcd8823b	-0.026429286
109	0xbdc67897	-0.096909694
110	0xbce0c94b	-0.027439734
111	0xbc5b5e64	-0.013389204
112	0x3d90c364	0.07068518
113	0xbd17661a	-0.036962606
114	0x3c207656	0.0097938385
115	0x3d2fb537	0.04289743
116	0x3c14c7b1	0.009080813
117	0xbc133569	-0.008984902
118	0xbbb10d52	-0.0054031992
119	0x3b351aa1	0.002763428
120	0xbd5df04c	-0.054184243
121	0x3cb69c89	0.022291439
122	0xbd6a4266	-0.05719223
123	0x3b589df5	0.0033053134
124	0xbbe26f77	-0.0069102603
125	0xbd6f33e1	-0.058399085
126	0xbd0c5b7c	-0.034266934
127	0x3cfa2793	0.030536449
128	0xbc831bc9	-0.01600446
129	0xbd88449f	-0.066537134
130	0x3d9c8434	0.07642403
131	0xbc181a8b	-0.009283672
132	0xbc61e057	-0.013786397
133	0x3c298a05	0.010347848
134	0x3c394829	0.011308708
135	0x3e7b2e14	0.24529296
136	0xbe0d0e45	-0.13774975
137	0x3ca80bdf	0.020513473
138	0xbdce5140	-0.10074091
139	0x3e1576a9	0.14596047
140	0x3bbc3ed6	0.0057447953
141	0x3d476d9e	0.048688523
142	0x3d79a274	0.060945943
143	0x3c5f60fa	0.013633961
144	0x3ce5e6c4	0.02806414
145	0x3cbcae52	0.023032341
146	0xbc031255	-0.007999976
147	0xbd05ef78	-0.03269908
148	0xbd93f8dc	-0.072252005
149	0x3cbee59f	0.023302851
150	0x3ce855a0	0.028361142
151	0xbd10bc64	-0.035335913
152	0x3d0a96bb	0.033835154
153	0xbde265f8	-0.11054605
154	0x3d16bc23	0.036800515
155	0xbda30903	-0.07960703
156	0xbdec1ded	-0.115291454
157	0xbe274f8a	-0.16338935
158	0x3c83e06f	0.01609823
159	0xbd23f359	-0.040026996
160	0x3c09e56c	0.008416515
161	0x3c41cb9d	0.01182833
162	0x3d3c674c	0.04599695
163	0xbd046576	-0.032323323
164	0x3d5e77de	0.054313533
165	0xbe541cfc	-0.20714182
166	0xbdb91192	-0.090365544
167	0x3e00ca41	0.12577154
168	0xbdbc09c7	-0.091815524
169	0xbc65d948	-0.014028855
170	0x3c38bedd	0.011275974
171	0x3d73b457	0.059498157
172	0x3dc0483e	0.09388779
173	0x3d949b40	0.07256174
174	0xbd2074c3	-0.039173853
175	0xbd7eb79c	-0.062186822
176	0x3d9d369f	0.07676434
177	0x3b6a80dc	0.0035782373
178	0xbd96921d	-0.07352088
179	0xbca52fa2	-0.020164315
180	0xbdb179d4	-0.08665815
181	0xbe248b9e	-0.16068885
182	0x3c89b0f4	0.01680801
183	0x3cf30557	0.029665632
184	0x3dfde60f	0.12397396
185	0xbde58a98	-0.11208075
186	0x3d16cd1e	0.03681671
187	0x3c944d0b	0.018103143
188	0xbc715dab	-0.014731805
189	0x3d0c2407	0.034214046
190	0x3d4e3607	0.050344493
191	0x3d51f451	0.05125839
192	0x3e4babaa	0.19889703
193	0xbe104362	-0.14088205
194	0x3d8f0f6b	0.069853626
195	0x3dcf6a6a	0.10127719
196	0xbd24c62e	-0.04022806
197	0xbc897e64	-0.0167839
198	0xbc364461	-0.011124701
199	0x3ce05d7a	0.027388323
200	0xbd0193ee	-0.031635217
201	0xbc6b194a	-0.014349291
202	0x3bbff3c2	0.0058579156
203	0x3c06e837	0.008234075
204	0x3c5fa05e	0.013649074
205	0x3cfc67d7	0.030811233
206	0xbcbd68b0	-0.023121208
207	0x3b5d0c75	0.0033729349
208	0xbc9892be	-0.01862466
209	0xbc615c68	-0.0137549415
210	0x3db427a5	0.08796624
211	0x3c1df914	0.009641904
212	0xbd840492	-0.06446184
213	0x3cace23b	0.021103969
214	0x3c342824	0.010995898
215	0x3cc7f0a4	0.024406739
216	0xbc293835	-0.010328342
217	0xbd1d202c	-0.03836076
218	0xbd462077	-0.048370805
219	0xbd929a89	-0.071583815
220	0x399ba351	0.00029685584
221	0xbbc51ebf	-0.006015628
222	0xbd56aa3e	-0.05240845
223	0x3d3a9636	0.04555341
224	0xbd62b2a5	-0.05534615
225	0x3e0d116a	0.13776174
226	0xbe11f754	-0.14254504
227	0xbcd20e89	-0.025641697
228	0xbe1d9a37	-0.1539086
229	0x3e91a2ca	0.2844451
230	0xbe50a71b	-0.20376246
231	0xbe14bee2	-0.14525941
232	0x3e0bb9b4	0.13645059
233	0xbe13c891	-0.14431979
234	0xbcbc6bdd	-0.023000652
235	0x3bc880b0	0.0061188564
236	0x3cda7a64	0.026669689
237	0x3db878f3	0.09007444
238	0x3da2ca1d	0.07948706
239	0x3da581f8	0.0808143
240	0x3bcbf0eb	0.006223788
241	0x3d8791e6	0.06619625
242	0x3d4f04da	0.050541736
243	0x3cac705b	0.021049669
244	0xbd856768	-0.06513864
245	0x3d5b8fba	0.053603865
246	0x3dfc3355	0.12314478
247	0xbeb50d68	-0.3536179
248	0x3e23e612	0.16005734
249	0x3e0dcfcf	0.13848804
250	0xbdf75030	-0.120758414
251	0x3d823262	0.06357266
252	0x3caebc1a	0.021329928
253	0x3c645477	0.013936154
254	0xbd2fda41	-0.042932753
255	0xbd38c717	-0.045111742

sequences.2.bias f4 [32]
0	0xbdb9c22c	-0.090702385
1	0x3cc1502d	0.023597801
2	0x3d9f2358	0.07770413
3	0xbda292db	-0.07938167
4	0xbdcd1289	-0.10013301
5	0xbbb11555	-0.0054041543
6	0x3ddcdc34	0.10784188
7	0xbc793121	-0.015209467
8	0x3e3c5cb8	0.18394744
9	0xbb022589	-0.0019858798
10	0x3e223bbb	0.15843098
11	0x3de5830c	0.11206636
12	0xbe4285f8	-0.18996418
13	0xbc84807b	-0.016174546
14	0xbdadd12c	-0.08487162
15	0x3dd60766	0.1045063
16	0x3e02d81f	0.12777756
17	0xbca05969	-0.019573884
18	0x3e287232	0.16449812
19	0x3d91571b	0.07096692
20	0xbdc13c2f	-0.09435307
21	0x3e0df903	0.13864522
22	0x3d2bcd42	0.041943796
23	0xbe131249	-0.14362444
24	0x3d02cdd3	0.03193457
25	0xbd8689ab	-0.06569227
26	0x3d20d268	0.03926316
27	0x3d7fe05a	0.062469818
28	0x3d6ae699	0.05734882
29	0xbd1671dd	-0.036729682
30	0x3e0c06d5	0.13674481
31	0x3e022365	0.12708814

sequences.4.weight f4 [9, 32, 3, 3]
0	0xbdb0af79	-0.08627219
1	0x3e1dfdf8	0.15428913
2	0xbe2caa54	-0.1686185
3	0x3d65437b	0.055972558
4	0x3e56d091	0.20978
5	0xbd114892	-0.0354696
6	0xbc0ff94c	-0.008787464
7	0xbd271a29	-0.040796433
8	0x3db14ab0	0.08656824
9	0x3d6bcb88	0.05756715
10	0xbd53b7dc	-0.051689014
11	0x3c6ba197	0.014381788
12	0x3ea8cb5f	0.3296766
13	0xbdc8970b	-0.09794434
14	0x3c7d60fb	0.0154650165
15	0xbdc56738	-0.09638828
16	0xbcccbba1	-0.024991812
17	0x3b2f5e30	0.002675902
18	0x3c149fd6	0.009071311
19	0xbda5edb5	-0.0810198
20	0x3d7d6dbb	0.061872225
21	0x3e50da9c	0.20395893
22	0xbecf09d6	-0.40437192
23	0x3da4829a	0.08032723
24	0x3e1c5d9c	0.15270084
25	0x3c3b2d7b	0.011424418
26	0x3d4f2ecc	0.05058174
27	0xbda0a66a	-0.07844241
28	0xbdb27d4d	-0.087153055
29	0x3de7ac4a	0.113121584
30	0xbe3829ae	-0.1798465
31	0xbe6b1ec4	-0.22960955
32	0x3da4ff37	0.08056491
33	0xbd2b515b	-0.041825633
34	0xbdba572e	-0.090986595
35	0xbc139c89	-0.009009489
36	0x3c12da56	0.008963188
37	0xbceef114	-0.02916769
38	0xbd3283c8	-0.043582708
39	0xbf016036	-0.5053743
40	0xbd2a5802	-0.041587837
41	0x3ca48e9e	0.020087536
42	0x3d86431b	0.06555768
43	0x3d3b7b9f	0.04577219
44	0xbd130200	-0.03589058
45	0x3b29f8a9	0.0025935567
46	0xbe654dac	-0.2239291
47	0xbcafa248	-0.021439686
48	0xbdf3acd2	-0.11898197
49	0xbe72adee	-0.23699161
50	0xbcd99296	-0.026559155
51	0x3d82259b	0.06354829
52	0x3d924f4c	0.07144031
53	0x3d606ccf	0.054791268
54	0xbd21ce7b	-0.039503556
55	0xbc65a641	-0.014016689
56	0x3ce5ed2e	0.028067198
57	0x3d47849f	0.04871046
58	0xbe5c949e	-0.21541068
59	0x3d6413fd	0.055683125
60	0xbcd454ee	-0.025919404
61	0x3bff34c3	0.007788272
62	0x3d0a77a5	0.03380551
63	0x3bef3101	0.007299543
64	0x3d67515a	0.056474067
65	0xbd08dac7	-0.033411767
66	0xbdebb9ce	-0.11510049
67	0x3e08d3de	0.13362071
68	0xbdf9201f	-0.1216433
69	0xba3949d8	-0.00070681935
70	0x3bb7b669	0.005606462
71	0x3b8afe75	0.0042417594
72	0xbda0042b	-0.07813295
73	0xbe29e11e	-0.16589782
74	0x3cf4416d	0.029816354
75	0xbe168b9a	-0.14701691
76	0xbe563858	-0.20919931
77	0xbcdc4e30	-0.026892751
78	0x3d30c8f3	0.04316039
79	0xbce40aff	-0.027837275
80	0x3c519fda	0.012794459
81	0xbdc65b15	-0.09685341
82	0x3e0c5b11	0.13706614
83	0xbc2ceed3	-0.010554987
84	0x3e0dd03a	0.13848963
85	0x3b5aac45	0.003336684
86	0x3d3854e9	0.04500285
87	0xbd7b5c18	-0.061367124
88	0xbd304e2d	-0.043043304
89	0x3a1e436f	0.000603727
90	0xbe7eb2b9	-0.24872865
91	0xbe795668	-0.24349368
92	0x3d790799	0.06079826
93	0xbe9b2d12	-0.30307823
94	0xbeb8af7a	-0.36071378
95	0xbd5e7749	-0.054312978
96	0xbc4616d2	-0.012090402
97	0xbd01b9d0	-0.031671345
98	0x3d95199a	0.07280274
99	0x3d433b16	0.04766377
100	0x3debc0a6	0.11511354
101	0x3d694dad	0.056958843
102	0x3df00151	0.11719001
103	0x3cdc0089	0.026855724
104	0xbd08e689	-0.03342298
105	0xbdcb713b	-0.099337064
106	0xbd56407b	-0.052307587
107	0xbba4b04c	-0.005025899
108	0xbdd9c49c	-0.106332034
109	0x3eaa51c4	0.33265507
110	0xbdf50708	-0.11964232
111	0x3de2aeec	0.1106852
112	0x3e3e9b24	0.18613869
113	0xbdead295	-0.114659466
114	0xbd3556a8	-0.044272095
115	0xbc0555ad	-0.0081381025
116	0xbd0ce515	-0.034398157
117	0x3bebda71	0.007197671
118	0x3c81e9dd	0.015858585
119	0xbc2f85a7	-0.010713018
120	0x3da45147	0.08023315
121	0xbd4b6d0d	-0.049664546
122	0xbc9e1e51	-0.019301565
123	0x3bd6d687	0.0065563354
124	0x3bfe4d98	0.0077607147
125	0x3c831141	0.015999438
126	0xbcb472cf	-0.022027401
127	0x3dbd6446	0.09247641
128	0x3bfb0af9	0.00766122
129	0x3c29a0a9	0.010353246
130	0xbe414548	-0.18874085
131	0x3d0137c2	0.031547315
132	0x3cdf46ea	0.027255494
133	0x3e3c7fc7	0.18408118
134	0x3d0957d3	0.03353102
135	0x3d08f333	0.033435058
136	0x3de17931	0.110094436
137	0xbc9eeb4a	-0.019399304
138	0xbd349907	-0.04409125
139	0xbe2e08d7	-0.1699556
140	0x3e09f079	0.1347064
141	0xbbd368fc	-0.006451724
142	0x3de33c3d	0.11095474
143	0xbd487871	-0.048942987
144	0xbd2f53d8	-0.04280457
145	0xbd08548b	-0.03328375
146	0xbcd965f1	-0.026537867
147	0xbe2120bb	-0.15735142
148	0xbe8c68ee	-0.27423805
149	0xbcd04751	-0.025424631
150	0xbd628dbd	-0.055310953
151	0xbd3a2748	-0.045447618
152	0xbb7b798f	-0.0038372015
153	0xbe2f0168	-0.1709038
154	0xbd96fb9d	-0.0737221
155	0xba02fbd0	-0.00049966294
156	0xbdd598c4	-0.10429528
157	0x3e920b83	0.28524408
158	0xbdd518d5	-0.10405127
159	0xbc85f7bd	-0.016353482
160	0xbb972f37	-0.0046137827
161	0xbd7ce4b3	-0.061741542
162	0xbd11a0e6	-0.035553835
163	0xbd309000	-0.04310608
164	0xbc90963c	-0.017649762
165	0xbe4ecfb6	-0.20196423
166	0xbe23d2a1	-0.15998317
167	0xbd702843	-0.058632147
168	0xbd3ae3b1	-0.0456273
169	0xbd6321b2	-0.055452056
170	0x3b12926e	0.002236511
171	0xbe5202bb	-0.20508854
172	0x3ea57544	0.3231603
173	0xbe0690e6	-0.13141212
174	0xbe2036eb	-0.1564595
175	0x3cea1c9d	0.028578097
176	0x3e26a8f2	0.16275385
177	0xbc141a17	-0.009039423
178	0x3d3543ea	0.04425422
179	0x3c238af3	0.009981859
180	0x3d5e29a7	0.05423894
181	0xbdbb8235	-0.091556944
182	0x3d926575	0.07148258
183	0x3d0fefd3	0.035140824
184	0xbb33314f	-0.0027342623
185	0xbcac2759	-0.021014856
186	0xbc9dd6f0	-0.01926753
187	0x3ce1b10e	0.027550247
188	0xbbf7bc2c	-0.0075602736
189	0xbdcdb951	-0.10045112
190	0xbd66bf8f	-0.05633503
191	0xbcd5c5b0	-0.026095241
192	0xbdf0394d	-0.11729679
193	0xbe9afad4	-0.30269492
194	0xbdcced8a	-0.100062445
195	0xbe06d71e	-0.13167998
196	0xbd6c851c	-0.05774413
197	0xbc433600	-0.01191473
198	0x3e196779	0.14980878
199	0x3dcc96f1	0.09989727
200	0xbcffea55	-0.031239668
201	0xbddd50eb	-0.108064495
202	0xbe08ff14	-0.13378555
203	0x3d6ca2df	0.057772513
204	0x3d715667	0.05892029
205	0x3d8eb5af	0.06968247
206	0xbbaf594b	-0.0053512207
207	0x3c5c4c45	0.013445918
208	0xbddbd565	-0.10734061
209	0x3ca1ef30	0.019767374
210	0x3d953a70	0.07286537
211	0x3de16f77	0.11007588
212	0x3c27cb51	0.0102413455
213	0xbdac82ae	-0.08423363
214	0xbd3227fe	-0.04349517
215	0xbd24e65f	-0.04025876
216	0x3e1b99eb	0.15195434
217	0x3d7936d8	0.06084332
218	0xbdaee3f3	-0.085395716
219	0x3dc8fa26	0.09813337
220	0x3e43f595	0.19136651
221	0xbddeef68	-0.10885507
222	0xbbdc6758	-0.0067261867
223	0xbd554a9d	-0.05207311
224	0xbc9cc3d5	-0.019136349
225	0x3e984f48	0.29747987
226	0x3e277cd7	0.16356216
227	0x3be3c8ef	0.0069514434
228	0xbd5ebc81	-0.05437899
229	0xbd8b05a5	-0.06788186
230	0x3bd9bb41	0.006644637
231	0xbc9c5472	-0.019083235
232	0xbc216218	-0.0098500475
233	0xbc253deb	-0.010085563
234	0xbe1f7d5c	-0.15575165
235	0xbe54ce96	-0.20781931
236	0xbdd2b0de	-0.10287641
237	0xbe3ea3a0	-0.18617105
238	0xbe72dcb4	-0.23717004
239	0xbe081223	-0.13288169
240	0x3cdd432e	0.027009573
241	0xbd57799a	-0.052606203
242	0x3dcc7745	0.09983686
243	0x3d6fc602	0.058538444
244	0x3d872aad	0.06599937
245	0xbd04bbb2	-0.032405563
246	0xbe2851d3	-0.16437463
247	0x3ec71128	0.38880277
248	0x3d8b5544	0.068033725
249	0xbc9329c9	-0.01796426
250	0xbe4a496d	-0.19754572
251	0xbc881fc4	-0.01661671
252	0xbd2903ea	-0.0412635
253	0xbcc4b144	-0.024010308
254	0x3d775434	0.060383037
255	0xbdb2ea96	-0.0873615

sequences.4.bias f4 [9]
0	0xbde9e9fd	-0.11421583
1	0xbe08fc75	-0.13377555
2	0xbde4dee9	-0.11175329
3	0xbdc7400f	-0.09729015
4	0xbe0a3d0a	-0.13499847
5	0xbda64ff3	-0.08120718
6	0xbd9988cb	-0.07496794
7	0xbdefdec0	-0.11712408
8	0xbd677d87	-0.056516197
