saved_models/UPSCALE_X3/epoch_57.pth (torch, 93471 bytes, 6 tensors)

sequences.0.weight f4 [64, 1, 5, 5]
00000000: d98c e63d 3fd9 183e 5eaf 41bc 0bba ed3c
00000010: 7ed1 a5bd dbbe 7e3d e4a2 713d 352e 3f3e
00000020: 6c68 543e 7b07 dcbd 3b82 c43d c6b9 b3be
00000030: 1fdb 17bf 30f4 b4bd c913 49bd 68ba 803d
00000040: cdd7 863c fa93 b53e 3a61 14be 7652 3dbe
00000050: f5b1 54bc 4b73 313d b0f9 223e 5b6f 09be
00000060: 8d80 3d3e fea7 293d f6ec 1b3e dcaf 38be
00000070: 5450 313e 6180 333e d8d1 98bd 6292 1bbe
00000080: 342c 00be c862 0bbb 330b f1bd 0c50 debd
00000090: 1339 f6bd 3918 f7bd f08c fbbc 53b1 b93d
000000a0: 41e0 363e 8202 6b3e 9637 81be 43d0 e53d
000000b0: 0ecd 52bd f900 413e 59d4 ba3b 3fa0 3bbe
000000c0: ca3a be3d 7651 a9bd 11ad 723d da48 4bbe
000000d0: 3e54 63bd 500a a8bd 101e 7c3c 0f70 b03d
000000e0: f68e 08bd 3b06 7fbe eb39 c7bc 21f8 1bbe
000000f0: 76f9 8abd 0310 5bbe d6bf 39be 8c84 083d
00000100: aca7 383d 1e19 e93d c3c8 a8be 4de6 10be
00000110: dc1e b2bd b4eb 8cbe c5e2 3f3d 4cce 783d
00000120: 5494 adbd 48cb 92bd 954b a33d 3b95 3d3c
00000130: 790e 3c3d 6e5f 433e 04f8 9f3d 65b1 72bd
00000140: 396c 58be 88e1 93be c6ff 05be ad14 563e
00000150: d7d8 393e fe2f 8cbe ab63 163d 6022 e63d
00000160: e853 cabb 1919 75be 72fa d8bd 88f6 0bbd
00000170: 8095 fd3d cd8b 213e 5ea6 fbbd 6416 ac3c
00000180: 3097 853b 9b72 b83d 0c01 0cbd fbb3 203e
00000190: fbe1 fd3c 92ec 4d3d a192 26be 66c3 f13d
000001a0: 962e 3abc 54d1 8f3d ed3b 1fbd 7e88 6ebe
000001b0: 690c 75be c915 7a3c 16ff b5bd 0411 debe
000001c0: 88ab 7abf 89f3 28bf ddd6 b2be 8fb5 c8bd
000001d0: fb77 41bc 1f57 b9be bd43 c7be bc02 d23b
000001e0: 3cf4 a93d 3b90 05bd 3828 bcbd b283 85bc
000001f0: d2e4 173e cf3c afbd d5da 633e 6fb8 f1bd
00000200: c508 d6bd ea5a 28bd 281d 54be f207 1a3e
00000210: 552f 97be ff17 e73d c864 dd3a 5f22 85bd
00000220: 95ae 483e b93f ddbe 2fb2 3a3e 994f 2c3e
00000230: c749 093e c8f3 29be 5afe 0c3e 5d5a 70bd
00000240: 6f27 1abe 3159 1c3e 9b1d f43d 8ec5 25bc
00000250: 3178 1fbe 5025 0c3e bd19 0fbe 4159 afbd
00000260: 5e5d 0b3e 80d3 ddbc bd86 dabd bfbd 5dbd
00000270: 08cb f1bd c3aa 783e b4f2 fd3d 7797 a2bd
00000280: 6227 0e3e c41b 913e 0cda 0bbe e73e 513c
00000290: f560 303e 5b97 4abe c345 ee3d 38c8 643e
000002a0: 6d22 febc 57d9 113e e36c 593e 34a9 17be
000002b0: 7708 65be 7ea1 26be 3f19 21be cd37 223d
000002c0: 5814 63bb d6a9 72bd 7dbe 403e 68af ef3d
000002d0: cb26 05be c988 293e 42f1 56be 063f 17bd
000002e0: d82c 17be 6e94 36be f108 1c3e b191 3abd
000002f0: 4c5e 163d c42a 48be fcfc 023e e296 0cbe
00000300: 0f3c 98bc cf5b 4bbe 4774 32be 8e4a 093e
00000310: 3224 dcbd 3122 d6bd e0bf d13d 8638 523d
00000320: 8339 06be 1081 00be 1c06 813d 8a14 9e3d
00000330: 3ce1 fe3d cc61 953d fbac e03d 6979 32be
00000340: 3f1d 803e dabc 2ebe 84e4 94bd 3521 42be
00000350: c8c3 4bbe 7b12 33be cb23 273d e2e7 953d
00000360: 8e64 a23e 5ee1 a2bd faa2 27be 0359 633b
00000370: 217b 343e 72ba 453e 6b48 573c 07a8 cabd
00000380: 604f 1c3b 9558 5c3b a65f 153e 0145 d7bd
00000390: 94fd 11bd 5a9a 663e 9f30 58bd 2f2c 6d3e
000003a0: 2ca0 ad3e d761 79be 6348 90bd 5d2c 853e
000003b0: 327a 4ebc a328 e0ba dd84 dfbd 5fc5 21be
000003c0: 29e6 d13c fba5 573e 3158 51be f9ac 3d3e
000003d0: bb9b 16be 57f2 30be 608c fd3c 445c e6bc
000003e0: 2154 64be aeaa c2bd f37b 3e3d a2be 013e
000003f0: 2e42 9cbd 3c2b 8ebd 7027 29be ce4d 9a3c
0.11257333 0.14926623 -0.011821596 0.029019376 -0.08096598 0.062193733 0.058993235 0.1866997
0.20742959 -0.10743614 0.09595152 -0.3510267 -0.5931873 -0.088356376 -0.049091134 0.06285554
0.016460324 0.3546446 -0.14490214 -0.18488488 -0.012981881 0.043322843 0.1591556 -0.13421385
0.1850607 0.041419975 0.15227112 -0.18035835 0.17315799 0.17529441 -0.074618995 -0.1519256
-0.12516862 -0.0021268595 -0.11769714 -0.108551115 -0.12022605 -0.12065167 -0.030706853 0.09067025
0.17858984 0.22950175 -0.2523772 0.112213634 -0.051465087 0.18848027 0.0057015833 -0.18322848
0.09288557 -0.082674906 0.05924708 -0.1985201 -0.05550026 -0.08205092 0.015388027 0.086151235
-0.033339463 -0.2490472 -0.02431961 -0.15231372 -0.06785862 -0.21392827 -0.18139586 0.03332953
0.04508178 0.11381744 -0.3296567 -0.14150353 -0.08697292 -0.27523577 0.046847124 0.060743615
-0.08475557 -0.07167679 0.079734005 0.011571224 0.04591224 0.19079372 0.07810977 -0.059251208
-0.21135034 -0.28883004 -0.13085851 0.20906325 0.18149124 -0.27380365 0.036716145 0.11237025
-0.006174553 -0.23935355 -0.10594644 -0.034170657 0.123820305 0.15775986 -0.122875914 0.02100677
0.004076861 0.09006234 -0.034180686 0.15693657 0.030991545 0.05027444 -0.16266872 0.118048474
-0.011363646 0.07022348 -0.03887551 -0.23294255 -0.23930515 0.015263983 -0.088865444 -0.43372357
-0.97917986 -0.65996605 -0.34929553 -0.098002546 -0.011808391 -0.3619928 -0.38918868 0.0064090174
0.08298537 -0.032608252 -0.091873586 -0.016298149 0.14833382 -0.0855652 0.22251447 -0.11802756
-0.104508914 -0.041102327 -0.20714247 0.15042093 -0.295283 0.11283874 0.0016890997 -0.065006964
0.19597848 -0.4321268 0.18232034 0.16827239 0.1340705 -0.16596901 0.13768902 -0.058679927
-0.15054105 0.15268399 0.11919709 -0.0101179015 -0.15573193 0.13686109 -0.13974662 -0.08561946
0.13609836 -0.02707839 -0.106702305 -0.054136034 -0.11806303 0.2428389 0.123998076 -0.07939046
0.13882211 0.28341496 -0.13657397 0.012771345 0.17224486 -0.197843 0.116344 0.22342002
-0.031022275 0.14243065 0.21232943 -0.1481064 -0.2236651 -0.16272542 -0.15732287 0.039603997
-0.0034649577 -0.059244 0.18822666 0.11703378 -0.1300308 0.16556086 -0.2099047 -0.03692534
-0.147632 -0.17830059 0.15237786 -0.0455491 0.036711022 -0.19547564 0.12791818 -0.13729432
-0.018583326 -0.19859241 -0.17427169 0.13407347 -0.10749091 -0.1045574 0.102416754 0.051323436
-0.13107876 -0.12549233 0.062999934 0.07718761 0.12445304 0.07294044 0.109704934 -0.17429127
0.25022313 -0.17064229 -0.072701484 -0.1895798 -0.19898903 -0.17487518 0.04080562 0.07319619
0.31717342 -0.07953142 -0.16370764 0.0034690506 0.17625095 0.19309404 0.013139824 -0.0989533
0.0023851022 0.0033622135 0.14587268 -0.10511208 -0.03564222 0.22519818 -0.052780744 0.23161386
0.33911264 -0.24353729 -0.07045057 0.2601041 -0.012602376 -0.0017101954 -0.109140135 -0.15797947
0.025622444 0.2105941 -0.20443799 0.18523015 -0.14707844 -0.17279945 0.030950725 -0.028120168
-0.22297718 -0.09505211 0.046504926 0.12670377 -0.0762981 -0.0694184 -0.1651895 0.018835928

sequences.0.bias f4 [64]
00000000: 75cf 1a3d c901 073e d203 4c3e d806 413d
00000010: d133 54ba 280e ad3d ca9b 9bbd 7218 ba3e
00000020: 0653 253e 9928 e23b 1f72 80bd 69ca c83d
00000030: 5ebe 7e3d ca99 203e 1c47 c5bd fb20 e2bb
00000040: 9a91 b53e 3943 c93e d1a8 aa3d 8b55 bb3d
00000050: 27f6 aebb 1db2 4f3e edd1 9abe cae4 babe
00000060: 81b0 773e 6ba5 b4bd 33d8 c3be 26f1 5d3e
00000070: fcd9 79be f913 f2bd 24de 153c 8cd0 76be
00000080: 787c 60bd 92cd 263e 3160 cf3d c8d7 7e3d
00000090: 92b0 5a3e aba9 9dbd f0c6 2bb9 f5f8 633e
000000a0: 217e 90be 245a 08be 7dff 78be dabb cfbd
000000b0: 55b9 86be f2e8 483d a8e1 06be 97fc 883e
000000c0: b1f3 c5be c689 813e f11a b7be eb08 a33e
000000d0: 9cee 873d d4f9 483e 75a9 b13b a17c 433e
000000e0: 3af7 95bd 20b1 b4be 90c8 0ebe ee05 45bd
000000f0: 52c6 6cbe 1fab b53d b22a 3e3e 4e7e 733d
0.037795503 0.13184275 0.19923332 0.047125667 -0.00080948794 0.08449966 -0.07598074 0.36346775
0.16144952 0.0069018123 -0.06271767 0.09804232 0.062193267 0.15683666 -0.09632704 -0.0069009042
0.35462648 0.393091 0.083329804 0.091471754 -0.0053394022 0.20282789 -0.30238286 -0.36502677
0.24188425 -0.088206135 -0.38250884 0.21674022 -0.2439956 -0.11820216 0.009147201 -0.24102992
-0.054806203 0.16289356 0.10125769 0.062217504 0.21356419 -0.07698377 -0.00016381941 0.22262938
-0.2822123 -0.13315636 -0.24316211 -0.10143252 -0.26313272 0.04905028 -0.13172019 0.2675521
-0.38662484 0.25300425 -0.35762742 0.3184274 0.06637308 0.19626552 0.005421812 0.19090511
-0.07322545 -0.35291386 -0.13943696 -0.048101358 -0.23122528 0.088705294 0.18570974 0.059446625

sequences.2.weight f4 [32, 64, 3, 3]
00000000: 1113 77bd a6e4 533e b1fd cc3c 0b1b f33c
00000010: d32c 3dbe 22cd 1e3d 834b 573d 0d90 9dbd
00000020: 72e7 84bd eeb7 893d 08d9 30bd 11f3 2b3c
00000030: ed37 623c ff15 70bc f213 763d 5ec2 d23c
00000040: 6a87 da3c 6f36 b239 5b1c 49bd afa5 44ba
00000050: afae d6bc 9ca3 393d 117f 4f3c d498 cdbc
00000060: 3fde 88bc ef20 d8bc 47f5 1a3b f3a9 173d
00000070: 6aaf 4fbd 3840 12bd 49d3 523c 526a 84bc
00000080: 0fec 06bc b591 393c 4a30 7ebd 9cd5 153d
00000090: e862 863b 2be1 f6bc 4994 083c 451e 113c
000000a0: 3421 80bd 13ea be3b 727a 4e3c 64bc 27bc
000000b0: ae47 31ba 0f4d 24bd 2eb1 493e f8f8 edbc
000000c0: fdac 343d 4c9f 11be 0e8a 093e 9f63 463d
000000d0: 7458 a7bd 8a43 9abb a847 18bb c614 963d
000000e0: 9e2d 8ebd 075b 70bd c969 27be c75c cb3c
000000f0: c51f 453d 4ded 29bb 03a6 f63c 6dd4 533c
00000100: 8e29 793c 45bf 93bd 124b 513c e114 c9bb
00000110: aae3 723b d92b 8a3c cba7 0dbe 41d3 433d
00000120: 03f7 6cbc 78a2 4a3c 7720 6c3e 06a7 40be
00000130: 7992 4abd 08f9 77bd 5840 da3d 5011 4bbc
00000140: b5dd a83d 6567 a1bc e1d0 17bc af91 853d
00000150: 28f9 713d d5a2 ba39 efef dbbc f45f b8bd
00000160: 2bcb 333d b637 84bc 915d a3bd 6250 85bd
00000170: a3ed e73c e0a0 c13c fa5d ad3d c38d b33c
00000180: 9880 a73b 2025 a63c 15b8 58bc 34cd a03c
00000190: 0254 35bd 5987 323d ba7b 663e 29a9 373d
000001a0: dfe9 2cbd 7515 213e 906b 8f3b ed02 56bd
000001b0: fc72 debc 81c4 c8bd de5b d9bc 1aa1 78bc
000001c0: e48c 8b3d 8b5a 23bd f5c0 363c 6d4b 333d
000001d0: 9aa4 223c d699 e4bb 0041 86bb daf1 9d3b
000001e0: d4e1 64bd 4c46 c73c 54c3 66bd f5d4 5e3b
000001f0: dd59 dabb a434 76bd 5975 1bbd 82ae 073d
00000200: 0995 92bc 2a20 85bd 2ad7 a53d 0995 75bc
00000210: 9b77 63bc 9316 713c 896c 1a3c 861c 7d3e
00000220: e90f 14be 6b8a 9a3c c02d c9bd 8c70 163e
00000230: 2187 003c a53d 443d bb92 723d e917 323c
00000240: ede0 e93c f5d3 b43c e9d9 04bc 3be8 06bd
00000250: 6642 98bd debf b43c a623 e23c 5022 15bd
00000260: 18bd 0e3d 6a84 dfbd 3d51 183d 6cdb 9dbd
00000270: 583e efbd cc1f 27be 8843 903c 6d42 2cbd
00000280: 4949 073c 91fc 603c 9e01 473d 70fd 10bd
00000290: 3eee 603d f7b0 57be 99eb babd b53c fe3d
000002a0: 2d40 bfbd 2495 66bc 67b7 0c3c 89e5 7b3d
000002b0: cbf0 bf3d 5380 943d 4911 27bd 579c 7fbd
000002c0: 68e2 a03d 667e 883b 32d5 8ebd 77b0 b9bc
000002d0: 9fe7 a8bd 8f3b 24be d988 8e3c 2c10 e23c
000002e0: f717 013e 0a4b e3bd b7f1 163d 7db8 a93c
000002f0: e534 85bc da8f 0d3d dc79 543d 119d 5f3d
00000300: 1197 4c3e c31d 14be 7ee5 963d 098e cf3d
00000310: 9e1a 35bd e3fb 84bc 0e88 3bbc e1d9 e53c
00000320: 0f70 01bd 46a7 7dbc cb31 ca3b 05a7 ed3b
00000330: 2145 443c cda6 f93c 89fb b8bc dfbb 003b
00000340: 0bd2 99bc eee5 68bc b66e b53d 18be 323c
00000350: 9878 82bd 17d5 ad3c b79a 313c 15b3 c13c
00000360: a757 2abc 97a9 1abd 74db 43bd 2679 93bd
00000370: 4e9c 8db9 de2b bcbb d82d 57bd d9a2 3a3d
00000380: 3b2c 67bd 92c5 0c3e 4bde 0dbe 26e2 d0bc
00000390: cc76 21be 1164 943e 55ca 53be 9bc0 13be
000003a0: ffb2 0f3e 0a64 15be 5ba9 b2bc b2ae fc3b
000003b0: c741 c63c 0f8b ba3d 6367 a13d 1d81 a03d
000003c0: 9e03 ef3b c794 873d a87d 443d e3fa b43c
000003d0: bdeb 87bd 1e95 5b3d eed3 003e 4d91 b6be
000003e0: 9d47 253e 4c19 0d3e 4756 f9bd c5a3 813d
000003f0: 79de ac3c 8cbb 653c 91a1 32bd 8cd2 39bd
-0.060320918 0.20692691 0.025023313 0.029675981 -0.1847413 0.03876985 0.052562248 -0.07693491
-0.06489457 0.06724535 -0.043175727 0.010494963 0.013807279 -0.014653682 0.060077615 0.025727447
0.026675899 0.00033991362 -0.049099308 -0.00075014954 -0.026206343 0.045322046 0.012664572 -0.025097288
-0.016707538 -0.026382891 0.0023644732 0.03702731 -0.050704397 -0.035705775 0.012867757 -0.016163979
-0.008234992 0.011326243 -0.06205777 0.036580667 0.004101146 -0.030136665 0.008336135 0.0088573145
-0.06256333 0.0058262437 0.012602435 -0.010237787 -0.0006762695 -0.04011255 0.19696495 -0.029049382
0.044110287 -0.14220923 0.1343157 0.04843485 -0.08171168 -0.0047077583 -0.002323607 0.07328181
-0.069422945 -0.05868056 -0.16348948 0.024824513 0.048126 -0.0025928796 0.030108457 0.012929064
0.015207661 -0.07214216 0.012774246 -0.006136522 0.0037061968 0.016866611 -0.13833539 0.04780889
-0.014463189 0.012367837 0.2305926 -0.18813714 -0.049456093 -0.06054023 0.10656804 -0.012394264
0.08245412 -0.019702623 -0.009266109 0.065219276 0.059075505 0.00035598004 -0.026847808 -0.090026766
0.043894928 -0.016139846 -0.07976831 -0.065094724 0.028311556 0.023636281 0.0846519 0.021918183
0.005111765 0.020281374 -0.013227482 0.019629098 -0.04426957 0.04358611 0.22508135 0.044839058
-0.042215224 0.15730841 0.004376836 -0.052248884 -0.027154438 -0.09803105 -0.026533064 -0.015175128
0.06813982 -0.03988127 0.011154403 0.043773104 0.009926939 -0.0069763465 -0.004097104 0.0048200907
-0.05587943 0.024325512 -0.056338623 0.0034001444 -0.0066635446 -0.060108796 -0.03795371 0.033125408
-0.017893331 -0.065002754 0.0809768 -0.014989146 -0.013883497 0.014714855 0.009425291 0.24717912
-0.14459194 0.018864831 -0.09823179 0.1469137 0.007844717 0.04791035 0.059221964 0.010869958
0.028549636 0.022073725 -0.008108594 -0.032936316 -0.074345395 0.022064146 0.02760489 -0.036409676
0.034848303 -0.10913928 0.03718685 -0.07707867 -0.11681813 -0.16320723 0.017610326 -0.042055536
0.008257219 0.0137320915 0.048585527 -0.035397947 0.054914705 -0.210636 -0.09126968 0.12413923
-0.093384124 -0.014073644 0.008588648 0.0614982 0.093720995 0.072510384 -0.04078797 -0.062404957
0.078556836 0.0041654585 -0.069742575 -0.022667153 -0.08247303 -0.16038345 0.017399238 0.027595602
0.12606798 -0.11098297 0.03685161 0.020717854 -0.016260574 0.034561016 0.051874027 0.05459315
0.19979502 -0.14464478 0.07367991 0.10134513 -0.044214837 -0.01623339 -0.011446012 0.028057994
-0.031601008 -0.015481776 0.0061704866 0.0072525763 0.011979372 0.030475045 -0.022580879 0.001964323
-0.018776914 -0.014214976 0.08859007 0.01090958 -0.06370658 0.021219773 0.01084011 0.023644963
-0.0103968745 -0.03775939 -0.04781671 -0.072008416 -0.00027010072 -0.005742534 -0.052533954 0.04556546
-0.056438666 0.13747242 -0.1385433 -0.025498461 -0.15767974 0.28982595 -0.20682652 -0.14428942
0.14033125 -0.14588943 -0.02180927 0.007711255 0.024201287 0.091085546 0.078810476 0.078371264
0.0072941324 0.06620174 0.047971398 0.022092288 -0.066367604 0.053609006 0.12580845 -0.3565773
0.161406 0.13779181 -0.12174659 0.06330065 0.021102177 0.014021765 -0.043611113 -0.04536681

sequences.2.bias f4 [32]
00000000: be8d bbbd facd d13c 6ffb 9e3d e062 a5bd
00000010: 3bc2 ccbd 0f5d adbb 08c4 dc3d 5c82 81bc
00000020: 6041 3d3e 6d1c 04bb 5c2f 253e 05bb e53d
00000030: 6485 42be efc9 82bc 2c62 adbd 7d2e d63d
00000040: 4449 023e 0953 a4bc e392 283e c640 923d
00000050: bad8 c1bd 4433 0e3e 4c98 2b3d 1de6 12be
00000060: 832b 033d d2ee 86bd 7d6a 173d 516f 7f3d
00000070: 6670 6a3d 97c7 14bd 47e3 0b3e 214d 023e
-0.091578946 0.025610913 0.07762801 -0.080754995 -0.09997984 -0.0052906345 0.107795775 -0.01580923
0.1848197 -0.0020158545 0.16131347 0.11217312 -0.18996197 -0.01596543 -0.084659904 0.10458086
0.12723261 -0.020059125 0.16462283 0.07141261 -0.094651654 0.13886744 0.04189329 -0.14345594
0.032023918 -0.0658852 0.03696679 0.06236202 0.057236098 -0.036323156 0.13660918 0.12724735

sequences.4.weight f4 [9, 32, 3, 3]
00000000: 0343 bcbd e985 233e d25d 32be 13ba 663d
00000010: 8fa0 583e 2fd6 0dbd cb36 2bbc 6f17 1bbd
00000020: 09d4 ae3d 7838 6c3d 7d49 52bd 760d 703c
00000030: df01 a93e d725 cabd 74f7 793c e86a c5bd
00000040: 34c0 c9bc 437c 453b 51b2 513b e87d a1bd
00000050: 6a91 763d 5090 5d3e d711 cfbe 6426 aa3d
00000060: 02d7 1d3e 7ab0 253c aebc 4c3d 3afb 9ebd
00000070: 0c0b b3bd 0550 e73d d5f0 38be 2f77 6bbe
00000080: 82ae a53d ec20 30bd 4755 bdbd 25ab 0dbc
00000090: 5d3d 433c a6ba f4bc 9bff 29bd e9cd 02bf
000000a0: 87fe 18bd ca9e 8d3c 5a3b 8a3d eb9f 373d
000000b0: 8b7b 14bd 73a3 e33a b58b 66be 63ce b5bc
000000c0: 2344 f4bd a3c6 72be e093 dabc 83cd 813d
000000d0: 0245 943d 1d9b 5e3d 7f4a 20bd c1f1 6abc
000000e0: 8b87 e43c b1fc 433d 6ab9 59be 64a4 5f3d
000000f0: 52fc d9bc 4691 043c 8ae3 0b3d cc53 dc3b
00000100: 1f0a 5f3d 1a51 03bd f0a5 ebbd ed47 083e
00000110: 08cc f9bd ffda 933a 30db b43b a8ed 8e3b
00000120: 6bc8 a0bd 1f3f 2bbe 4b7c f33c 08bc 16be
00000130: 5996 58be 546d d5bc dffb 303d 7afc d6bc
00000140: 9d5d 4f3c 271c c4bd d0e0 0d3e 2b39 29bc
00000150: 1289 0d3e 8652 473b 8178 393d 62e1 7abd
00000160: 0867 23bd 39b4 aa3a 761e 7fbe 3081 7abe
00000170: a979 783d 6fb9 9bbe d832 b9be c2ee 5cbd
00000180: ead2 31bc 4bc8 00bd 9dcb 943d a426 483d
00000190: 2ddc ea3d 5aba 683d 4423 f63d ed36 ac3c
000001a0: bb2d febc 2e4c cdbd f0a6 52bd 6176 c8bb
000001b0: b2e9 d1bd 1374 a93e afb8 f7bd 6181 e13d
000001c0: f24c 413e 6903 edbd c242 33bd ec36 ebbb
000001d0: 8fd9 0abd eba9 1f3c b3de 8c3c 7c87 24bc
000001e0: fec4 a13d fbb6 42bd 76f1 94bc b97b da3b
000001f0: 5bc5 f73b c0ec 703c 0983 b1bc b777 bc3d
00000200: 12fc d63b 3ae7 023c 3fc4 3fbe 23e6 f93c
00000210: ada7 e63c 20eb 393e b04a 0a3d 64b2 fe3c
00000220: 0b0b eb3d f4fa a3bc e769 36bd 1dc6 30be
00000230: 9f6f 0a3e b723 dcbb 6fef e33d 394d 46bd
00000240: aa1e 2fbd 9051 07bd 1196 d5bc 575a 22be
00000250: 3ac5 8cbe a55a c0bc 714f 61bd fd59 37bd
00000260: aa8a 5dbb e80b 2ebe d628 86bd 346d 83bb
00000270: 1e33 d2bd 5654 953e 84e6 dbbd 7e52 93bc
00000280: d7d7 babb 8a6a 78bd 5b7d 17bd b7ce 32bd
00000290: 6176 91bc 59ab 50be d6aa 25be a9b1 6ebd
000002a0: 2334 3dbd 4206 64bd 3197 133b 3131 51be
000002b0: a81a a53e ce8e 06be 7464 22be 92d4 f83c
000002c0: 81e0 243e 0691 5dbc 6fd0 443d c615 683b
000002d0: 8468 613d 9e29 c4bd 7a4b 973d 9f39 023d
000002e0: 27e4 94bb ebf5 a8bc 9e7a 91bc f5e6 ef3c
000002f0: 161b 00bc 8649 d2bd 7a4e 67bd 87b1 d4bc
00000300: 1fef f1bd 1f07 9cbe d571 cebd 4a2f 08be
00000310: bb81 6ebd d950 34bc 85a2 163e d7e4 cc3d
00000320: 948f f5bc f95c ddbd 511d 0dbe 32bb 613d
00000330: ac5c 713d 9867 933d 48dc 9abb 8191 963c
00000340: aa97 d1bd a656 ad3c 2c05 963d 8176 d13d
00000350: eebc 673c 25cc aebd 144a 30bd 7a60 29bd
00000360: fc7b 193e 03ec 7b3d ec67 b0bd 774d c83d
00000370: faf2 453e 047e e3bd 233a 02bc 165e 4fbd
00000380: 63d4 9cbc 72b8 993e c3be 233e 7794 103c
00000390: d2f5 62bd 6e88 94bd 07ee fa3b 1e11 92bc
000003a0: 2c41 34bc 37a2 15bc f62d 20be 3f20 55be
000003b0: 1a92 d2bd 9a27 3fbe a2ef 72be d794 08be
000003c0: f9b6 e33c 5ee9 55bd c4fa cc3d 85c5 7d3d
000003d0: 860f 893d 7270 14bd bff6 2dbe aa93 cb3e
000003e0: c4f2 8b3d 26fe 6fbc 954d 4cbe dfa2 7dbc
000003f0: 5013 2cbd 248d afbc c242 793d 9d2c babd
-0.09192469 0.15969051 -0.17418602 0.056329798 0.21154998 -0.03462809 -0.010450075 -0.037864145
0.08536536 0.05767104 -0.051339615 0.014651647 0.3300924 -0.098704986 0.015256751 -0.096395314
-0.024627782 0.003013388 0.0031997154 -0.07885343 0.06019727 0.21637082 -0.40443298 0.08308104
0.1541405 0.010112876 0.049984626 -0.077627614 -0.087423414 0.112945594 -0.1806062 -0.22994684
0.08089925 -0.043000147 -0.09244781 -0.008646761 0.011916486 -0.029874157 -0.04150353 -0.51095444
-0.03735211 0.01728763 0.06749602 0.044830244 -0.036250632 0.0017367437 -0.22514232 -0.02219314
-0.119270585 -0.23708586 -0.02668184 0.063380264 0.07239725 0.054347146 -0.039133545 -0.014339865
0.027896663 0.047848407 -0.21262136 0.054600134 -0.026609574 0.0080912765 0.034152545 0.0067238566
0.05445301 -0.032059766 -0.115062594 0.13308688 -0.12197119 0.0011280476 0.0055192932 0.004361827
-0.07850727 -0.16723298 0.029722353 -0.14720166 -0.21151103 -0.026053108 0.043208953 -0.026243437
0.0126565965 -0.09575682 0.1385529 -0.010328571 0.1382182 0.0030414178 0.045280937 -0.061250098
-0.03989318 0.0013023681 -0.24913964 -0.24463344 0.0606629 -0.30414912 -0.36171603 -0.053938635
-0.0108535085 -0.031441014 0.07265399 0.048864976 0.114677764 0.056818344 0.12018445 0.021022284
-0.031027665 -0.10024296 -0.051428735 -0.0061176275 -0.10249652 0.3309637 -0.120957725 0.11011005
0.18877009 -0.11572916 -0.043764837 -0.007178178 -0.033898886 0.009745101 0.017196035 -0.010042068
0.078989014 -0.047537785 -0.018181544 0.006667581 0.0075613684 0.014704883 -0.021668928 0.09202521
0.006560811 0.007989699 -0.18727206 0.030505246 0.028156126 0.181561 0.033762634 0.031090923
0.11476716 -0.020017125 -0.04453459 -0.17263074 0.13519143 -0.0067181247 0.11129653 -0.04841349
-0.042753853 -0.03303677 -0.026072534 -0.15854774 -0.27494222 -0.023480723 -0.0550074 -0.044763554
-0.0033804574 -0.1699673 -0.065507576 -0.0040108208 -0.10263656 0.29165906 -0.10737327 -0.017983671
-0.0057019996 -0.06064848 -0.036984783 -0.04365417 -0.017756643 -0.20377864 -0.1617845 -0.0582749
-0.0461923 -0.05567003 0.0022520537 -0.20428921 0.322469 -0.13140413 -0.15858632 0.030374799
0.16101266 -0.013523346 0.04805034 0.0035413369 0.055031314 -0.0957825 0.07387443 0.031793233
-0.0045437994 -0.020625075 -0.017758664 0.029284934 -0.007818958 -0.1026793 -0.056471325 -0.025963558
-0.11813187 -0.30474183 -0.100803055 -0.1329929 -0.05822919 -0.011005604 0.14710434 0.10004585
-0.02997569 -0.10808749 -0.13780715 0.055110164 0.05892627 0.07197493 -0.0047259666 0.018379929
-0.10234006 0.021159481 0.07325205 0.10227681 0.014144165 -0.08535031 -0.043039396 -0.041351773
0.14988703 0.061504375 -0.086135715 0.097804 0.1933097 -0.1110802 -0.007948431 -0.050626837
-0.019144243 0.30023533 0.15990739 0.008824459 -0.055410214 -0.072525844 0.0076577696 -0.017830428
-0.011001866 -0.009132913 -0.15642533 -0.20813082 -0.10281773 -0.1866745 -0.23724225 -0.13338028
0.02779721 -0.05222451 0.10008767 0.061955947 0.06692414 -0.03624005 -0.16988657 0.39761096
0.06833413 -0.014647996 -0.1995147 -0.015480726 -0.042010605 -0.021429606 0.06085468 -0.090905406

sequences.4.bias f4 [9]
00000000: 9658 eabd 6733 09be 8b61 e5bd 6547 c7bd
00000010: bc06 0abe 3a97 a6bd 636e 99bd 29c7 efbd
00000020: 957d 68bd
-0.11442678 -0.13398515 -0.112002455 -0.09730414 -0.13479131 -0.08134313 -0.07491758 -0.11707909
-0.05676039
