saved_models/UPSCALE_X3/epoch_76.pth (torch, 93471 bytes, 6 tensors)

sequences.0.weight f4 [64, 1, 5, 5]
000000 29 e9 14 3e ed 33 36 3e 80 e9 67 3c ed 17 32 3d
       0.14542069 0.17793246 0.014154792 0.04347985
000010 5e e3 6a bd ad f5 af 3d 9c 1e 4d 3d 19 cc 4a 3e
       -0.05734574 0.08591781 0.05007802 0.1980442
000020 60 ea 59 3e b9 36 bd bd 58 05 9b 3d 55 b7 cf be
       0.21280813 -0.09238953 0.075693786 -0.4056956
000030 69 39 2b bf 9b 39 e2 bd 1b 19 9e bd 37 85 93 3d
       -0.66884476 -0.110461436 -0.07719632 0.07203143
000040 59 c8 9d 3c 5f eb b1 3e b2 7d 30 be 5a c2 42 be
       0.019260572 0.34749886 -0.17235449 -0.19019452
000050 41 5e 54 bc c0 1e 9b 3d 48 d4 38 3e 53 e4 ef bd
       -0.012961925 0.075742245 0.18049729 -0.11713471
000060 76 f7 55 3e 25 00 16 3d 3d 89 18 3e 66 8b 3d be
       0.2089518 0.03662123 0.14896102 -0.18510208
000070 f2 be 35 3e 25 28 37 3e f3 e2 8d bd 3d b6 1c be
       0.17748621 0.17886408 -0.06928053 -0.15303893
000080 e2 bb 06 be 9e f5 c4 ba a7 26 ec bd 72 49 d8 bd
       -0.13157609 -0.0015026813 -0.1153081 -0.105608836
000090 69 32 ee bd de d9 01 be 1b df eb bc 36 d4 b6 3d
       -0.11630709 -0.12680766 -0.028792908 0.08927195
0000a0 19 20 3b 3e c9 f4 70 3e 98 d3 83 be 87 df e3 3d
       0.18273963 0.23530878 -0.2574737 0.11126619
0000b0 d1 7c 6c bd 66 fe 45 3e 17 e0 1b 3c cf 2b 3f be
       -0.05773622 0.19335327 0.009513876 -0.18669055
0000c0 aa ee be 3d 45 f3 9e bd 8d 22 7e 3d b0 46 48 be
       0.09322865 -0.07761244 0.06204467 -0.19558215
0000d0 66 c1 75 bd e8 ca ab bd d4 96 9e 3c e7 a9 c3 3d
       -0.059998892 -0.08388311 0.01935903 0.09553891
0000e0 36 e0 fa bc b4 57 84 be 16 6a f6 bc 30 dc 1c be
       -0.03062449 -0.25848162 -0.030079883 -0.1531837
0000f0 0a e2 66 bd 7c 30 60 be 6d cb 48 be db fb d6 3c
       -0.05636791 -0.21893495 -0.19608851 0.02624314
000100 df 57 39 3d e1 bd f5 3d 1c 37 a9 be e0 dd 16 be
       0.045249816 0.11999107 -0.33049858 -0.14733076
000110 7e f0 b4 bd 50 94 89 be 01 d0 43 3d bc 53 7e 3d
       -0.08834933 -0.26870966 0.04780579 0.062091574
000120 e5 bf a6 bd d0 fa 86 bd 17 51 bd 3d 77 89 9b bb
       -0.0814207 -0.065908074 0.09243982 -0.0047466117
000130 c7 34 f1 3c 12 d2 5a 3e 8c 56 ab 3d b5 40 9c bd
       0.029444112 0.21369198 0.08366117 -0.076295294
000140 54 92 7f be 97 8c 9d be 4a f4 de bd 6d 49 7d 3e
       -0.24958163 -0.30771324 -0.10886438 0.24735041
000150 9f 71 49 3e ae b7 9e be f6 e4 f3 3c a8 4f 16 3e
       0.1967225 -0.3099951 0.029772263 0.14678824
000160 ff 43 07 3b c5 bc 80 be 3c 32 1d be 9b f1 68 bd
       0.0020639894 -0.2514402 -0.15351194 -0.056871038
000170 4b c8 21 3e c2 ac 3b 3e c7 dd f7 bd 3b 6c 95 bb
       0.15799062 0.1832762 -0.121028475 -0.004560021
000180 31 1c 86 bc b5 09 e8 3d d4 13 ab bc af ef 0d 3e
       -0.016370865 0.113299765 -0.020883478 0.13860963
000190 ee eb 3f 3d b7 ac 6f 3d 5d 50 29 be 0e 90 12 3e
       0.04685586 0.058514323 -0.16534562 0.14312765
0001a0 22 d2 b9 3c 06 bb b7 3d 59 24 bd bb 63 f5 ae be
       0.022683207 0.08971219 -0.0057721552 -0.3417159
0001b0 9b 4a 86 be fc dd 91 3d 49 0c 0e be f6 78 12 bf
       -0.26228794 0.07122418 -0.13871874 -0.5721582
0001c0 14 9e c8 bf bb bb 82 bf 7d a6 d6 be c5 0c 8e bc
       -1.5673242 -1.0213541 -0.41923895 -0.017340073
0001d0 af 9b 9a 3d cb c1 08 bf 70 d8 e2 be ab ca d9 3d
       0.075492255 -0.53420705 -0.44305754 0.10634359
0001e0 90 94 b7 3d d2 6c 03 3d 99 65 9e bd 75 dd 92 3c
       0.08963883 0.0320862 -0.07734222 0.017927865
0001f0 b8 9e 1c 3e 46 8c 78 bd 2f c2 71 3e 8c 68 f4 bd
       0.15294921 -0.06068065 0.23609231 -0.11934003
000200 11 fc d6 bd be b4 54 bd b7 b5 4a be b4 ef 1f 3e
       -0.104972966 -0.05193018 -0.19795881 0.15618783
000210 f4 ca 9e be ac 92 c8 3d 7f df 4e bc 29 e1 33 bd
       -0.31014216 0.097936004 -0.012626528 -0.0439159
000220 89 b5 69 3e ce f9 eb be e6 06 55 3e 8c c4 15 3e
       0.22823156 -0.46089023 0.20803413 0.14625758
000230 f3 14 1d 3e d1 61 0a be e9 16 07 3e 2c 2b 46 bd
       0.15340023 -0.13513876 0.13192333 -0.048381016
000240 d6 bc 27 be 5b 45 1e 3e 12 45 0c 3e 89 21 c7 bc
       -0.16380629 0.15456145 0.13698223 -0.024307983
000250 72 1e 2e be de 15 d7 3d 5f c3 01 be a5 ac a2 bd
       -0.17003801 0.10502218 -0.12672184 -0.079430856
000260 29 56 fb 3d fe 0a 85 bc b0 e2 e0 bd c5 d5 49 bd
       0.12272293 -0.016240593 -0.10980737 -0.049276132
000270 5e 9a f8 bd 3a af 84 3e 20 94 09 3e cf 63 ac bd
       -0.12138818 0.25914937 0.13435411 -0.084174745
000280 0d e8 0e 3e 35 8f 96 3e 9d 13 05 be b1 b0 41 3c
       0.13955708 0.29406133 -0.12995763 0.011821912
000290 34 41 3e 3e a2 20 46 be ed 3a fd 3d 9e 10 68 3e
       0.1857956 -0.19348386 0.12364755 0.22662589
0002a0 53 9f 0b bd e4 cf 11 3e 97 50 47 3e b4 62 21 be
       -0.03408749 0.1423946 0.19464336 -0.15760309
0002b0 99 ea 73 be 52 cf 33 be 74 cb 27 be 51 72 23 3d
       -0.2381996 -0.17559555 -0.16386205 0.039903942
0002c0 c7 15 64 bb e9 fd 6f bd 48 cf 3f 3e 7a 7d ef 3d
       -0.003480302 -0.058591757 0.18731415 0.11693855
0002d0 b0 cf 04 be 03 54 29 3e c1 dd 57 be 37 f5 1e bd
       -0.12969851 0.16535954 -0.21080686 -0.038808074
0002e0 18 05 18 be 16 bd 37 be b3 73 19 3e 8f 2c 44 bd
       -0.14845693 -0.17943224 0.14985542 -0.047894057
0002f0 97 bf 04 3d e6 de 4b be 5a d6 00 3e 39 5d 0e be
       0.032409277 -0.19909248 0.12581769 -0.13902749
000300 82 6f a8 bc 73 3b 4d be 99 87 33 be dd 4b 0b 3e
       -0.020560984 -0.2004221 -0.17532195 0.13603158
000310 95 40 d9 bd 15 4c d0 bd af d0 d1 3d 65 29 52 3d
       -0.10608021 -0.101707615 0.10244881 0.05130901
000320 11 5a 04 be 6a 86 f3 bd e6 72 65 3d 2d 03 88 3d
       -0.12924983 -0.11890872 0.05601778 0.06641231
000330 20 d0 fe 3d 65 42 97 3d 16 96 e4 3d 2b 9d 36 be
       0.124420404 0.073857106 0.11161439 -0.17833392
000340 0b 6b 7b 3e 10 1a 3b be 34 5c 88 bd 75 00 3f be
       0.24552552 -0.18271661 -0.06658211 -0.18652518
000350 1e e3 5d be fd c1 3c be e5 5f 22 3d 16 55 bf 3d
       -0.2166867 -0.18433376 0.039642233 0.09342401
000360 5d 7a a6 3e eb 42 a6 bd c6 e2 2e be ad 06 ca bb
       0.3251523 -0.08118232 -0.17078695 -0.0061653466
000370 84 45 45 3e 3f 14 58 3e c4 22 95 3c 96 4f c3 bd
       0.192648 0.21101473 0.018205054 -0.09536664
000380 c2 cc 84 3b 98 49 21 3d ce e9 32 3e a6 8f 90 bd
       0.0040527293 0.039376825 0.17472002 -0.07058649
000390 9c c5 5e bd b7 2a 4f 3e d0 26 88 bc 47 af 99 3e
       -0.054387674 0.20231138 -0.01662007 0.30016539
0003a0 c9 d0 c7 3e e5 6f 8e be 5e 78 fe bd b8 fe a1 3e
       0.39026478 -0.27819744 -0.12425302 0.31639647
0003b0 94 df 02 3d 47 fc 57 3a 31 db 23 be 0b f3 68 be
       0.031951502 0.00082391914 -0.16001584 -0.22748964
0003c0 cb ef 98 3d 58 c4 82 3e 44 93 85 be e7 30 eb 3d
       0.07467612 0.25540423 -0.26088917 0.11483937
0003d0 6c cb 54 be 4a 11 13 be 2a 72 65 3d d6 d6 7c bd
       -0.20780724 -0.14362064 0.05601708 -0.06172832
0003e0 b8 92 8d be aa 32 d9 bd a4 5d 4c 3d 00 81 0c 3e
       -0.27651 -0.106053665 0.04989399 0.13721085
0003f0 c3 6b 5d bd 03 8f 91 bd ad 10 23 be 82 5d 40 3c
       -0.054057848 -0.071073554 -0.1592433 0.011741044

sequences.0.bias f4 [64]
000000 c6 5a 28 3c 2e 96 03 3e f7 44 4f 3e 00 ca 5b 3d
       0.010275548 0.12850258 0.20241152 0.05365944
000010 82 93 f8 3c 25 5a 80 3d 80 b4 a8 bd 22 91 bb 3e
       0.030343775 0.06267194 -0.08237553 0.36634165
000020 40 2d 1f 3e aa f9 5a 3c 0f 27 84 bd ae 84 ba 3d
       0.15544605 0.013365189 -0.06452762 0.09107338
000030 5f f8 26 3d c6 17 12 3e ae 5f c1 bd ea 87 4a bb
       0.04076421 0.14266881 -0.094420776 -0.0030903765
000040 f8 11 b7 3e 06 c2 ca 3e 1c f3 38 3d 50 20 ae 3d
       0.35755897 0.39601153 0.045153722 0.08502257
000050 e0 53 a9 3a c5 53 3a 3e d3 b5 9b be 8a 68 bc be
       0.0012918673 0.18196018 -0.30412158 -0.36798507
000060 d5 66 75 3e f7 a8 76 bd 62 0b c5 be fc 1d 4e 3e
       0.23965009 -0.06021973 -0.38485247 0.20128626
000070 a9 27 7f be 3a e8 d3 bd 62 45 b1 3c f8 6b 76 be
       -0.24917473 -0.10347028 0.02163953 -0.24064624
000080 7f 49 0a bd 55 ee 26 3e e9 b7 ca 3d a2 94 2a 3d
       -0.033761498 0.16301854 0.09898359 0.041645654
000090 e2 22 53 3e e2 9d 8a bd ba 2b 77 bb af 3b 5a 3e
       0.20618775 -0.06768395 -0.0037715272 0.2131183
0000a0 e7 67 8e be fc ff 03 be 50 50 6e be a3 61 c2 bd
       -0.27813646 -0.12890619 -0.23272824 -0.09491279
0000b0 e9 15 83 be e0 59 fd 3c cc 81 f2 bd d5 9d 80 3e
       -0.25602654 0.030926645 -0.11841163 0.25120416
0000c0 43 f4 c6 be 1e 16 79 3e 30 c3 b7 be 38 fb a1 3e
       -0.38858232 0.24324843 -0.35891104 0.31636977
0000d0 bc c3 37 3d 7a 91 3b 3e 98 22 2f 3b 72 8b 32 3e
       0.0448644 0.18317214 0.00267235 0.17436007
0000e0 47 50 81 bd 96 f9 b3 be ad 5a fc bd c7 40 57 bd
       -0.0631414 -0.35151356 -0.123219825 -0.05255201
0000f0 ee 0b 6d be 83 53 ac 3d c3 d2 38 3e 1e ca 43 3d
       -0.23149082 0.08414366 0.18049149 0.047800176

sequences.2.weight f4 [32, 64, 3, 3]
000000 46 88 d9 bd fd 8c 8c 3e 66 43 de 3a a6 87 e6 3c
       -0.10621695 0.27451316 0.0016957342 0.028140854
000010 21 7d 41 be 45 4a 74 3d 84 24 e3 3c bd 4f d4 bd
       -0.18895389 0.05964114 0.027727373 -0.10366771
000020 a4 75 e1 bd af 76 be 3d 00 93 b9 bd 90 4b c0 bc
       -0.11008766 0.09299981 -0.09061241 -0.023473531
000030 26 c3 90 bc 7e d5 86 bc c5 c5 9c 3d e2 80 47 3d
       -0.017671179 -0.016459223 0.07654909 0.048706897
000040 ed 0d 77 bb 53 6a d6 3b a3 0d 23 bd 21 cf 7c 3b
       -0.003769751 0.0065434366 -0.039807927 0.0038575607
000050 27 98 a7 bc d1 35 67 3d 51 a8 6c 3c 63 21 b8 bc
       -0.020458294 0.056447808 0.014444427 -0.022476858
000060 94 50 83 bb 0f 51 a7 bc 50 72 ea 3b 9b 7c d7 bc
       -0.0040074084 -0.020424394 0.0071547404 -0.026304534
000070 de 15 48 bd 89 a6 f7 bc af 7b b3 bb 6e a7 9d bc
       -0.04884898 -0.030230777 -0.0054773907 -0.019244876
000080 d3 a6 e2 bc c3 6c 20 bd c9 e8 72 bc 30 ba 16 3d
       -0.027667439 -0.039166223 -0.014826008 0.036798656
000090 cb 83 11 3b 3a 6a ed bc 44 26 94 3c c6 27 94 bc
       0.00222038 -0.028981317 0.018084653 -0.018085372
0000a0 1a 49 a6 bd 7e b8 bc 3b b6 71 48 ba 3b 92 bf bc
       -0.08119412 0.005759298 -0.0007646339 -0.023385158
0000b0 72 5d 93 3a ac dd 85 bc ec 5d 4f 3e b4 e1 b1 bd
       0.0011243059 -0.016341053 0.20250672 -0.086856276
0000c0 73 90 7d 3d 37 9e 44 be 41 26 0c 3e db 67 29 3d
       0.061905336 -0.19200979 0.13686468 0.04135881
0000d0 1a a7 ba bd 83 42 cc bc 1c 7e d3 3b f7 a5 b0 3d
       -0.09113903 -0.024934059 0.0064542424 0.08625405
0000e0 52 2b 92 bd 4d b2 87 bd 5c bb e7 bd b2 1c 99 3b
       -0.07137169 -0.06625805 -0.11315033 0.00467261
0000f0 dc 02 4c 3d 00 6e f3 ba fd cf 37 3d 70 cb c8 3c
       0.049807414 -0.0018572211 0.044876087 0.024511069
000100 a6 09 cf 3a f3 06 c3 bd fe 39 f1 3c 2e a3 27 bd
       0.0015795722 -0.0952281 0.029446598 -0.040927105
000110 4b d9 42 bc 9c f7 3f 3b ee 20 0f be cc ff a0 3c
       -0.011892627 0.0029291874 -0.13977405 0.019653223
000120 22 90 5c 3c 60 97 72 3b d9 14 6b 3e 61 02 42 be
       0.013462098 0.0037016496 0.22957171 -0.1894622
000130 0c 40 cb bc a0 11 51 bd 55 7c f5 3d 10 dc b5 bc
       -0.024810813 -0.0510422 0.11986605 -0.02219966
000140 36 09 ba 3d 5f 6f e4 3c 1f fc 5f bc b1 46 a1 3d
       0.09083788 0.027885137 -0.01367095 0.078748114
000150 24 42 d8 3d 7b a8 ca ba 72 22 e5 bc 74 06 d7 bd
       0.1055949 -0.0015461588 -0.027970526 -0.10499278
000160 05 f8 ee 3b e2 eb 54 bd 2d 58 a6 bd 73 d3 85 bd
       0.00729275 -0.051982768 -0.08122287 -0.06534471
000170 71 a6 bb 3c 76 d1 80 3c af 1e a3 3d f6 a9 36 3c
       0.022906514 0.015724879 0.07964837 0.01114892
000180 c3 15 5d bc b5 92 e6 3c 4b da 2b bc fe a3 b3 3c
       -0.013493958 0.028146127 -0.010489057 0.021928784
000190 7f b8 11 bd f0 94 05 3d ab e7 59 3e 40 ed 22 3d
       -0.03557634 0.03261274 0.2127978 0.03977704
0001a0 5f fa 27 bc d2 77 4a 3e a9 af f1 3b c4 59 d1 bc
       -0.010252564 0.1977227 0.0073756767 -0.025555499
0001b0 1a 4b 1c bc 8a d9 f4 bd 2f 3c 22 3c af 7d 25 3c
       -0.00953939 -0.11955555 0.009902044 0.010100766
0001c0 45 e1 7e 3d 4a 5b 37 bd 05 e5 08 3d 8e a2 65 3d
       0.062226553 -0.044764794 0.033421535 0.056063227
0001d0 30 62 00 3c d8 26 19 3d 7f 9b 82 bc 0f 62 b3 3c
       0.00783591 0.03739056 -0.015943287 0.021897344
0001e0 9c 13 85 bd c1 2b f0 3c 24 fc 80 bd 4f 51 93 3c
       -0.06497881 0.029317738 -0.06298092 0.017983107
0001f0 52 10 c0 bc 1a d2 ad bd 61 78 13 be d6 8b 91 3d
       -0.023445282 -0.08487339 -0.1440139 0.0710675
000200 e2 c8 37 bd e5 02 83 bc 15 96 16 3e 1b aa b2 bd
       -0.04486931 -0.015992591 0.14705689 -0.08723851
000210 5f 74 9b bc de 31 59 3d 1d 10 c5 3a 60 97 89 3e
       -0.018976388 0.053026073 0.0015034709 0.26873302
000220 7e 7e 58 be 9d 95 e5 3c ac fe c7 bd d7 56 2d 3e
       -0.21142003 0.028025443 -0.09765372 0.16927658
000230 65 04 cd 3c 2a 1f 21 3c c4 89 14 3d 66 dd b1 b9
       0.02502651 0.00983409 0.036264196 -0.00033925025
000240 b5 6e 0e 3d 05 28 03 3c 24 cb 8c bc 91 71 94 bb
       0.034773547 0.008005147 -0.017186709 -0.0045301397
000250 87 86 ae bd 2c c1 7f 3b 4e e1 48 3c 9b 8d 42 bd
       -0.08521753 0.0039025052 0.012260748 -0.047498327
000260 b3 6f ff 3c 14 e1 93 bd 3f 72 9c 3c 7c 95 91 bd
       0.031181192 -0.072206646 0.019097446 -0.0710859
000270 5f 60 e3 bd a2 4e 32 be 2b 84 96 b9 76 c7 47 bd
       -0.11102366 -0.17412809 -0.00028708702 -0.048774205
000280 f4 29 1b 3c 14 75 ce 3c 2e e3 a2 3d e7 4c b8 bd
       0.009470452 0.025202312 0.07953487 -0.08999043
000290 b1 4b 87 3d 12 da 54 be 0f d8 d9 bd 88 1c d7 3d
       0.06606234 -0.20786312 -0.10636913 0.10503489
0002a0 9a 5c d6 bd f5 ff df bb b6 8d 18 bd 7d 29 b1 3d
       -0.10466881 -0.0068359324 -0.03724452 0.086504914
0002b0 d5 2e 8b 3d 30 84 c0 3d 83 99 8b bd 5f cb 9e bd
       0.06796042 0.09400213 -0.068163894 -0.07753634
0002c0 40 06 b7 3d 88 7b d1 3c 94 f2 a4 bc b1 83 cb bd
       0.08936739 0.0255716 -0.020135202 -0.099372275
0002d0 1b 80 2e bd f8 08 40 be 22 a2 ea 3c cd 87 ec bc
       -0.04260264 -0.18753421 0.028641764 -0.028873349
0002e0 a9 ae 0e 3e 51 a6 fd bd d8 9c 85 3d 64 2e 24 3d
       0.13933815 -0.12385238 0.06524056 0.040083304
0002f0 50 19 6d bc d8 e1 d2 3c f5 a9 9d 3d 3a 9b 78 3d
       -0.014471367 0.025742456 0.07698432 0.06069491
000300 a3 17 40 3e a1 8c 56 be 7e 89 bb 3d 4f 2a 96 3d
       0.18759017 -0.20952083 0.09157084 0.073322885
000310 39 b0 cd bd 47 ff a4 bc be 5a 4d bb f1 bc 1b 3d
       -0.100433774 -0.020141257 -0.0031334604 0.038021985
000320 0e 2c 57 bc 21 35 fb bc cf 03 6b 3c 7c e1 43 3c
       -0.013133062 -0.030664982 0.01434417 0.011955615
000330 91 5d 3d bc 45 c2 63 3c 80 01 17 bc 08 a8 23 bc
       -0.0115579525 0.013901298 -0.009216666 -0.009988792
000340 1c c9 76 bb 63 43 ca bc 65 cf a3 3d e7 0a 0f 3d
       -0.0037656492 -0.024690336 0.07998542 0.034922507
000350 2c 23 6b bd 4b 49 4e 3c 18 34 02 3c 03 f5 f2 3b
       -0.05740659 0.012590717 0.00794699 0.0074144616
000360 ea c9 1b bb 1c ae f7 bc ef ee 1e bd af 4a 69 bd
       -0.0023771473 -0.030234389 -0.038802084 -0.05695599
000370 38 c9 0b bc fa 29 85 3b ff a5 69 bd 5a 29 21 3d
       -0.008531861 0.004063842 -0.05704307 0.039346077
000380 15 6e 88 bd 3f 0d 07 3e e4 89 b8 bd ff 32 ac 3b
       -0.066616215 0.13188647 -0.090106755 0.0052551026
000390 90 8c 48 be 5a 58 b2 3e 49 ec 69 be 6b a7 c9 bd
       -0.1958487 0.34833032 -0.22844042 -0.098463856
0003a0 ff 06 28 3e 4a ba 1e be db ce 43 bc ff 7a 8a 3d
       0.16408919 -0.15500751 -0.011951174 0.06761741
0003b0 a3 f1 39 bc c3 f6 e8 3d f8 ea c4 3d 60 bb 81 3d
       -0.011349115 0.11375191 0.09615129 0.06334567
0003c0 69 53 0f bc 5d 45 9b 3d 31 40 32 3b ca 56 d0 3c
       -0.008747914 0.07581589 0.0027198906 0.02543201
0003d0 ce a8 9d bd 39 02 7b 3d 51 2a 1e 3e 39 c0 c6 be
       -0.076982126 0.061281417 0.1544583 -0.3881853
0003e0 3a 33 3b 3e 9b 7f f3 3d 55 8e ef bd 76 25 8e 3d
       0.1828126 0.11889573 -0.116970696 0.06940739
0003f0 a4 1b b6 3c 14 41 9b 3c 09 80 3e bd 9c 30 33 bd
       0.022229977 0.01895193 -0.046508823 -0.04374753

sequences.2.bias f4 [32]
000000 cb 46 d6 bd 03 7e 68 3d f1 b3 9a 3d f9 dd bc bd
       -0.104627214 0.0567608 0.07553852 -0.092220254
000010 47 b6 bf bd 3a 60 a9 3b a6 b7 d9 3d ec 67 dd bc
       -0.093609385 0.005168942 0.10630731 -0.027027093
000020 f7 64 43 3e b8 53 bb bb 93 c7 59 3e 40 ef e9 3d
       0.19081484 -0.005716767 0.21267538 0.114225864
000030 ea b4 42 be 86 1e 40 bc e6 cc ae bd 9f 32 d8 3d
       -0.19014326 -0.011726027 -0.08535175 0.1055653
000040 55 85 ec 3d eb 51 b5 bc 77 30 2a 3e 28 96 9b 3d
       0.115488686 -0.022133788 0.1662005 0.075969994
000050 2d 20 c7 bd 38 92 10 3e 9a ea 16 3d 0d 02 0c be
       -0.09722934 0.14118278 0.036844827 -0.13672657
000060 26 28 0a 3d 98 c9 88 bd 6e fa cf bb 83 64 6d 3d
       0.033729695 -0.06679076 -0.006346992 0.057957184
000070 9e 99 5e 3d 0f a4 00 bd 76 8a 09 3e 19 0e 00 3e
       0.05434572 -0.03140646 0.13431725 0.12505378

sequences.4.weight f4 [9, 32, 3, 3]
000000 c4 c0 2a be e9 7e 89 3e 8a 23 5f be 63 08 67 3d
       -0.16675097 0.26854637 -0.21790901 0.056404483
000010 78 5e 52 3e e7 a8 a4 bc e2 38 00 bd f4 a0 ac 3a
       0.2054385 -0.02010007 -0.031304248 0.0013170526
000020 b6 a9 a1 3d ae 2b 62 3d 78 c6 4e bd 77 28 72 3c
       0.07893698 0.055217437 -0.050482243 0.014780155
000030 dd ac aa 3e 86 bf ea bd 9b 38 7e 3c 01 7b c0 bd
       0.3333501 -0.114623114 0.0155164255 -0.09398461
000040 6e 51 a1 bc d9 4f af 3b 36 0a 07 be 29 3b f7 bc
       -0.019692149 0.0053500948 -0.13187489 -0.030179577
000050 85 37 45 3c e6 1a c1 3e d0 c5 a9 be d2 86 9d 3d
       0.012037163 0.37715834 -0.3315873 0.076917306
000060 8f 43 0b 3e bb 1d 31 bc 50 e6 ef 3c 4a 49 78 bd
       0.1359999 -0.010810311 0.029284626 -0.06061677
000070 00 4d c5 bd 82 2d de 3d 0d 5f 44 be 9c cb 70 be
       -0.09633827 0.10848524 -0.19176884 -0.23515171
000080 42 7e b1 3d cf 09 7b bd 91 e4 f1 bd 1b 88 46 bb
       0.0866666 -0.06128865 -0.11811174 -0.0030293528
000090 4c ce a6 3c 6a 6e 9f bc de 8d 85 3b 04 a4 22 bf
       0.020362042 -0.01946183 0.00407575 -0.6353152
0000a0 26 a9 34 3a 6f 7e 27 bc 81 15 ca 3d 92 ab 7c 3d
       0.000689166 -0.010223015 0.09867383 0.06168706
0000b0 c6 8a dd bc 6f 50 3a bc 13 9b 77 be 74 c7 fe bc
       -0.027043711 -0.011371716 -0.2418025 -0.031100966
0000c0 b5 d7 00 be f0 17 78 be e5 02 03 bd 94 1b 6c 3d
       -0.12582286 -0.24227881 -0.031985182 0.057643488
0000d0 5b e9 ae 3d 3c 88 33 3d 4c 3e b7 bc ef 46 1a bd
       0.08540603 0.043831095 -0.022368573 -0.037665304
0000e0 22 19 19 3d 6b 5a 00 3d 11 e5 3b be de 2b 52 3d
       0.037377484 0.03133623 -0.183491 0.051311366
0000f0 17 6d 22 bc f7 4a 56 3c 41 1c ed 3c 88 53 04 3c
       -0.009913704 0.013079396 0.028944137 0.008076556
000100 19 60 5c 3d d8 3a cd bc 10 d9 d0 bd 74 2e 06 3e
       0.053802583 -0.025052473 -0.101976514 0.13103658
000110 25 b5 cf bd 83 56 01 3c 28 f9 52 3a 08 f9 e4 3b
       -0.101419725 0.007894161 0.00080479914 0.0069876947
000120 34 bd a7 bd 6d 38 41 be 7c 46 ff 3c 24 2e 14 be
       -0.081903845 -0.18869181 0.03116154 -0.14470726
000130 66 0b 7a be 66 df 36 bc 97 d8 29 3d d4 b4 6d bb
       -0.2441841 -0.011161661 0.04146632 -0.0036271112
000140 79 7d 0c 3c 0e 46 19 be 75 30 22 3e 93 7f 2f bc
       0.008574837 -0.1496813 0.15838797 -0.010711568
000150 ca de 2a 3e 17 67 55 bc 3b 3a d5 3c 58 30 81 bd
       0.1668655 -0.013025067 0.026028743 -0.06308049
000160 37 df 44 b9 86 1e 8a 3c f3 c5 81 be cb 1d 86 be
       -0.0001877517 0.016860258 -0.25346336 -0.26194605
000170 1d 3b 7a 3d 7f 1f a5 be fb 12 c1 be 01 d7 3f bd
       0.06109153 -0.32250592 -0.37709793 -0.046835903
000180 26 b4 50 3c e0 97 c9 bc 13 8f 91 3d ee 3e 7c 3d
       0.012738263 -0.024608552 0.07107367 0.061583452
000190 4b 03 e7 3d ec 90 69 3d 2c 23 f6 3d 85 09 c4 bc
       0.11279925 0.057022974 0.12018427 -0.02393032
0001a0 79 71 af b9 98 2e a4 bd 88 7c 5e bd c1 40 bc bc
       -0.00033463145 -0.080166996 -0.05431798 -0.022980096
0001b0 7c 96 86 bd ff 56 86 3e 90 53 02 be e3 9a ce 3d
       -0.06571671 0.26238248 -0.12727189 0.10088136
0001c0 1e 3a 72 3e 74 25 f5 bd 86 89 65 bd 3f b3 ad 3c
       0.23654982 -0.11970034 -0.056039356 0.021203635
0001d0 af 84 3b bd a1 10 65 3c 40 02 fa 3b cb 35 7c bc
       -0.045780834 0.013981015 0.0076296628 -0.015393685
0001e0 b7 10 a1 3d 3b 2d 23 bd 27 8a 35 bc e8 23 6e 3b
       0.07864516 -0.039838057 -0.011080301 0.003633732
0001f0 1d 6b a1 3b 77 6e 49 3c de 65 bf bc 67 51 c5 3d
       0.004926099 0.012294403 -0.023364004 0.09634667
000200 3f 9f 1f bb 0a a0 e7 bb 62 b3 46 be 77 ad ec 3c
       -0.0024356393 -0.0070686387 -0.19404367 0.028891308
000210 01 16 2e 3d be e8 1f 3e 70 7c 49 3d 49 a0 5e 3c
       0.042501453 0.15616128 0.04919094 0.01358802
000220 22 80 53 3e f1 0f f0 bc 83 a7 89 bd e8 91 4c be
       0.20654348 -0.029304476 -0.067214034 -0.19977534
000230 4d 07 10 3e 41 c6 9c bb f9 b9 f2 3d ec 47 5e bd
       0.14065285 -0.004784376 0.11851878 -0.05426781
000240 7b a1 3b bd f7 8e 12 bd f9 24 a5 bc c9 65 31 be
       -0.045808297 -0.035780873 -0.020159231 -0.17323984
000250 33 63 90 be 7a 63 f6 3b cd 59 4b bd 20 91 1d bd
       -0.28200683 0.0075191827 -0.049646188 -0.03846848
000260 ab e1 a5 ba 07 b3 2e be f2 4b 14 3d 09 8f 03 bd
       -0.0012655755 -0.17060481 0.03620524 -0.03211883
000270 da d6 4e bd 3f 33 a5 3e 0c 49 2b be 25 ba fb bc
       -0.050497867 0.3226566 -0.16727084 -0.030728409
000280 dc f4 66 bc 89 29 10 bd 9a 19 50 bd 27 93 4a bd
       -0.014096465 -0.03519586 -0.050805666 -0.04945674
000290 fc 43 9a bc 78 b4 76 be 74 fb 3e be b7 4f 38 bd
       -0.018831246 -0.24092281 -0.18650609 -0.044997897
0002a0 b3 05 35 bd d6 b7 6e bd 06 f0 22 3b 7b b3 52 be
       -0.04419489 -0.05828079 0.0024862303 -0.20576279
0002b0 9e 27 98 3e fd 2e e9 bd 5b 26 40 be 63 06 35 3d
       0.29717726 -0.113859154 -0.18764631 0.044195544
0002c0 0c 9b 0c 3e 13 bd bd bc 41 bb 89 3d 8f d3 1e bd
       0.1373102 -0.023161447 0.06725169 -0.038775977
0002d0 5a 5f 92 3d dd a3 0c be e4 c7 f1 3d 5c 56 52 bd
       0.07147093 -0.13734384 0.11805704 -0.05135189
0002e0 6f 4b 01 bd a8 ef 8d bc a3 f5 20 3c 59 6b 7b 3d
       -0.03156608 -0.017326191 0.009824189 0.06138167
0002f0 cb ed ab bb 8c 45 0d be 03 92 83 bd 4a b0 07 bd
       -0.005246853 -0.13796061 -0.06424334 -0.033127107
000300 d3 fe f3 bd 16 7d aa be 85 1f c3 bd 1c 75 21 be
       -0.11913838 -0.33298558 -0.09527496 -0.1576733
000310 71 a1 8a bd 60 2b 34 bc 91 fd df 3d 52 77 db 3d
       -0.06769074 -0.0109966695 0.10937036 0.10716118
000320 9b 57 38 bc 2b 93 cc bd 20 11 2e be d7 3e 1e 3d
       -0.0112513555 -0.099890076 -0.1699872 0.038634147
000330 91 9a 51 3d 7e c2 c1 3d ab d5 fa bb bb 82 1c 3d
       0.051172797 0.094609246 -0.0076548657 0.03821061
000340 1c 27 68 bd 8c 6b ea 3c d4 c2 87 3d fb 34 1c 3d
       -0.056677923 0.028615735 0.066289574 0.038136464
000350 fe bf 18 3d 2c e3 c2 bd be 50 40 bd 8c 2f 7a bd
       0.037292473 -0.09515986 -0.046952 -0.0610805
000360 f2 c7 fd 3d 82 de 98 3d 0c 28 ca bd fa a4 a7 3d
       0.12391652 0.07464315 -0.098709196 0.08185764
000370 62 83 42 3e 64 63 f8 bd b5 10 3c bc cb 7d 4f bc
       0.18995431 -0.12128332 -0.011478593 -0.012664269
000380 bf 76 d7 3b 42 aa 93 3e 89 4f 07 3e 13 a8 2b 3c
       0.006575435 0.28840834 0.13213934 0.010477084
000390 11 c6 26 bd c9 da da bd aa ce a8 3c 3a e9 1c 3c
       -0.040716235 -0.10686261 0.020606358 0.00957709
0003a0 0f da f2 bc 82 a0 57 38 e4 4f 2b be ac 27 5b be
       -0.029644994 5.140948e-05 -0.16729695 -0.21401852
0003b0 5f 81 d7 bd 83 3b 46 be 83 e5 72 be 8a 97 11 be
       -0.105227225 -0.1935864 -0.23720364 -0.14217964
0003c0 55 c8 1f 3d 74 c7 3c bd 03 44 ca 3d 17 4c 0d 3e
       0.03900941 -0.04608865 0.098762535 0.13798557
0003d0 bf 4f 2a 3d 34 99 9f bd e6 5a 5a be da e7 08 3f
       0.041579958 -0.07792893 -0.21323738 0.5347878
0003e0 93 74 3e 3d d2 d7 96 bb 59 14 7a be 85 ad a5 bc
       0.046497893 -0.0046033645 -0.24421825 -0.020224342
0003f0 0c bc 43 bd 84 59 0b 3d 60 99 b7 3d f9 cd 2d be
       -0.047786757 0.034020916 0.08964801 -0.16973104

sequences.4.bias f4 [9]
000000 2c ef ef bd 45 be 0c be c5 88 f5 bd 52 d5 c4 bd
       -0.1171554 -0.13744457 -0.11988977 -0.09611
000010 9a 39 03 be b8 d0 a6 bd fc 97 99 bd d0 0e f0 bd
       -0.12814942 -0.08145279 -0.07499692 -0.11721575
000020 a2 75 80 bd
       -0.06272437
