saved_models/UPSCALE_X3/epoch_36.pth (torch, 93471 bytes, 6 tensors)

sequences.0.weight f4 [64, 1, 5, 5]
000000 ef 74 c4 3d b9 23 f9 3d 2b 30 b5 bc 10 06 20 3c
       0.09592616 0.12165017 -0.022117695 0.00976707
000010 d3 15 e9 bd 52 46 8a 3d cd 84 2d 3d 15 02 14 3e
       -0.11381116 0.06751694 0.042362977 0.14453919
000020 b6 ac 40 3e 52 e4 f7 bd 9e c6 ed 3d d0 c5 a2 be
       0.18815884 -0.121040955 0.11610149 -0.31791544
000030 43 fd fb be 9c 97 bd bd 15 ec a7 bc e3 70 61 3d
       -0.4921666 -0.09257433 -0.020498315 0.055039298
000040 2b bb ff 3c da 08 a5 3e 2f 2f 00 be 54 2e 3f be
       0.031217178 0.32233316 -0.12517999 -0.18670017
000050 31 2b 2e bb 47 0e 46 3d df 9d 27 3e a9 07 18 be
       -0.0026576037 0.04835346 0.16368817 -0.14846672
000060 b6 3a 2a 3e 6c 22 56 3d 0a 07 1d 3e da ec 31 be
       0.16623959 0.05227892 0.15334716 -0.17375508
000070 09 ff 27 3e 00 28 30 3e 53 b9 b2 bd fb d3 1e be
       0.16405882 0.17202759 -0.08726754 -0.15510552
000080 72 78 e1 bd 50 a1 02 bc bb c3 e6 bd cd af e3 bd
       -0.11009301 -0.00797303 -0.112678014 -0.11117516
000090 4f 79 e4 bd 8b 00 e4 bd 39 d1 e3 bc f5 06 aa 3d
       -0.1115595 -0.11132916 -0.027809726 0.08302108
0000a0 46 9b 33 3e ef a6 55 3e eb 8a 76 be a1 e1 d0 3d
       0.17539701 0.20864461 -0.2407643 0.10199285
0000b0 5a 30 30 bd 66 14 2d 3e 4b 4d 05 3c 77 a7 47 be
       -0.04301486 0.16902313 0.008136104 -0.19497477
0000c0 6e a2 cd 3d cc bd c1 bd be 8b 51 3d 72 a2 51 be
       0.10040747 -0.09460029 0.05115866 -0.20472124
0000d0 7c d1 5f bd d2 78 a4 bd c2 94 1d 3c ee 28 8e 3d
       -0.05464314 -0.08030857 0.009617986 0.069414005
0000e0 6d 40 25 bd e1 ed 75 be ad 2b 8f bc 39 f9 1b be
       -0.040344644 -0.24016525 -0.01747688 -0.1523179
0000f0 25 a7 a9 bd db ec 54 be 25 13 28 be c5 49 28 3d
       -0.082838334 -0.20793478 -0.16413553 0.041085977
000100 4c 50 3e 3d db d1 d9 3d 94 7b a5 be aa d4 07 be
       0.046463296 0.1063573 -0.32320845 -0.13264719
000110 44 88 ae bd 28 99 8f be 40 59 1d 3d 79 3d 6f 3d
       -0.08522084 -0.28046536 0.038415194 0.058408234
000120 f0 fc b6 bd 6a 83 a7 bd 0c 53 7f 3d e3 ed c3 3c
       -0.08934963 -0.08179362 0.06233506 0.023917144
000130 5c 85 3a 3d 97 00 37 3e 53 11 b1 3d 4b bd 2f bd
       0.045537338 0.17871319 0.086458825 -0.042905133
000140 b2 79 51 be 25 15 84 be 90 85 11 be a4 89 2c 3e
       -0.2045658 -0.25797382 -0.14211106 0.1684938
000150 4b a0 28 3e 46 d8 7f be 50 6b 34 3d ff 94 b4 3d
       0.16467397 -0.24984846 0.044047654 0.08817481
000160 a3 b7 dc 39 d8 fa 67 be e2 20 a0 bd 70 7d e9 bc
       0.0004209849 -0.22654283 -0.07818772 -0.028502196
000170 cf 6c ca 3d ca 4c 1d 3e 67 fe f1 bd 83 05 a6 3c
       0.09884035 0.15361324 -0.118161015 0.0202663
000180 ee 27 17 3c 4f f4 8a 3d 1a 3a e2 bc 9d ab 2e 3e
       0.009225829 0.067848794 -0.027615596 0.17057653
000190 81 06 a3 3c 9b 70 12 3d 42 4e 29 be 90 a5 d6 3d
       0.019900562 0.03575192 -0.16533759 0.10480797
0001a0 1b c3 76 bd 62 eb 70 3d 89 af 8a bd 14 b8 0f be
       -0.06024466 0.05881823 -0.06771762 -0.14035064
0001b0 8c f2 3f be 64 ab 82 bc 87 c4 2e bd a4 8a b4 be
       -0.18744868 -0.015950866 -0.04266789 -0.35262024
0001c0 af 3a 1b bf fb f7 cb be c9 4c 92 be ee 24 e9 bd
       -0.6063642 -0.39837632 -0.28574207 -0.11383997
0001d0 7a da 52 bd d4 7c 62 be d0 b3 9a be 40 89 07 bd
       -0.051477887 -0.2211793 -0.3021531 -0.033089876
0001e0 ee 4a 9c 3d 1f 23 aa bd 92 2c cf bd fb 1a 35 bd
       0.07631479 -0.0830748 -0.10115923 -0.044215184
0001f0 2f e3 e7 3d 4a 02 e4 bd ac db 56 3e 2f 11 f7 bd
       0.11322629 -0.11133249 0.20982236 -0.120638244
000200 71 b2 e9 bd b1 37 d9 bc 90 cb 55 be 7a 7d 04 3e
       -0.11410988 -0.026515814 -0.20878434 0.1293849
000210 4f ef 8f be 8d 16 cb 3d 5e ca b2 3c d7 6f 73 bd
       -0.28112265 0.099164106 0.021825012 -0.05943283
000220 45 aa 18 3e 7c 2c b8 be 1d 48 f9 3d 94 38 40 3e
       0.14908703 -0.3597144 0.12171958 0.18771583
000230 79 60 d3 3d 2c e3 2c be 31 be f2 3d 8d 00 2f bd
       0.10321135 -0.16883534 0.118526824 -0.042725135
000240 00 ff 27 be b9 94 25 3e 3b 6d 05 3e 28 9a d9 3c
       -0.16405869 0.16170014 0.1302995 0.026562765
000250 f2 31 27 be 24 aa 1e 3e 6a ca 1a be 4a fa c3 bd
       -0.16327646 0.15494591 -0.15116277 -0.09569223
000260 39 53 14 3e 78 5e 03 bd 9a 64 c2 bd c5 d9 5f bd
       0.14484872 -0.032072514 -0.094918445 -0.05465104
000270 75 7a db bd 5b df 42 3e 14 4a df 3d 73 ba 9a bd
       -0.10716716 0.19030516 0.10902801 -0.075550936
000280 68 4a 1a 3e 22 c1 7b 3e 1f 9c e8 bd 96 76 41 bb
       0.15067446 0.24585393 -0.11357903 -0.0029520146
000290 40 71 2c 3e 9c 42 40 be 38 29 e0 3d e1 e5 62 3e
       0.16840076 -0.1877541 0.10945362 0.22158004
0002a0 7b a8 97 bc 1a da 14 3e 41 16 5f 3e bc e9 21 be
       -0.018512955 0.14536324 0.21785833 -0.15811819
0002b0 2f d0 3d be 68 24 1f be 42 71 10 be c7 29 1b 3d
       -0.18536447 -0.15541232 -0.14105704 0.03788164
0002c0 41 dd 6b bb fe c8 80 bd c8 3e 40 3e 8a cf f0 3d
       -0.0035990032 -0.06288336 0.18773949 0.11758335
0002d0 83 35 04 be 41 39 29 3e 3e 39 56 be 03 f5 14 bd
       -0.12911038 0.16525747 -0.20920274 -0.036366474
0002e0 a3 12 16 be ba 99 34 be 25 b0 1b 3e 77 97 37 bd
       -0.14655547 -0.17636767 0.15203913 -0.044822183
0002f0 7b 88 20 3d d4 96 43 be a5 90 03 3e 26 3f 0b be
       0.039192658 -0.19100505 0.12848146 -0.13598308
000300 5f 8d 94 bc 6a f2 48 be 2e c0 32 be b5 48 08 3e
       -0.018133817 -0.19623724 -0.17456123 0.13308986
000310 fa 6d df bd fa 3b dd bd e9 cc ca 3d 43 90 50 3d
       -0.10909648 -0.10802455 0.09902365 0.05091883
000320 bd 87 0e be 61 44 00 be 4b d9 68 3d 0e 11 c1 3d
       -0.13918968 -0.12526084 0.05684785 0.09427081
000330 70 1e 01 3e 4d c6 9b 3d bc 54 ba 3d f6 8d 31 be
       0.12609267 0.07606182 0.09098193 -0.1733931
000340 e8 7c 7b 3e 1a a9 12 be a4 2e c1 bd 16 3b 43 be
       0.24559367 -0.1432232 -0.09432724 -0.19065508
000350 30 30 42 be 3b 65 23 be 47 83 10 3d a2 a6 4f 3d
       -0.18963695 -0.15956585 0.035281446 0.050696023
000360 d6 2b 91 3e 99 0d be bd c9 bb 32 be 7d e0 5e 3b
       0.28353757 -0.09279937 -0.17454447 0.0034008317
000370 97 69 24 3e df 7c 3a 3e d2 33 99 bb d0 66 d2 bd
       0.16055904 0.18211697 -0.004675367 -0.10273516
000380 02 26 57 3c 48 cd 68 bb 77 39 29 3e 24 24 e2 bd
       0.01313162 -0.0035522748 0.16525827 -0.110420495
000390 a7 ea 35 bd 88 24 66 3e 8f b6 43 bd a4 f1 53 3e
       -0.044413235 0.22474873 -0.047781523 0.20697647
0003a0 99 06 9e 3e 08 62 57 be ef 83 97 bd 49 59 82 3e
       0.3086441 -0.2103349 -0.07398211 0.25458744
0003b0 70 7c ff bc 37 53 ba bb c4 a5 9a bd a7 d6 0e be
       -0.031187266 -0.0056861895 -0.075511485 -0.13949071
0003c0 ae a4 4b 3d 8b 62 48 3e 7f b7 3b be 3d 6e 39 3e
       0.049717598 0.19568841 -0.18331717 0.18108459
0003d0 d9 b6 f2 bd 8a d6 2d be 65 d9 4a 3d 35 c4 1b bd
       -0.11851282 -0.16976371 0.04952373 -0.038028914
0003e0 9e 5c 51 be 97 a3 eb bd 5c ec 24 3d 2d a7 0a 3e
       -0.20445487 -0.11505812 0.040264472 0.13540335
0003f0 61 89 ce bd 3e 0f 76 bd 04 00 35 be 83 61 f0 3c
       -0.10084797 -0.06007313 -0.17675787 0.029343372

sequences.0.bias f4 [64]
000000 8d 92 1e 3d f5 ad 06 3e 57 bb 46 3e 56 bc 17 3d
       0.03871398 0.13152297 0.19407402 0.037044846
000010 4d 2b fc 3c a3 aa c0 3d bd 30 89 bd 4e 2c b7 3e
       0.030782366 0.09407546 -0.06698749 0.3577599
000020 e2 12 2a 3e 01 36 b6 3b 05 e1 74 bd 82 33 e3 3d
       0.16608766 0.005560637 -0.059784908 0.11093809
000030 04 84 ac 3d 14 03 2c 3e c7 68 cb bd c9 e5 21 bc
       0.084236175 0.16798049 -0.09932094 -0.009881445
000040 1f 9b b3 3e d2 b1 c6 3e d9 49 cd 3d 99 da d3 3d
       0.35079286 0.3880754 0.10023851 0.103444286
000050 74 b4 34 3b d1 c5 5d 3e 05 d9 9a be 3d 11 b7 be
       0.0027573379 0.21657492 -0.30243698 -0.3575534
000060 e3 a6 73 3e 7b f9 eb bd aa 9a c1 be 3f 27 6f 3e
       0.23794131 -0.11522194 -0.37813312 0.23354815
000070 40 29 74 be be bd f8 bd 22 b0 2d b8 9a 24 73 be
       -0.2384386 -0.121455655 -4.141045e-05 -0.23744431
000080 e3 d8 7c bd 87 aa 24 3e a4 83 e3 3d 22 28 8d 3d
       -0.061730277 0.16080676 0.11109093 0.0689242
000090 f0 04 5e 3e 38 d2 d6 bd 26 4b 01 3b 01 af 69 3e
       0.21681571 -0.10489315 0.001972863 0.22820665
0000a0 a8 6b 92 be 78 1a 04 be 48 1a 7c be 6c 96 ed bd
       -0.2859776 -0.12900722 -0.246194 -0.11600956
0000b0 e2 66 88 be 44 19 56 3d 75 2c 0f be 72 2a 8d 3e
       -0.26640993 0.05227019 -0.13981803 0.27571446
0000c0 5b 53 c3 be 6c 00 84 3e c5 e2 b4 be 53 f7 a2 3e
       -0.38149533 0.25781572 -0.3532926 0.31829318
0000d0 23 a8 ac 3d ed a2 51 3e b1 35 c9 3b be eb 4c 3e
       0.08430507 0.20472308 0.0061404337 0.20011804
0000e0 ab 72 a7 bd b6 5e b4 be 5c eb 16 be 74 b0 33 bd
       -0.08176168 -0.3522851 -0.1473822 -0.04386945
0000f0 bc 80 72 be 3b ae c5 3d 94 54 3c 3e a9 5f 93 3d
       -0.23681921 0.096523724 0.18391639 0.0719598

sequences.2.weight f4 [32, 64, 3, 3]
000000 b9 71 e4 3b 9f 5b 2a 3e 23 0a ef 3c e1 e3 fb bc
       0.0069715646 0.16636513 0.029179638 -0.03074831
000010 88 ac 1d be 66 38 8b bc dd af 77 3d ea 6e c1 bc
       -0.15397847 -0.016994666 0.06047045 -0.023612458
000020 be 85 09 bc a0 be 77 3d b0 70 83 bc 3a 20 58 3d
       -0.008393703 0.06048453 -0.016044945 0.05276511
000030 f4 13 94 3c 6c e4 46 bb cb 44 c9 3c 9b 1a 8a 3c
       0.01807592 -0.0030348552 0.024568936 0.01685839
000040 cf 58 6b 3d 36 9d 96 bc 8a 56 44 bd b7 1a 87 bb
       0.05745774 -0.01838551 -0.047934093 -0.0041230577
000050 2b 6e fb bc 3c d1 16 3d 5f 11 6e 3c 49 e0 cc bc
       -0.03069218 0.036820635 0.014530509 -0.025009291
000060 44 e1 c9 bc cf 13 ab bc 87 5b 24 3c b3 33 60 3d
       -0.024643548 -0.020883469 0.010031587 0.054736804
000070 a7 d9 32 bd 34 77 c9 bc 8c 15 33 3d ac ed a8 bc
       -0.0436646 -0.024592973 0.04372172 -0.020621143
000080 18 79 c8 bc 4d 8d 84 3c 1c c4 af bd 49 de 92 3b
       -0.024471804 0.016180659 -0.08582327 0.004482065
000090 62 6d 0d 3c b8 02 bd bc 56 ca 41 3b 59 18 c1 3c
       0.008632036 -0.023072585 0.0029570065 0.02357118
0000a0 4c 03 29 bd 31 a7 2d 3c 30 17 cc 3b e8 88 08 bb
       -0.04126291 0.010598944 0.00622835 -0.0020833556
0000b0 26 65 e8 3b 4a 0f 03 bc c6 68 2d 3e 58 71 d6 3c
       0.007092136 -0.007999251 0.16934499 0.026177093
0000c0 f7 35 de 3c 2b 76 85 bd 8b 49 9c 3d ae 5d 86 3d
       0.027125342 -0.065166794 0.07631215 0.06560837
0000d0 14 75 20 bd a9 3f 0d 3d 2f 29 55 bd 2b 5a 15 3d
       -0.039174154 0.03448454 -0.05204123 0.036462944
0000e0 4c d4 a2 bd 49 75 67 bd c8 db 08 be d0 05 35 3d
       -0.07950649 -0.056508336 -0.1336509 0.044194996
0000f0 c6 79 33 3d 68 83 8c bc 42 d1 4f 3c 4f 30 d3 3b
       0.043817304 -0.017152503 0.012684168 0.006444968
000100 d0 ee 01 3d d8 0b 71 bd 57 1b 5f 3a db e9 b0 3c
       0.03172189 -0.058849186 0.0008510849 0.021595886
000110 2b 99 54 bc 6f ab c0 3c 3f 01 0c be 33 d1 a1 3d
       -0.012975971 0.023519246 -0.1367235 0.0790123
000120 cc 51 7a bc 7e 6f d5 3c 90 ea 78 3e b1 6b 2b be
       -0.015278291 0.02605414 0.24308228 -0.167403
000130 e9 76 9e bd 24 23 81 bd df 6a 05 3e e8 3f 34 3c
       -0.07737524 -0.06305531 0.1302905 0.011001565
000140 4f c2 8e 3d 7a 4c 3d bc 0a 81 ba bc cf b6 95 3d
       0.06970655 -0.011553878 -0.022766609 0.073102586
000150 26 89 99 3c dc d0 39 bc c3 38 49 bc fe a1 8b bd
       0.018742155 -0.0113413 -0.012281599 -0.06818007
000160 64 8e 6c 3d 62 40 09 bc 1e 48 a6 bd bc f9 70 bd
       0.05775298 -0.008377166 -0.08119224 -0.058831915
000170 46 e1 0a 3d 5d b9 c8 3c 74 e2 cf 3d 99 eb 15 3d
       0.033906244 0.02450245 0.101506144 0.036601637
000180 4a 82 d4 bb a6 b2 03 3d 8c 84 7a 3c 04 3f dd 3b
       -0.006485258 0.032152794 0.015290391 0.006751897
000190 62 b5 f7 bc 0e d1 07 3d 49 26 59 3e 61 33 45 3d
       -0.030237857 0.033158354 0.21206011 0.048144702
0001a0 4d 34 82 bd 96 21 c7 3d e6 5a ed 38 ff df 6e bd
       -0.06357632 0.09723203 0.00011317972 -0.058319088
0001b0 e5 22 00 bd f0 12 d5 bd 9c af 81 bd fb e3 92 bc
       -0.031283278 -0.10404003 -0.06332323 -0.017930975
0001c0 7e b0 85 3d 6c ac 11 bb 31 be 57 bc 68 64 68 3c
       0.06527804 -0.0022228016 -0.013167904 0.014184095
0001d0 62 b5 5c bc d4 31 ca bc e6 09 03 3c 81 a0 0c bc
       -0.013470979 -0.024681963 0.007997965 -0.008583189
0001e0 c2 4b fe bc c4 0b 11 3c 67 f0 53 bd 14 07 9f bb
       -0.031041984 0.008852903 -0.051742937 -0.0048531387
0001f0 7c 04 1a bc 06 03 aa bc 85 53 db bc c7 8f 9d 3c
       -0.009400483 -0.020753395 -0.026773224 0.019233597
000200 70 0f d3 bc c2 98 80 bd 7e 28 0f 3d db f1 9c 3c
       -0.025764197 -0.06279136 0.034950726 0.019158294
000210 da ea a2 bc 5c 99 4d bc bc 2c fb 3c ea bf 3d 3e
       -0.019887377 -0.012548771 0.03066098 0.1853024
000220 ec 0d 9c bd a5 fb 46 3d 27 ff f2 bd 6f c1 3e 3d
       -0.07619843 0.04857983 -0.11865073 0.04657119
000230 f8 e0 7e bc 25 eb 94 3d a1 9b e1 3d 44 a5 60 3c
       -0.015556566 0.07271413 0.11016012 0.013711277
000240 53 73 a0 3c a0 97 81 3b 9e 50 95 bc 2d ed 02 bd
       0.01958624 0.0039548427 -0.018226918 -0.03196447
000250 6e 37 8c bd 98 6b c7 3c ce b5 3a 3d e6 8a ea bc
       -0.0684651 0.024343297 0.04558354 -0.028630685
000260 48 14 9d 3c f9 a2 b5 bd 2b 99 0b 3d b9 92 93 bd
       0.01917471 -0.08868975 0.03408162 -0.072057195
000270 9e b7 83 bd 57 fb 20 be df c1 fe bb ae 70 b8 bb
       -0.064315066 -0.15720879 -0.007774576 -0.005628667
000280 39 05 3f bc 8d 67 3f 3b 2b 43 28 3d 63 4b 1e bb
       -0.01165896 0.0029206008 0.04107968 -0.002415382
000290 81 af 8a 3d 07 18 d7 bd 21 64 8f bd 68 a9 0c 3e
       0.06771756 -0.1050263 -0.0700152 0.13736498
0002a0 26 d1 22 bd e8 a7 1c bd 83 25 94 3d e4 63 25 3d
       -0.03975024 -0.038246065 0.07233717 0.040378466
0002b0 3d 63 f1 3d 84 f1 99 3d f8 e3 9a 3b aa 62 34 bd
       0.11786506 0.075167686 0.004726883 -0.044039406
0002c0 de c5 96 3d a7 a1 a5 3c 33 db d7 bd 22 04 5f 3c
       0.07361959 0.020218683 -0.10539856 0.013611825
0002d0 55 f7 ef bd a7 8d 13 be 99 c7 45 3d d4 da 8d 3d
       -0.11717097 -0.14409505 0.048286054 0.06926504
0002e0 68 8a ac 3d 8b 56 a4 bd 0b 9c 8d bc 93 da 90 3c
       0.084248364 -0.08024319 -0.017286321 0.01768235
0002f0 0c 0e 9b 3c 01 65 81 3d 5e b7 af 3c 0e c4 32 3d
       0.018927597 0.06318093 0.021449741 0.043644004
000300 78 64 14 3e 16 6d 8b bd 76 db a0 3c b7 ae c4 3d
       0.14491451 -0.06807916 0.019635897 0.09603637
000310 6a ac e4 3b dd 02 04 bb 0c b5 ef bc c0 8e 20 3b
       0.006978561 -0.0020143308 -0.029261135 0.0024499148
000320 02 a3 0b bd cf c1 3d 3b 58 d7 67 3c eb ea cb 3c
       -0.034091003 0.002895463 0.014150463 0.024892291
000330 ae 9b 03 3d 74 b0 03 3d 16 bc 6f bc 27 62 ad 3c
       0.03213089 0.0321507 -0.0146322455 0.021164967
000340 8f e7 cd bc 24 b0 54 bc fd b1 99 3d ff bf 3f bb
       -0.02513483 -0.012981448 0.07504652 -0.0029258726
000350 a9 4a 5f bd 3c 7d 0f 3d cc 99 b0 3b 2d aa e1 3c
       -0.05451456 0.035031542 0.0053894278 0.027546966
000360 6f 5b 17 bc 3f 3d fe bc 09 52 4a bd b6 f6 86 bd
       -0.009238108 -0.031035064 -0.04939464 -0.06590025
000370 65 7e ce bb c6 f3 77 bc 33 77 4b bd 98 c2 40 3d
       -0.0063016885 -0.015133804 -0.049674224 0.04706058
000380 2e ec 13 bd 9b c1 ba 3d e9 fe 00 be 80 7f 98 bd
       -0.03611391 0.091189586 -0.1259724 -0.07446194
000390 8b a1 02 be fd 67 3f 3e 0c 4d 0f be ea 1f 35 be
       -0.12756936 0.18692012 -0.13994235 -0.17687955
0003a0 0e 27 f0 3d 6f 45 16 be f0 ed 4f bd 2d aa 20 bd
       0.11726199 -0.14674924 -0.050764024 -0.039224792
0003b0 8c 53 1a 3d 0e 25 98 3d 5d d9 bb 3d e7 df fc 3d
       0.037677333 0.074289426 0.09172318 0.123473935
0003c0 22 65 a5 bc 3b 8f 85 3d 39 61 ae 3d ba bc c6 3c
       -0.020189825 0.0652146 0.085146375 0.024259914
0003d0 15 72 80 bd a8 ee 7c 3d 7d 62 cb 3d f2 ae 9f be
       -0.062717594 0.061751038 0.099308945 -0.3118816
0003e0 b5 cd 0d 3e 52 97 1d 3e 46 db e6 bd 50 a2 90 3d
       0.13848002 0.15389755 -0.11272292 0.07062209
0003f0 ec d3 5c 3c 8b f1 91 3b fb b5 31 bd cf d9 2e bd
       0.0134782605 0.004453843 -0.04338644 -0.042688187

sequences.2.bias f4 [32]
000000 bb 57 a5 bd c8 7f be 3a 9a cb 93 3d 5c 7a 66 bd
       -0.08073374 0.0014533931 0.07216568 -0.056269035
000010 f7 26 e3 bd 17 6c 1c 3a a0 cb e0 3d f6 ad 2a ba
       -0.11091416 0.00059670344 0.109763384 -0.00065109076
000020 ce 6e 27 3e 70 ee 52 3b 39 5f e2 3d 60 5d dc 3d
       0.16350862 0.0032185577 0.110533185 0.10759997
000030 ff 6d 37 be 5b 71 95 bc 2d 0d c5 bd bc 7b d0 3d
       -0.17913054 -0.018242529 -0.09621654 0.101798505
000040 d9 dd 0b 3e b9 76 2d bc 44 79 29 3e 6d e3 7a 3d
       0.13658847 -0.010587388 0.16550165 0.061252046
000050 7f 8e bc bd 41 05 0d 3e dc 85 23 3d af 9e 13 be
       -0.092068665 0.13771535 0.03992258 -0.14416002
000060 71 6a 05 3d 7a 89 88 bd d5 17 9d 3d d7 ea 91 3d
       0.032572214 -0.066668466 0.07670561 0.0712487
000070 db c2 76 3d 5c f1 27 bd 84 e8 0a 3e 60 d6 04 3e
       0.060244422 -0.041001663 0.1356526 0.12972403

sequences.4.weight f4 [9, 32, 3, 3]
000000 eb 86 1f 3b 0e 96 e4 3d f0 b0 be bd 21 df 4d 3d
       0.0024341892 0.11161433 -0.09311092 0.05026162
000010 5d 4d 04 3e e4 19 7a bd b1 22 fa 3c 63 f7 6f bd
       0.12920137 -0.061059847 0.03053412 -0.058585536
000020 27 3a e9 3d 22 4b 79 3d ac 46 42 bd 12 46 4a 3c
       0.11388045 0.060862668 -0.04743068 0.012345808
000030 95 5c a3 3e cd 55 a7 bd ba 48 87 3c de 5c b3 bd
       0.31906572 -0.08170662 0.01651417 -0.087579474
000040 1b a3 d8 bc 3d f7 26 bb 8f 0f 09 bd 4b 24 78 bd
       -0.026444962 -0.0025476955 -0.033462103 -0.060581487
000050 0e b6 d3 3d a5 f3 6a ba 09 07 a9 be 5d 93 b8 bc
       0.103374586 -0.00089626975 -0.3301318 -0.022531206
000060 50 4b a5 3d 38 51 29 3d 18 0f 6a 3d be 5b b7 bd
       0.08071005 0.04133722 0.0571433 -0.08953045
000070 fe 99 aa bd f9 00 d8 3d f9 08 23 be 73 db 60 be
       -0.08330153 0.105470605 -0.15921392 -0.21958713
000080 dd 2f 8a 3d 4c d9 84 bc 61 c9 80 bd d4 13 ac bc
       0.067474104 -0.016216896 -0.0628841 -0.021005549
000090 9b c7 42 bd 98 88 bd 3b 07 9f 32 bd f5 e5 97 be
       -0.04755364 0.0057841055 -0.04360869 -0.2966763
0000a0 eb 22 a4 bd 59 6b 62 3d fd d2 b7 3b 4f 6c db 3d
       -0.080144726 0.055278156 0.0056098686 0.107140176
0000b0 39 90 4e bc 23 c9 f9 3c 92 37 43 be 99 83 e7 bb
       -0.012607628 0.030491417 -0.19064167 -0.007065248
0000c0 be ee d7 bd a3 24 6f be 59 4b d9 bc 34 db 67 3d
       -0.10543583 -0.2335382 -0.026525186 0.056605533
0000d0 40 0a 63 3d 00 a6 83 3d d5 2f 6b bd 1a 83 6a 3c
       0.055429697 0.06428146 -0.057418663 0.014313484
0000e0 4a e1 db 3c d6 2e fc 3b 7a 3f 5d be 47 89 33 3d
       0.026840825 0.007696013 -0.21606246 0.04383209
0000f0 01 ee 52 3b 55 7e 22 bb 40 2a 00 3d a1 8a 6d bc
       0.0032185318 -0.0024794538 0.031290293 -0.014498384
000100 5c 4d 0d 3e e3 a4 a4 bd 72 dc 16 be 0c d5 fb 3d
       0.13799042 -0.08039262 -0.1473253 0.12296495
000110 86 6b e1 bd 81 e2 3e bc e0 e6 a0 3c b9 de 87 bc
       -0.110068366 -0.011650682 0.01964134 -0.016585695
000120 7d ce 98 bd 68 a8 13 be 81 a1 cb 3c 51 25 fc bd
       -0.074612595 -0.1441971 0.024857285 -0.12311805
000130 83 ab 28 be 13 d9 2a bd 8f a1 d8 3c 28 09 53 bd
       -0.16471677 -0.041710924 0.026444225 -0.051522404
000140 77 32 3e 3c 3e c9 1c be 74 cc ff 3d b8 9a be bc
       0.011608711 -0.15311143 0.12490168 -0.023267135
000150 32 cc 19 3e ab e2 0d 3b a2 c9 5b 3d b2 aa 5b bd
       0.150193 0.0021649997 0.05365909 -0.053629585
000160 a2 06 57 bd 42 9a 34 3b 4c f4 77 be 22 a8 5e be
       -0.05249656 0.0027557765 -0.24214286 -0.21743825
000170 a3 03 73 3d f7 55 90 be 44 ee ab be 28 18 7a bd
       0.05932964 -0.28190586 -0.3358022 -0.061058193
000180 fb ab 17 bd 44 37 0e bd 76 f8 99 3d 44 07 5c 3d
       -0.037029248 -0.034720674 0.07518093 0.053717867
000190 71 dd c9 3d a3 75 f2 3c 70 53 8a bd 24 7d 1b 3d
       0.0985669 0.02959711 -0.06754196 0.03796114
0001a0 6d 83 73 bd e1 74 98 bc 33 c7 69 bd da ba 31 bc
       -0.05945151 -0.01861042 -0.057074737 -0.010847772
0001b0 1b b9 2f be b5 c5 a6 3e a7 e6 a7 bd 27 b2 93 3d
       -0.17160456 0.32572713 -0.0819829 0.07211714
0001c0 17 67 1c 3e f7 90 ab bd fc 31 5c 3c 30 ed 85 bd
       0.152737 -0.08377259 0.013439652 -0.065393806
0001d0 df 9e e9 bb 48 ab e4 3c 4a 6e 1c 3b ab bb ce 37
       -0.0071295346 0.027913705 0.0023869448 2.4644503e-05
0001e0 51 e6 fd 3d c0 c7 f4 bd dc 35 82 3c 7b 4b b3 3b
       0.12397445 -0.11952162 0.015894823 0.0054716445
0001f0 f5 c3 43 bc e0 79 05 3d b0 1e 56 3b 41 9f a4 3d
       -0.011948575 0.032586932 0.00326721 0.08038188
000200 b4 16 18 3c 84 47 10 bd 1e 96 75 be e9 fa e3 3c
       0.009282757 -0.035224453 -0.23983046 0.027829604
000210 eb d5 1e 3c ee ad 3b 3e d2 34 bc 3c 7d 68 5e 3d
       0.009694557 0.18328068 0.022974405 0.054298867
000220 84 90 49 3d 04 0d c2 bc 14 92 00 bd d5 3f ca bd
       0.049210086 -0.023687847 -0.03138931 -0.09875456
000230 f5 1b e6 3d 8b ff 85 3c 3e f4 c2 3d 45 35 67 bd
       0.11235801 0.016357204 0.09519242 -0.056447286
000240 2b 12 4c bd 68 69 1a bd 96 59 25 bd ac f1 fb bd
       -0.049822014 -0.03769818 -0.04036864 -0.123019546
000250 b7 59 75 be 39 18 64 bd 55 ea 5c bd d7 70 56 bd
       -0.23960005 -0.055687163 -0.053934414 -0.052353706
000260 7f 64 9d bb 47 ce 44 be 18 30 44 be 81 96 10 3d
       -0.00480324 -0.19219314 -0.19158971 0.03529978
000270 64 e4 d0 bd 9b ad b3 3d 07 a4 d3 bb cc d8 12 3d
       -0.10199812 0.08773347 -0.0064587626 0.035851285
000280 e8 84 04 3d 33 84 bc bc 23 57 91 bc ac f7 1a bd
       0.03235331 -0.023012256 -0.017741745 -0.037833855
000290 6e 52 a0 bc 8c 00 34 be 14 36 f5 bd ac 1d 85 bd
       -0.019570556 -0.17578334 -0.11973205 -0.064998
0002a0 02 86 f7 bc 87 04 38 bd 40 76 1d bc 54 1c 4b be
       -0.030215267 -0.044926193 -0.0096107125 -0.19835025
0002b0 35 fd 72 3e 26 22 64 bd 9f 08 d6 bd dd 8f e3 3c
       0.23729403 -0.05569663 -0.10450863 0.02777856
0002c0 5a 09 16 3e 3c 5a ef 3c 09 82 42 bd be 19 8f 3d
       0.14652005 0.029217832 -0.047487292 0.06987332
0002d0 55 82 2e 3d ae 1d 08 bd 23 b6 0f 3c f5 64 0e 3d
       0.042604763 -0.03323143 0.008771452 0.03476425
0002e0 5d 6e 26 3c 26 95 33 bd 4e 48 ab bb 2f 8a 7a bc
       0.010158149 -0.04384341 -0.0052271252 -0.015291735
0002f0 24 28 97 3c 84 46 bb bd 33 04 76 bd 49 4d 39 bd
       0.018451758 -0.09144309 -0.0600626 -0.04523972
000300 18 15 9a bd 59 2c 51 be 8c be 66 bd 55 f5 c1 bd
       -0.075235546 -0.20427074 -0.056334063 -0.094706215
000310 3c 93 1c bd 01 33 80 bc 06 2f 58 3e b8 87 d9 3d
       -0.03822635 -0.01564932 0.21111688 0.106215894
000320 ec 47 63 bd cd 73 bb bd 24 fb 90 bd a9 dc b1 3d
       -0.055488512 -0.091529466 -0.07079151 0.08684666
000330 e2 48 0f 3d 96 68 31 3d 1c c8 0b bd 2e b9 80 bd
       0.034981616 0.04331263 -0.034126386 -0.0628532
000340 95 7a 00 be 4e 03 32 bc b9 1c aa 3b a4 c9 6c 3e
       -0.12546761 -0.010865046 0.0051914123 0.23123795
000350 58 66 72 bd fe e9 ac bd ec c2 ec bc 20 b2 09 bd
       -0.059179634 -0.08443068 -0.02890154 -0.03361714
000360 82 77 32 3e 31 73 d8 3c 5a a8 58 bd 33 3a c3 3d
       0.17428401 0.026422115 -0.052894928 0.09532585
000370 8b c8 1d 3e 2b bc 63 bd 8e 49 e8 bb d6 8d ac bd
       0.15408532 -0.055599373 -0.0070888465 -0.084254906
000380 b6 a1 16 bc 27 ee 30 3e 9b 87 6a 3e 72 ba b7 bb
       -0.009193828 0.17278348 0.22903292 -0.005606943
000390 d9 3e 09 3b 17 ba 4a 3d 43 2b d1 bb ac 9f 2d bd
       0.0020942 0.049493875 -0.006383331 -0.042388603
0003a0 c0 98 0b bd 56 1d 43 bd a6 0d 0a be c7 0d 4b be
       -0.03408122 -0.0476354 -0.13481769 -0.19829474
0003b0 1c 25 d7 bd 18 e5 2b be 63 c2 6c be a3 db f9 bd
       -0.10505125 -0.16786611 -0.23121028 -0.122000955
0003c0 6f 8e 2e 3c 01 68 54 bd 69 e9 bf 3d e2 b2 65 3d
       0.010654076 -0.051857 0.09370691 0.0560788
0003d0 2a 21 e0 3c 3c 1f 28 3d 72 8a 8b bd 41 ad 4c 3e
       0.027359564 0.041045412 -0.06813516 0.19987966
0003e0 5c fc 27 3d 64 5a 55 bd c5 ac 29 be 21 a2 02 bd
       0.041012153 -0.052088156 -0.16569813 -0.0318929
0003f0 fd 0e 18 3b bc 94 11 bd 38 4e 3e 3d f8 4e 01 bd
       0.0023202293 -0.035542235 0.046461314 -0.03156945

sequences.4.bias f4 [9]
000000 59 63 e3 bd 94 5c 00 be a7 b5 dd bd 99 93 c4 bd
       -0.111029334 -0.12535316 -0.10825663 -0.095984645
000010 bc 29 0b be 57 81 9e bd 82 31 ac bd 2b 60 fa bd
       -0.13590139 -0.07739513 -0.0840788 -0.12225374
000020 b0 9f 73 bd
       -0.05947846
