saved_models/UPSCALE_X8/epoch_65.pth (torch, 157087 bytes, 6 tensors)

sequences.0.weight f4 [64, 1, 5, 5]
00000000: 6a4d da3d e48f 0ebe a28c f03c 38ec 55be
00000010: 177f 073c e5d2 0a3d 4b43 e53d e2f3 7abe
00000020: 36a4 64be 59c4 4fbe 3ec5 253c 8d9f 2a3b
00000030: 6f30 093e cc4d 17be 6c19 333e 6a22 153e
00000040: f4ce c0bc 2150 173e 4817 653d 42fa ae3d
00000050: a2b3 c6bd 8c78 d8bc 8345 363e 4a66 10be
00000060: ba10 03be 4d5a 193e 36e4 e5bd a1be 133e
00000070: 1723 273e daaf 5fbd cef4 693d 7eec 6b3e
00000080: ecf0 903d 5ed9 3abc 50b2 52be da53 303d
00000090: 7db6 5f3e 572a b53e 828e 373e 8306 17be
000000a0: 5204 1b3e e5d0 a8bc 7fe6 a73e 4292 0f3d
000000b0: 56ab a8bd 56bd 0d3d 6ae7 043c 9424 7a3e
000000c0: c659 1c3e 16b1 1dbe 4b5d 2e3d 5534 a2bd
000000d0: 2c11 14be 08ef e63b 328b 21be 8883 fe3d
000000e0: 50a1 f83d 8ad5 55be 5597 d23d fccc 12be
000000f0: c01d b1bb 8233 623d b6a3 c0bd 434d 493e
00000100: 1ef9 293e 426d 32bc d74d 24bd c36b 35bc
00000110: 507c 983d d6c1 633d fbf5 18be 6d92 78ba
00000120: e152 1f3e 3b02 45bc ffab 383e 5eeb 08bd
00000130: 03c2 fa3d 51d1 d4bd d2bb f63d 9ecd 0dbb
00000140: ab4d 313e 8da4 2cbe aa85 63bd 28f0 4abe
00000150: 56fc 3e3d 6665 df3c 3a35 38be ad1c 513e
00000160: 2cc4 31be e6dc 853b 851d 313d b5ce 2dbe
00000170: d041 4d3d 1df0 f6bd 2e85 243e 72ed 8fba
00000180: b8cb 78bd 7ba8 5dbd e00f 0fbe 0c0b 893d
00000190: ceaa b23c 84cf ca3c 8f54 8c3c a25f 58bc
000001a0: 77f6 5fbd e934 163e 6a61 533c 9b75 ba3d
000001b0: d70e 903d 540b 06be f5a6 e73c 2b2c 573e
000001c0: 79d9 77ba d730 e8bd 3750 443e 0319 2c3d
000001d0: 8b21 9e3d 1ac8 093e f159 053d 3ecd 45be
000001e0: f4d0 2d3e 5890 85bd ce6b 1f3d 5812 96ba
000001f0: 9217 4dbe 8f3c b23d 120a 56bd 072f e9bd
00000200: 94f3 323d d698 f03b 404c 4ebe 2cec babe
00000210: f5ed abbc b42b 303c b9dd a43d 1c71 60be
00000220: 60fd dabe e939 edbd 0124 903d 33f5 e9bb
00000230: e45e 46be 2201 e9be 3615 98be 8263 58bd
00000240: b69e f53c 39d6 43be e0e5 9fbe ec50 1bbe
00000250: 1033 57bd 4907 7abd 5903 1b3d f19e 33be
00000260: d4e8 5d3e d89c aa3e 82cf 4b3e 76f6 c23b
00000270: 2865 a33d 544c 923e 867f b23e f046 983d
00000280: 63e0 c9bd e3ee 2d3e 9f7b 4e3e 6c10 eb3e
00000290: bbe8 ac3e 5ca3 91bd 423c 46be 8bd4 43be
000002a0: 7d09 673e 28de 0e3e f272 d13c 4bb8 1d3e
000002b0: a9b8 f9bd 7ff9 843e 90b7 f5bd 4ffb 42be
000002c0: b2f7 2dbe 60a1 a03d 83fc bc3d 8c03 ccbd
000002d0: c337 77bb fae8 a93d 9454 633e 14df 7cbd
000002e0: 4fdf c2bd bff2 383e 6503 213e c8b5 f43d
000002f0: 96a7 b73d c170 b13d 89cf 083e 113b 63bd
00000300: 51df 713d 4e24 d5bd 5ff4 16bc 099f 1c3e
00000310: b05e 4cbe c98b 08bd a91a b8bd e837 16be
00000320: e313 443e a554 823c a8d5 a3bc 9fde 5c3c
00000330: 2d35 ebbd aeff 5d3d 1d91 1bbe 12ea 923d
00000340: 2904 adbd 17fc 27be a027 eb3c 898b 8a3d
00000350: 1ab7 293c 4d77 0e3e 44c4 253e 46a5 383e
00000360: 469b dbbd fda4 f5bd 3ecb cabd b5ca b4bc
00000370: 2458 bd3c d8ef eb3d 5337 203e bf92 343c
00000380: 88a3 373e 6966 a03d d029 163e 3d78 de3d
00000390: af14 1f3e 8eeb 313e ccc2 f8bd 9c4e 0abe
000003a0: e89c b03d cab3 4cbe 706d b63d a346 243d
000003b0: 31eb 7d3d eaaf aabd 4a46 ca3d 38fd d13d
000003c0: 70f6 fbbc ce74 2b3d 86b4 623e 4607 b93d
000003d0: 651f 853d 8206 eabd 664f 1dbd a4fb 9cbd
000003e0: 5b47 4abe 786f d3bc e5b1 0ebe d0c6 283d
000003f0: 9cc8 323e 496b 1f3d 6f3e d9bd 307b 79be
0.10659297 -0.13922077 0.029363934 -0.20890892 0.008270047 0.03389253 0.11194476 -0.24507096
-0.22328267 -0.20289744 0.010117827 0.002603504 0.13397382 -0.14775771 0.17490166 0.14563909
-0.023536183 0.1477666 0.055930406 0.08543827 -0.09702231 -0.026424669 0.17799954 -0.1410152
-0.1279935 0.14975853 -0.112251684 0.14428188 0.1632198 -0.054611064 0.05711823 0.23039433
0.07077202 -0.011404363 -0.20575833 0.043048717 0.21846958 0.35383865 0.17925456 -0.14748578
0.15138367 -0.020607421 0.32793042 0.03505159 -0.08235805 0.034604393 0.008111814 0.24428016
0.15268621 -0.15399584 0.04256944 -0.07920138 -0.14459676 0.0070475377 -0.15775755 0.12427431
0.12140143 -0.2088224 0.102827705 -0.14336008 -0.005405158 0.055224903 -0.094062254 0.1965838
0.16598937 -0.010890307 -0.040113296 -0.011073056 0.07445586 0.05560478 -0.14937584 -0.00094822684
0.1555896 -0.012024458 0.18034361 -0.03342759 0.12244036 -0.103914864 0.12047543 -0.002163745
0.17314784 -0.16859646 -0.055547394 -0.19818175 0.046627365 0.02727003 -0.17989054 0.20421095
-0.1735999 0.004085171 0.043241043 -0.16973384 0.05011159 -0.12057517 0.16066429 -0.0010980798
-0.060741156 -0.054115754 -0.139709 0.0669156 0.021809962 0.024757154 0.017130164 -0.013206394
-0.054678407 0.14668621 0.012901643 0.09104463 0.070340805 -0.13090259 0.028277854 0.21012942
-0.0009454708 -0.113374405 0.19171225 0.04201604 0.077212416 0.13455239 0.032556478 -0.19316575
0.1697424 -0.06521672 0.03892117 -0.0011449559 -0.20028523 0.08702957 -0.052255698 -0.11385923
0.043689325 0.007342438 -0.20146275 -0.3650831 -0.02098749 0.010752607 0.08050103 -0.21918148
-0.42771435 -0.11583311 0.07038117 -0.0071398257 -0.19372135 -0.45508677 -0.29703683 -0.052829273
0.029982906 -0.19124688 -0.31230068 -0.15167588 -0.05253893 -0.061042104 0.03784499 -0.175411
0.21670848 0.33322787 0.19903377 0.0059497906 0.079782784 0.2857386 0.34862918 0.07435405
-0.098572515 0.1698566 0.20164345 0.45910966 0.3377131 -0.071112365 -0.19358924 -0.19124047
0.22562213 0.13951933 0.025567506 0.15402333 -0.12193424 0.259716 -0.119979024 -0.19041179
-0.1698902 0.0784328 0.0922785 -0.09961614 -0.0037722446 0.0829639 0.22200233 -0.06173618
-0.09515249 0.1806135 0.15723951 0.119487345 0.08967511 0.08664084 0.13360418 -0.055476252
0.05905086 -0.10407315 -0.009213536 0.15295042 -0.19957995 -0.033336435 -0.0898946 -0.14669764
0.19148211 0.015909502 -0.01999934 0.013480811 -0.11484752 0.054198913 -0.15192075 0.071735516
-0.08448059 -0.16404758 0.028705418 0.067648955 0.010358596 0.13912697 0.1618815 0.18031797
-0.107229754 -0.1199436 -0.099020466 -0.022069314 0.023113318 0.11520356 0.15646105 0.011021315
0.17933476 0.07832033 0.14664388 0.108627774 0.15535234 0.17375013 -0.121465296 -0.1350655
0.086236775 -0.19990459 0.08907592 0.040106427 0.061991874 -0.08334334 0.09876688 0.10253376
-0.030757159 0.04185944 0.22139177 0.090345904 0.06500129 -0.114270225 -0.0384058 -0.07665184
-0.19753782 -0.025809988 -0.13935049 0.041205227 0.17459339 0.038920674 -0.106076114 -0.24363399

sequences.0.bias f4 [64]
00000000: da86 6c3e 5db7 813e 4464 72be fce3 693c
00000010: 1c44 1bbe 9959 33be 754a 4e3e f288 fb3b
00000020: 798f 47be 8de4 fabd 14b5 b13c a452 27be
00000030: 57c2 7abe eb45 573e eb42 0fbe 4194 5f3d
00000040: c93f 383e 4221 6fbd 7cec 47be 857c 023e
00000050: eabf 52be be30 ca3d 917b 37bb 3cf6 42be
00000060: f091 6cbe 9d40 05be de2f 183d f22b d7bd
00000070: 4388 a33d e0ea 6d3e c1bd 343e 79c6 103e
00000080: 66d1 263e 0ee4 273a 3f8c c6bd 7c7c 35be
00000090: f64a 533e f95a df3d 6a2f 23bb 14e4 0dbe
000000a0: fd6d 373e c863 043e 2adf c03d e57a 583e
000000b0: 0767 073e df99 82be aee2 6abe eeb5 883d
000000c0: 7643 da3d 9bff 62be c158 85bc 3ea8 2dbe
000000d0: d961 22be 0e3e 243e 6a4f 263e 0ae4 30bd
000000e0: d692 b0bd f8ab 673d 12de 5d3e 32cf 4b3e
000000f0: d22d 4abe 6f5b a9bd db88 b2bd 802b 2d3e
0.23098317 0.25335208 -0.23671061 0.014275547 -0.151627 -0.17514648 0.2014559 0.0076762373
-0.19488324 -0.12250624 0.02169279 -0.16340119 -0.24488197 0.21022765 -0.13990371 0.054584745
0.17993082 -0.058381326 -0.19523805 0.12742813 -0.20581022 0.09872578 -0.0027997235 -0.19039243
-0.23102546 -0.1301293 0.037155025 -0.10506429 0.07984974 0.23234129 0.1765051 0.14138211
0.16290817 0.0006404527 -0.096947186 -0.17723268 0.20634064 0.109060235 -0.0024900087 -0.13856536
0.17913051 0.12928689 0.09417565 0.2114063 0.13222896 -0.2550802 -0.22938034 0.06675325
0.106573984 -0.22167818 -0.016277673 -0.1695871 -0.15857638 0.16039297 0.16241232 -0.043186225
-0.08621757 0.056560487 0.21666744 0.19903257 -0.19744042 -0.08269393 -0.08717509 0.16911125

sequences.2.weight f4 [32, 64, 3, 3]
00000000: ae17 dd3d bf08 d13c 7f72 2a3d 6b82 c53d
00000010: 83b6 8c3d 1029 e13c 01e5 643e 4caa 0b3e
00000020: 5b34 ef3d e5d5 8f3a 55c1 813a 9b4d ea3c
00000030: 5ec8 3abb 7471 383d f5c9 913d 216c 8a3c
00000040: 28e5 8d3c 5914 313d 3c0c 2cbe c627 0cbe
00000050: 053e a7bd 8cc0 82be d19c 103c 8cde 24bd
00000060: fd75 b2bd d30a 6a3d bf37 04bd ab7f af3d
00000070: 0d68 08be 5aaa f13d a7b3 1b3e f80e e7bd
00000080: ed86 0d3e 4b20 863d c51e 973d 8ded 193d
00000090: 376e 0c3d de34 0fbd 5283 e1bc 37b4 0d3c
000000a0: cbd9 1f3b 52d8 7fbd 765c 983a fff3 06bd
000000b0: a974 52bd aded 88bc aa7a 06bd b043 99bc
000000c0: 183d c7bc d3fb d8bc 6dd3 a2bd 6ea9 943c
000000d0: 15ee 7abc 2baa 60bd 47b2 443c 089c 3c3d
000000e0: 4084 333d 40a7 59bc 6239 1b3c 65ad 29bc
000000f0: 1bfa 933b a129 ef3c caa6 353d 8331 403d
00000100: b930 6b3a c05a b53c 6055 d5ba 2113 dabb
00000110: b531 7dbc 1185 b83d 31b0 d5bc 91eb 1abd
00000120: 5b35 8ebd b59d 09bd d89f 35bd f148 bbbd
00000130: 09f2 28be aa68 b4bd 3bba 943d 3cd3 febd
00000140: 64a1 b63c 68ff 5fbd 6b53 45bd a252 e6bc
00000150: 1648 45bd 5cb3 72bd 6bfe bdbc 47ba e4bb
00000160: ca4c 9bbc 689d 26bd ddef 923c 7829 33bc
00000170: 61e6 55bc e0b2 07be ccd8 59bc 5ce3 d7bd
00000180: 24c6 ea3c 349f af3d 7c8a b2bc 3040 42bd
00000190: bcaa 04be e801 94bd e5d3 1cbd 8bc3 a6bd
000001a0: 710a 91bc ba81 5dbe c102 14be c983 f03d
000001b0: ffcb e6bd 3ef1 8cbd 424e 92bb f2d9 d1bd
000001c0: 39dc 87be 3e48 a4bd 128c 103b 94ca d6bd
000001d0: 4821 97bc a4e7 443e c03f 173e e39a 80bc
000001e0: cfaf 143e 2e6f 303e 70c3 853c dd00 13be
000001f0: aac5 023e 4fe9 033e be18 843d 96be 6dbd
00000200: ba0b 3dbe fb57 33be da1c 90be 5b39 13be
00000210: d531 983d 012a 1e3d 8195 673e 07d5 b0bc
00000220: 01d9 babc 9096 8ebb 40d0 9f3b 4f2c d43d
00000230: 5426 f53d 0cc3 4c3d f4d3 a3bc 3f4a dabd
00000240: 1d6a 79bd ad35 d23d ab68 903d 03a6 4fbd
00000250: ee15 523e e790 3b3e 267a 573d 58e7 d13d
00000260: 4477 00bc 0c7b f13d 99df 3bbe 670a 4fbe
00000270: a519 c73e 6614 9cbe 1d35 a9bd 9b46 043e
00000280: 3cbc 02be 7120 363e 4cfa 0abe cad3 f0bd
00000290: 09b9 353b 3bf5 70bd 9b2f fbbc ddea 05bd
000002a0: 6803 03bc 3d3c 633b 412e 0cbd a6ea 4fbe
000002b0: c08e 05bd 1dd1 313d 65eb ccbd 30e5 983e
000002c0: 291d 763d c467 093d 6d33 ab3d 169f 863d
000002d0: e51f 9fbc 829c ffbc 04ab d2bc 13f9 34bd
000002e0: 588f 97bd 8d43 99bd 8b34 04bd 57e1 11bd
000002f0: 4a17 9139 cc95 d4bc 5c77 8dbc 3397 8f3d
00000300: 8fd4 583e 2bb5 3f3e 3ae4 e73d 048b a73d
00000310: 918c fb3d c8b3 003e aed6 2c3c ec92 2cbd
00000320: 1d67 cd3b a458 b23c f739 a93b 137c 8dbc
00000330: 5b81 0e3d 09ae d43c 5ff7 0ebc 714c 9ebd
00000340: 3a92 ae3c cd58 82bd f26d 92bd 9be8 4b3b
00000350: 7927 28bd d24a 4ebd 61bd 1f3c 744e 59bd
00000360: 3f52 39bd d42e 55bd a946 cdbc d5e6 41bd
00000370: d2c9 05be 28a6 dcbc e811 27bd 53ff 77bd
00000380: c441 ae3c 436f 2e3d 8c6c adbd 01de 243d
00000390: 1a0a b5be 4435 54be 2e51 dc3d 1a0a 9cbd
000003a0: e8b0 943d 5ad5 babd 3922 4ebc e350 123d
000003b0: 8124 27bd 1af9 3a3b 8a47 8e3d f46d 163c
000003c0: cc8b 4cbd 4b65 9dbc 2582 e5bc 42bc 81bc
000003d0: 6b0d 80bc a323 3f3d 866d fdbc 55a1 0b3b
000003e0: ad20 883c 546e 9dbc 949d 42bb 8803 bfbc
000003f0: 8580 d3bc 090a a2bd f205 0b3d cea2 983c
0.10795532 0.025516866 0.0416131 0.09644016 0.06870749 0.0274854 0.22352983 0.13639182
0.11679908 0.001097378 0.0009899536 0.028601458 -0.0028500776 0.045030072 0.07118598 0.016897263
0.017321184 0.043232296 -0.16801542 -0.13687047 -0.08166126 -0.25537527 0.00882645 -0.0402513
-0.08713911 0.05713923 -0.032279726 0.085692726 -0.13320942 0.1180007 0.1520525 -0.11282152
0.13821001 0.06549128 0.07378916 0.03758006 0.034284797 -0.034962527 -0.027528439 0.008648924
0.002439129 -0.06246216 0.0011624235 -0.032947537 -0.051380787 -0.016714895 -0.032831825 -0.018709034
-0.024321124 -0.026487267 -0.079504825 0.018147197 -0.015315552 -0.054849785 0.012005395 0.04604724
0.043827295 -0.013284504 0.00947413 -0.010356282 0.004515899 0.029194655 0.044348516 0.046922218
0.0008971799 0.022138 -0.0016276054 -0.0066551124 -0.015453746 0.090097554 -0.026084991 -0.03782231
-0.069437705 -0.033597667 -0.044341892 -0.09144772 -0.16498579 -0.088090256 0.07262083 -0.124426335
0.022293754 -0.054686934 -0.048175257 -0.028115574 -0.04816445 -0.05925308 -0.023192605 -0.006980214
-0.018957514 -0.040677458 0.017936641 -0.01093518 -0.013055415 -0.13251829 -0.013296317 -0.10541412
0.028658934 0.085752875 -0.02179455 -0.047424495 -0.12955755 -0.07226926 -0.038288016 -0.081427656
-0.017705174 -0.21631518 -0.14454176 0.11743886 -0.11269378 -0.06881951 -0.0044648955 -0.10246648
-0.26535204 -0.080215916 0.0022056145 -0.104878575 -0.018448487 0.19228989 0.14770412 -0.015698856
0.1452019 0.17229912 0.016328543 -0.14355798 0.12770715 0.12881969 0.06450032 -0.058043085
-0.18461505 -0.1751403 -0.28147012 -0.14377348 0.0743138 0.038614277 0.22615625 -0.021585954
-0.022808554 -0.0043514445 0.0048771203 0.10360014 0.11970201 0.0499907 -0.019998528 -0.106586926
-0.060892213 0.10264144 0.07051214 -0.05069543 0.20516178 0.18316995 0.052606724 0.102492034
-0.007840935 0.117910475 -0.18347014 -0.20218812 0.38886753 -0.30484313 -0.08262084 0.12917559
-0.12767118 0.17785813 -0.13572043 -0.117591456 0.0027728698 -0.05882762 -0.030662348 -0.032694686
-0.007996418 0.0034673356 -0.0342238 -0.20304355 -0.03260684 0.043412317 -0.100058354 0.29862356
0.060086403 0.033546224 0.08359418 0.06573312 -0.019424388 -0.031202558 -0.025716312 -0.04418285
-0.074003875 -0.074835874 -0.03227667 -0.03561529 0.00027673907 -0.025950335 -0.017268829 0.07011261
0.21174835 0.18721454 0.11322828 0.08180812 0.1228267 0.12568581 0.0105492305 -0.042132303
0.0062683956 0.021770783 0.0051643807 -0.017271077 0.03479133 0.025961893 -0.00872597 -0.07729424
0.02130996 -0.06364594 -0.07149877 0.0031113985 -0.04105327 -0.050364323 0.009749741 -0.053053334
-0.04524445 -0.052046612 -0.025058107 -0.04733928 -0.1306527 -0.026934698 -0.04078856 -0.06054623
0.021271594 0.042586576 -0.08467969 0.040250782 -0.3535927 -0.20723444 0.10757671 -0.07619114
0.07260305 -0.09122725 -0.0125814015 0.03572167 -0.040806297 0.0028529824 0.06947239 0.009181488
-0.04993801 -0.01921334 -0.02801616 -0.015836839 -0.015631398 0.046664845 -0.030936014 0.0021305878
0.016617144 -0.019217648 -0.0029695975 -0.023317114 -0.025818119 -0.0791207 0.033941217 0.018632319

sequences.2.bias f4 [32]
00000000: 24a0 753d d198 4dbd 17aa 67bd ed3a c4bb
00000010: dedc a0bd 60dd 32bd 52d8 9d3d 881c b63d
00000020: 4633 03bd 6bd6 323d ee7c 9ebd 8432 10bd
00000030: 16ca db3c 9fc0 ffbb b47d 78bd 006f 98bb
00000040: f480 143e 09cf 443c 54f9 29bd 97b3 03bd
00000050: 38d9 933c fe59 993a f88e a7bd 035d 82bd
00000060: b8eb 91bd 665c 34bd 1143 37bd 09cd 43bd
00000070: 9e1a 25bd 1c50 533d 5672 84ba 81b7 e4bc
0.059967175 -0.050194565 -0.056558695 -0.00598847 -0.07854627 -0.04366815 0.077072755 0.08892161
-0.03203132 0.043661516 -0.07738672 -0.035204425 0.02682976 -0.0078049446 -0.060666755 -0.004651904
0.14502317 0.012012252 -0.041497543 -0.032153692 0.018047914 0.0011699793 -0.08181566 -0.06365397
-0.07125038 -0.04403343 -0.044741694 -0.04780296 -0.040308587 0.05159007 -0.0010104876 -0.027919533

sequences.4.weight f4 [64, 32, 3, 3]
00000000: 25d3 6dbd cfad c3bd 5ea5 95bc 515d 50bb
00000010: b25e f4bd 4d2f 6a3c b87a 293c e157 5dbc
00000020: 9dff 093d 6f1d 3e3d c17a 043c 2459 2bbd
00000030: 5c8e b23d f4a3 f93c db7a ae3c 4721 703d
00000040: 1aed 613d fde3 7a3d 0d99 f03d 6403 febd
00000050: e4ca 9fbb c4aa 123e abf8 8a3e 8781 ee3d
00000060: 95f9 8ebd 3b40 513b 2ba9 7fbd 2afa f9ba
00000070: 33e8 dc3d 3305 263d 7acd b63d adf9 c03d
00000080: b205 f63d b378 d93c e1a9 e53d c229 783d
00000090: 56ac b9bc 8d2e 003d 92cc 65bd c02e 443d
000000a0: e515 9f3d 53a4 93bd fab6 debc 3c45 71bd
000000b0: d361 0abc 1652 043d e7ec d5bc 3d16 733c
000000c0: f0e9 dd3c 85cd f43d d8c1 7ebb 7eec 49bd
000000d0: 5807 18bd 0d00 93bc b5b8 68bc 6dc8 71bd
000000e0: f0b2 d4bc c240 9dbd 45f7 d2bd cdf2 87bd
000000f0: 656d 073d 9250 3a3d 7d85 00bd 5ca2 c8bd
00000100: d097 1dbe 3762 0c3c 17c6 24be 02f1 13be
00000110: e1d7 a7bd ffd0 b5bb ab94 46bd 7cd1 f33c
00000120: 4ba1 693c 1a5a 813d ba43 353c ef80 98bc
00000130: 7941 ec3c cccc fd3c 1dab b1bc 7d48 483d
00000140: 4733 503d 07e0 9abd e39b eebd 03ae b13c
00000150: cb53 4abe cd6d 71be d1f0 883c 1b18 853d
00000160: bdef 2a3d dc88 9a3b 363f 4c3e 6fb1 833e
00000170: 3d3b b5bd b09d 783d a8f6 393e a072 b9bd
00000180: 758f 8bbd 53a5 d0bd dd23 50bd 18f6 5fbb
00000190: adaf d43c 0be2 d73c ff9f d73d bc7c de3d
000001a0: b680 483d c65f 8e3c 0d14 7b3d b748 1abd
000001b0: 679c 823b bfef 32bd 1dc9 c33b 0813 a7bd
000001c0: 0ba1 99bd 53a4 01bc b715 353d 938d 96bc
000001d0: 30a4 6cbc de30 363d 548b bfbc 7056 75bd
000001e0: f363 d2bc 6b5e 19be 1842 32bd fa55 953d
000001f0: 44ec 20bd 8c9b 343d a920 0e3d b1a1 3e3c
00000200: 6d3d ca3c 8317 c73c 954a 103c 9759 32bc
00000210: f37f 643d 5e0c 7b3d 78d1 063c 44ad 923d
00000220: 6f0a f23d 6e5a 843d 26fd f83c f5cf 1d3e
00000230: ddc0 733d 3e98 4ebd d97e d93c 04a3 0dbd
00000240: 53bf 4ebe cd7f 74be d9d9 403e fb77 ffbd
00000250: c10c 18bd 0cda 143e 8e9e a73d 974a 953d
00000260: bc6b 10bc ada8 bf3d 27b7 8cbd be6d acb9
00000270: 1643 12bd 4a6b 59be 5995 b9bd 74b7 f9bc
00000280: 4cad 7abd 9dee b4bc 13b1 25bc 9941 b93c
00000290: be5b 5b3d 525a 043e 7ef8 32bc ce1b 8a3d
000002a0: 080a b7bc d5be 0b3d 8de3 983c 0cfe 463d
000002b0: 7a39 433d ae2a c3bb e3f4 0d3d 356c 763d
000002c0: 65ec ef3c 9c79 4d3d 18f7 1abd 3a5d a13c
000002d0: 5ea9 033d 0256 ed3d f827 a8bd bbf6 bd3d
000002e0: 7afe 4a3e 329f 263c 3bdd 8abc a27d 31bb
000002f0: 23c3 8ebd 172c 8cbd 3c13 b6be 253b 38be
00000300: 61e6 b23e 8190 343e 0f5c b0bd 4088 c63d
00000310: b804 0bbe 755d a8bd f9a5 5dbd 264d 35bb
00000320: c300 783c 97ed 313c 55dc ee3d b8ed 253d
00000330: 5d88 373d d738 b83c d53c 5a3d 16c8 113d
00000340: 6933 8f3d 2557 52bd d9ad 063d d0a5 1e3c
00000350: 4e4a 043c 108b 8bbc 17ec 9b3c 2840 92bc
00000360: 9fcd 0fbc eb80 873e 5498 0bbd 69d8 2fbe
00000370: f08a 4abd 72e0 bcbd 19d9 e03d dfa6 133e
00000380: d045 233c 3479 2abc 9721 dd3d cb21 053d
00000390: f284 aa3d 0fac 933d 8431 f1bb c87f f83b
000003a0: 39a1 ad3d bdc9 6dbc 7bfb e03d 30af dc3d
000003b0: 18ec 83bc ff2b fc3d 77fa 573e daa3 443c
000003c0: 4866 d2bd be85 3abd de98 34bc 0b00 403d
000003d0: c996 ac3d dc73 8b3d aff0 a23d 28c4 113e
000003e0: 7331 a53d 3398 09ba fcce fa3d 7475 6e3c
000003f0: 89a3 fc3d c707 1d3e 7a28 8bbd 602d 1e3e
-0.05806269 -0.09554636 -0.01826733 -0.0031793902 -0.11932124 0.014293504 0.0103442 -0.0135097215
0.033691037 0.04641479 0.008085907 -0.041833058 0.08718559 0.030473687 0.021298816 0.058625486
0.05515776 0.061252583 0.11747942 -0.124029905 -0.0048764814 0.14322954 0.27142844 0.11645799
-0.06981198 0.0031929153 -0.06241719 -0.0019071747 0.10786476 0.040532302 0.0892591 0.09422622
0.12012805 0.026546812 0.112140425 0.0605867 -0.022665184 0.031294394 -0.056103297 0.047896147
0.07767848 -0.07209077 -0.02718686 -0.058903918 -0.008446175 0.032304846 -0.02611394 0.014836845
0.02708909 0.11953262 -0.0038872864 -0.049297802 -0.03711638 -0.01794436 -0.014204194 -0.05902903
-0.02596423 -0.07678367 -0.10301069 -0.066381074 0.03306331 0.045486994 -0.031377304 -0.097965926
-0.15389943 0.008568338 -0.1609119 -0.14447406 -0.081954725 -0.005548596 -0.048481625 0.029762976
0.014259647 0.06316014 0.011063511 -0.018616168 0.028839814 0.030981444 -0.021688038 0.048897255
0.050830152 -0.07562261 -0.11650827 0.02168942 -0.19758527 -0.23577042 0.016716393 0.064987384
0.04173254 0.004716022 0.19945988 0.2572131 -0.088491894 0.060697258 0.18160498 -0.09055066
-0.06814472 -0.10187783 -0.050815452 -0.0034173783 0.025962675 0.026352903 0.10528564 0.10863635
0.048950873 0.017379653 0.06129842 -0.037667003 0.00398593 -0.04368567 0.0059749023 -0.08157927
-0.0750142 -0.007912713 0.044210162 -0.018378055 -0.014443442 0.044480197 -0.023381867 -0.059896886
-0.025682425 -0.14977424 -0.043520063 0.07291789 -0.03928782 0.044093654 0.034699116 0.01163523
0.024687493 0.024303203 0.008806844 -0.010885618 0.055786084 0.06129109 0.008228652 0.07161954
0.11818396 0.064625606 0.030394148 0.1541136 0.0595101 -0.05043816 0.026549743 -0.034579292
-0.20190172 -0.23876877 0.18833102 -0.12474056 -0.037121538 0.14536303 0.08184539 0.072896175
-0.008814748 0.09358344 -0.06870871 -0.0003288816 -0.03570851 -0.21232334 -0.09061689 -0.030482985
-0.061200425 -0.022086436 -0.010113019 0.022614287 0.05355429 0.1292508 -0.010923503 0.067435846
-0.02234365 0.03411754 0.018663192 0.04858212 0.047662236 -0.0059560155 0.03465737 0.060161788
0.029287526 0.050164804 -0.037833303 0.019697774 0.032143943 0.1158867 -0.082107484 0.09275576
0.19823638 0.010169791 -0.016951194 -0.002708294 -0.06970813 -0.06844347 -0.3556155 -0.17991312
0.3494139 0.17633249 -0.08611309 0.096939564 -0.13576019 -0.082209505 -0.054113362 -0.0027664392
0.0151369 0.0108598685 0.11663119 0.04050991 0.04480778 0.02248804 0.05328067 0.035591207
0.069922276 -0.05135264 0.032880638 0.0096830875 0.008074356 -0.017034084 0.019033475 -0.017852858
-0.008777051 0.26465544 -0.03408082 -0.17172398 -0.049448907 -0.09222497 0.10978908 0.14419125
0.009965375 -0.010404874 0.107974224 0.03250293 0.083261386 0.07210552 -0.007360639 0.007583592
0.084780164 -0.01451343 0.10985466 0.10775602 -0.01610379 0.12313079 0.21091639 0.012001956
-0.10273415 -0.045537703 -0.0110227745 0.04687504 0.084271975 0.06809208 0.07956063 0.14234984
0.08066072 -0.00052488147 0.122465104 0.01455437 0.12335879 0.15334998 -0.0679483 0.15446997

sequences.4.bias f4 [64]
00000000: cdd7 87bd f8df 24bd 3166 e4bc b53d 7ebc
00000010: e46f 6abc 0670 75bd ada8 23bd 0f91 9ebc
00000020: 0990 15bd bfad 89bc 3537 6cbd cbbc 58bd
00000030: 01f0 583c 0b7c 203c d332 97bd a1c1 16bd
00000040: c7b5 9dbd ae96 f4bc 90b5 72bb 6323 65bd
00000050: 631a 82bd 19bf 28bd dec2 4ebb ee05 febc
00000060: a8f0 37bd 1e62 31bd 017f 07bd 390d c8bb
00000070: cf3d 503b 23f8 473b 0306 25bd d95a 13bd
00000080: 15d4 89bd 8feb 4ebb f643 6cbd a620 b9bb
00000090: bc65 86bd 82b9 f3bc 3670 1bbd 197f 75bd
000000a0: f158 0fbd 0880 32bd dddd 6abd 7e2e 5cbd
000000b0: 4655 b0bd 7762 34bd 4d62 7bbd 0f33 c9bc
000000c0: e33e 7abd a039 81bc c712 98bd 0b49 41bd
000000d0: fd19 56bd 8b68 abbc 8c43 8ebd 3c28 1abd
000000e0: f531 5dbd 5a38 75bd 3107 8ebc cd15 bbbb
000000f0: c69d a8bc f6c0 32bd 34ff 5abc 3614 cdbb
-0.066329576 -0.040252656 -0.02788076 -0.015517642 -0.014308903 -0.059921287 -0.039955784 -0.019356279
-0.036514316 -0.016806481 -0.057669837 -0.052914422 0.013240815 0.009795199 -0.07382741 -0.036805753
-0.07700687 -0.029857006 -0.003703449 -0.05594195 -0.06352689 -0.04119787 -0.0031549255 -0.031008687
-0.044907242 -0.043306462 -0.033080105 -0.006105092 0.0031775122 0.0030512891 -0.040288936 -0.03597531
-0.067299046 -0.003157351 -0.057682 -0.005649644 -0.06562373 -0.029751543 -0.03794881 -0.059935663
-0.03499693 -0.04357913 -0.05734049 -0.053755276 -0.086100146 -0.044039216 -0.061373044 -0.02456048
-0.06109513 -0.015774548 -0.074254565 -0.0471888 -0.052270878 -0.020923873 -0.06946477 -0.037636027
-0.05400272 -0.059868194 -0.017337414 -0.005709386 -0.020583045 -0.043641053 -0.013366509 -0.006258513
