saved_models/UPSCALE_X8/epoch_43.pth (torch, 157087 bytes, 6 tensors)

sequences.0.weight f4 [64, 1, 5, 5]
0	0x3ddb2dc8	0.107020915
1	0xbe0ea45c	-0.13929886
2	0x3cde2c9c	0.02712088
3	0xbe571bb8	-0.21006668
4	0x3bf0958f	0.0073420475
5	0x3d112219	0.03543291
6	0x3de7b73c	0.11314246
7	0xbe750035	-0.2392586
8	0xbe5f0cdc	-0.21782249
9	0xbe4e3301	-0.20136644
10	0x3c199791	0.009374515
11	0x3b899b89	0.0041994494
12	0x3e0a635b	0.13514464
13	0xbe1504bd	-0.14552589
14	0x3e329201	0.17438509
15	0x3e14c6af	0.14528917
16	0xbcc6ea76	-0.024281722
17	0x3e12fedc	0.14355034
18	0x3d58a6e9	0.052893553
19	0x3dac6b80	0.084189415
20	0xbdca03de	-0.09864019
21	0xbccfe7ef	-0.02537915
22	0x3e361dc8	0.17784798
23	0xbe10ee1a	-0.14153329
24	0xbe04e9bc	-0.12979788
25	0x3e228236	0.15869984
26	0xbdd20fde	-0.10256933
27	0x3e093194	0.13397819
28	0x3e11450c	0.14186496
29	0xbd782458	-0.060581535
30	0x3d6b07cd	0.057380486
31	0x3e643659	0.22286357
32	0x3d419a3f	0.04726624
33	0xbd010315	-0.03149708
34	0xbe46988f	-0.19394134
35	0x3d49d1b7	0.049272265
36	0x3e4c50a5	0.19952638
37	0x3e9fded1	0.31224683
38	0x3e29e09c	0.16589588
39	0xbdf3fd1d	-0.11913512
40	0x3e205f38	0.15661323
41	0xbd1bde33	-0.038053703
42	0x3e94da2f	0.2907271
43	0x3c7566b5	0.014978101
44	0xbd939292	-0.072056904
45	0x3d44d59c	0.048055276
46	0x3cb9d384	0.022683866
47	0x3e778ff6	0.2417601
48	0x3e12e36e	0.1434457
49	0xbe14c668	-0.14528811
50	0x3d3182c1	0.043337587
51	0xbda1c5ee	-0.0789908
52	0xbe110274	-0.14161092
53	0x3c093958	0.008375488
54	0xbe21b5eb	-0.15792052
55	0x3e019b9b	0.12657015
56	0x3df66b75	0.120322146
57	0xbe4ea9d5	-0.20181973
58	0x3dd3b6dd	0.10337613
59	0xbe100a1e	-0.1406636
60	0xbb6f7eb5	-0.003654403
61	0x3d50e565	0.051000018
62	0xbdbf52b9	-0.0934195
63	0x3e436297	0.19080578
64	0x3e2c36f2	0.16817835
65	0xbbe76165	-0.007061171
66	0xbd253ca8	-0.04034105
67	0xbc3c8315	-0.011505862
68	0x3d960800	0.07325745
69	0x3d655554	0.05598958
70	0xbe17150c	-0.14754122
71	0xbad2114f	-0.0016026887
72	0x3e2016f3	0.15633754
73	0xbc1fb7b3	-0.009748387
74	0x3e3b49c7	0.18289863
75	0xbcf526fa	-0.029925812
76	0x3e014e40	0.12627506
77	0xbdc3b1da	-0.09555407
78	0x3dfd7103	0.12375071
79	0x3accdc3b	0.0015629599
80	0x3e332eec	0.17498368
81	0xbe24bee4	-0.16088444
82	0xbd3bb8a1	-0.045830373
83	0xbe43c98a	-0.1911985
84	0x3d3d3320	0.046191335
85	0x3cc9831a	0.024598647
86	0xbe2e22aa	-0.17005411
87	0x3e484303	0.19556813
88	0xbe2c656a	-0.16835561
89	0x3af23027	0.0018477485
90	0x3d20f017	0.039291468
91	0xbe28b47b	-0.16475098
92	0x3d5be864	0.05368842
93	0xbdf27a35	-0.118397154
94	0x3e26acbb	0.16276829
95	0xbbcdc60f	-0.006279714
96	0xbd70afbb	-0.05876134
97	0xbd3b5032	-0.045730777
98	0xbe0f52a3	-0.13996367
99	0x3d8def3c	0.06930396
100	0x3ca9d3a2	0.020730797
101	0x3cc405f0	0.023928612
102	0x3c9c4cb2	0.01907954
103	0xbc2e3add	-0.010634151
104	0xbd597465	-0.053089518
105	0x3e14e0e8	0.1453892
106	0x3c29eb87	0.0103710955
107	0x3db5a12a	0.0886863
108	0x3d8f24d9	0.0698945
109	0xbe0484d4	-0.12941295
110	0x3cdef2bf	0.02721536
111	0x3e53b249	0.20673479
112	0xbb1907d9	-0.0023350625
113	0xbde7426b	-0.11291965
114	0x3e45862e	0.19289467
115	0x3d2965b2	0.04135675
116	0x3d9de776	0.07710163
117	0x3e0710c0	0.13189983
118	0x3d0989d7	0.03357872
119	0xbe43ff51	-0.19140364
120	0x3e2e5bbf	0.17027186
121	0xbd87bc85	-0.06627754
122	0x3d20deba	0.03927491
123	0x3a1beedb	0.0005948373
124	0xbe4c868d	-0.19973202
125	0x3dd14c4e	0.10219632
126	0xbcb3db9b	-0.021955302
127	0xbe240eb7	-0.16021238
128	0x3d5e1082	0.05421496
129	0x3c8f7f60	0.017516792
130	0xbe33df5f	-0.17565678
131	0xbe98d416	-0.2984931
132	0xbd3a2135	-0.045441825
133	0x3cc11a6c	0.02357217
134	0x3da3e602	0.08002855
135	0xbe3a7931	-0.18210293
136	0xbea6640b	-0.32498202
137	0xbde41bea	-0.11138137
138	0x3da5544e	0.080727205
139	0xbc6d4d30	-0.014483735
140	0xbe187f18	-0.14892232
141	0xbeab1b59	-0.33419302
142	0xbe86f7a7	-0.2636082
143	0xbcb3c825	-0.021946022
144	0x3d1172ed	0.035509992
145	0xbe2a247f	-0.16615485
146	0xbe7760cb	-0.24158017
147	0xbe3180df	-0.17334317
148	0xbd385791	-0.045005385
149	0xbd78cc3a	-0.06074164
150	0x3d65b782	0.05608321
151	0xbe287b9c	-0.16453403
152	0x3e6343e3	0.22193865
153	0x3e87494d	0.26423112
154	0x3e33fa7a	0.17576018
155	0x3c534249	0.012894222
156	0x3d9c2488	0.07624155
157	0x3e83d142	0.2574559
158	0x3e750012	0.23925808
159	0x3d717f66	0.058959387
160	0xbdb657d3	-0.0890347
161	0x3e2e59b5	0.17026408
162	0x3e3e0a8c	0.18558711
163	0x3eb0c533	0.3452545
164	0x3e9ea446	0.30984706
165	0xbd9934da	-0.07480784
166	0xbe48f253	-0.1962369
167	0xbe306370	-0.17225432
168	0x3e17ad33	0.14812164
169	0x3de6f519	0.112772174
170	0x3c8493b9	0.01618372
171	0x3e1c6c3d	0.15275665
172	0xbdc5c405	-0.096565284
173	0x3e50b024	0.20379692
174	0xbe215132	-0.1575363
175	0xbe41eadb	-0.18937247
176	0xbe2cac2e	-0.16862556
177	0x3da5d497	0.08097189
178	0x3dc8c4ca	0.098031595
179	0xbdc2634c	-0.094915956
180	0xbb867caa	-0.0041042166
181	0x3da9ad12	0.08284964
182	0x3e600f6b	0.21880881
183	0xbd707f26	-0.05871501
184	0xbdb78ee4	-0.08962801
185	0x3e36f41e	0.17866561
186	0x3e1e0bc3	0.15434174
187	0x3de5e39c	0.11225054
188	0x3db4d94a	0.08830507
189	0x3db65d63	0.08904531
190	0x3e081bff	0.1329193
191	0xbd65ab5f	-0.056071635
192	0x3d6f69d2	0.058450527
193	0xbdd1fa90	-0.10252869
194	0xbc051759	-0.008123242
195	0x3e1dd698	0.15413892
196	0xbe4d6fd0	-0.20062184
197	0xbd008643	-0.031378042
198	0xbdafc18e	-0.085818395
199	0xbe129bd9	-0.14317264
200	0x3e42a665	0.19008787
201	0x3c5d43f8	0.013504975
202	0xbcb04004	-0.0215149
203	0x3c7077a8	0.014676966
204	0xbdef039f	-0.116706125
205	0x3d72da85	0.059290428
206	0xbe12a5bb	-0.14321034
207	0x3d9c8a9c	0.07643625
208	0xbd9b73c7	-0.07590442
209	0xbe21f95e	-0.15817782
210	0x3cee46eb	0.02908655
211	0x3d8211fa	0.06351085
212	0x3b30f15c	0.002699933
213	0x3e073b7a	0.13206282
214	0x3e27662d	0.1634757
215	0x3e37a1e2	0.17932847
216	0xbddc3c69	-0.1075371
217	0xbde94a76	-0.113911554
218	0xbdc1be6f	-0.094601505
219	0xbca06c23	-0.019582814
220	0x3cbdebcc	0.023183726
221	0x3de5960e	0.11210261
222	0x3e1f9168	0.15582812
223	0x3c55cf64	0.013049934
224	0x3e369bc6	0.1783286
225	0x3d9a6c10	0.075401425
226	0x3e123086	0.14276323
227	0x3dd67a42	0.104725376
228	0x3e1c3843	0.15255837
229	0x3e2ee4dd	0.17079492
230	0xbdfdb18a	-0.123873785
231	0xbe0babf6	-0.13639817
232	0x3dab2c20	0.083580256
233	0xbe4d5f53	-0.20055895
234	0x3dad913e	0.084749684
235	0x3d1b0b5c	0.03785263
236	0x3d6ecf1c	0.058302984
237	0xbdaf515a	-0.085604385
238	0x3dc31ea4	0.095273286
239	0x3dcf32d1	0.10117114
240	0xbd011a30	-0.031519115
241	0x3d235439	0.039875243
242	0x3e5a5434	0.21321183
243	0x3dafed7c	0.085902184
244	0x3d805b4f	0.06267416
245	0xbdefb383	-0.11704161
246	0xbd256cd5	-0.040386993
247	0xbd9e9b46	-0.0774446
248	0xbe4b6026	-0.19860896
249	0xbcf78413	-0.030214345
250	0xbe0f7694	-0.14010078
251	0x3cc32e59	0.023825811
252	0x3e1d6fae	0.15374634
253	0x3cf4ba16	0.029873889
254	0xbe017c38	-0.12645042
255	0xbe51c541	-0.20485403

sequences.0.bias f4 [64]
0	0x3e67a200	0.22620392
1	0x3e7418cf	0.23837589
2	0xbe6ab80c	-0.22921771
3	0x3c82a184	0.015946157
4	0xbe189f4e	-0.1490452
5	0xbe2ba8a6	-0.16763553
6	0x3e290330	0.16505122
7	0x3c2ec245	0.010666435
8	0xbe3fbbda	-0.18724003
9	0xbdf7e55d	-0.121042944
10	0x3cb053f5	0.021524409
11	0xbe1f18e7	-0.15536843
12	0xbe71550b	-0.23567598
13	0x3e52a304	0.20569998
14	0xbe059ec5	-0.13048847
15	0x3d449f55	0.048003513
16	0x3e33431e	0.17506072
17	0xbd574270	-0.052553594
18	0xbe3e91f8	-0.1861037
19	0x3de63db8	0.11242241
20	0xbe4642c1	-0.19361402
21	0x3dbe277c	0.09284875
22	0xbb4df295	-0.0031425108
23	0xbe3f94c5	-0.18709095
24	0xbe66d038	-0.22540367
25	0xbdfaac60	-0.12239909
26	0x3d0be95a	0.03415809
27	0xbdda3c6d	-0.106560566
28	0x3d9c275c	0.07624695
29	0x3e6a9047	0.229066
30	0x3e30b53c	0.17256635
31	0x3e0e863f	0.13918398
32	0x3e219e77	0.15783106
33	0x3b3c6cce	0.0028751376
34	0xbdb9b4ac	-0.090676636
35	0xbe310d44	-0.17290217
36	0x3e4d97cd	0.20077439
37	0x3ddd64b1	0.10810221
38	0xbb812d4b	-0.003942167
39	0xbe0af9a8	-0.13571799
40	0x3e2e85f2	0.17043284
41	0x3dffbd0d	0.124872304
42	0x3dc9b9e6	0.098499104
43	0x3e526ff1	0.20550515
44	0x3e055c53	0.130235
45	0xbe6c12ff	-0.23054121
46	0xbe6816ab	-0.22664897
47	0x3d77586e	0.060387067
48	0x3da9d754	0.08293024
49	0xbe545745	-0.20736416
50	0xbc92268a	-0.017840642
51	0xbe279e45	-0.16368969
52	0xbe1f9883	-0.15585522
53	0x3e212c97	0.15739666
54	0x3e18adb4	0.14910012
55	0xbd6874d9	-0.05675206
56	0xbdabed77	-0.08394902
57	0x3d5bd300	0.053668022
58	0x3e569129	0.20953812
59	0x3e49f966	0.19724044
60	0xbe43e6e0	-0.1913104
61	0xbdaafb9c	-0.08348772
62	0xbda77ea2	-0.0817845
63	0x3e182d48	0.14861023

sequences.2.weight f4 [32, 64, 3, 3]
0	0x3d9f0cf6	0.07766144
1	0x3d01161e	0.031515233
2	0x3cccafc0	0.024986148
3	0x3d970046	0.07373099
4	0x3d90cb64	0.07070044
5	0x3cd4aa69	0.025960164
6	0x3e116459	0.14198436
7	0x3d9e4435	0.07727853
8	0x3d8c42e7	0.06848698
9	0x3b0b2e5e	0.0021237354
10	0xbbf8bb32	-0.007590675
11	0x3c8ddc7d	0.017317051
12	0xb97d4d09	-0.00024156658
13	0x3d2a1853	0.041527104
14	0x3d8224ed	0.06354699
15	0x3ca3c86a	0.019993026
16	0x3c5de5fc	0.013543602
17	0x3d1afcd4	0.037838772
18	0xbd9c2793	-0.07624736
19	0xbdc9de25	-0.09856824
20	0xbd1dddd8	-0.038541645
21	0xbe155dda	-0.14586583
22	0x3be45e91	0.006969281
23	0xbca2fba0	-0.019895375
24	0xbd25383e	-0.04033684
25	0x3d392167	0.04519787
26	0xbcd9f56e	-0.026606288
27	0x3d82896a	0.06373866
28	0xbde0d9d3	-0.10979047
29	0x3deea992	0.11653437
30	0x3e06c9c8	0.13162911
31	0xbda4a253	-0.080387734
32	0x3e074194	0.1320861
33	0x3d86dd38	0.06585163
34	0x3d79a95f	0.06095254
35	0x3cccd264	0.025002666
36	0x3cfc8b7c	0.03082823
37	0xbcb0fe78	-0.021605715
38	0xbc6fa828	-0.014627494
39	0xbb29de69	-0.002591992
40	0x3a8036d7	0.0009781969
41	0xbd750bb4	-0.059825614
42	0xbc12dd77	-0.008963934
43	0xbc81936c	-0.015817367
44	0xbd475e39	-0.048673842
45	0xbc706af6	-0.014673939
46	0xbcd4a880	-0.025959253
47	0xbbc00e82	-0.0058611045
48	0xbcda7e8a	-0.026671667
49	0xbccc310a	-0.024925727
50	0xbd91dbaa	-0.07121976
51	0x3c8b40cb	0.01699867
52	0xbc6900ee	-0.014221413
53	0xbd46a8eb	-0.048500936
54	0x3c4e2b34	0.012583543
55	0x3d240b39	0.040049765
56	0x3d422879	0.04740188
57	0xbc7fcaa2	-0.015612276
58	0x3c059398	0.008152865
59	0xbb2876c5	-0.0025705558
60	0x3af8babf	0.0018976553
61	0x3ce491ae	0.027901497
62	0x3d554693	0.052069258
63	0x3d3e9b38	0.046534747
64	0x3c03d584	0.008046512
65	0x3c5d88d7	0.013521395
66	0xbc50b14d	-0.012737584
67	0xbbaa4937	-0.005196716
68	0xbcb7d144	-0.022438653
69	0x3d6e3efc	0.058165535
70	0xbccded9e	-0.025137719
71	0xbd19bd58	-0.037534088
72	0xbd3b40b8	-0.045716017
73	0xbd03d09f	-0.03218138
74	0xbd24de3a	-0.040250994
75	0xbdab68b6	-0.083695814
76	0xbe0e6087	-0.1390401
77	0xbdb75b4f	-0.089529626
78	0x3d862231	0.0654949
79	0xbdbf2fbc	-0.093352765
80	0x3c8a30c7	0.016868962
81	0xbd38c70c	-0.0451117
82	0xbd3fb763	-0.04680575
83	0xbcedc717	-0.029025597
84	0xbd43ec86	-0.04783299
85	0xbd924b83	-0.07143309
86	0xbca14934	-0.019688226
87	0xbb4624f2	-0.0030234423
88	0xbcab9cf3	-0.020948863
89	0xbd23d292	-0.039995737
90	0x3c8fca7b	0.017552605
91	0xbaad1e8a	-0.0013207954
92	0xbbc0cd22	-0.0058838287
93	0xbd95b7ce	-0.073104486
94	0xbd0bc5be	-0.03412413
95	0xbd9d1f13	-0.076719426
96	0x3d19841a	0.037479497
97	0x3d0e11d7	0.034684982
98	0xbc883362	-0.016626064
99	0xbcf00478	-0.029299006
100	0xbdbdc65b	-0.09266349
101	0xbd82ae32	-0.06380881
102	0xbd5bc7a6	-0.053657196
103	0xbd724a1d	-0.05915271
104	0xbd24ed5d	-0.04026543
105	0xbe225e24	-0.15856224
106	0xbdc97d8a	-0.09838398
107	0x3d8c351c	0.06846067
108	0xbd8111c4	-0.06302217
109	0xbd565d4a	-0.05233506
110	0xbc321f3e	-0.0108717065
111	0xbdccecdd	-0.100061156
112	0xbe2fb9b8	-0.1716069
113	0xbd6b7d81	-0.057492737
114	0x3a08ef30	0.000522363
115	0xbddf080b	-0.10890206
116	0xbd60d891	-0.054894034
117	0x3df3126f	0.1186875
118	0x3dd07d80	0.10180187
119	0xbcd08b3f	-0.025457023
120	0x3dd5095f	0.10402178
121	0x3df13033	0.117767714
122	0x3cd45fac	0.025924526
123	0xbd9e0b72	-0.07717027
124	0x3dd25e6f	0.10271918
125	0x3dd1e7af	0.10249268
126	0x3d7785a0	0.06043017
127	0xbd5c1d20	-0.053738713
128	0xbe0843dc	-0.13307136
129	0xbe265a65	-0.1624542
130	0xbe6a8b51	-0.22904707
131	0xbdc7b69c	-0.09751627
132	0x3d60834c	0.054812714
133	0x3bfcb174	0.0077115837
134	0x3e261ecf	0.1622269
135	0xbc6d0bb1	-0.0144681195
136	0xbc2ecc85	-0.010668878
137	0xba245cb7	-0.0006269919
138	0x3c9a90b3	0.018867826
139	0x3db12b14	0.086507946
140	0x3db2cebb	0.08730837
141	0x3d26841b	0.04065333
142	0xbc1485f6	-0.009065142
143	0xbdb2f7bb	-0.08738657
144	0xbccc69ae	-0.024952736
145	0x3dd4ab4e	0.10384236
146	0x3d216f4d	0.039412785
147	0x3910460a	0.00013759002
148	0x3e3ea5c2	0.18617919
149	0x3e1a8b87	0.15092288
150	0x3d15b984	0.036553875
151	0x3d9b2ca2	0.075768724
152	0xbca9c462	-0.020723525
153	0x3db33a68	0.087513745
154	0xbe1bdc99	-0.1522087
155	0xbe2a516f	-0.16632627
156	0x3ea55d68	0.32297826
157	0xbe78b4bb	-0.24287693
158	0xbd97d778	-0.07414144
159	0x3dc66840	0.09687853
160	0xbddc5955	-0.10759226
161	0x3e020964	0.12698895
162	0xbdd43080	-0.10360813
163	0xbd8f1db1	-0.06988085
164	0xbb853f61	-0.0040663932
165	0xbd41cd9d	-0.04731523
166	0xbd1d47c7	-0.03839853
167	0xbd1dfbac	-0.03857009
168	0x3b2ff96e	0.0026851553
169	0x3c765fcf	0.015037491
170	0xbce40f82	-0.027839426
171	0xbe1614e4	-0.14656407
172	0xbd231189	-0.039811645
173	0x3d1e888d	0.038704444
174	0xbd6223ee	-0.055210046
175	0x3e5605e0	0.20900679
176	0x3d48f9ef	0.04906648
177	0x3d678d00	0.056530952
178	0x3d6c1e50	0.057646096
179	0x3c936e4c	0.01799693
180	0xbc826a5d	-0.015919859
181	0xbca9ce84	-0.020728357
182	0xbc8d80eb	-0.017273387
183	0xbd31b51b	-0.043385606
184	0xbd8d2795	-0.06892315
185	0xbd8fdd0c	-0.07024583
186	0xbd0032a3	-0.03129829
187	0xbd002392	-0.031283922
188	0x3b8e8c6d	0.004350236
189	0xbc672e2b	-0.014110128
190	0xbb51a410	-0.0031988658
191	0x3d73e851	0.059547726
192	0x3e2d354b	0.16914861
193	0x3e280dd1	0.1641152
194	0x3db7f5b5	0.08982412
195	0x3d1913ab	0.037372272
196	0x3dccce8d	0.10000334
197	0x3d65a37c	0.056064114
198	0x3c154716	0.0091111865
199	0xbd0ede6b	-0.034880083
200	0x3c3f757f	0.011685728
201	0x3ca500dd	0.020142013
202	0x3be9809b	0.0071259267
203	0xbc78ba63	-0.015181157
204	0x3cfdf40e	0.031000163
205	0x3cd8f16b	0.026482305
206	0xbc15eb1d	-0.009150294
207	0xbd5b05ec	-0.053472444
208	0x3c2203f5	0.009888639
209	0xbd5085ed	-0.05090897
210	0xbd2ced05	-0.042218227
211	0xbc7c9e6a	-0.015418628
212	0xbccd82c2	-0.025086764
213	0xbd263063	-0.04057349
214	0x3c4b4325	0.012406145
215	0xbd1899af	-0.03725594
216	0xbd400fe8	-0.04689017
217	0xbd20018b	-0.03906397
218	0xbc754950	-0.014971092
219	0xbd1a84a8	-0.037724167
220	0xbddb892e	-0.10719524
221	0xbce70cfa	-0.02820443
222	0xbcf8a7d6	-0.030353468
223	0xbd6c5f44	-0.05770804
224	0x3c84c32a	0.016206343
225	0x3cc7967f	0.024363754
226	0xbd6837e0	-0.05669391
227	0x3d30f067	0.043198016
228	0xbe8ed12d	-0.27893963
229	0xbe1b568e	-0.15169737
230	0x3d93b202	0.07211687
231	0xbd279292	-0.040911265
232	0x3d3a9f86	0.04556229
233	0xbdab0444	-0.08350423
234	0xbbbb56d8	-0.0057171397
235	0x3d181fbf	0.03713965
236	0xbd012697	-0.031530943
237	0x3b8574fb	0.004072783
238	0x3d5b5a60	0.053552985
239	0x3c6713dc	0.014103856
240	0xbd4e0fb4	-0.050307944
241	0x3b9bed6a	0.0047585266
242	0xbc1e4bcd	-0.009661627
243	0xbc2f0500	-0.010682344
244	0xbc6d9570	-0.014500961
245	0x3d2f8323	0.04284967
246	0xbce57dd2	-0.028014097
247	0xbb7159f0	-0.0036827289
248	0x3c296cc2	0.010340871
249	0xbc7bb083	-0.015361908
250	0x3b6142c7	0.0034372078
251	0xbc972c31	-0.01845369
252	0xbcd0f125	-0.025505612
253	0xbd49e172	-0.049287267
254	0x3d04f529	0.032460365
255	0x3cc6e8a6	0.024280857

sequences.2.bias f4 [32]
0	0x3d55e05f	0.05221593
1	0xbd4c24e8	-0.049839884
2	0xbd5c6187	-0.053803947
3	0xbb299a49	-0.0025879315
4	0xbd88ae1a	-0.06673832
5	0xbd43321e	-0.047655217
6	0x3d9221d8	0.071353614
7	0x3d8e38e8	0.06944448
8	0xbd110884	-0.03540851
9	0x3d5bf907	0.053704288
10	0xbd938e65	-0.07204894
11	0xbd0513e9	-0.03248969
12	0x3cb4751d	0.0220285
13	0xbbfccb39	-0.0077146557
14	0xbd7bbfdd	-0.061462272
15	0xbc5449be	-0.012957035
16	0x3e0d4b6f	0.13798307
17	0x3c6f9f43	0.014625373
18	0xbd2650ae	-0.040604286
19	0xbd0583e2	-0.032596476
20	0x3c33b959	0.010969483
21	0x3bdbe622	0.0067107836
22	0xbda8d07c	-0.0824289
23	0xbd87e62a	-0.06635697
24	0xbd81cfcd	-0.06338463
25	0xbd0e614a	-0.03476075
26	0xbd21a1cf	-0.039460953
27	0xbd3d1918	-0.04616651
28	0xbd3c197a	-0.045922734
29	0x3d4701ce	0.048585705
30	0xbaa1e5b2	-0.001235178
31	0xbcdecf37	-0.027198417

sequences.4.weight f4 [64, 32, 3, 3]
0	0xbd6a99b2	-0.05727548
1	0xbda8d503	-0.08243754
2	0xbcbfda9e	-0.023419674
3	0xbc218202	-0.009857656
4	0xbddc4556	-0.10755412
5	0x3bb082c7	0.0053866836
6	0x3c72f610	0.014829174
7	0xbca57127	-0.020195557
8	0x3d27c57a	0.040959813
9	0x3ce45671	0.02787325
10	0xbca4e181	-0.02012706
11	0xbd30ea98	-0.043192476
12	0x3d8f1582	0.06986524
13	0xbb603421	-0.0034210759
14	0x39ed06e0	0.00045209285
15	0x3d720d9b	0.059095006
16	0x3c7b2dba	0.015330726
17	0x3d295bbc	0.04134725
18	0x3e30f923	0.17282538
19	0x3ccaf4c4	0.024774916
20	0x3d9c2443	0.07624104
21	0x3dae102e	0.0849918
22	0x3e48a370	0.19593596
23	0x3dd9a488	0.10627085
24	0xbd043e4e	-0.03228598
25	0x3d30c4b1	0.04315633
26	0xbcf9edca	-0.030508894
27	0xbb375648	-0.0027975012
28	0x3de30354	0.11084619
29	0x3d275995	0.040856916
30	0x3da86b1e	0.08223556
31	0x3dbd7f76	0.09252827
32	0x3debfded	0.11523042
33	0x3cb2c9bd	0.021824712
34	0x3de2c6ca	0.11073072
35	0x3d7eb30a	0.062182464
36	0xbcc74e17	-0.024329228
37	0x3c9b67d4	0.018970408
38	0xbd4651a9	-0.04841772
39	0x3d3ffd53	0.04687245
40	0x3d94f169	0.07272608
41	0xbd8562be	-0.06512974
42	0xbccab489	-0.024744289
43	0xbd63d938	-0.055627078
44	0xbc1d94d9	-0.009618008
45	0x3d25f10a	0.040513076
46	0xbcc93757	-0.02456252
47	0x3c4f667e	0.012658713
48	0x3cac45d5	0.021029392
49	0x3defa517	0.1170141
50	0x3bf23f00	0.007392764
51	0xbd60a6ef	-0.0548467
52	0xbd3b6c62	-0.04575766
53	0xbcdaddf2	-0.02671716
54	0xbba7cfda	-0.0051212134
55	0xbd7099ea	-0.058740534
56	0xbc904b36	-0.017613988
57	0xbd9d54a4	-0.076821595
58	0xbdd5fc50	-0.104485154
59	0xbd8f7e36	-0.07006495
60	0x3d034b7f	0.03205442
61	0x3d4aa2e1	0.04947174
62	0xbd018dc4	-0.03162934
63	0xbdae2ecb	-0.08505019
64	0xbe0dbf35	-0.13842471
65	0x3b2466e9	0.0025085753
66	0xbe1e0151	-0.1543019
67	0xbe0e1051	-0.13873412
68	0xbda3fa69	-0.08006746
69	0xbc6a74e7	-0.014310098
70	0xbd6e13ae	-0.058124237
71	0x3ca84d66	0.020544719
72	0x3c9e2848	0.019306317
73	0x3d8acc40	0.06777239
74	0x3c8590b4	0.016304351
75	0xbc878cd7	-0.01654665
76	0x3cf7d52d	0.030253017
77	0x3d037b50	0.03210002
78	0xbcbff3f3	-0.023431754
79	0x3d41fe57	0.047361698
80	0x3d509974	0.050927594
81	0xbd95a221	-0.07306314
82	0xbde78969	-0.11305506
83	0x3d032366	0.03201618
84	0xbe57aca2	-0.21061948
85	0xbe764c93	-0.24052648
86	0x3c3f995c	0.011694279
87	0x3d97ea1d	0.074177004
88	0x3d43139c	0.047626123
89	0x3bf47e9d	0.0074613825
90	0x3e343d78	0.17601573
91	0x3e7a95a9	0.24471153
92	0xbda2d0de	-0.079499945
93	0x3d4557cf	0.048179444
94	0x3e29d92d	0.16586752
95	0xbda71e8c	-0.08160123
96	0xbd9cacfc	-0.07650182
97	0xbddc0b30	-0.10744321
98	0xbd6074b9	-0.054798815
99	0xbbb09be6	-0.0053896783
100	0x3c8051bd	0.015663976
101	0x3d03eb0b	0.032206576
102	0x3dd525f7	0.10407632
103	0x3dd9eaad	0.10640464
104	0x3d4f6af4	0.050639108
105	0x3cb24415	0.02176098
106	0x3d8140af	0.063111655
107	0xbd0c10be	-0.034195654
108	0x3c22f1b9	0.0099453265
109	0xbca42aa8	-0.020039871
110	0x3cbef92c	0.023312174
111	0xbd9718de	-0.0737779
112	0xbd8061bd	-0.06268642
113	0xbc01911e	-0.007908134
114	0x3d649548	0.05580643
115	0xbb2739a0	-0.0025516525
116	0xbc59d08a	-0.0132943485
117	0x3d4edffa	0.05050657
118	0xbc8219f2	-0.015881512
119	0xbd432e38	-0.0476515
120	0x3b32466c	0.002720262
121	0xbde5565a	-0.11198111
122	0xba9bf944	-0.0011899848
123	0x3d206d84	0.039166942
124	0xbd75a968	-0.05997601
125	0x3d16b6bd	0.036795367
126	0x3cf3de60	0.029769123
127	0x3beeea9f	0.0072911526
128	0x3cf99bd2	0.030469809
129	0x3ccb41fe	0.024811741
130	0x3c1cf82e	0.009580655
131	0xbbacac5e	-0.005269571
132	0x3d603cc5	0.054745454
133	0x3d83dc7c	0.064385384
134	0x3c574885	0.013139849
135	0x3d8249cc	0.06361732
136	0x3e02dab8	0.12778747
137	0x3d8445e3	0.06458642
138	0x3c9e3298	0.019311234
139	0x3e2f9f9f	0.17150734
140	0x3d77f35e	0.060534827
141	0xbd7051a1	-0.058671597
142	0x3d1193ab	0.035541218
143	0xbd29b3ad	-0.041431118
144	0xbe61e35b	-0.22059385
145	0xbe6b6a7f	-0.22989844
146	0x3e312089	0.17297567
147	0xbe00ac4b	-0.12565725
148	0xbd3a0886	-0.045418285
149	0x3e1a086b	0.15042274
150	0x3db1565c	0.0865905
151	0x3d9dda47	0.07707649
152	0x39875d4c	0.00025818718
153	0x3d72f668	0.059317023
154	0xbd9695e6	-0.073528096
155	0xbbb3456c	-0.005470922
156	0xbd73579c	-0.059409723
157	0xbe607cb0	-0.21922565
158	0xbdbee095	-0.093201794
159	0xbd048241	-0.032350782
160	0xbd82f92f	-0.06395184
161	0xbc9b8742	-0.018985394
162	0x3ba04b30	0.0048917755
163	0x3d6b17ad	0.057395626
164	0x3d108ab6	0.035288535
165	0x3e0471c2	0.1293402
166	0x3d49d2a0	0.049273133
167	0x3d50b54d	0.050954152
168	0xbcb04862	-0.02151889
169	0x3d2f58e9	0.0428094
170	0x3caf23d4	0.021379389
171	0x3d2ef264	0.04271163
172	0x3d631b9f	0.055446263
173	0x394cc8cc	0.00019529759
174	0x3cfbd4e9	0.030741172
175	0x3d8205df	0.06348776
176	0x3d0703a3	0.032962453
177	0x3d487109	0.048935924
178	0xbd1e6e53	-0.038679432
179	0x3cca5819	0.024700211
180	0x3d1e9269	0.038713846
181	0x3dcc7082	0.09982397
182	0xbd870387	-0.0659247
183	0x3dad3c54	0.08458772
184	0x3e3cfeea	0.18456617
185	0x3ce94a05	0.028477678
186	0xbbb9e0a6	-0.005672532
187	0x3b2aa79c	0.0026039844
188	0xbd82bf67	-0.06384163
189	0xbd6a37a2	-0.05718196
190	0xbeb0506c	-0.34436357
191	0xbe599bb8	-0.21250808
192	0x3eb5478d	0.3540615
193	0x3e500f6e	0.20318386
194	0xbd7fca15	-0.06244858
195	0x3dcd8d65	0.100367345
196	0xbddcd391	-0.107825406
197	0xbd9b2989	-0.075762816
198	0xbd68e1a2	-0.056855805
199	0xbc5c4adb	-0.013445581
200	0x3c94c032	0.018158052
201	0x3c4a163f	0.012334405
202	0x3ddf1756	0.10893123
203	0x3d3c271a	0.045935728
204	0x3d238082	0.039917476
205	0x3cb8c2f5	0.0225539
206	0x3d4ec1e2	0.05047787
207	0x3d0b9c28	0.03408447
208	0x3d840d58	0.064478576
209	0xbd60804e	-0.05480986
210	0x3cf89e75	0.030348996
211	0x3b3544c5	0.0027659398
212	0x3be78a3f	0.0070660408
213	0xbcc1147d	-0.02356934
214	0x3b9376ef	0.004500262
215	0xbcb14588	-0.0216396
216	0xbd915640	-0.07096529
217	0x3e1ee085	0.15515335
218	0xbd781841	-0.060570005
219	0xbd363948	-0.04448822
220	0x3d9f9938	0.07792896
221	0xbd56ade5	-0.052411932
222	0x3d5934d9	0.053028915
223	0x3dce23ce	0.10065423
224	0x3bd1ea9e	0.0064061424
225	0xbc9f4607	-0.019442571
226	0x3dc7ea83	0.097615264
227	0x3d1d9edf	0.03848159
228	0x3da28845	0.079361476
229	0x3d8f2e26	0.06991224
230	0xbbc7b6a0	-0.0060947686
231	0x3c410744	0.011781517
232	0x3db90ba2	0.09035422
233	0xbbf253d5	-0.0073952475
234	0x3dc93a2e	0.0982555
235	0x3dddda74	0.10832682
236	0xbc210535	-0.009827902
237	0x3e025350	0.12727094
238	0x3e5a6f36	0.21331486
239	0x3d03a3ef	0.03213876
240	0xbe05e087	-0.13073932
241	0xbd75a482	-0.05997134
242	0xbc890ee8	-0.01673074
243	0x3ce6da5d	0.028180296
244	0x3d7cb44b	0.06169538
245	0x3d5b9be5	0.05361547
246	0x3da1fc60	0.07909465
247	0x3e0be2fe	0.1366081
248	0x3d8c2b37	0.0684418
249	0xbb7d616f	-0.0038662811
250	0x3df191f5	0.11795417
251	0x3cdc9490	0.026926309
252	0x3ddd6dd3	0.10811963
253	0x3e138615	0.14406617
254	0xbd8c51ea	-0.06851561
255	0x3e1a8935	0.15091403

sequences.4.bias f4 [64]
0	0xbd8aaaee	-0.067708835
1	0xbd293f1b	-0.041319948
2	0xbcdadad9	-0.026715683
3	0xbc89ca69	-0.01682015
4	0xbc84f854	-0.016231693
5	0xbd7a7e19	-0.061155412
6	0xbd1e3f78	-0.038634747
7	0xbc90d8f9	-0.017681586
8	0xbd12ef74	-0.03587289
9	0xbc94e62e	-0.018176164
10	0xbd732539	-0.05936167
11	0xbd5c9cff	-0.05386066
12	0x3c35b27c	0.011089917
13	0x3c3d0ed1	0.011539177
14	0xbd98f417	-0.074684314
15	0xbd0ee8c4	-0.03488995
16	0xbd99a4a8	-0.07502109
17	0xbcd24db0	-0.02567181
18	0xb9a119b3	-0.0003072746
19	0xbd6710f3	-0.05641265
20	0xbd82326a	-0.06357272
21	0xbd28ecf7	-0.041241612
22	0x3ac46fd5	0.0014986942
23	0xbcd316cc	-0.025767706
24	0xbd29f571	-0.041493837
25	0xbd28b455	-0.041187603
26	0xbd0cc059	-0.034363125
27	0xbbab1a50	-0.0052216426
28	0x3bc56bd4	0.006024817
29	0x3b838794	0.004013965
30	0xbd1c67d6	-0.038184963
31	0xbd06b274	-0.03288503
32	0xbd83ab03	-0.06429102
33	0x3aa58313	0.0012627564
34	0xbd6ae0f4	-0.05734344
35	0xbab36717	-0.0013687339
36	0xbd8480af	-0.06469857
37	0xbce7f1c9	-0.028313534
38	0xbd0fb3d5	-0.03508361
39	0xbd71532e	-0.058917217
40	0xbcf2cb60	-0.029637992
41	0xbd2ec66b	-0.042669695
42	0xbd70503c	-0.058670267
43	0xbd513799	-0.051078413
44	0xbda92ec8	-0.08260876
45	0xbd35350a	-0.044240035
46	0xbd799508	-0.060933143
47	0xbccda18d	-0.025101447
48	0xbd71d8fd	-0.059044827
49	0xbc81088c	-0.015751146
50	0xbd9d2723	-0.0767348
51	0xbd480899	-0.048836324
52	0xbd577306	-0.05259993
53	0xbca8e575	-0.020617226
54	0xbd932d62	-0.071863905
55	0xbd139cd4	-0.036038235
56	0xbd6199d3	-0.05507834
57	0xbd7f97b7	-0.062400546
58	0xbc93cff5	-0.018043498
59	0xbbfe092f	-0.0077525596
60	0xbccd9ace	-0.02509823
61	0xbd3ff796	-0.046866976
62	0xbc8a0321	-0.016847195
63	0xbbae893f	-0.0053264196
