saved_models/UPSCALE_X8/epoch_52.pth (torch, 157087 bytes, 6 tensors)

sequences.0.weight f4 [64, 1, 5, 5]
0.10754755 -0.13895884 0.028138513 -0.20969024 0.007376982 0.034889594 0.11261753 -0.24212064
-0.22033657 -0.20234933 0.009187812 0.003280236 0.1344202 -0.1468486 0.17449144 0.1454781
-0.024016611 0.14548916 0.054755878 0.085257985 -0.097822174 -0.025913496 0.17775097 -0.14128532
-0.12945738 0.15245628 -0.107192315 0.1373319 0.14927292 -0.061818797 0.05769054 0.22801907
0.058619026 -0.021309972 -0.1994198 0.04760884 0.21097872 0.33189175 0.17365901 -0.13051832
0.15334167 -0.029891713 0.3082773 0.02370432 -0.077725425 0.043753713 0.018561816 0.24453469
0.14696997 -0.14996052 0.041866254 -0.07992661 -0.14387128 0.0069244867 -0.1583014 0.12568457
0.12092001 -0.20493916 0.10356605 -0.14138392 -0.0042796456 0.053019606 -0.09363095 0.19391325
0.16766661 -0.008983959 -0.040270537 -0.01124011 0.07384748 0.05565006 -0.14833528 -0.00101814
0.15665576 -0.010356321 0.18215592 -0.030431509 0.12500864 -0.09794 0.12365734 0.0010895862
0.17414275 -0.16399685 -0.04907787 -0.19414407 0.047118768 0.024972472 -0.17427613 0.20026003
-0.1706809 0.0033121095 0.040665727 -0.1676662 0.052716132 -0.1191903 0.16210546 -0.0041957186
-0.05975611 -0.049053755 -0.13939713 0.06880637 0.02116685 0.024375964 0.018405743 -0.011521231
-0.053710897 0.1463501 0.011708823 0.09003695 0.07066151 -0.12958868 0.02781158 0.20844291
-0.001470246 -0.112962194 0.19232951 0.041656207 0.07724019 0.13316868 0.033260167 -0.19198258
0.17038839 -0.06556804 0.03931314 0.00017190493 -0.19966352 0.101003036 -0.027480159 -0.14248149
0.049195983 0.016468676 -0.18427354 -0.3199414 -0.03780939 0.016853422 0.0813808 -0.19558781
-0.36218983 -0.11814296 0.07371309 -0.011288718 -0.16577075 -0.37782016 -0.28033283 -0.03612729
0.03499172 -0.17608348 -0.26628542 -0.16856544 -0.050740007 -0.059746265 0.04587863 -0.1691853
0.22201878 0.28618422 0.1843121 0.006132693 0.07582808 0.26936626 0.27591082 0.06477706
-0.096990034 0.16787729 0.191006 0.3834783 0.32255462 -0.07883322 -0.1982279 -0.1792758
0.17553839 0.12580407 0.013236926 0.14974898 -0.10536915 0.22392981 -0.14172836 -0.1892801
-0.1685706 0.08019735 0.095985316 -0.09651932 -0.0036236753 0.083150074 0.22074038 -0.05943052
-0.091816045 0.17947775 0.15557303 0.11539208 0.08924815 0.08832072 0.13307118 -0.055751543
0.05878981 -0.103032894 -0.008226 0.15396047 -0.19980784 -0.031705983 -0.08717818 -0.14427324
0.19045763 0.014279516 -0.020919658 0.013692056 -0.11608145 0.05660685 -0.14695708 0.07495067
-0.079159625 -0.16081847 0.02994617 0.06580086 0.0065264204 0.13602692 0.16382083 0.17969741
-0.107326 -0.116264746 -0.096214086 -0.020775527 0.02375435 0.11421106 0.15691727 0.01271247
0.17902073 0.07674975 0.14481068 0.10654733 0.15389772 0.17281422 -0.12346831 -0.13628657
0.084178716 -0.20112203 0.08585593 0.03826479 0.059348743 -0.08506694 0.096466735 0.101338245
-0.031201033 0.040851723 0.21649829 0.08779661 0.063769884 -0.11610324 -0.039817616 -0.07757519
-0.19875501 -0.028982582 -0.13854039 0.028149428 0.15767281 0.030724742 -0.11921445 -0.22299986
00000000: e441 dc3d 3a4b 0ebe bd82 e63c 0ab9 56be
00000010: 9cba f13b 64e8 0e3d 05a4 e63d 79ee 77be
00000020: e99f 61be aa34 4fbe 7a88 163c 3af9 563b
00000030: 73a5 093e 7b5f 16be e2ad 323e 36f8 143e
00000040: 7cbe c4bc 1cfb 143e b347 603d bd9b ae3d
00000050: fe56 c8bd 8a48 d4bc 5a04 363e 19ad 10be
00000060: 7a90 04be 801d 1c3e a587 dbbd bca0 0c3e
00000070: 00db 183e b535 7dbd ea4c 6c3d d57d 693e
00000080: 811a 703d 4092 aebc b434 4cbe 7d01 433d
00000090: ce0a 583e b7ed a93e abd3 313e 98a6 05be
000000a0: 9905 1d3e 77df f4bc 86d6 9d3e 902f c23c
000000b0: 822e 9fbd 1837 333d f30e 983c 4d67 7a3e
000000c0: 4c7f 163e 408f 19be f37b 2b3d 90b0 a3bd
000000d0: fe52 13be cee6 e23b c319 22be 75b3 003e
000000e0: e9a4 f73d 92db 51be 701a d43d f2c6 10be
000000f0: 453c 8cbb 162b 593d 95c1 bfbd 3291 463e
00000100: ccb0 2b3e 7531 13bc b8f2 24bd 7028 38bc
00000110: 593d 973d 51f1 633d 34e5 17be 1c73 85ba
00000120: 5e6a 203e 8fad 29bc 1587 3a3e 804b f9bc
00000130: 4402 003e c494 c8bd 0f40 fd3d 72d0 8e3a
00000140: 7a52 323e caee 27be e005 49bd b4cd 46be
00000150: 9cff 403d 1293 cc3c 7175 32be f710 4d3e
00000160: f9c6 2ebe fa0f 593b 1b91 263d b0b0 2bbe
00000170: dfec 573d 0b1a f4bd f9fe 253e 3d7c 89bb
00000180: d3c2 74bd 97ec 48bd 1fbe 0ebe 5bea 8c3d
00000190: 1a66 ad3c 1ab0 c73c a4c7 963c 8cc3 3cbc
000001a0: f5ff 5bbd cddc 153e 5dd6 3f3c 4b65 b83d
000001b0: fbb6 903d e5b2 04be 1cd5 e33c 0f72 553e
000001c0: 45b5 c0ba b958 e7bd 07f2 443e b39f 2a3d
000001d0: 1b30 9e3d 5f5d 083e d03b 083d 1597 44be
000001e0: 4b7a 2e3e 8948 86bd d106 213d 6141 3439
000001f0: 9874 4cbe aeda ce3d 121e e1bc abe6 11be
00000200: ba81 493d 51e9 863c 34b2 3cbe 5ccf a3be
00000210: 05de 1abd 3010 8a3c faaa a63d 2c48 48be
00000220: f270 b9be f0f4 f1bd e3f6 963d 51f4 38bc
00000230: cfbf 29be a571 c1be c987 8fbe 36fa 13bd
00000240: 7a53 0f3d 3a4f 34be 9056 88be 6b9c 2cbe
00000250: c1d4 4fbd 80b8 74bd 3beb 3b3d e93e 2dbe
00000260: e458 633e bd86 923e 50bc 3c3e c2f4 c83b
00000270: c14b 9b3d 60ea 893e 2f44 8d3e d6a9 843d
00000280: b6a2 c6bd 06e8 2b3e 1497 433e 4557 c43e
00000290: e125 a53e 5073 a1bd 41fc 4abe 1394 37be
000002a0: 56c0 333e c8d2 003e b1df 583c cc57 193e
000002b0: c8cb d7bd db4d 653e 3d21 11be a4d2 41be
000002c0: c59d 2cbe 823e a43d f393 c43d ecab c5bd
000002d0: 2f7b 6dbb 964a aa3d c409 623e 6b6d 73bd
000002e0: 0d0a bcbd 04c9 373e 894e 1f3e af52 ec3d
000002f0: bcc7 b63d 7ee1 b43d d043 083e bb5b 64bd
00000300: 95cd 703d e902 d3bd 58c6 06bc d0a7 1d3e
00000310: 6d9a 4cbe 22de 01bd 798a b2bd 5dbc 13be
00000320: 5307 433e a2f4 693c b45f abbc a554 603c
00000330: 1cbc edbd 96dc 673d eb7b 16be bd7f 993d
00000340: 711e a2bd 99ad 24be ac51 f53c 9ac2 863d
00000350: 95db d53b a44a 0b3e a6c0 273e 9902 383e
00000360: bccd dbbd 361c eebd e40b c5bd 7031 aabc
00000370: 7c98 c23c 7de7 e93d ecae 203e f747 503c
00000380: 3651 373e f92e 9d3d 4049 143e 7d35 da3d
00000390: 5d97 1d3e 36f6 303e f4dc fcbd b58e 0bbe
000003a0: e465 ac3d eff2 4dbe 3cd5 af3d 8abb 1c3d
000003b0: ab17 733d 9337 aebd 5a90 c53d 6d8a cf3d
000003c0: 4f99 ffbc 2354 273d bab1 5d3e b6ce b33d
000003d0: c999 823d 89c7 edbd cc17 23bd bedf 9ebd
000003e0: 6f86 4bbe e16c edbc 88dd 0dbe a199 e63c
000003f0: fb74 213e 74b2 fb3c b526 f4bd 135a 64be

sequences.0.bias f4 [64]
0.22857332 0.24474391 -0.23260422 0.015630078 -0.15019794 -0.17232521 0.17842297 0.009405201
-0.1900535 -0.12205508 0.023139646 -0.15903622 -0.23980115 0.20754912 -0.13462357 0.050779045
0.17725822 -0.05537022 -0.1901684 0.11888633 -0.19903526 0.09529845 -0.0040663285 -0.18867934
-0.2276881 -0.12570658 0.03575241 -0.10606192 0.078030646 0.23066927 0.17496574 0.1403293
0.16063692 0.0015916518 -0.094035976 -0.17493877 0.2030355 0.109704934 -0.0031783942 -0.13719946
0.17449848 0.12712248 0.09549801 0.20824267 0.13103102 -0.24095011 -0.22834903 0.060312927
0.09550952 -0.21493822 -0.017388746 -0.16644208 -0.15727624 0.15909791 0.15367685 -0.051448002
-0.08520687 0.053786974 0.21315563 0.19817786 -0.19390033 -0.08327308 -0.08418331 0.1577706
00000000: 200f 6a3e 269e 7a3e cd2f 6ebe a60a 803c
00000010: 7dcd 19be 0576 30be 83b4 363e 4618 1a3c
00000020: 629d 42be 04f8 f9bd 5b8f bd3c 64da 22be
00000030: 6f8e 75be c287 543e c3da 09be b0fd 4f3d
00000040: 2e83 353e e2cb 62bd 81bb 42be ad7a f33d
00000050: e6cf 4bbe d52b c33d d63e 85bb 2835 41be
00000060: 1227 69be 3ab9 00be 1e71 123d fe36 d9bd
00000070: 88ce 9f3d 9134 6c3e 382a 333e 7cb2 0f3e
00000080: 017e 243e f99e d03a ef95 c0bd 2623 33be
00000090: 8ae8 4f3e fbac e03d 9b4c 50bb 047e 0cbe
000000a0: bbaf 323e 652c 023e 7694 c33d 913d 553e
000000b0: ff2c 063e a0bb 76be 54d4 69be b00a 773d
000000c0: 7f9a c33d c418 5cbe d872 8ebc cb6f 2abe
000000d0: 060d 21be 90ea 223e 775d 1d3e 24bb 52bd
000000e0: f180 aebd bb4f 5c3d 7845 5a3e 23ef 4a3e
000000f0: cf8d 46be 148b aabd 4d68 acbd 9e8e 213e

sequences.2.weight f4 [32, 64, 3, 3]
0.088945396 0.02887086 0.033317465 0.08478388 0.07385913 0.029874204 0.18019934 0.10602855
0.09278333 0.0018350437 -0.0042433953 0.022399683 -0.0014146061 0.042873815 0.06722649 0.019338647
0.015733369 0.041529458 -0.11522871 -0.11758519 -0.058169104 -0.18504778 0.008915503 -0.025502777
-0.05749274 0.05098446 -0.027735788 0.07346948 -0.11744716 0.11710794 0.13973425 -0.09237514
0.13321264 0.065783866 0.06646435 0.029096993 0.03178441 -0.028009852 -0.020206735 -6.1405786e-05
-0.0002153932 -0.06175752 -0.0044328426 -0.022877488 -0.050446212 -0.014496663 -0.028431352 -0.01162029
-0.02507442 -0.02563571 -0.075546 0.017707136 -0.015185884 -0.05259235 0.012106263 0.042822346
0.047677502 -0.015175246 0.0093949605 -0.0035954707 0.003383048 0.029602144 0.051852208 0.044216864
0.0037172409 0.014536107 -0.011223633 -0.0074058827 -0.021941666 0.06960098 -0.026786841 -0.038944673
-0.052620973 -0.03133132 -0.03971925 -0.0873921 -0.14992759 -0.091350235 0.06982663 -0.10337679
0.017883392 -0.04629526 -0.043602627 -0.023611667 -0.0529262 -0.069382496 -0.02183036 -0.0026506619
-0.017926367 -0.039028835 0.021327043 -0.0029701353 -0.008670355 -0.10202861 -0.033924665 -0.09103774
0.03603458 0.052132506 -0.0185623 -0.034442645 -0.1056875 -0.0682112 -0.050411794 -0.06602794
-0.02996278 -0.18564992 -0.11690048 0.08835824 -0.0828325 -0.061364185 -0.011482608 -0.1031251
-0.2087091 -0.07179502 0.004305995 -0.11022235 -0.048659902 0.15422651 0.1268527 -0.018895214
0.1200865 0.13712218 0.021953011 -0.10533108 0.111646 0.1176484 0.06693707 -0.05589253
-0.1532262 -0.17437717 -0.25620645 -0.117994405 0.06666854 0.023063434 0.19359697 -0.019671356
-0.018734958 -0.0053975806 0.018079149 0.09399773 0.10002889 0.044916485 -0.013616214 -0.09682803
-0.042340793 0.09986956 0.049715474 -0.017704207 0.1932491 0.1649426 0.044156175 0.084166296
-0.017184664 0.09986045 -0.16663826 -0.19053328 0.35396916 -0.26741266 -0.081553765 0.11339009
-0.11587195 0.14540295 -0.11593281 -0.09036352 -0.007298701 -0.046387427 -0.032316666 -0.03368069
-0.0010117474 0.011588347 -0.030310178 -0.1712258 -0.033300675 0.05149168 -0.07594198 0.2472973
0.064145334 0.05790596 0.07603125 0.03887589 -0.017041875 -0.025113678 -0.021736175 -0.043558426
-0.071376294 -0.07349241 -0.032320496 -0.033896692 0.0010480469 -0.021636186 -0.008384097 0.06853316
0.18976365 0.18085143 0.1084949 0.05648583 0.1117272 0.0822663 0.010106197 -0.037882138
0.008584759 0.020991644 0.005673745 -0.01762463 0.032239944 0.025193492 -0.010973162 -0.063519605
0.011621558 -0.055400964 -0.054016873 -0.008988471 -0.028932007 -0.044946615 0.010817449 -0.04274191
-0.04582942 -0.044253565 -0.02014459 -0.04187502 -0.117106244 -0.0301032 -0.034675263 -0.059289362
0.016945817 0.031784084 -0.07107308 0.041345652 -0.31678075 -0.18035485 0.08432429 -0.056817085
0.0560081 -0.08559263 -0.010382476 0.03585538 -0.035090648 0.0042909244 0.060876805 0.013341287
-0.051777244 -0.005026376 -0.017763916 -0.013357803 -0.015185193 0.044978473 -0.028621769 -0.00063762633
0.014325359 -0.016840948 0.0012709548 -0.019884236 -0.0312774 -0.06209305 0.03320879 0.022197021
00000000: 0129 b63d 9582 ec3c e577 083d 2ca3 ad3d
00000010: 7543 973d bfba f43c 2d86 383e 7f25 d93d
00000020: 3005 be3d d985 f03a 2e0c 8bbb 8a7f b73c
00000030: 4e6a b9ba 749c 2f3d 0bae 893d 156c 9e3c
00000040: 44e3 803c cb1a 2a3d 08fd ebbd 81d0 f0bd
00000050: ba42 6ebd 2a7d 3dbe 5412 123c 33eb d0bc
00000060: 827d 6bbd 15d5 503d 2a36 e3bc 2b77 963d
00000070: 2388 f0bd 4ad6 ef3d 7f16 0f3e 2d2f bdbd
00000080: e568 083e b1b9 863d 761e 883d d15c ee3c
00000090: 5f30 023d eb74 e5bc 9888 a5bc fbc6 80b8
000000a0: 2cdb 61b9 74f5 7cbd 6141 91bb 9269 bbbc
000000b0: b0a0 4ebd 6983 6dbc dee8 e8bc 0763 3ebc
000000c0: df68 cdbc fb01 d2bc dcb7 9abd 8e0e 913c
000000d0: 37ce 78bc 136b 57bd 5959 463c 7c66 2f3d
000000e0: 7c49 433d 98a1 78bc 52ed 193c fda1 6bbb
000000f0: 21b6 5d3b 3280 f23c fb62 543d be1c 353d
00000100: f49c 733b da28 6e3c 54e3 37bc 0cad f2bb
00000110: 02bf b3bc f58a 8e3d 1470 dbbc 7384 1fbd
00000120: 1789 57bd 4555 00bd a7b0 22bd a1fa b2bd
00000130: 9e86 19be d515 bbbd 4401 8f3d 36b7 d3bd
00000140: 3180 923c 19a0 3dbd ab98 32bd 416d c1bc
00000150: 25c9 58bd 6918 8ebd 95d5 b2bc bab6 2dbb
00000160: 51da 92bc b3dc 1fbd 0db6 ae3c 9aa6 42bb
00000170: 1b0e 0ebc 60f4 d0bd 97f4 0abd ff71 babd
00000180: ff98 133d e588 553d f70f 98bc bb13 0dbd
00000190: b072 d8bd 50b2 8bbd 997c 4ebd a839 87bd
000001a0: 8174 f5bc 031b 3ebe 8569 efbd 2af5 b43d
000001b0: 16a4 a9bd 0359 7bbd 8c21 3cbc 4133 d3bd
000001c0: d7b7 55be 4409 93bd 4e19 8d3b 41bc e1bd
000001d0: 9b4f 47bd 8eed 1d3e ade5 013e 23ca 9abc
000001e0: e9ef f53d c269 0c3e cdd6 b33c d2b7 d7bd
000001f0: a8a6 e43d a5f1 f03d 4d16 893d 91ef 64bd
00000200: 54e7 1cbe ee8f 32be 7e2d 83be 0da7 f1bd
00000210: 8489 883d 87ef bc3c 493e 463e d325 a1bc
00000220: 0e7a 99bc 30de b0bb b91a 943c e281 c03d
00000230: f2db cc3d 59fa 373d 8a16 5fbc c64d c6bd
00000240: 8a6d 2dbd 6988 cc3d 74a2 4b3d 6a08 91bc
00000250: 18e3 453e b7e6 283e 1bdd 343d 615f ac3d
00000260: dac6 8cbc a383 cc3d 38a3 2abe 281b 43be
00000270: 723b b53e 50ea 88be a905 a7bd 1039 e83d
00000280: 464e edbd 83e4 143e 2e6e edbd 8210 b9bd
00000290: f129 efbb be00 3ebd 7b5e 04bd c3f4 09bd
000002a0: 9c9c 84ba 0ddd 3d3c 0d4d f8bc d155 2fbe
000002b0: 4a66 08bd f1e8 523d 7887 9bbd 813b 7d3e
000002c0: a15e 833d cd2e 6d3d 46b6 9b3d 533c 1f3d
000002d0: 679b 8bbc 33bb cdbc 1010 b2bc 526a 32bd
000002e0: bc2d 92bd 3083 96bd 7f62 04bd 42d7 0abd
000002f0: 9e5e 893a 5f3e b1bc 745d 09bc 1d5b 8c3d
00000300: 6751 423e 1e31 393e 9332 de3d b05d 673d
00000310: 3bd1 e43d 3c7b a83d 7694 253c 4d2a 1bbd
00000320: 17a7 0c3c abf6 ab3c d3ea b93b 8761 90bc
00000330: 080e 043d 9562 ce3c c7c8 33bc 9116 82bd
00000340: 5968 3e3c 1fec 62bd cc40 5dbd 6144 13bc
00000350: d102 edbc f119 38bd ab3b 313c 2412 2fbd
00000360: a1b7 3bbd 3a43 35bd 4406 a5bc 2485 2bbd
00000370: 66d5 efbd fc9a f6bc a607 0ebd 67d9 72bd
00000380: f4d1 8a3c 0730 023d c38e 91bd 0f5a 293d
00000390: 1631 a2be f1ae 38be 37b2 ac3d 08b9 68bd
000003a0: c068 653d 304b afbd 431b 2abc 17dd 123d
000003b0: 36bb 0fbd e29a 8c3b f559 793d 6a95 5a3c
000003c0: 6014 54bd 4cb4 a4bb a285 91bc b0da 5abc
000003d0: 51cb 78bc 593b 383d 3378 eabc 6126 27ba
000003e0: e9b4 6a3c 07f6 89bc 2b96 a63a 44e4 a2bc
000003f0: bb1c 00bd 4855 7ebd f105 083d 87d6 b53c

sequences.2.bias f4 [32]
0.05544181 -0.05011608 -0.054200333 -0.0012651215 -0.07132312 -0.047174536 0.07417203 0.07791171
-0.034148067 0.051187593 -0.07555603 -0.034508802 0.025096228 -0.0070591336 -0.060937617 -0.010092721
0.14352582 0.013849896 -0.040870804 -0.032646015 0.01524879 0.0040710387 -0.08250346 -0.065450385
-0.06540393 -0.038549155 -0.04101715 -0.046842556 -0.043389913 0.04951954 -0.00087176193 -0.027639214
00000000: f416 633d 8546 4dbd 2b01 5ebd 6fd2 a5ba
00000010: db11 92bd 163a 41bd 81e7 973d 2d90 9f3d
00000020: d8de 0bbd 15aa 513d 1fbd 9abd 1a59 0dbd
00000030: 9b96 cd3c 4e50 e7bb b999 79bd f15b 25bc
00000040: 6ff8 123e adea 623c 2568 27bd d4b7 05bd
00000050: 10d6 793c 5966 853b 93f7 a8bd da0a 86bd
00000060: 7ff2 85bd b8e5 1dbd 9901 28bd fbdd 3fbd
00000070: 9fb9 31bd 00d5 4a3d f486 64ba a26b e2bc

sequences.4.weight f4 [64, 32, 3, 3]
-0.05742246 -0.087654054 -0.021597644 -0.007059685 -0.11184624 0.009440365 0.014579499 -0.016853852
0.039580345 0.03090069 -0.014335385 -0.044353057 0.072116055 0.00806291 0.014117048 0.060499746
0.03707435 0.057727426 0.1588087 -0.04144457 0.026468938 0.12375905 0.25256795 0.12851037
-0.051829528 0.020155577 -0.057685692 -0.0025351546 0.10894357 0.03978412 0.08341233 0.09134564
0.11575053 0.024953498 0.11177279 0.062116425 -0.024134552 0.02418189 -0.050860103 0.047897514
0.075549096 -0.06734574 -0.027058586 -0.05774899 -0.010064428 0.03582286 -0.02770904 0.012131217
0.025289953 0.11969198 0.004605447 -0.052780222 -0.04254792 -0.02117151 -0.008088857 -0.059010845
-0.020873586 -0.07713075 -0.10426619 -0.06866578 0.033433083 0.047806267 -0.031220274 -0.09078126
-0.14585373 0.0039059715 -0.15744044 -0.14162326 -0.08129738 -0.00994641 -0.05343213 0.025672927
0.016467642 0.06559718 0.014053968 -0.018366558 0.029255142 0.03164233 -0.023756607 0.047873948
0.05147937 -0.07018164 -0.11321987 0.029246153 -0.20895301 -0.24030972 0.014907556 0.07277989
0.04672736 0.006824832 0.18615139 0.2503107 -0.08274394 0.056278326 0.1746448 -0.08472657
-0.07355289 -0.10516528 -0.053904552 -0.0051937317 0.019977631 0.031087434 0.10396391 0.10740265
0.050190523 0.01879863 0.06149657 -0.036339983 0.008270997 -0.028898958 0.015670428 -0.077053495
-0.06795091 -0.009438292 0.05065141 -0.0094232885 -0.016413318 0.04948055 -0.022928191 -0.059518777
-0.013300646 -0.13737081 -0.026489582 0.04013315 -0.066088416 0.030467747 0.030928014 0.008954675
0.028007615 0.024187392 0.009242226 -0.007701937 0.053816877 0.062272504 0.010179927 0.065427534
0.12320458 0.063803636 0.02336811 0.16419518 0.060741637 -0.054945868 0.03147464 -0.03919278
-0.2132604 -0.23271827 0.1801616 -0.12660572 -0.04250109 0.14851528 0.0833934 0.07380071
-0.0059459666 0.07465873 -0.06896639 -0.0003591617 -0.049308553 -0.21533263 -0.090743914 -0.03232874
-0.06430332 -0.020755168 -0.0019254938 0.045593884 0.039515357 0.12685749 0.031672142 0.05591558
-0.024521215 0.043418787 0.023953913 0.04340586 0.05249741 -0.0030961928 0.03175345 0.061770737
0.030948598 0.04794933 -0.03882888 0.022729108 0.03584754 0.10554257 -0.07428622 0.088011056
0.19010326 0.020579197 -0.010048728 -0.000121471894 -0.066719875 -0.060216505 -0.35857597 -0.204321
0.35314673 0.19354576 -0.069087096 0.09859418 -0.11990107 -0.080034986 -0.05586215 -0.009477201
0.017357618 0.011763377 0.11180175 0.04394442 0.040612027 0.022093864 0.050883483 0.03477978
0.0657617 -0.053736933 0.030858085 0.0047478597 0.0071985633 -0.021200737 0.010487219 -0.019299822
-0.032950584 0.2176721 -0.048175458 -0.10988712 0.022764338 -0.07791928 0.08960712 0.13877702
0.021549162 -0.015905937 0.10243749 0.037304565 0.081190854 0.07135869 -0.0061615477 0.009447457
0.087711744 -0.011110233 0.101836994 0.106773645 -0.014844075 0.12492323 0.21034265 0.020966249
-0.119419135 -0.054641835 -0.013055073 0.032147188 0.068142086 0.057832737 0.07673935 0.13493215
0.07257667 -0.004247756 0.11840654 0.022529786 0.11376586 0.14698705 -0.06977218 0.15029256
00000000: d033 6bbd f883 b3bd 8bed b0bc ee54 e7bb
00000010: a40f e5bd c3ab 1a3c dade 6e3c 1711 8abc
00000020: 001f 223d 7223 fd3c f6de 6abc 8dab 35bd
00000030: 95b1 933d 4c1a 043c 314b 673c 95ce 773d
00000040: 46db 173d 9873 6c3d bf9e 223e c8c1 29bd
00000050: 63d5 d83c 6375 fd3d 9650 813e 3998 033e
00000060: 334b 54bd 4f1d a53c d547 6cbd d624 26bb
00000070: ce1d df3d acf4 223d 15d4 aa3d 6c13 bb3d
00000080: 9d0e ed3d 476b cc3c 22e9 e43d cb6d 7e3d
00000090: d3b5 c5bc 1919 c63c af52 50bd 2f30 443d
000000a0: 7cb9 9a3d 90ec 89bd f8a9 ddbc 348a 6cbd
000000b0: 45e5 24bc feba 123d 12fe e2bc 03c2 463c
000000c0: e02c cf3c 1221 f53d 4ae9 963b 1330 58bd
000000d0: ba46 2ebd e06f adbc 2087 04bc 5bb5 71bd
000000e0: 15ff aabc baf6 9dbd 8389 d5bd a5a0 8cbd
000000f0: 21f1 083d 81d0 433d a9c1 ffbc 86eb b9bd
00000100: ae5a 15be 54fb 7f3b 1138 21be b005 11be
00000110: 3e7f a6bd 44f6 22bc a6db 5abd 0850 d23c
00000120: 26e7 863c d057 863d 9d42 663c 7775 96bc
00000130: 7ba8 ef3c 639b 013d 379d c2bc 7917 443d
00000140: 08dc 523d 64bb 8fbd d2df e7bd a195 ef3c
00000150: c7f7 55be c013 76be d23e 743c 9f0d 953d
00000160: 3065 3f3d d7a2 df3b 789e 3e3e b928 803e
00000170: a875 a9bd 1a84 663d 16d6 323e 2085 adbd
00000180: e6a2 96bd e560 d7bd 05cb 5cbd 2e30 aabb
00000190: 21a8 a33c 13ab fe3c 08eb d43d ecf5 db3d
000001a0: 9494 4d3d 96ff 993c d4e3 7b3d 3cd9 14bd
000001b0: 1383 073c 82bd ecbc 455f 803c 39ce 9dbd
000001c0: d929 8bbd 11a3 1abc da77 4f3d 2364 1abc
000001d0: 3975 86bc 1eac 4a3d e7d3 bbbc f6c9 73bd
000001e0: f4ea 59bc efaa 0cbe ae00 d9bc a862 243d
000001f0: 5d59 87bd 7f97 f93c bf5c fd3c a1b6 123c
00000200: 3a70 e53c a324 c63c b56c 173c 8860 fcbb
00000210: 166f 5c3d 7411 7f3d b5c9 263c dffe 853d
00000220: af52 fc3d 7bab 823d 7b6e bf3c c822 283e
00000230: 39cc 783d eb0e 61bd 8deb 003d 9c88 20bd
00000240: ef60 5abe b34d 6ebe 487c 383e eea4 01be
00000250: 9f15 2ebd 6414 183e 29ca aa3d d424 973d
00000260: 62d6 c2bb ade6 983d 403e 8dbd de4d bcb9
00000270: c4f7 49bd 2880 5cbe f2d7 b9bd 246b 04bd
00000280: 76b1 83bd be06 aabc da60 fcba a7c0 3a3d
00000290: dbda 213d eee6 013e a6ba 013d bc07 653d
000002a0: b7e0 c8bc e6d7 313d ff3a c43c 58ca 313d
000002b0: 8607 573d 7fe9 4abb e80f 023d 5003 7d3d
000002c0: ea87 fd3c 8466 443d 080b 1fbd 6532 ba3c
000002d0: dfd4 123d b426 d83d 6023 98bd 243f b43d
000002e0: 6eaa 423e b495 a83c 6ca3 24bc babe feb8
000002f0: 6ea4 88bd 95a5 76bd 4597 b7be 8639 51be
00000300: a6cf b43e dc30 463e 897d 8dbd bfeb c93d
00000310: b18e f5bd 62e9 a3bd b6cf 64bd 4346 1bbc
00000320: 9031 8e3c 2ebb 403c 51f8 e43d 10ff 333d
00000330: cc58 263d 31fe b43c 336b 503d 3e75 0e3d
00000340: 12ae 863d 421b 5cbd 18ca fc3c ef93 9b3b
00000350: ede1 eb3b 2bad adbc 96d2 2b3c a91a 9ebc
00000360: 31f7 06bd 6fe5 5e3e a153 45bd 800c e1bd
00000370: 477c ba3c 2594 9fbd f083 b73d 901b 0e3e
00000380: de87 b03c 2b4d 82bc bfca d13d accc 183d
00000390: 6447 a63d 8124 923d cfe6 c9bb 82c9 1a3c
000003a0: 37a2 b33d b207 36bc ea8f d03d 24ac da3d
000003b0: 9034 73bc c0d7 ff3d 1064 573e 69c1 ab3c
000003c0: 0592 f4bd 1ed0 5fbd f2e4 55bc c5ac 033d
000003d0: 148e 8b3d 05e2 6c3d 8529 9d3d a72b 0a3e
000003e0: 14a3 943d c330 8bbb 217f f23d 6390 b83c
000003f0: 13fe e83d c683 163e b7e4 8ebd 4be6 193e

sequences.4.bias f4 [64]
-0.06807624 -0.041193135 -0.026779858 -0.01733054 -0.014849508 -0.06086153 -0.039273825 -0.017762493
-0.036949433 -0.018071761 -0.05976424 -0.054227322 0.012200558 0.010848514 -0.07394932 -0.03520574
-0.07731788 -0.028598383 -0.0020794047 -0.057203166 -0.063992895 -0.041573938 -0.0004415146 -0.027794532
-0.04435854 -0.042707555 -0.034508314 -0.0058036926 0.004387854 0.0040771742 -0.038820405 -0.03339794
-0.0666886 -0.0013109796 -0.057560943 -0.0031084253 -0.06438269 -0.02844106 -0.03510476 -0.058486074
-0.032694552 -0.04336244 -0.057938274 -0.051764987 -0.08416901 -0.043329585 -0.06068585 -0.023482764
-0.060900915 -0.015946025 -0.075780526 -0.047497544 -0.051934708 -0.01953901 -0.069529645 -0.035304893
-0.055846713 -0.060697697 -0.017478343 -0.006512518 -0.023114372 -0.04533349 -0.015067751 -0.0045145573
00000000: 8e6b 8bbd 22ba 28bd 6f61 dbbc c7f8 8dbc
00000010: 5a4b 73bc f149 79bd 97dd 20bd a682 91bc
00000020: 4a58 17bd 3b0b 94bc 59cb 74bd 781d 5ebd
00000030: d9e4 473c f7bd 313c be72 97bd e533 10bd
00000040: d658 9ebd 2847 eabc 9f46 08bb de4d 6abd
00000050: b50e 83bd 6f49 2abd 167b e7b9 5cb1 e3bc
00000060: 4db1 35bd 1eee 2ebd 9758 0dbd e72c bebb
00000070: fdc7 8f3b d199 853b 2502 1fbd 47cc 08bd
00000080: 0894 88bd 2dd5 abba 06c5 6bbd b9b6 4bbb
00000090: 12db 83bd 3afd e8bc 02ca 0fbd 188f 6fbd
000000a0: b9ea 05bd d09c 31bd af50 6dbd 8607 54bd
000000b0: cd60 acbd 5d7a 31bd ba91 78bd ed5e c0bc
000000c0: 3d73 79bd 3da1 82bc d232 9bbd c98c 42bd
000000d0: 7db9 54bd 4610 a0bc 8f65 8ebd dd9b 10bd
000000e0: 86bf 64bd 269e 78bd be2e 8fbc f666 d5bb
000000f0: 5a5a bdbc 9caf 39bd bade 76bc daee 93bb
