saved_models/UPSCALE_X8/epoch_46.pth (torch, 157087 bytes, 6 tensors)

sequences.0.weight f4 [64, 1, 5, 5]
00000000: 1c6b db3d ad8d 0ebe e2c3 e03c aa0d 57be
00000010: a43e eb3b 4bae 103d dc9f e73d e3e5 75be
00000020: b0cf 5fbe ae7d 4ebe 7cdf 173c e62d 803b
00000030: 2828 0a3e 4081 15be 5094 323e 37e2 143e
00000040: a655 c6bc 52a8 133e 9d1f 5b3d 0ff4 ac3d
00000050: 8852 c9bd ac53 d1bc 1b16 363e c6d8 10be
00000060: 43f0 04be 4ae2 1f3e 7413 d5bd f219 0a3e
00000070: d21b 133e 7537 7fbd 9f7f 693d f513 663e
00000080: 0262 503d 2ae2 e9bc e255 49be 5b80 483d
00000090: f0d9 503e 2a57 a33e 88ab 2c3e 09ff fbbd
000000a0: 782b 1f3e 1c84 10bd e4d4 973e da0c 903c
000000b0: 7ab6 98bd 43ce 3d3d fc2e ae3c 4c4f 783e
000000c0: a887 133e f641 17be 93ac 2f3d ca74 a2bd
000000d0: 8bbf 11be da66 013c eec1 21be 0689 013e
000000e0: e71c f73d 1b9a 4fbe 592e d43d d725 10be
000000f0: 2794 75bb a5b1 533d d17f bfbd f387 443e
00000100: 7401 2c3e 6a13 00bc 2df5 25bd 89d3 3cbc
00000110: 5033 963d bc84 643d a477 17be 8387 d1ba
00000120: cb24 203e 3427 25bc 9c16 3b3e 300c f8bc
00000130: b4ad 003e 6c8b c5bd 5c41 fd3d 20ba c53a
00000140: 85b1 323e 87ed 25be 3725 40bd f8dc 44be
00000150: a6de 3e3d 76d3 c73c 37d5 2fbe 8be0 493e
00000160: 456b 2dbe 001f 113b 7237 223d 1ced 29be
00000170: 07a6 5a3d 4924 f3bd 0a67 263e 3051 b7bb
00000180: e1db 71bd 28da 3fbd 060e 0fbe c3b8 8d3d
00000190: 80a5 ab3c 16d1 c53c 3636 9b3c 02e0 30bc
000001a0: 36c4 59bd f23e 153e 9737 313c a398 b63d
000001b0: e9c6 8f3d 7387 04be baf5 e03c 2158 543e
000001c0: 5585 01bb 6239 e7bd 8f5d 453e ebca 293d
000001d0: e0f8 9d3d 5382 073e bd13 093d 8c2c 44be
000001e0: d574 2e3e 7247 87bd afce 203d 38d7 f139
000001f0: dc73 4cbe f8f1 d13d e9de bebc 455c 1ebe
00000200: acf2 573d eb57 923c 556b 36be 6940 9cbe
00000210: c914 31bd 5a9e b03c 56f2 a53d 24d8 3ebe
00000220: 5793 acbe bbee e9bd 2f4b a03d 41f9 59bc
00000230: 1e9f 1dbe 1903 b2be 74c1 89be 82ec d6bc
00000240: acd1 133d 418a 2cbe 1744 7ebe 258d 2fbe
00000250: 289f 3dbd f2a9 72bd 5d04 563d d01d 2abe
00000260: 53a8 633e 4dc3 8a3e 8cc2 363e 5c19 273c
00000270: 08db 9b3d a61f 863e 5bb9 803e d2e2 7c3d
00000280: 0f47 bdbd 2410 2d3e 3cab 3f3e 6c01 b73e
00000290: fd29 a13e f7a7 9dbd bd0f 4abe 16be 32be
000002a0: 40e5 203e a4ac f13d fe19 6b3c 2217 1b3e
000002b0: 836b cbbd 1c56 573e 4693 1bbe e7c5 41be
000002c0: 148c 2cbe 4588 a53d 93aa c73d 6038 c3bd
000002d0: 9485 80bb d6fe a93d 71dc 603e c51e 71bd
000002e0: 88e8 b8bd d633 373e cc71 1e3e 550d e83d
000002f0: ab86 b53d 62ef b53d 0510 083e 4fa7 65bd
00000300: 65ae 6f3d a550 d2bd d94a 05bc 0ec5 1d3e
00000310: 9f2e 4dbe ae13 01bd bcc1 b0bd 39fd 12be
00000320: e2b0 423e c508 603c df25 afbc 9f14 6a3c
00000330: 988c eebd 62ff 6f3d 81a3 13be a752 9c3d
00000340: b6f2 9cbd e8a0 22be 960d f13c e385 833d
00000350: db55 823b 3397 083e 6e78 273e a3d6 373e
00000360: 25f5 dbbd 479f eabd 636b c2bd f1ed a1bc
00000370: a3f1 bf3c eb41 e73d 8f0f 203e 197d 553c
00000380: 58fc 363e b70d 9b3d a3c2 123e 0656 d73d
00000390: 5b8d 1c3e a58e 2f3e 2093 fdbd f9a8 0bbe
000003a0: 516e ab3d 6dac 4dbe 1c2a ae3d 49ae 1b3d
000003b0: 275a 703d cede aebd 5206 c43d 0e54 cf3d
000003c0: b0c0 00bd 743b 243d 3359 5b3e 7711 b13d
000003d0: e811 813d 4124 efbd 0ac1 24bd 2ad7 9ebd
000003e0: 5388 4bbe fcc4 f4bc a5be 0fbe 6fd6 c23c
000003f0: fb4d 1d3e fd2c ec3c dc68 00be 3de2 55be
0.10713789 -0.13921233 0.027437154 -0.21001306 0.007179098 0.03532247 0.11309788 -0.24013476
-0.2185657 -0.2016513 0.009269591 0.0039117215 0.13491881 -0.14600086 0.17439389 0.14539419
-0.024210762 0.14419678 0.053496946 0.08444988 -0.09830195 -0.025552593 0.1778187 -0.14145193
-0.12982278 0.15613666 -0.10404101 0.1348646 0.14366081 -0.062308747 0.057006475 0.2246855
0.050874718 -0.028550226 -0.19661668 0.048950534 0.20395637 0.31902438 0.16862309 -0.123045035
0.15543926 -0.03528224 0.2965461 0.017584253 -0.0745668 0.046339285 0.021262638 0.24249
0.14407218 -0.14771256 0.04288919 -0.07932432 -0.14233224 0.007898057 -0.15796635 0.12649927
0.120660596 -0.2027363 0.103604026 -0.14076935 -0.003747234 0.051683087 -0.09350551 0.19192486
0.1679743 -0.007817129 -0.04051702 -0.011525043 0.07334006 0.055790648 -0.14791733 -0.001598582
0.15639035 -0.010080148 0.18270344 -0.030279249 0.12566262 -0.09645733 0.12365982 0.0015085377
0.17450531 -0.1620389 -0.04691049 -0.19224918 0.046599053 0.024392825 -0.17171179 0.19714563
-0.16935451 0.0022143722 0.039603658 -0.16594356 0.053380992 -0.11872155 0.16250244 -0.005594395
-0.059047583 -0.04683891 -0.13970193 0.06920006 0.02095294 0.024147552 0.018946748 -0.010795595
-0.053165637 0.14574793 0.010816476 0.08915832 0.07020361 -0.12942295 0.027460922 0.20736744
-0.001976331 -0.11290242 0.19273971 0.041453283 0.07713485 0.13233308 0.03346609 -0.19157618
0.17036755 -0.06605424 0.03925961 0.00046127453 -0.19966072 0.1025123 -0.023299651 -0.15464886
0.052721664 0.017864188 -0.17814381 -0.3051789 -0.043232713 0.021559883 0.081028625 -0.18637139
-0.3370616 -0.11422487 0.0782684 -0.013304056 -0.1539273 -0.34767988 -0.26905406 -0.026235823
0.03608863 -0.16849615 -0.24830662 -0.17143686 -0.04629436 -0.059244104 0.052250255 -0.16612935
0.2223218 0.27102128 0.17847651 0.010198917 0.07610136 0.2619602 0.25141415 0.06173975
-0.09242069 0.16900688 0.18717664 0.35743272 0.31477347 -0.076980524 -0.19732566 -0.17455325
0.15712452 0.11800507 0.014349459 0.15145543 -0.099326156 0.21028942 -0.15192899 -0.1892315
-0.1685031 0.08082632 0.09749331 -0.09532237 -0.0039221738 0.08300559 0.21959092 -0.058867235
-0.09028727 0.17890868 0.15473098 0.11330668 0.088635765 0.08883549 0.13287361 -0.05606776
0.058515925 -0.10269288 -0.008135521 0.15407202 -0.20037316 -0.03151291 -0.08630702 -0.1435441
0.19012788 0.013673966 -0.021380363 0.014287143 -0.1164791 0.05859316 -0.1441784 0.07632952
-0.07663481 -0.15881693 0.029425424 0.06422021 0.00397752 0.13338928 0.16354534 0.17952971
-0.10740117 -0.11456161 -0.09493139 -0.01976678 0.023430651 0.1129187 0.15630935 0.013030314
0.17869699 0.07570975 0.1433206 0.105144545 0.15288298 0.17144258 -0.123815775 -0.13638677
0.083706506 -0.20085306 0.085041255 0.03800801 0.058679726 -0.0853859 0.09571518 0.10123454
-0.03143376 0.04009576 0.21420746 0.08645909 0.063022435 -0.11676837 -0.04022316 -0.07755883
-0.19876222 -0.029879086 -0.14037569 0.02378389 0.15361778 0.028830046 -0.1254 -0.20887084

sequences.0.bias f4 [64]
00000000: a391 683e 529a 763e b7e3 6bbe deff 813c
00000010: cf0b 19be c20d 2ebe 5363 2d3e 1da5 273c
00000020: 5da1 40be b3ba f8bd 8ea4 b63c 126f 20be
00000030: 68c5 72be c14e 533e c5f2 06be 8a26 483d
00000040: 4612 343e f1b6 5abd a813 40be 84d2 ea3d
00000050: bd16 49be f6e0 bf3d 7946 71bb a127 40be
00000060: d79a 67be cbf8 fcbd c209 0e3d 51fb d9bd
00000070: ce73 9d3d 0a3b 6b3e 57cc 313e 2dee 0e3e
00000080: 459a 223e 9585 273b b632 bcbd c0d9 31be
00000090: 9466 4e3e 4a8c df3d 4318 70bb 5a89 0bbe
000000a0: 8720 303e 83a7 003e 8220 c93d 1e6c 533e
000000b0: 2ea2 053e a97c 6fbe 5bd1 68be 1174 743d
000000c0: 444f b43d 0e11 57be a42f 90bc 45b2 28be
000000d0: 2227 20be b5d0 213e d27c 1a3e de05 63bd
000000e0: bcd2 acbd 30b5 5b3d 14ed 573e 815c 4a3e
000000f0: 64da 44be 65f7 aabd 261b a9bd bd3d 1b3e
0.22711806 0.24082306 -0.23036085 0.015869077 -0.14945911 -0.16997436 0.1693242 0.010232237
-0.18811555 -0.12144985 0.022295263 -0.1566737 -0.23708117 0.20635511 -0.13178547 0.04886488
0.17585096 -0.053397123 -0.18757498 0.11465934 -0.1963758 0.0936908 -0.0036815687 -0.18765117
-0.2261766 -0.12352141 0.034677275 -0.10643638 0.076881036 0.2297174 0.17363106 0.13958044
0.15879162 0.0025561799 -0.0918936 -0.17368221 0.20156318 0.1091543 -0.0036635555 -0.13626614
0.17199908 0.125639 0.098206535 0.20646712 0.13050148 -0.23387398 -0.22736113 0.059681002
0.08804181 -0.210026 -0.017600842 -0.16474254 -0.15639928 0.15802272 0.15086678 -0.055425517
-0.08438632 0.05363959 0.21086532 0.1976185 -0.19223934 -0.08347968 -0.08257131 0.1516027

sequences.2.weight f4 [32, 64, 3, 3]
00000000: dc41 a73d b616 fe3c aba2 e63c dc20 a13d
00000010: 0d2c 953d 2444 e23c b1d9 1d3e ad28 b03d
00000020: 5708 9a3d 97f7 113b 5352 d3bb 3f2b 9c3c
00000030: dbd5 0cba bbdf 2b3d 5fb2 843d fb29 a33c
00000040: ded5 6a3c 5f63 203d c298 b5bd e323 d7bd
00000050: 7e0b 37bd acf8 21be 2c4a f63b 56c5 b1bc
00000060: 71fc 3cbd 1758 403d 9c02 e0bc c91b 893d
00000070: 1ee7 e5bd 4a3b ef3d 9ba2 093e a565 acbd
00000080: fbc3 073e f9c0 863d d295 803d 96cb d73c
00000090: 8537 003d 19c0 c1bc b7aa 87bc ae44 d5ba
000000a0: 94f2 2d3a 4364 78bd 3029 f8bb acc0 94bc
000000b0: e2fd 4abd ce06 71bc a6e7 dbbc 52b2 00bc
000000c0: 0588 d6bc 186c cebc a3f0 94bd fbf1 8c3c
000000d0: e4b7 6ebc 4198 4cbd a25f 4b3c 19a9 273d
000000e0: 1f41 433d c2d8 7cbc 8fd3 0d3c ff92 27bb
000000f0: 1ce3 273b c079 ea3c 0db3 563d 452b 3b3d
00000100: c2b1 d53b 2596 5f3c 7762 47bc eaf8 c0bb
00000110: 4919 b7bc 22de 7b3d d7c5 d5bc fb0e 1dbd
00000120: c996 42bd ee85 01bd a998 23bd 47bf aebd
00000130: fd72 12be e2f2 b9bd 79f4 893d 75c7 c4bd
00000140: fe71 8d3c 8c63 3bbd 0c34 3bbd 8f11 dcbc
00000150: 0047 4cbd 13bc 90bd d1e2 a3bc 2a1d 4abb
00000160: faa0 a6bc a681 24bd 3e3b 9c3c 39d3 17bb
00000170: 5678 e8bb 01a6 a8bd 095c 0ebd e758 a6bd
00000180: af88 193d be95 233d da7e 8ebc 1d23 fbbc
00000190: 50fa c5bd d66b 86bd ba56 57bd 653a 79bd
000001a0: e25c 18bd e850 2cbe 05c2 d6bd 6c25 973d
000001b0: 3c80 8ebd 5b0a 66bd ada6 3dbc 2141 cfbd
000001c0: d91f 3cbe f490 80bd e139 6e3a a759 e3bd
000001d0: 9262 62bd c9b8 053e 4d55 e03d baa7 c0bc
000001e0: 34b0 df3d b904 fd3d 9c66 cd3c 295b afbd
000001f0: df9f d93d 338a de3d 69f7 803d 0fd9 61bd
00000200: f73a 0fbe 9d6b 2abe 34c7 73be 4440 d5bd
00000210: 6edd 6e3d 24b0 463c b414 2f3e 6eac 84bc
00000220: 3b19 5abc 41c4 21bb 6e7e 9b3c 252c b63d
00000230: 667c ba3d 3d12 2d3d 4a85 27bc c4c1 b8bd
00000240: 9446 fbbc 79fb d13d 48cb 2f3d 6b33 9fbb
00000250: 858f 413e 42be 1f3e d40c 1f3d 5cc1 9f3d
00000260: b67d a3bc 8291 bc3d 234e 21be c979 34be
00000270: 521c ab3e c4bf 80be 544b 9fbd cd84 d03d
00000280: 721d e5bd c898 063e 5a28 dbbd fde4 9bbd
00000290: 0542 b7bb a530 40bd ff3b 16bd f581 1abd
000002a0: f9b2 d43a c2b7 673c ed5b ebbc 64e2 1ebe
000002b0: a085 1abd d9ab 353d 502d 7fbd 3e3e 633e
000002c0: 5663 633d 92a4 6c3d 2d4c 823d 6ad9 c43c
000002d0: 4650 86bc ab2c b6bc 99bc 9abc 061e 32bd
000002e0: 1dd6 8ebd 874c 92bd 65d2 01bd d693 03bd
000002f0: e0df 513b 5db5 81bc 77ed 73bb e7d1 823d
00000300: c773 353e a769 2f3e 4844 c63d 096f 323d
00000310: 7c81 d53d 5956 833d 33f7 193c 0709 13bd
00000320: 3b10 2d3c 7c1a a73c 0ab5 d83b 9d46 84bc
00000330: 8e53 003d 8b2d d53c 5f47 21bc 5daf 68bd
00000340: 8542 273c 98f7 55bd 10ba 3cbd 3062 5cbc
00000350: c0ac d6bc 999a 2bbd 699d 443c 3d33 1fbd
00000360: 1f4c 3fbd 8ebf 27bd 3e0b 8abc 837f 20bd
00000370: 8725 e2bd 4ce1 ecbc 886f 01bd 43ce 6dbd
00000380: 915d 863c 3179 d13c e99d 80bd 682c 2c3d
00000390: 9bd9 95be b387 25be 7387 9d3d 8eeb 3bbd
000003a0: 0427 4a3d ee33 acbd bf8e efbb 5276 173d
000003b0: cd0c 05bd 34dc 893b adf3 653d ed7e 653c
000003c0: 9b18 50bd ef23 f93a 23e1 42bc 8ab7 3cbc
000003d0: 6a86 70bc e3b3 323d bf18 e8bc 5dc8 3bbb
000003e0: 3344 3d3c 3599 81bc 6b44 303b d4c8 9abc
000003f0: 9494 e5bc e6eb 59bd 5b95 083d be2d c53c
0.081668586 0.031016689 0.028153738 0.078675956 0.07283793 0.027620383 0.15415074 0.08601508
0.07521122 0.002227282 -0.006449023 0.01906359 -0.0005372443 0.041961413 0.06479334 0.019917479
0.0143332165 0.039157268 -0.08867027 -0.10504892 -0.044688694 -0.15817517 0.007516166 -0.021700542
-0.046139184 0.04695901 -0.027344994 0.06694753 -0.11225723 0.1168123 0.13440935 -0.08417825
0.13258354 0.06579775 0.06278576 0.026342195 0.031302948 -0.02365117 -0.016560895 -0.0016271078
0.0006635573 -0.060642492 -0.0075732693 -0.01815828 -0.049558528 -0.014711095 -0.026843857 -0.007855015
-0.026187906 -0.025198027 -0.0727246 0.017205229 -0.01457021 -0.04994989 0.012412937 0.04093275
0.047669526 -0.015432538 0.0086563965 -0.0025569794 0.0025617545 0.028622508 0.05241685 0.045695562
0.0065214345 0.013646637 -0.012169472 -0.005889048 -0.022350924 0.06149114 -0.026095314 -0.038344365
-0.04750708 -0.031621866 -0.03994051 -0.08532577 -0.14301677 -0.09079529 0.067360826 -0.09608356
0.01726627 -0.045749232 -0.045703933 -0.026863841 -0.0498724 -0.07067122 -0.020005615 -0.0030840137
-0.020340431 -0.040162705 0.019071218 -0.002316667 -0.0070944233 -0.08234788 -0.03475574 -0.081224255
0.037483867 0.039937727 -0.017394472 -0.030656392 -0.09666884 -0.06563537 -0.052572943 -0.060846705
-0.037197955 -0.16827738 -0.10486225 0.073801845 -0.069580525 -0.05616222 -0.011575383 -0.10119844
-0.18371524 -0.062776476 0.0009087604 -0.11101084 -0.055269785 0.13058771 0.1095377 -0.023517478
0.1092228 0.123544164 0.025073342 -0.08562309 0.10626196 0.10866203 0.0629719 -0.055138644
-0.13987337 -0.16642614 -0.23806459 -0.10412648 0.05831664 0.012126956 0.17097741 -0.016195502
-0.0133116795 -0.0024683627 0.018981185 0.08895139 0.09105758 0.04225372 -0.01022465 -0.09021333
-0.030673303 0.10253043 0.042918473 -0.0048584244 0.18902405 0.15599921 0.038830593 0.07800552
-0.019957405 0.09207441 -0.15752463 -0.17624582 0.33420044 -0.25146306 -0.077780396 0.1018158
-0.11187257 0.13144219 -0.10701056 -0.076120354 -0.005592587 -0.04692139 -0.03667831 -0.037721593
0.0016227654 0.014142932 -0.028730357 -0.15516049 -0.03772509 0.04435334 -0.062299073 0.22191712
0.055514656 0.057774134 0.063621856 0.024029452 -0.0163957 -0.022238096 -0.018888758 -0.043485664
-0.069744326 -0.07143503 -0.03169479 -0.03212341 0.003202431 -0.015833551 -0.0037220397 0.06387692
0.17719947 0.17130147 0.09680992 0.043562923 0.10425088 0.06412954 0.009397316 -0.03589728
0.010562952 0.02039837 0.0066133784 -0.016146952 0.031329684 0.026022693 -0.009843676 -0.056807864
0.010208731 -0.052238077 -0.04607588 -0.013451144 -0.02620542 -0.041895483 0.01200042 -0.038867224
-0.046703454 -0.040954165 -0.016851064 -0.039184105 -0.11042314 -0.028916024 -0.031600505 -0.058058035
0.016402038 0.025570484 -0.06280119 0.042034537 -0.29267582 -0.16165046 0.076918505 -0.04587894
0.049353614 -0.08408342 -0.007310718 0.036978073 -0.03248291 0.0042071585 0.05614059 0.014007312
-0.050804716 0.0019007901 -0.011894497 -0.0115183685 -0.014680484 0.043628585 -0.028332112 -0.0028653361
0.0115519045 -0.015820125 0.002689625 -0.01889459 -0.02802495 -0.053203486 0.03334556 0.024069663

sequences.2.bias f4 [32]
00000000: 1f3b 5a3d 7894 4cbd 7bb1 5cbd 6f9d 11bb
00000010: 45c4 8bbd 3b08 43bd 6eef 933d caf2 933d
00000020: 06ca 0fbd 00fc 593d e875 95bd 9761 08bd
00000030: 6aca bb3c 306c f4bb 9647 7bbd f4e1 44bc
00000040: c37c 0f3e 0e40 6e3c ca71 26bd d8fa 05bd
00000050: f2e1 4b3c 1e0c c33b 7f04 a9bd 6477 87bd
00000060: 93cb 82bd e561 13bd 820d 23bd 54d1 3dbd
00000070: 3e3b 38bd 8747 483d 10ff 7cba 438d e0bc
0.05327904 -0.04994628 -0.053880196 -0.0022219082 -0.06824545 -0.04761527 0.07223402 0.07224043
-0.035104774 0.05321884 -0.072978795 -0.033296194 0.022923667 -0.007459186 -0.061347567 -0.012016762
0.14012437 0.014541639 -0.04063586 -0.032709926 0.012444006 0.005952372 -0.08252811 -0.06614569
-0.06386485 -0.03598203 -0.039807804 -0.04634221 -0.044978373 0.04889634 -0.00096510444 -0.027411109

sequences.4.weight f4 [64, 32, 3, 3]
00000000: bd70 6abd eb3a acbd d559 babc bd97 13bc
00000010: 2526 dfbd 9e7a dc3b c9f1 723c 99d3 9bbc
00000020: f493 253d 7b61 e03c 6610 9ebc c2c6 36bd
00000030: af96 8f3d b9ab b9b9 2003 aa3b 91e7 733d
00000040: d5c1 b83c 72da 423d 9888 313e b4de 023c
00000050: 619b 7a3d 9804 c73d bf3f 5c3e b198 e83d
00000060: b97d 15bd 77dd 183d a3f1 27bd 8e41 33bb
00000070: 4ed7 e13d fd88 253d c08d a83d 5623 bc3d
00000080: 39a0 eb3d 30b9 ba3c da42 e33d 4682 7d3d
00000090: c0b9 c7bc 66e7 a83c a99f 49bd 8f2b 423d
000000a0: b027 973d c192 86bd ee22 d1bc f7ec 66bd
000000b0: 72dd 1dbc e6c1 1f3d c66f d2bc 1e11 4c3c
000000c0: c1f8 b93c 0a36 f23d 71b8 dc3b d8de 5ebd
000000d0: e3eb 37bd 811f cbbc e78f c5bb 2216 71bd
000000e0: 33ec 99bc 7bb6 9dbd 83f0 d5bd 73b3 8ebd
000000f0: b84b 053d aa2a 483d 4c8a 01bd f316 b2bd
00000100: 0764 10be e7e6 3a3b 2b48 1fbe ba29 0fbe
00000110: 7b48 a5bd 59a8 53bc f7ab 67bd eef4 b53c
00000120: b5f5 953c 2596 893d a61a 7d3c 0a88 8cbc
00000130: 0df0 f53c d3af 023d 8063 c1bc 6fbd 423d
00000140: 9ee0 513d 9b4b 92bd 4edd e6bd 4898 003d
00000150: 2af8 57be 61ca 76be f916 4e3c 6fda 973d
00000160: ddf3 423d 117c e93b 43d3 373e 557f 7c3e
00000170: d71d a5bd 7814 533d 7d5c 2d3e 09d6 a8bd
00000180: 60a1 9abd 08a7 dabd e0f7 5ebd 5b22 b1bb
00000190: fd52 8c3c 071d 033d 792f d53d 29b6 da3d
000001a0: 408f 4f3d 4bb3 a93c c604 803d ed63 0ebd
000001b0: ff7c 1b3c 0da7 babc ffe7 aa3c b349 99bd
000001c0: b128 84bd b967 0cbc 5b88 5e3d 5621 9abb
000001d0: 3013 70bc d518 4d3d e3eb 9ebc 9999 56bd
000001e0: ce6f 8fba 952f f5bd 1764 16bc 7aea 1d3d
000001f0: 4b0a 81bd 0a49 093d dadf f43c 48e4 fc3b
00000200: e9d2 f13c fdbc ca3c 497c 1d3c daf6 c1bb
00000210: afe7 5e3d 6e65 823d 7888 483c 9454 833d
00000220: 7e79 013e a6c2 833d 1fec a83c 3907 2d3e
00000230: eff8 773d 564e 6bbd eebc 0a3d f4e4 27bd
00000240: 939f 5fbe d098 6cbe 50b3 333e 293c 01be
00000250: 6bd6 36bd e773 193e 8316 af3d 156b 9b3d
00000260: 1824 0fbb 2adc 843d 0fde 92bd a9e0 4fbb
00000270: df9e 66bd c06d 5fbe 2de4 bcbd d76d 04bd
00000280: 1e1c 83bd 6aa9 9dbc 3f84 1a3b 9661 5c3d
00000290: ecd7 133d b601 043e 742d 363d b55f 573d
000002a0: 7a5d b9bc 5abe 313d 604a be3c e1f4 2e3d
000002b0: 5596 5f3d eb1e 71ba 17c6 fe3c 04ed 803d
000002c0: 5443 043d a8f7 463d a8c6 1ebd 51bf c53c
000002d0: ae86 1a3d bd92 d03d 0f49 8dbd 9297 af3d
000002e0: b70b 3f3e 989d d13c bf3b f4bb 5a37 b83a
000002f0: 3682 85bd 4f48 76bd a521 b4be 8913 59be
00000300: c6e6 b53e 8036 4e3e c08e 81bd 490b cc3d
00000310: 4e3b e4bd b00a 9ebd e5d4 67bd 68a2 47bc
00000320: f48a 923c 2d5a 473c 7f0c e13d ad9e 393d
00000330: 896e 243d 8276 b73c f7e4 4f3d ebcc 0c3d
00000340: 492e 853d d062 5fbd 20d5 f83c 65cc 5e3b
00000350: f36d e73b 8add babc cd55 d63b 926b a8bc
00000360: 24db 77bd 714e 333e b115 74bd 2faf 7dbd
00000370: e6e5 863d 2714 6fbd 5686 813d a141 e73d
00000380: 9493 383c 827d 96bc db26 cb3d 308a 1c3d
00000390: 201c a43d 5e63 903d 9554 c1bb 907f 363c
000003a0: c76e b73d aaac 0abc 9dd2 cb3d 24c1 dc3d
000003b0: e838 44bc cdca 013e b0ab 593e b2e2 e53c
000003c0: 4986 02be 9dd3 70bd 5902 82bc 43bb e73c
000003d0: 6457 813d c16e 5d3d 2e4d a03d 50fb 0a3e
000003e0: 7433 8e3d 7c72 7fbb e3c9 f23d a648 d53c
000003f0: ca69 e13d c7bd 143e 8080 8dbd 99f9 193e
-0.05723642 -0.08409675 -0.022747913 -0.009008345 -0.10895947 0.0067284843 0.014828154 -0.019021796
0.040424302 0.027390232 -0.019294929 -0.044623144 0.070111625 -0.00035413893 0.005188361 0.05954701
0.022553364 0.047571607 0.17337263 0.007987667 0.061183337 0.09717673 0.21508692 0.113572486
-0.03649685 0.03732058 -0.041001927 -0.0027352306 0.11027394 0.040413845 0.08230162 0.09186427
0.115051694 0.022793382 0.11096735 0.061891817 -0.024380565 0.020618152 -0.04922453 0.047404822
0.07380617 -0.0657096 -0.025529351 -0.05637833 -0.009635316 0.039003275 -0.025688063 0.012455253
0.022701623 0.118267134 0.0067358543 -0.05441174 -0.044902693 -0.024795296 -0.0060291174 -0.058858998
-0.018789386 -0.07700821 -0.104462646 -0.06967821 0.032542914 0.048868813 -0.03162603 -0.086957835
-0.14100657 0.0028518976 -0.15554874 -0.13980761 -0.08070465 -0.012918555 -0.056560483 0.022211518
0.018305639 0.06718091 0.015448248 -0.017154712 0.030021692 0.03190596 -0.023607016 0.04754394
0.051239602 -0.07143327 -0.11272679 0.031395227 -0.21090761 -0.24100639 0.012578719 0.0741471
0.047595847 0.0071253856 0.17951684 0.24657948 -0.08062332 0.051533192 0.16929813 -0.08243949
-0.07550311 -0.1067639 -0.05443561 -0.005405707 0.017129416 0.032010105 0.10409445 0.106792755
0.050673723 0.020715376 0.062509105 -0.034763265 0.009490251 -0.022784734 0.020862577 -0.0748476
-0.06453074 -0.008569651 0.054329257 -0.004703681 -0.014653012 0.05007251 -0.019399589 -0.052392576
-0.0010943355 -0.11971966 -0.009179137 0.038553692 -0.06300791 0.03351692 0.029891897 0.007717643
0.029519515 0.02474832 0.009612151 -0.0059193196 0.05442017 0.063670024 0.012239568 0.06412616
0.12644002 0.064336106 0.020620404 0.16897286 0.060540136 -0.057447754 0.033871584 -0.04098983
-0.21838216 -0.23105168 0.17548871 -0.12620606 -0.04463808 0.1498562 0.08549216 0.07588784
-0.0021841582 0.064873055 -0.071712606 -0.0031719601 -0.056303855 -0.2181921 -0.092232086 -0.032331314
-0.06401847 -0.019245822 0.002357736 0.053804003 0.03609459 0.12891278 0.04447694 0.052581508
-0.02262758 0.043394424 0.023228824 0.042714003 0.054586727 -0.00091980275 0.031100316 0.06295207
0.03229077 0.048576027 -0.038763672 0.024139078 0.037726097 0.10184238 -0.068987004 0.085738316
0.18656813 0.025587842 -0.0074534114 0.0014054582 -0.065189764 -0.060127553 -0.3518192 -0.21198858
0.3552763 0.20137978 -0.063260555 0.0996309 -0.11144124 -0.07716882 -0.056599516 -0.012184717
0.017888524 0.012167496 0.109887116 0.04531734 0.040144477 0.022395376 0.050755467 0.034375113
0.06502969 -0.054537594 0.030375063 0.003399634 0.0070626675 -0.022810716 0.00654099 -0.020559106
-0.060511723 0.17510392 -0.059591 -0.061934646 0.065868184 -0.05836883 0.06324451 0.112918146
0.011265654 -0.018370394 0.099195205 0.038217723 0.08013177 0.07050203 -0.0058999755 0.011138812
0.08956676 -0.008464018 0.09952281 0.10779026 -0.011976458 0.12675019 0.212569 0.028062198
-0.12746538 -0.05879556 -0.01587026 0.028287536 0.063154966 0.0540607 0.07827221 0.1357243
0.06943408 -0.003897815 0.11854913 0.026035618 0.11006506 0.1452552 -0.06909275 0.1503662

sequences.4.bias f4 [64]
00000000: 483f 8bbd e406 29bd 2ce5 dabc 9b7d 8cbc
00000010: 4bd9 80bc 3db4 7abd 96a7 1fbd 93e5 90bc
00000020: 9953 14bd 7661 94bc f5cf 73bd 550c 5dbd
00000030: 251e 3d3c d9fd 383c d452 98bd a2b8 0ebd
00000040: 6846 9bbd be5b d9bc ae9f 5cba e73f 68bd
00000050: c34d 82bd 3e14 29bd e6ea 853a 3ad7 d6bc
00000060: ebb2 2dbd 179d 29bd b053 0cbd 4bc1 abbb
00000070: 9b08 b93b 73cd 893b 2fe0 1cbd ecff 05bd
00000080: a1fe 84bd fc47 123a 947a 6abd d855 e8ba
00000090: 040c 84bd 05d3 e7bc 5f32 0fbd 6696 6fbd
000000a0: b4c4 fabc 8754 2fbd 68a5 6ebd deba 51bd
000000b0: 32ff a9bd 6f60 33bd 9922 79bd 90d0 c7bc
000000c0: 62d0 74bd f529 81bc 5a98 9cbd 2339 46bd
000000d0: 3598 56bd f697 a5bc bfbe 91bd 30fc 11bd
000000e0: 853f 63bd c1df 7cbd 1a55 93bc e724 f0bb
000000f0: c7e8 c8bc e17c 3ebd 27cb 86bc 65c7 a4bb
-0.06799179 -0.041266337 -0.026720606 -0.017149737 -0.015728613 -0.061207045 -0.03897818 -0.017687595
-0.036212537 -0.01811288 -0.059524495 -0.05396684 0.011542832 0.011290991 -0.07437673 -0.03484405
-0.07581788 -0.026533004 -0.0008416128 -0.056701567 -0.06362488 -0.04127907 0.00102171 -0.026225675
-0.042406958 -0.04140958 -0.034259498 -0.005241548 0.005646778 0.0042053997 -0.038299736 -0.03271477
-0.06493879 0.00055801845 -0.057245806 -0.0017725779 -0.06447604 -0.028298864 -0.034960147 -0.05849304
-0.030611373 -0.04280522 -0.058263212 -0.0512036 -0.08300628 -0.043793138 -0.06082401 -0.024391443
-0.05976904 -0.015767077 -0.07646246 -0.048394334 -0.05239125 -0.020214062 -0.0711646 -0.035640895
-0.0554805 -0.061736826 -0.017984916 -0.007328618 -0.02452506 -0.046505813 -0.016454292 -0.0050286525
