saved_models/UPSCALE_X6/epoch_17.pth (torch, 124703 bytes, 6 tensors)

sequences.0.weight f4 [64, 1, 5, 5]
-0.06483257 0.12577152 0.14580771 0.04569233 0.050710607 -0.114420466 0.1525663 -0.15342775
-0.14650202 0.17101772 0.04662173 0.0125245135 -0.057110675 -0.2715712 0.19721797 -0.094020404
-0.11575267 0.1408093 0.1926315 0.17071258 -0.23388149 -0.012095298 0.0849346 -0.08912731
-0.028032156 -0.15428819 -0.074296676 -0.12512968 0.052857723 -0.02009048 -0.14175966 -0.21579479
-0.19375847 0.029728856 -0.12002563 0.010233984 0.13333185 0.18522106 -0.0010583284 -0.0032222914
0.15790772 0.17313363 -0.1534493 0.14969228 -0.079857714 0.12602673 -0.1767441 -0.06250554
-0.120999575 -0.10907568 -0.096480004 -0.09169375 -0.15517798 0.18355958 0.0005544119 0.022888755
0.17451894 0.14641435 -0.10047445 0.10242974 0.024907595 0.07727421 -0.02173756 0.19574364
-0.1373267 -0.07792093 0.012751835 0.022275977 0.16982946 -0.020455064 -0.09940931 0.10036226
0.09142017 0.116933085 -0.1711978 -0.20976795 0.1455533 0.00300521 0.027391631 -0.17584531
0.17991042 0.1516457 0.20174144 -0.030070035 0.069883026 0.14739983 -0.017034505 0.111224204
0.11708807 -0.09886118 0.078468345 -0.011943906 -0.12087009 -0.16098994 0.04489362 -0.08794926
-0.03597486 0.017639099 0.017302081 0.11948096 0.024279533 -0.04547334 0.044310067 0.0015371026
0.08371691 0.08303303 -0.13087772 -0.10217116 -0.12483071 -0.13866502 -0.13325419 -0.15836552
-0.20094731 0.10763609 0.16628604 0.05780712 0.0009662367 0.034939826 0.1212297 -0.14468424
-0.11573039 0.061503585 0.14228614 -0.052482493 0.08197096 -0.011189008 -0.12839156 0.13425627
0.20604475 0.048033748 -0.14019215 -0.05097782 -0.09499683 -0.11507884 -0.13293621 -0.045897864
-0.16779235 0.078897856 0.15325013 -0.10074045 -0.10774683 -0.21904968 -0.19136865 0.023414563
-0.19549295 0.0063904435 0.13396016 -0.07601353 0.19373804 -0.18580794 0.02859032 0.0007627926
0.07295076 -0.10665242 0.14901954 -0.15802196 0.17383431 0.0021905834 -0.23290141 -0.104190305
-0.16278104 0.08502319 0.03764274 -0.24234138 -0.013873191 -0.067249954 0.14049804 -0.14285739
-0.1582144 -0.07822535 -0.088039204 -0.028961254 -0.02675536 -0.107014015 -0.11219298 -0.053216983
-0.1317578 0.1141133 0.17115204 0.17720665 0.036562387 -0.21627034 0.058067758 -0.07107543
0.12994 -0.08065692 0.14758377 -0.14878902 -0.15984707 0.020162143 -0.120663166 -0.19375873
-0.17482457 -0.06875103 -0.0004075044 0.061944265 0.096845545 0.17655656 0.14097637 -0.1580536
-0.018280912 -0.037252016 -0.13958712 -0.02751567 -0.07609151 0.15255587 0.07876271 -0.019867318
0.19456768 0.14523655 0.033078372 -0.074933015 0.062321864 0.07271307 0.16697013 0.1925781
-0.10941665 -0.040898483 0.1899805 -0.19842732 0.07049294 -0.08748836 0.0147518655 -0.13260393
0.036486574 0.050142996 -0.03707833 0.09285035 -0.15149437 0.19803506 -0.17838596 -0.14038153
0.065619215 -0.089755744 -0.09705513 0.18433824 -0.14070441 -0.019592268 -0.08035956 -0.051560894
0.09092286 0.07078512 -0.18895623 -0.096276425 0.07711987 0.028734148 0.12686989 0.10129097
-0.157665 -0.1402441 -0.032921623 0.09508047 -0.20269974 -0.027301462 -0.14324453 0.008314201
00000000: f0c6 84bd 40ca 003e 9e4e 153e e127 3b3d
00000010: edb5 4f3d 4755 eabd 573a 1c3e 2a1c 1dbe
00000020: a004 16be 451f 2f3e 6df6 3e3d 9e33 4d3c
00000030: e2ec 69bd 610b 8bbe 82f3 493e c58d c0bd
00000040: bc0f edbd 5030 103e 3141 453e 47cf 2e3e
00000050: a17e 6fbe 5b2b 46bc 31f2 ad3d 6188 b6bd
00000060: b1a3 e5bc b9fd 1dbe db28 98bd ff21 00be
00000070: 5781 583d ca94 a4bc 7229 11be 4ff9 5cbe
00000080: 9f68 46be ee89 f33c ffcf f5bd 71ac 273c
00000090: 2588 083e 97aa 3d3e 9cb7 8aba 142d 53bb
000000a0: 90b2 213e f149 313e d021 1dbe ef48 193e
000000b0: 718c a3bd 270d 013e 68fc 34be e802 80bd
000000c0: a0ce f7bd 1263 dfbd 4f97 c5bd efc9 bbbd
000000d0: fae6 1ebe 0bf7 3b3e f455 113a 3381 bb3c
000000e0: 18b5 323e a5ed 153e 8cc5 cdbd afc6 d13d
000000f0: 030b cc3c f141 9e3d f812 b2bc 0571 483e
00000100: 5f9f 0cbe 0295 9fbd 13ed 503c 1c7c b63c
00000110: c6e7 2d3e 6191 a7bc 1c97 cbbd bb8a cd3d
00000120: 803a bb3d 9d7a ef3d 7a4e 2fbe 69cd 56be
00000130: ed0b 153e 0ff3 443b 6a64 e03c cb10 34be
00000140: 703a 383e 0349 1b3e 4f95 4e3e 6f55 f6bc
00000150: d51e 8f3d fbef 163e f28b 8bbc 84c9 e33d
00000160: dfcb ef3d bb77 cabd 03b4 a03d 5fb0 43bc
00000170: bd8a f7bd 8cda 24be 5fe2 373d be1e b4bd
00000180: 605a 13bd df7f 903c 18bd 8d3c 6fb2 f43d
00000190: dfe5 c63c 4142 3abd 797e 353d 9b78 c93a
000001a0: c573 ab3d 390d aa3d cf04 06be 1d3f d1bd
000001b0: 3ea7 ffbd 34fe 0dbe c973 08be 922a 22be
000001c0: 22c5 4dbe 4f70 dc3d e346 2a3e 29c7 6c3d
000001d0: 0c4b 7d3a 101d 0f3d 4747 f83d 1b28 14be
000001e0: 0e04 edbd 2feb 7b3d 75b3 113e e2f7 56bd
000001f0: 64e0 a73d 1a52 37bc 1479 03be 7a7a 093e
00000200: 65fd 523e 09bf 443d 888e 0fbe 1ece 50bd
00000210: b38d c2bd 74ae ebbd 6e20 08be 66ff 3bbd
00000220: c2d1 2bbe 3395 a13d 9aed 1c3e 0251 cebd
00000230: 5faa dcbd 8f4e 60be 25f6 43be e6cf bf3c
00000240: 4e2f 48be ed66 d13b da2c 093e fbac 9bbd
00000250: 4463 463e 7044 3ebe 3f36 ea3c 25f6 473a
00000260: 3567 953d 956c dabd 9498 183e 82d0 21be
00000270: 9f01 323e e48f 0f3b b57d 6ebe ba61 d5bd
00000280: 13b0 26be a320 ae3d 462f 1a3d 5728 78be
00000290: 614c 63bc 58ba 89bd b8de 0f3e 3549 12be
000002a0: f502 22be 9d34 a0bd e64d b4bd 2740 edbc
000002b0: 0f2e dbbc 2a2a dbbd 6fc5 e5bd 0dfa 59bd
000002c0: 84eb 06be 3cb4 e93d 7b42 2f3e a975 353e
000002d0: 71c2 153d f975 5dbe 75d8 6d3d ff8f 91bd
000002e0: fe0e 053e 752f a5bd 3320 173e 265c 18be
000002f0: f3ae 23be 142b a53c 401e f7bd b068 46be
00000300: 3605 33be 57cd 8cbd 51a6 d5b9 45b9 7d3d
00000310: f556 c63d 3ecb 343e 1c5c 103e ced8 21be
00000320: dac1 95bc 9295 18bd edef 0ebe 8b68 e1bc
00000330: ded5 9bbd 9b37 1c3e 584e a13d c9c0 a2bc
00000340: c03c 473e e4b8 143e 307d 073d 7b76 99bd
00000350: 3645 7f3d 97ea 943d 38fa 2a3e 3233 453e
00000360: d615 e0bd 2b85 27bd 408a 423e 8830 4bbe
00000370: 9a5e 903d 192d b3bd cfb1 713c 53c9 07be
00000380: f272 153d be62 4d3d 72df 17bd 5328 be3d
00000390: 5721 1bbe b4c9 4a3e cfaa 36be 2dc0 0fbe
000003a0: 5e63 863d dcd1 b7bd d7c4 c6bd 2ac3 3c3e
000003b0: d114 10be f77f a0bc 8e93 a4bd 8431 53bd
000003c0: c435 ba3d caf7 903d be7d 41be 932c c5bd
000003d0: 06f1 9d3d e063 eb3c 2eea 013e a471 cf3d
000003e0: ef72 21be 269c 0fbe d3d8 06bd 8db9 c23d
000003f0: 8590 4fbe 51a7 dfbc b2ae 12be 4938 083c

sequences.0.bias f4 [64]
-0.044034906 0.11437483 -0.042358376 -0.17281225 0.119990945 -0.027757773 -0.11787483 0.2036808
-0.18097809 0.091002375 0.009161359 -0.20260619 -0.06686579 -0.23222819 0.13539118 -0.12705345
0.12097948 0.06542172 0.19940343 0.09707211 0.16163288 -0.032216225 -0.08457745 -0.11538269
-0.14242229 -0.015174497 0.1500014 0.19213076 0.0818896 -0.17985064 -0.03026682 0.032471366
0.047464184 0.0583159 -0.104990944 0.0041292366 0.16244869 0.04760473 0.10125243 -0.13186307
-0.22657001 0.11563847 -0.16906065 -0.07299518 0.17140006 0.19350787 0.065465674 -0.1692909
-0.051367287 0.23675969 -0.17093982 -0.028028117 0.20916419 0.1750736 -0.1730471 0.020501621
-0.16741134 -0.15464422 -0.1716384 0.021493156 -0.23009558 0.099465884 0.14549401 0.09378855
00000000: f25d 34bd 5a3d ea3d fa7f 2dbd b2f5 30be
00000010: d0bd f53d 4564 e3bc 5c68 f1bd b391 503e
00000020: 5252 39be 745f ba3d 8619 163c ff77 4fbe
00000030: eef0 88bd 3acd 6dbe fca3 0a3e 4d1a 02be
00000040: 17c4 f73d d3fb 853d 6a30 4c3e becd c63d
00000050: 1783 253e 29f5 03bd f136 adbd c34d ecbd
00000060: 26d7 11be 749e 78bc f899 193e edbd 443e
00000070: bcb5 a73d c42a 38be 1ff2 f7bc b200 053d
00000080: ce69 423d a7dc 6e3d 7e05 d7bd 8c4e 873b
00000090: f358 263e 2dfd 423d 6f5d cf3d 1d07 07be
000000a0: f801 68be ddd3 ec3d 3c1e 2dbe 7f7e 95bd
000000b0: 7f83 2f3e ed26 463e de12 863d 985a 2dbe
000000c0: 8166 52bd 2271 723e d90a 2fbe 399b e5bc
000000d0: 232f 563e 7e46 333e 4233 31be 04f3 a73c
000000e0: e16d 2bbe 0e5b 1ebe fac1 2fbe 6a12 b03c
000000f0: 2d9e 6bbe c5b4 cb3d 62fc 143e 3614 c03d

sequences.2.weight f4 [32, 64, 3, 3]
0.11091026 0.17752872 0.034605127 0.06789445 -0.06868476 -0.01367132 -0.030208029 -0.11819887
0.047809474 -0.0015826888 -0.07960189 -0.016911846 0.021031179 -0.012369038 0.09337234 -0.01105025
-0.023364075 -0.069640845 0.048259962 0.065196596 -0.017891731 0.037520383 0.053508606 -0.062315073
-0.010780555 0.04510524 0.086844265 -0.048990984 -0.05833646 -0.046433784 0.021518417 -0.00996369
-0.028737796 0.043305486 0.039275862 0.056032952 -0.040761203 0.19716965 0.15557186 0.20315601
0.0025142117 -0.13664651 -0.071814895 -0.09485454 -0.10292283 -0.031474352 0.01945932 -0.062056243
0.019442156 0.053259287 -0.020464279 -0.02628075 -0.03164731 -0.025710061 -0.02151135 -0.028524209
0.010623901 -0.04402288 -0.0716145 -0.03315306 -0.060755216 -0.07221899 -0.013075785 0.0427486
0.04143397 -0.010729755 -0.03137616 -0.065818004 0.027977157 0.0021593075 0.005727733 0.096738786
-0.011730386 0.03019634 -0.088648796 0.06036764 0.064776495 -0.05276088 0.094990045 -0.0016736347
0.023186762 -0.035452276 -0.022638973 -0.0017280163 -0.03055644 -0.050530214 -0.025332212 -0.03566539
0.0058877207 0.017512504 0.0429271 0.100732066 -0.038729638 0.050300203 0.030041616 0.028363323
-0.12957177 0.04245453 0.05347403 -0.18398981 -0.089328766 -0.091415435 0.120307386 0.13311817
0.021729453 -0.016852489 -0.1225643 -0.071716696 -0.0049278243 -0.044486176 -0.042361833 0.021300528
0.051147185 -0.0051446226 0.17277113 0.080109045 -0.065531656 0.008682886 -0.04360277 -0.099560566
-0.0033977719 -0.038829833 0.008030889 -0.05444293 0.019528814 -0.0526471 0.15364215 0.013179558
-0.0020298157 -0.033692054 -0.030114973 -0.009389259 -0.026057338 0.021513848 0.032795064 0.0063248468
-0.04615201 -0.035314813 0.02806859 0.14382866 0.048216764 -0.040896628 -0.026272329 -0.03772497
-0.0031986672 -0.030127676 0.054264724 0.019110309 -0.061915983 -0.038106773 -0.0805313 0.038266152
-0.05329646 -0.02978009 -0.1368565 -0.2977482 0.047692537 0.11536698 0.18047626 -0.048450224
0.033861388 0.16043991 0.10350226 0.03235084 0.055844925 0.041034803 -0.090085484 -0.04096148
0.01768161 -0.02714289 -0.04711711 0.015910728 0.21063969 0.19895418 -0.010184895 -0.11678992
-0.27880967 -0.05764805 0.095850565 0.16193117 -0.055640485 0.09380281 0.053638443 0.047032945
0.15007442 0.00089096004 -0.076460235 0.02859747 -0.0034436847 0.023584671 -0.06553598 -0.1643365
-0.03216081 -0.08529492 0.03873031 -0.16700731 -0.15564981 0.006565881 -0.00994629 0.0046444875
-0.049905974 -0.034096785 -0.027950784 -0.060627896 -0.016665975 -0.06953988 -0.009671132 -0.3233155
0.07318756 -0.04177839 0.10578243 0.39811563 0.14390902 -0.1128568 -0.18181811 -0.24005608
-0.049097426 -0.0057933996 0.005199777 0.21552977 0.06807297 -0.13143277 0.114736944 -0.062632315
-0.07795644 -0.03243552 -0.04573742 0.03849059 -0.03222291 -0.032507982 0.07957378 0.021430397
-0.0039478177 0.030288037 0.060867462 0.08212983 0.085122645 0.04083032 0.0028220462 -0.011215488
-0.032926876 0.025920905 0.07694325 0.03729693 0.053377625 0.13933377 -0.058698934 -0.029394794
-0.054480314 0.101040564 -0.04078838 -0.07285605 0.11085478 -0.16757554 -0.13434286 0.25033292
00000000: eb24 e33d 17ca 353e 1bbe 0d3d 3f0c 8b3d
00000010: 98aa 8cbd acfd 5fbc d476 f7bc 4012 f2bd
00000020: ded3 433d 3972 cfba 5106 a3bd b68a 8abc
00000030: 9449 ac3c 81a7 4abc ff39 bf3d 1c0c 35bc
00000040: 0466 bfbc dc9f 8ebd 3dac 453d cb85 853d
00000050: ae91 92bc f9ae 193d d72b 5b3d 173e 7fbd
00000060: eda0 30bc 46c0 383d 68db b13d c5aa 48bd
00000070: 36f2 6ebd 5a31 3ebd 6447 b03c bf3e 23bc
00000080: 876b ebbc 1861 313d badf 203d cf82 653d
00000090: 38f5 26bd d7e6 493e 3b4e 1f3e 2108 503e
000000a0: 79c5 243b 10ed 0bbe b013 93bd 1943 c2bd
000000b0: 34c9 d2bd 40eb 00bd 2769 9f3c b02e 7ebd
000000c0: 2845 9f3c 6926 5a3d b4a4 a7bc ba4a d7bc
000000d0: 9ca0 01bd e89d d2bc 9238 b0bc 9aab e9bc
000000e0: df0f 2e3c 5651 34bd 9faa 92bd 81cb 07bd
000000f0: 76da 78bd 8de7 93bd d13b 56bc 2819 2f3d
00000100: abb6 293d dbcb 2fbc 4a84 00bd 97cb 86bd
00000110: 5a30 e53c 2b83 0d3b b5af bb3b fc1e c63d
00000120: ce30 40bc 515e f73c 808d b5bd 0f44 773d
00000130: 8aa9 843d cb1b 58bd 248a c23d dd5d dbba
00000140: 2af2 bd3c 6836 11bd 5e75 b9bc 9b7e e2ba
00000150: 8051 fabc c5f8 4ebd 8085 cfbc df15 12bd
00000160: c8ed c03b 6276 8f3c 54d4 2f3d 9d4c ce3d
00000170: f8a2 1ebd 9607 4e3d d619 f63c 335a e83c
00000180: 76ae 04be cde4 2d3d 9607 5b3d d367 3cbe
00000190: 00f2 b6bd 0438 bbbd b863 f63d 2150 083e
000001a0: f701 b23c 3b0e 8abc fe02 fbbd 34e0 92bd
000001b0: 9679 a1bb 2337 36bd 9a83 2dbd 727e ae3c
000001c0: b67f 513d 3994 a8bb eaea 303e 3610 a43d
000001d0: 7635 86bd aa42 0e3c d198 32bd 69e6 cbbd
000001e0: 27ad 5ebb 080c 1fbd fd93 033c 8dff 5ebd
000001f0: e4fa 9f3c 7ca4 57bd 5e54 1d3e 13ef 573c
00000200: a806 05bb ae00 0abd adb3 f6bc 68d5 19bc
00000210: 3376 d5bc cf3d b03c 1e54 063d a940 cf3b
00000220: e409 3dbd 44a6 10bd 1af0 e53c d247 133e
00000230: f17e 453d 3983 27bd 1139 d7bc 8085 1abd
00000240: bba0 51bb 51ce f6bc b044 5e3d 398d 9c3c
00000250: 9d9b 7dbd d915 1cbd 98ed a4bd f8bc 1c3d
00000260: 644d 5abd 60f5 f3bc 1c24 0cbe 7472 98be
00000270: 4059 433d 8645 ec3d c5ce 383e be73 46bd
00000280: 3db2 0a3d 5c4a 243e fef8 d33d 5082 043d
00000290: a6bd 643d 1c14 283d bd7e b8bd 3ac7 27bd
000002a0: 06d9 903c c45a debc dffd 40bd 3757 823c
000002b0: eeb1 573e a5ba 4b3e 8cde 26bc 8e2f efbd
000002c0: 24c0 8ebe 5d20 6cbd 4d4d c43d 49d1 253e
000002d0: 47e7 63bd b01b c03d fcb3 5b3d 9ea5 403d
000002e0: 1cad 193e 518f 693a 2f97 9cbd 3e45 ea3c
000002f0: 71af 61bb a434 c13c ba37 86bd d447 28be
00000300: 0ebb 03bd 1aaf aebd aca3 1e3d f703 2bbe
00000310: aa62 1fbe 9a26 d73b c4f5 22bc c930 983b
00000320: 356a 4cbd 12a9 0bbd 0bf9 e4bc f554 78bd
00000330: 1587 88bc ed6a 8ebd ab73 1ebc 9c89 a5be
00000340: 5ce3 953d d11f 2bbd 75a4 d83d d0d5 cb3e
00000350: e35c 133e 7721 e7bd 872e 3abe 43d1 75be
00000360: 621a 49bd 8fd6 bdbb e462 aa3b d6b3 5c3e
00000370: d769 8b3d 5096 06be 34fb ea3d 5f45 80bd
00000380: a0a7 9fbd 1cdb 04bd 2957 3bbd 4fa8 1d3d
00000390: 2cfc 03bd 1727 05bd 94f7 a23d cd8e af3c
000003a0: b25c 81bb 9e1e f83c 2950 793d af33 a83d
000003b0: c854 ae3d b23d 273d 14f2 383b 2bc1 37bc
000003c0: 55de 06bd 1458 d43c 6c94 9d3d aac4 183d
000003d0: 7fa2 5a3d 83ad 0e3e 4b6e 70bd 5acd f0bc
000003e0: c026 5fbd 5bee ce3d b711 27bd 8e35 95bd
000003f0: d507 e33d ec98 2bbe 2d91 09be a32b 803e

sequences.2.bias f4 [32]
-0.039310437 0.07631402 -0.031234363 -0.02766932 -0.07986692 -0.046295602 -0.037633736 0.034305148
0.07555847 0.03758303 -0.09437573 0.070164576 0.054804336 0.0015291512 0.01720248 -0.09282877
0.03590045 -0.07899649 0.02281109 -0.021170076 -0.013018308 0.0099775065 0.03711424 -0.042670418
0.047892768 -0.10474924 -0.01833453 -0.014859449 0.04805792 0.050090615 0.06312905 -0.055052593
00000000: fb03 21bd 864a 9c3d 35df ffbc c5aa e2bc
00000010: 4591 a3bd 75a0 3dbd d525 1abd 8e83 0c3d
00000020: 66be 9a3d aaf0 193d 1048 c1bd 72b2 8f3d
00000030: 837a 603d cd6d c83a 37ec 8c3c 031d bebd
00000040: 5a0c 133d e9c8 a1bd 53de ba3c de6c adbc
00000050: be4a 55bc b278 233c 1a05 183d 2dc7 2ebd
00000060: 352b 443d c586 d6bd 4c32 96bc 0c75 73bc
00000070: 62d8 443d d12b 4d3d ce49 813d d47e 61bd

sequences.4.weight f4 [36, 32, 3, 3]
0.055829987 0.05373766 0.027892666 0.06213327 0.02739151 -0.029794198 -0.075920075 -0.09716659
-0.07592663 -0.09375056 -0.029431017 -0.105150275 -0.06287636 -0.12038064 -0.027761033 -0.071036324
-0.059984386 0.019540843 0.011842569 0.0072969063 -0.06403846 -0.0021469942 -0.028393647 0.04480004
-0.03327086 0.006695018 0.08653999 0.022728156 0.15633255 -0.052638054 0.16124952 0.19327594
-0.0077443332 -0.0017990395 -0.014209018 -0.025342733 0.01581932 0.07164144 0.04932828 0.026896223
0.034867473 0.0035481332 -0.07636549 0.012046527 -0.078189224 0.16060817 0.11972009 -0.082660586
0.042051274 0.022859292 -0.18229632 -0.017832328 -0.044343933 -0.062281694 0.08554704 0.040821932
0.057567403 0.04075804 0.114183344 0.09591193 0.012488794 0.07950453 0.06760722 -0.061075136
-0.076113135 -0.025787266 -0.017414756 -0.06644 -0.028622648 -0.016061198 -0.05568823 -0.01879352
-0.049822606 0.046609662 0.12388021 -0.19490969 -0.24001075 0.09128885 0.027856532 -0.026690943
0.015947599 -0.027433408 -0.041692477 -0.0057949303 -0.028235761 -0.031549964 -0.07032993 -0.053230297
-0.024279898 0.0051472248 0.04806394 0.08627734 0.020815263 0.061957713 0.1365387 0.09185813
0.031093612 0.06507143 0.058551513 -0.065958686 -0.048338935 0.113192044 -0.16053517 -0.22247826
0.065392844 0.034622442 0.029217038 0.04882746 -0.03712042 -0.10664031 -0.023679545 -0.100788794
-0.07980718 -0.029047228 0.0058718906 -0.08358803 -0.04296009 0.11937725 0.045859743 0.002883856
0.002189963 0.020351632 0.043702748 -0.07048504 -0.03307799 0.015533521 -0.07468903 -0.056384806
0.001706668 -0.11369925 -0.073412396 -0.053816233 0.027244559 -0.06355218 0.05494601 0.0823003
0.065122485 0.048722357 0.09665316 0.04182791 -0.016882854 0.010740084 0.008318961 0.02591772
-0.024101075 0.0049002543 0.04266559 -0.07528141 -0.07698624 -0.0014828058 -0.00046208742 -0.0788244
0.013521377 -0.013345538 0.087531604 0.004150401 -0.0036670614 0.109409176 0.05487022 -0.035649993
-0.026030593 -0.001592507 -0.04864591 -0.03911807 -0.090067536 0.27069125 0.24006303 -0.047747985
-0.031071397 0.0020106917 -0.045346763 -0.06100106 -0.15117277 0.01618327 -0.11590408 -0.18775812
-0.022910666 -0.03747897 -0.026539622 0.088786535 0.044307414 0.0695046 0.002842126 0.01884893
0.110016905 -0.0046945605 -0.047666945 0.014811777 0.01652438 -0.0015474723 -0.13037446 -0.09560515
-0.0036036565 -0.08040628 -0.10056997 0.009308366 -0.018790841 -0.012024176 0.019494776 -0.10082499
0.018578878 -0.039640248 -0.098271646 -0.07279227 0.029650407 -0.07965458 0.009385549 -0.05031603
0.008154656 0.039999083 -0.0006164195 0.14074928 0.048484974 0.020743493 0.017162345 0.00502441
-0.08235821 -0.035428256 -0.05528797 0.0015621634 -0.0991219 -0.063975036 -0.068048984 0.013875662
-0.025140878 0.0037678855 0.035331324 -0.05323372 0.055647887 0.04109076 0.043096334 -0.054975685
-0.072755426 -0.06587792 -0.008290153 0.008463188 -0.028586883 0.07669469 0.102544956 0.08801299
0.06278112 -0.02268346 -0.01156443 0.0076966123 0.047852945 -0.025438206 -0.030953608 -0.006513218
0.017191619 0.010587048 0.011421475 0.01460517 -0.20697942 -0.10838347 -0.00820536 -0.16951038
00000000: fcad 643d 051c 5c3d 297f e43c 757f 7e3d
00000010: 2964 e03c f612 f4bc fc7b 9bbd 47ff c6bd
00000020: 6c7f 9bbd 4b00 c0bd 5119 f1bc 0759 d7bd
00000030: 52c5 80bd 208a f6bd 1b6b e3bc 7e7b 91bd
00000040: 30b2 75bd 1e14 a03c 5607 423c e31a ef3b
00000050: 9926 83bd 96b4 0cbb cb99 e8bc 3f80 373d
00000060: 0647 08bd e261 db3b e13b b13d 6630 ba3c
00000070: a415 203e 009b 57bd 981e 253e 21ea 453e
00000080: 2dc4 fdbb c0cd ebba f1cc 68bc 909b cfbc
00000090: 8597 813c bfb8 923d 730c 4a3d 7855 dc3c
000000a0: 32d1 0e3d cc87 683b 8365 9cbd cc5e 453c
000000b0: ac21 a0bd 7876 243e ce2f f53d f449 a9bd
000000c0: f53d 2c3d 6943 bb3c e3ab 3abe 1a15 92bc
000000d0: fca1 35bd 171b 7fbd 4933 af3d e634 273d
000000e0: cccb 6b3d e7f1 263d f5d8 e93d 796d c43d
000000f0: cc9d 4c3c 45d3 a23d a775 8a3d ec29 7abd
00000100: 34e1 9bbd d13f d3bc 64a9 8ebc b211 88bd
00000110: 0b7a eabc c692 83bc 5719 64bd def4 99bc
00000120: ca12 4cbd c6e9 3e3d e8b4 fd3d 6896 47be
00000130: 61c5 75be a6f5 ba3d 6233 e43c f7a6 dabc
00000140: 8aa4 823c 07bc e0bc bbc5 2abd 66e3 bdbb
00000150: af4e e7bc 893a 01bd 2309 90bd 0308 5abd
00000160: a3e6 c6bc 0daa a83b b2de 443d 2db2 b03d
00000170: c584 aa3c 5fc7 7d3d cdd0 0b3e 1e20 bc3d
00000180: 08b8 fe3c 2b44 853d b6d3 6f3d 5915 87bd
00000190: 0cff 45bd 3bd1 e73d 5563 24be 57d1 63be
000001a0: afec 853d 43d0 0d3d 9258 ef3c 4dff 473d
000001b0: 950b 18bd 3c66 dabd 9bfb c1bc 5b6a cebd
000001c0: f271 a3bd 74f4 edbc fd68 c03b 3330 abbd
000001d0: ebf6 2fbd 0f7c f43d 6dd7 3b3d 13ff 3c3b
000001e0: 7b85 0f3b 77b8 a63c a701 333d 765a 90bd
000001f0: c97c 07bd 4f80 7e3c 90f6 98bd c1f3 66bd
00000200: 46b2 df3a 27db e8bd 3d59 96bd 696e 5cbd
00000210: fb2f df3c a527 82bd 110f 613d 0f8d a83d
00000220: f05e 853d 1891 473d 18f2 c53d be53 2b3d
00000230: e94d 8abc 2df7 2f3c 404c 083c 6651 d43c
00000240: 9e6f c5bc 5092 a03b 1dc2 2e3d 242d 9abd
00000250: f6aa 9dbd b55a c2ba 5344 f2b9 b06e a1bd
00000260: c488 5d3c 3ea7 5abc c543 b33d 1600 883b
00000270: 1553 70bb eb11 e03d 99bf 603d ba05 12bd
00000280: 1c3e d5bc abbb d0ba ef40 47bd 453a 20bd
00000290: 5475 b8bd 0b98 8a3e 15d3 753e 6493 43bd
000002a0: 7189 febc cfc5 033b 87bd 39bd 3fdc 79bd
000002b0: 09cd 1abe c792 843c 1e5f edbd aa43 40be
000002c0: 26af bbbc 8c83 19bd 9f69 d9bc b7d5 b53d
000002d0: b17b 353d 6d58 8e3d f642 3a3b 1269 9a3c
000002e0: 8b50 e13d d4d4 99bb 6a3e 43bd 18ad 723c
000002f0: 235e 873c 8ed4 caba e280 05be a2cc c3bd
00000300: 532b 6cbb 0cac a4bd a1f7 cdbd 1e82 183c
00000310: 40ef 99bc 0d01 45bc 82b3 9f3c 557d cebd
00000320: bb32 983c d05d 22bd a542 c9bd 1d14 95bd
00000330: 69e5 f23c f121 a3bd d9c5 193c 2e18 4ebd
00000340: 1b9b 053c 14d6 233d 3697 21ba 9420 103e
00000350: 2e98 463d 42ee a93c 0c98 8c3c cea3 a43b
00000360: 6cab a8bd 381d 11bd a375 62bd 81c1 cc3a
00000370: 6c00 cbbd 5805 83bd 445d 8bbd bf56 633c
00000380: 3ef4 cdbc a1ee 763b 94b7 103d 9a0b 5abd
00000390: 0aef 633d c94e 283d c885 303d 2f2e 61bd
000003a0: cc00 95bd 01eb 86bd 6cd3 07bc 2fa9 0a3c
000003b0: 0a2f eabc 1b12 9d3d 1703 d23d 2840 b43d
000003c0: 6393 803d aad2 b9bc bc78 3dbc dd33 fc3b
000003d0: 7301 443d c963 d0bc 6c92 fdbc d56c d5bb
000003e0: 70d5 8c3c 4c75 2d3c 2321 3b3c 864a 6f3c
000003f0: 6af2 53be 27f8 ddbd c66f 06bc 2194 2dbe

sequences.4.bias f4 [36]
-0.00042372392 -0.03607343 -0.020562481 0.00979633 -0.056496955 -0.015472595 -0.037405156 -0.020555276
-0.056833886 -0.022784116 -0.047076494 -0.044575084 0.0059539652 -0.04151326 -0.0009629442 -0.05288653
-0.07781818 -0.0056257816 -0.065633126 -0.06695215 -0.08010824 -0.013582708 -0.01118237 -0.07156295
-0.026056968 -0.0047757383 -0.04530219 -0.0038505453 -0.044420138 -0.022011299 -0.059958726 -0.0044008903
-0.08649392 -0.07293741 -0.023733998 -0.065004624
00000000: 4327 deb9 bcc1 13bd a672 a8bc c980 203c
00000010: 5a69 67bd c480 7dbc 2636 19bd 8a63 a8bc
00000020: a6ca 68bd c1a5 babc 48d3 40bd 5d94 36bd
00000030: 7b19 c33b cf09 2abd 176e 7cba 8c9f 58bd
00000040: 235f 9fbd 7a58 b8bb a96a 86bd 351e 89bd
00000050: ca0f a4bd 028a 5ebc 4236 37bc 998f 92bd
00000060: 6c75 d5bc cc7d 9cbb ca8e 39bd 6e59 7cbb
00000070: e4f1 35bd 0a51 b4bc 4897 75bd 5835 90bb
00000080: b923 b1bd 3560 95bd cd6d c2bc 2521 85bd
